baselines/autoenc_basic/Weights/model_weights_AMASS1o2_i1o2.pth (torch, 104114 bytes, 12 tensors)

linear_relu_stack.0.weight f4 [50, 180]
0	0x3db0c3ac	0.086310714
1	0x3cb7022f	0.022339908
2	0xbda628d0	-0.08113253
3	0xbd6cca37	-0.057810035
4	0x3d0288b2	0.031868644
5	0xbd3a39a9	-0.045465145
6	0x3e7574d8	0.23970354
7	0xbe2e706e	-0.17035076
8	0xbcb51ba2	-0.022107903
9	0xbc31724b	-0.010830472
10	0x3d013c14	0.031551436
11	0xbcb771d2	-0.022393141
12	0xbccce1e8	-0.025010064
13	0xbc0349f1	-0.0080132345
14	0x3d4ee776	0.050513707
15	0xbd111243	-0.035417806
16	0xbd3e0fc6	-0.04640176
17	0xbc4a99ca	-0.012365768
18	0x3dd6bdae	0.10485397
19	0xba5e89a4	-0.0008489138
20	0x3c1b42b1	0.00947635
21	0x3d4fe1f8	0.05075261
22	0x3d779580	0.06044531
23	0xbdadc052	-0.08483948
24	0x3dc15fba	0.094420865
25	0x3cbe4e07	0.023230566
26	0xbc99e9b8	-0.018788204
27	0xbaaea3ae	-0.0013323927
28	0xbb5c0a1a	-0.0033575357
29	0xbc4b8638	-0.012422137
30	0xb88d32ca	-6.732864e-05
31	0xbd0e4cb8	-0.034741133
32	0xbd0153b0	-0.03157395
33	0xbd1401ae	-0.036134414
34	0x3d632770	0.055457532
35	0x3cf01b8e	0.029310014
36	0x3c8b0482	0.016969923
37	0x3d360cbd	0.044445742
38	0x3cc86803	0.02446366
39	0x3c0c4e69	0.008563616
40	0xbda79aab	-0.081837974
41	0x3d991f73	0.074767016
42	0xbd2922f7	-0.04129311
43	0x3d7584c0	0.059941053
44	0xbd157d4a	-0.036496438
45	0xbd085331	-0.033282463
46	0x3daba842	0.08381702
47	0xbc8fae77	-0.017539246
48	0x3d35ca34	0.04438229
49	0x3caaccc8	0.0208496
50	0xbd3b9275	-0.04579397
51	0x3e27a268	0.16370547
52	0xbd85d654	-0.065350205
53	0x3c32af56	0.010906061
54	0xbe3b9a24	-0.18320519
55	0x3cada719	0.021197842
56	0xbd28bcce	-0.041195683
57	0x3d76ee4c	0.06028585
58	0xbd41f43c	-0.04735206
59	0x3bd6434c	0.006538784
60	0x3dbf66a7	0.09345751
61	0x3d98a5c4	0.07453492
62	0x3cca37ee	0.024684872
63	0x3df31f85	0.11871246
64	0xbd30f915	-0.043206293
65	0x3dc17de4	0.0944784
66	0xbe5263e8	-0.20545924
67	0x3d304bf9	0.043041203
68	0x3d794880	0.060860157
69	0x3ca37406	0.019952785
70	0x3d0f20b8	0.034943312
71	0x3d20a430	0.03921908
72	0x3d8ecc57	0.069725685
73	0x3d8719a9	0.06596691
74	0xbd83124f	-0.063999765
75	0x3e468aca	0.19388881
76	0xbdf086e0	-0.11744475
77	0xbcf153fa	-0.029458988
78	0xbe2fdfa7	-0.1717516
79	0x3cf91d5e	0.030409511
80	0x3c78646e	0.015160663
81	0xbc9e24f4	-0.01930473
82	0xbd012e77	-0.031538453
83	0x3dc0717c	0.093966454
84	0x3d49ed76	0.049298726
85	0xbc94ab64	-0.018148132
86	0xbc8c945e	-0.01716059
87	0x3dd6a09c	0.104798526
88	0xbc776e18	-0.015101932
89	0x3d55a442	0.0521586
90	0xbdb7a024	-0.08966091
91	0xbd814c1d	-0.063133456
92	0x3c4fee5a	0.012691105
93	0xbcba8c0b	-0.022771856
94	0xbd0da89a	-0.03458462
95	0x3dcc88e2	0.09987046
96	0x3d5b9359	0.05360732
97	0x3d84e96f	0.064898364
98	0xbc8d1037	-0.017219646
99	0x3d2ce88b	0.042213958
100	0xbd46f351	-0.04857189
101	0x3d80d708	0.06291014
102	0x3c9a4af6	0.018834572
103	0xbe1d92d0	-0.15388036
104	0xbd76ce62	-0.060255416
105	0xbc69923d	-0.014256057
106	0x3d5d6c80	0.05405855
107	0x3d6057fb	0.054771405
108	0x3da9ad81	0.08285046
109	0xbd7a33db	-0.06108461
110	0x3cf786f9	0.030215727
111	0x3d94ca50	0.072651505
112	0x3cc16532	0.023607824
113	0xbc8f1109	-0.017464178
114	0x3d228c28	0.039684445
115	0xbe41fc8d	-0.18943997
116	0xbd0a97ec	-0.03383629
117	0xbca7d58b	-0.020487567
118	0x3d7a8285	0.06115963
119	0x3d224006	0.03961184
120	0xbd464453	-0.048405003
121	0x3d62003b	0.055176
122	0xbc22d684	-0.00993884
123	0xbca5dee8	-0.020247892
124	0x3d06aaa5	0.032877583
125	0xbd99d843	-0.07511952
126	0x3da65adf	0.08122801
127	0xbe91122d	-0.2833418
128	0xbd876507	-0.06611066
129	0x3c687076	0.014186969
130	0x3d20a45d	0.03921925
131	0x3db39a5a	0.087696746
132	0xbbec3df4	-0.007209534
133	0x3d8fbd8c	0.07018575
134	0x3cbb51a9	0.022866087
135	0xbc6ac652	-0.01432951
136	0xbd0b6658	-0.03403315
137	0xbdb3f51c	-0.08786985
138	0x3e292977	0.16519724
139	0xbe3bccc7	-0.18339835
140	0xbddc871a	-0.10767956
141	0xbdfce4d3	-0.12348332
142	0xba41106c	-0.0007364813
143	0x3d89e468	0.06733018
144	0xbdca8039	-0.09887738
145	0x3d61c7b8	0.055122107
146	0xbd8aea64	-0.06782988
147	0x3d024c4b	0.03181104
148	0x3b87996e	0.0041381633
149	0xbe507b92	-0.20359638
150	0x3d8982ce	0.06714402
151	0xbe085e6d	-0.1331727
152	0xbd9b541e	-0.075844035
153	0xbdb1c325	-0.08679799
154	0x3d029d29	0.03188816
155	0x3d2c669c	0.042090043
156	0xbd89743b	-0.06711622
157	0xbd40761c	-0.046987638
158	0x3bcec52c	0.006310126
159	0x3bfdd82e	0.007746718
160	0xbe090fa1	-0.13384868
161	0xbe6212b2	-0.22077444
162	0xbe0af81a	-0.13571206
163	0x3ea569ef	0.32307383
164	0x3c46c70d	0.012132418
165	0xbe5d6045	-0.21618755
166	0xbd4f7133	-0.050645065
167	0xbd0f5fd1	-0.035003487
168	0xbe49fd87	-0.1972562
169	0x3cdc4a64	0.026890941
170	0xbd706ab5	-0.058695514
171	0x3e6cf710	0.23141122
172	0xbeb4efc2	-0.3533917
173	0xbeb1f50b	-0.34757265
174	0xbee983ef	-0.4560847
175	0x3f6893de	0.9085063
176	0xbd7ac943	-0.061227094
177	0xbeb9e393	-0.36306438
178	0xbddad059	-0.106842704
179	0xbcdb5471	-0.026773663
180	0xbcb59256	-0.022164505
181	0x3d72c12d	0.059266258
182	0xbd9e7c71	-0.07738579
183	0xbce65d34	-0.028120615
184	0x3bfbea1f	0.0076878215
185	0xbdf87d70	-0.121333
186	0xbd02c889	-0.031929526
187	0x3cc9a7d5	0.024616161
188	0xbd4c9839	-0.04994986
189	0xbdcb9ee5	-0.09942416
190	0xbb442e2f	-0.0029934754
191	0xbe539550	-0.20662427
192	0xbd06e38f	-0.03293186
193	0x3c180131	0.009277628
194	0x3c7e4086	0.015518313
195	0x3d0a294b	0.033730786
196	0xbd2119ee	-0.03933137
197	0xbce33e8e	-0.02773979
198	0xbd793952	-0.06084568
199	0xbb340c3f	-0.002747312
200	0xbdc2b0e2	-0.09506394
201	0xbcf09248	-0.029366627
202	0x3d0b136c	0.03395407
203	0xbd7c2715	-0.06156071
204	0x3d35324e	0.044237427
205	0xbd986977	-0.07441991
206	0xbde41b45	-0.11138014
207	0x3cb0453a	0.021517385
208	0x3d5f81d9	0.05456719
209	0x3d0ebb3f	0.03484654
210	0xbd9c9af3	-0.07646742
211	0xbd52ba94	-0.051447466
212	0x3d811676	0.06303112
213	0xbd111c1c	-0.035427198
214	0xbd607b13	-0.054804873
215	0xbe34e292	-0.17664555
216	0x3b30a0ef	0.0026951393
217	0x3d0d5af3	0.034510564
218	0x3c249fee	0.010047896
219	0x3b3d8728	0.002891967
220	0x3d1bcab0	0.038035095
221	0xbca5b477	-0.020227654
222	0x3d341bf0	0.043971956
223	0x3d9bf88a	0.076157644
224	0x3d0e949e	0.0348097
225	0xbc278a03	-0.010225776
226	0xbc73e7cf	-0.01488681
227	0xbe005813	-0.12533598
228	0x3d2f50cb	0.04280166
229	0x3cd16f87	0.025565876
230	0xbdfdadc7	-0.12386661
231	0xbd808742	-0.062757984
232	0xbd725397	-0.05916175
233	0xbd8c12f3	-0.06839552
234	0xbcdfeac6	-0.027333628
235	0xbd2ff619	-0.042959306
236	0x3d04afcb	0.03239421
237	0xbd8217c0	-0.06352186
238	0xbc80a430	-0.01570329
239	0xbdb6bda4	-0.0892289
240	0x3cfb9233	0.030709362
241	0xbd494c68	-0.049145132
242	0xbd1c9e57	-0.038236942
243	0x3d69f2c4	0.057116285
244	0x3d089813	0.033348154
245	0x3d6b12c9	0.05739096
246	0x3ae45dc8	0.0017422969
247	0x3d6c0b40	0.057627916
248	0xbca86b79	-0.02055906
249	0x3cfda97e	0.03096461
250	0x3d6d572e	0.05794447
251	0xbdf6844e	-0.12036954
252	0xbd7c6b39	-0.061625693
253	0x3d87b1f8	0.06625742
254	0xbddc3149	-0.10751588
255	0x3d76f372	0.06029076

linear_relu_stack.0.bias f4 [50]
0	0x3d0104c1	0.031498674
1	0xbd9919f9	-0.07475657
2	0x3d00a80e	0.03141027
3	0x3e173afa	0.14768592
4	0xbda7e700	-0.08198357
5	0xbe783208	-0.24237835
6	0xbe5c8f03	-0.2153893
7	0x3eb4043d	0.35159484
8	0x3efb0c57	0.49032852
9	0xbd1178b5	-0.035515506
10	0x3e52a129	0.2056929
11	0x3e704370	0.23463225
12	0x3ee73eac	0.45165002
13	0x3ee441d3	0.4458147
14	0xbc3f3c9c	-0.011672165
15	0x3d18234a	0.03714303
16	0xbd451b83	-0.04812194
17	0xbe23fd04	-0.16014487
18	0x3dfecc2c	0.124412864
19	0x3e2cbc43	0.16868691
20	0x3e69733b	0.22797863
21	0x3e6fe834	0.23428422
22	0x3ea63ebf	0.32469746
23	0x3c10cabe	0.0088374
24	0x3f15c48b	0.58503026
25	0x3dfeee50	0.12447798
26	0x3e2008d0	0.15628362
27	0x3e9c18f5	0.3048779
28	0x3ea0b1d7	0.3138568
29	0x3e2a957e	0.16658589
30	0x3e31e390	0.17371964
31	0x3d06d8c4	0.032921568
32	0xbdae06d4	-0.08497396
33	0xbd856c1d	-0.065147616
34	0x3d222adf	0.039591666
35	0xbd340fa8	-0.043960243
36	0xbc6ff3f0	-0.014645562
37	0x3f0d2638	0.5513644
38	0x3f2b6518	0.6695113
39	0xbe4dcd43	-0.20097832
40	0xbe7c6713	-0.24648695
41	0xbd9e50e1	-0.0773027
42	0x3ea11032	0.3145767
43	0x3dbc9cdf	0.09209608
44	0xbdbaac46	-0.0911489
45	0x3eab731e	0.33486265
46	0x3d78b93b	0.060723525
47	0x3d8bc7b1	0.068251975
48	0x3db84a29	0.0899852
49	0x3f080d0b	0.531449

linear_relu_stack.2.weight f4 [40, 50]
0	0x3d906286	0.07050042
1	0x3dc6f696	0.09715001
2	0xbdd3292a	-0.10310586
3	0x3e783cf1	0.24241997
4	0x3d66d842	0.056358583
5	0xbe63faa8	-0.22263587
6	0xbe36dd96	-0.17857966
7	0x3b9d75f8	0.0048053227
8	0x3ac92d48	0.0015348578
9	0xbcc334eb	-0.023828944
10	0xbc1561ab	-0.009117524
11	0x3e453ab1	0.1926067
12	0x3e324af4	0.17411405
13	0x3e202537	0.15639196
14	0x3d589bc0	0.05288291
15	0xbc3fc77a	-0.011705274
16	0x3dbd1ddb	0.0923421
17	0xbd8444cb	-0.06458434
18	0x3e263acc	0.16233367
19	0xbc715406	-0.014729505
20	0xbe3f98e7	-0.18710671
21	0xbd968246	-0.073490664
22	0x3c32bed3	0.010909754
23	0xbe1abae5	-0.15110357
24	0xbe4d708e	-0.20062467
25	0x3cfa49f0	0.030552834
26	0x3cab3bf1	0.020902606
27	0xbdb0933d	-0.086218335
28	0x3e8941a0	0.2680788
29	0xbcea311b	-0.028587868
30	0xbd472b80	-0.04862547
31	0xbd577fdf	-0.05261218
32	0xbdcd8bda	-0.1003644
33	0xbc23b57b	-0.009991999
34	0xbd0c591b	-0.034264665
35	0x3d87b44f	0.06626188
36	0xbd0a1196	-0.033708178
37	0x3e8a3692	0.2699476
38	0x3df710ef	0.12063777
39	0xbd0db67d	-0.034597863
40	0x3e3be74b	0.1834995
41	0x3d83744b	0.064186655
42	0x3d89113b	0.066927396
43	0x3b1e6bd2	0.0024173153
44	0xbe1832f7	-0.14863192
45	0xbe540832	-0.20706251
46	0xbd965db7	-0.073420934
47	0x3d9f8bad	0.07790313
48	0x3e38c550	0.18044019
49	0x3d066235	0.0328085
50	0x3e6e9f6c	0.23303002
51	0x3d3bf100	0.045884132
52	0xbe5d4224	-0.21607262
53	0xbdf746ba	-0.12074037
54	0xbc9c707b	-0.019096604
55	0xbe97d117	-0.2965171
56	0xbd033309	-0.032031093
57	0xbcfbc34a	-0.03073277
58	0xbd6b0c66	-0.05738487
59	0x3d78bdb6	0.060727797
60	0xbd71423a	-0.05890105
61	0xbc799231	-0.015232609
62	0x3b7ffd14	0.0039060758
63	0x3db0323d	0.08603332
64	0x3dceccad	0.100976326
65	0x3e13875e	0.14407107
66	0x3e906674	0.28203166
67	0xbdee8f9b	-0.11648484
68	0xbe9f778d	-0.31145898
69	0x3e587b4e	0.21140787
70	0x3d9491c7	0.07254367
71	0x3d8aa956	0.067705795
72	0x3dc78d73	0.09743776
73	0x3e3dfb8f	0.18552993
74	0xbe759b14	-0.23984939
75	0xbe44c59a	-0.19216004
76	0x3ba8b609	0.0051486534
77	0xbef5b6fe	-0.47991174
78	0x3d0fd2f3	0.035113286
79	0xbd17921f	-0.037004586
80	0x3e94da84	0.29072964
81	0x3d517b19	0.051142786
82	0xbd2b3186	-0.041795276
83	0xbd8a9cfa	-0.06768222
84	0xbd44053e	-0.04785656
85	0x3e196668	0.14980471
86	0xbe39b2a9	-0.1813456
87	0xbd799004	-0.06092836
88	0xbee7b675	-0.4525639
89	0x3d179f20	0.037016988
90	0xbb4fd1cb	-0.003171074
91	0xbd1ca572	-0.03824372
92	0x3e2c4672	0.16823748
93	0x3e89bbc3	0.26901063
94	0x3daaf13a	0.083467916
95	0xbe0cc234	-0.13745958
96	0x3db0ca60	0.0863235
97	0x3e5868c6	0.21133718
98	0x3e491107	0.19635402
99	0x3e7e23fb	0.24818413
100	0x3d716cee	0.058941774
101	0x3e37875d	0.1792273
102	0xbccb9b88	-0.024854437
103	0xbe2e227e	-0.17005345
104	0x3df03584	0.11728957
105	0xbd6089fd	-0.054819096
106	0x3da8fc2b	0.08251222
107	0x3e14e35c	0.14539856
108	0xbbf15245	-0.0073645436
109	0xbd66e909	-0.056374583
110	0x3ca285b1	0.01983914
111	0x3e18cca8	0.1492182
112	0x3d55e873	0.052223634
113	0xbd0ee098	-0.034882158
114	0x3d8d50df	0.069001906
115	0x3dfce7b6	0.12348883
116	0xbcdcfdda	-0.026976515
117	0xbc99d6fc	-0.01877927
118	0x3cc36eff	0.023856638
119	0x3d915183	0.07095625
120	0x3e2d41d9	0.1691965
121	0xbe805dfc	-0.25071704
122	0x3e874c1d	0.26425257
123	0xbd15d50d	-0.036580134
124	0xbd4dd949	-0.050256047
125	0x3e0f1530	0.13972926
126	0x3bacd666	0.0052745817
127	0xbe156810	-0.14590478
128	0xbe51fd04	-0.20506674
129	0x3dd2948a	0.10282238
130	0x3da51535	0.080606855
131	0x3c527f24	0.0128476955
132	0x3c1ece8d	0.0096928
133	0x3dad9d0c	0.0847722
134	0x3e74030c	0.23829287
135	0x3dd889af	0.10573136
136	0xbd2b34f7	-0.041798558
137	0xbde048b4	-0.10951367
138	0xbbca48e3	-0.0061732396
139	0x3d8fc0ff	0.07019233
140	0xbe5b2a18	-0.21402776
141	0xbd96500e	-0.07339488
142	0x3ec39d57	0.38205978
143	0x3d8bb198	0.06820983
144	0xbd8f5994	-0.069995075
145	0x3be40532	0.006958627
146	0x3d631fb7	0.055450168
147	0xbcaf4d35	-0.02139912
148	0xbdbe2043	-0.09283497
149	0x3e834bd0	0.25643778
150	0x3cf4df4d	0.029891634
151	0xbd17dfa5	-0.03707852
152	0xbd288bb5	-0.04114886
153	0x3d804594	0.06263271
154	0x3e99a50b	0.3000873
155	0x3b05ca7a	0.0020414875
156	0xbe992f9f	-0.29919145
157	0xbd97c220	-0.07410073
158	0x3e9f9f19	0.3117607
159	0x3e580c99	0.21098556
160	0x3daacf16	0.0834028
161	0x3cd9e7af	0.026599733
162	0x3e16a203	0.1471024
163	0xbd9b0254	-0.075688034
164	0xbd2601e3	-0.040529143
165	0x3e98f09e	0.29871076
166	0xbe1ae859	-0.15127696
167	0xbdcf3535	-0.1011757
168	0x3e16b7a9	0.14718498
169	0x3e576b93	0.2103713
170	0xbe041c84	-0.12901503
171	0x3e59b06a	0.21258703
172	0xbe753ab4	-0.23948175
173	0x3d9af4e5	0.07566241
174	0x3e6ae815	0.22940095
175	0xbe6d7622	-0.23189595
176	0x3eb4c838	0.35309005
177	0xbe13f821	-0.14450122
178	0x3ddd5862	0.10807873
179	0xbe0dfc1a	-0.138657
180	0x3e0aaf48	0.13543427
181	0xbd99ed5d	-0.075159766
182	0x3d5a5891	0.05330712
183	0xbe3d6fe2	-0.18499711
184	0x3d1d56cc	0.038412854
185	0x3d079be7	0.033107664
186	0x3d2f01b9	0.042726252
187	0x3e946820	0.2898569
188	0x3e26fd5b	0.16307585
189	0x3e14e0f8	0.14538944
190	0xbe47f251	-0.1952603
191	0xbe921cf8	-0.28537726
192	0x3e6c7af2	0.23093775
193	0x3de613b1	0.112342246
194	0xbc83ca0e	-0.016087558
195	0x3df04e17	0.117336445
196	0x3d87bde1	0.066280134
197	0xbd948dc1	-0.072536
198	0xbe33c449	-0.17555346
199	0xbe868373	-0.26272163
200	0x3e04c2b9	0.12964906
201	0x3e147ee6	0.14501533
202	0x3dc77cf1	0.097406276
203	0x3d5d2433	0.0539896
204	0xbcb4e811	-0.022083314
205	0xbecdb3de	-0.4017629
206	0xbe2cc742	-0.16872886
207	0x3d68390d	0.056695033
208	0x3d445483	0.04793216
209	0x3d31d576	0.043416463
210	0x3d1267d9	0.035743568
211	0xbe2b72fb	-0.1674308
212	0x3c2975c2	0.010343017
213	0x3e717ab7	0.23581968
214	0xbd26aa3e	-0.0406897
215	0xbccc5871	-0.024944516
216	0xbd11e15c	-0.03561531
217	0xbe10d850	-0.14145017
218	0xbe4db091	-0.20086886
219	0xbc95e026	-0.018295359
220	0x3e094bce	0.13407823
221	0x3e18309d	0.14862294
222	0xbe24193d	-0.16025253
223	0x3e110753	0.1416295
224	0xbe174af1	-0.14774682
225	0x3aa37f62	0.0012473876
226	0xbe5e433e	-0.21705338
227	0xbe8e7c7c	-0.2782935
228	0xbd507401	-0.05089188
229	0x3c8666e0	0.016406476
230	0x3dc4524c	0.095860094
231	0xbc9aa5f9	-0.01887797
232	0xbe4f2889	-0.20230307
233	0x3ad5a748	0.0016300464
234	0x3e94e2ac	0.29079187
235	0x3e840007	0.2578127
236	0xbd672f7c	-0.05644177
237	0x3ba28698	0.0049598925
238	0x3d62e00f	0.05538946
239	0xbd8e170d	-0.0693799
240	0xbe5e2e0c	-0.21697253
241	0xbde4d68f	-0.11173736
242	0x3c8b9ff8	0.017044052
243	0x3e277ad2	0.16355446
244	0xbda1fe28	-0.079098046
245	0xbe57fb69	-0.21091999
246	0xbc73e444	-0.014885966
247	0x3e62a1d9	0.22132052
248	0x3d4b9d6b	0.049710672
249	0x3efead42	0.4974156
250	0x3ce17123	0.027519768
251	0x3e17b1d8	0.14813936
252	0xbd8e07b5	-0.06935064
253	0xbe0058be	-0.12533852
254	0xbe283dca	-0.1642982
255	0xbdbac272	-0.09119119

linear_relu_stack.2.bias f4 [40]
0	0x3d552a6b	0.052042406
1	0x3e502550	0.20326734
2	0x3e18829f	0.14893578
3	0x3df5f88f	0.120102994
4	0x3d664630	0.05621928
5	0x3d6bc906	0.057564758
6	0xbdffc19d	-0.12488101
7	0xbe259aa7	-0.16172276
8	0x3e58f2b3	0.21186332
9	0x3d6af01a	0.057357885
10	0xbc657083	-0.014003876
11	0x3e6ee22b	0.23328464
12	0xbd995d8e	-0.07488547
13	0x3e14980a	0.14511123
14	0x3cf2b2e1	0.029626312
15	0x3e97b2ee	0.296287
16	0x3bcad284	0.006189646
17	0xbe87c4c3	-0.26517305
18	0xbd8e1a2c	-0.06938586
19	0x3df4f2ce	0.11960374
20	0xbc8796fa	-0.016551483
21	0x3d8cc446	0.06873374
22	0x3e04024b	0.128915
23	0xbddf74a0	-0.10910916
24	0x3e2f9c9b	0.17149584
25	0x3e6db369	0.23212971
26	0x3dae411b	0.08508512
27	0x3d934f2d	0.07192836
28	0xbeae75b9	-0.3407419
29	0x3e31a0e2	0.17346528
30	0x3c331dc1	0.010932387
31	0xbd7b7af3	-0.06139655
32	0xbc6e48e7	-0.014543748
33	0x3eb0a497	0.34500572
34	0xbd83938f	-0.06424629
35	0x3d83fe86	0.06445031
36	0xbe63530a	-0.22199646
37	0x3e463576	0.19356331
38	0xbdd01051	-0.10159362
39	0xbdf63263	-0.12021329

linear_relu_stack.4.weight f4 [30, 40]
0	0x3dfa8b40	0.12233591
1	0xbd67e7ff	-0.056617733
2	0xbe94fc41	-0.29098704
3	0x3f04ac77	0.5182566
4	0xbe29651b	-0.16542475
5	0x3deb6212	0.11493315
6	0xbe10f2eb	-0.14155166
7	0x3e9a2e87	0.30113623
8	0x3e990281	0.29884723
9	0x3eb160d2	0.3464418
10	0x3dd730bd	0.10507343
11	0x3d0e1fab	0.03469817
12	0xbd992455	-0.07477633
13	0xbddd7f55	-0.10815302
14	0x3c52189c	0.01282325
15	0xbe2e5437	-0.17024313
16	0xbd694f34	-0.0569603
17	0xbda75849	-0.08171136
18	0xbcce9831	-0.025219055
19	0x3d8132a0	0.06308484
20	0xbe80ae0a	-0.2513278
21	0x3e706399	0.23475493
22	0xbe434ac0	-0.19071484
23	0x3e6118d0	0.21982121
24	0xbe0fb558	-0.14034021
25	0xbcb4121b	-0.02198129
26	0x3d869065	0.0657051
27	0x3e10e64b	0.1415035
28	0x3d762f6e	0.060103826
29	0x3cec4436	0.02884112
30	0x3d388cfb	0.045056324
31	0xbdac4af7	-0.08412736
32	0x3e1e0e01	0.1543503
33	0xbe52276f	-0.20522855
34	0xbc6c82b6	-0.014435461
35	0x3e5c38fa	0.2150611
36	0x3dae1f42	0.08502056
37	0xb89080a5	-6.890417e-05
38	0xbdc8269a	-0.09772988
39	0xbda1641c	-0.078804225
40	0xbdba8b5a	-0.091086105
41	0x3c88aa5e	0.0166828
42	0x3d5fd6a7	0.054648068
43	0x3d9275c5	0.07151369
44	0x3d632274	0.05545278
45	0xbdfb680e	-0.12275706
46	0x3d3c844b	0.046024602
47	0xbdd61082	-0.10452367
48	0x3de118dc	0.1099107
49	0x39ac91e5	0.00032915096
50	0x3be86afa	0.0070928307
51	0xbdc5920a	-0.09646995
52	0xbe13ff3e	-0.14452836
53	0x3ddebdeb	0.10876068
54	0x3d2b7f62	0.04186953
55	0x3d9d6591	0.07685388
56	0xbc57d8b8	-0.013174228
57	0x3dc298ee	0.09501825
58	0xbb0513af	-0.0020305922
59	0xbc0c0a52	-0.008547382
60	0xbe0a01c5	-0.13477238
61	0xbe1feafd	-0.15616985
62	0x3c56c15f	0.013107627
63	0xbe0306dd	-0.12795587
64	0x3b1e3ae0	0.002414398
65	0xbd9936c1	-0.074811466
66	0x3da6c99e	0.08143924
67	0x3d7aa35e	0.061190955
68	0x3d6540dc	0.055970058
69	0xb94b1887	-0.00019368726
70	0x3e050c71	0.12993027
71	0xbe072da6	-0.13201007
72	0xbda81a60	-0.08208156
73	0xbd58e5ee	-0.052953653
74	0xbc809a74	-0.015698649
75	0x3d84273c	0.06452796
76	0x3e1a39be	0.1506109
77	0x3d403384	0.04692413
78	0xbd1045fb	-0.03522299
79	0x3e0f613b	0.14001934
80	0xbe3158b5	-0.17318995
81	0xbe1e2175	-0.1544245
82	0x3e81cc7d	0.25351325
83	0xbd9a6777	-0.075392656
84	0xbdc6edee	-0.0971335
85	0x3d1bf5f6	0.038076364
86	0x3cc5ad7b	0.024130573
87	0x3cc3b2ff	0.023889063
88	0xbd7a27a9	-0.06107298
89	0x3e19a1c8	0.15003121
90	0xbe081156	-0.13287863
91	0xbd3536ef	-0.044241842
92	0xbe190850	-0.14944577
93	0x3e0af47d	0.13569827
94	0x3cf106f4	0.02942226
95	0xbe1aa073	-0.15100269
96	0x3d2e31c2	0.04252792
97	0xbeacd4fa	-0.33756238
98	0x3e74b917	0.23898731
99	0x3e7b5658	0.24544656
100	0x3e279c4b	0.16368215
101	0xbd6d8d5d	-0.057996143
102	0x3d9b3336	0.07578127
103	0x3e053b63	0.13010935
104	0xbe86ec8f	-0.26352355
105	0xbd7c91b8	-0.061662406
106	0x3e2a18cc	0.16611022
107	0x3da3c881	0.079972275
108	0xbe90211b	-0.28150257
109	0x3eb3fc9c	0.35153663
110	0xbe353928	-0.17697585
111	0xbe09b664	-0.13448483
112	0x3e04edfd	0.1298141
113	0x3e9bac21	0.3040476
114	0xbe4ac205	-0.19800575
115	0x3cd45a1d	0.025921876
116	0xbd727bc4	-0.059200063
117	0xbdb6ea51	-0.08931411
118	0xbde5bb40	-0.11217356
119	0x3cbf6e24	0.023367949
120	0xbe83c93d	-0.2573947
121	0x3c9ca456	0.01912133
122	0xbd91a0f0	-0.071107745
123	0xbecf017f	-0.4043083
124	0xbe43a007	-0.19104014
125	0x3c935321	0.017983975
126	0xbd09a8e6	-0.03360834
127	0x3d854f3f	0.065092556
128	0xbded9897	-0.1160137
129	0x3e72c31d	0.23707242
130	0x3e9369da	0.28791696
131	0x3db47676	0.08811657
132	0x3e83ac8f	0.2571759
133	0xbb1b1d34	-0.002366853
134	0xbe4657fe	-0.19369504
135	0x3e63bd42	0.22240165
136	0xbda3a20b	-0.079898916
137	0xbd8048ba	-0.062638715
138	0x3eb18613	0.34672603
139	0x3e327d1d	0.1743054
140	0xbe773042	-0.24139503
141	0xbe85667a	-0.26054746
142	0xbe1de0d0	-0.1541779
143	0x3d735901	0.059411053
144	0x3cc82ff0	0.02443692
145	0x3e0879c4	0.133277
146	0xbe851951	-0.25995877
147	0x3e014d23	0.12627082
148	0xbe45fb5a	-0.19334164
149	0x3d75edcc	0.060041234
150	0x3d73efb7	0.05955478
151	0xbdd9df99	-0.10638351
152	0xbe1e00ee	-0.15430042
153	0x3e447223	0.19184165
154	0x3eca4591	0.395062
155	0x3d91d9d8	0.071216285
156	0xbce4ef4f	-0.027946142
157	0x3d3d94d2	0.046284504
158	0x3da329a6	0.07966928
159	0xbd46e0b0	-0.048554122
160	0x3c076c60	0.008265585
161	0x3ebefe3a	0.37303334
162	0xbdbebffd	-0.093139626
163	0x3c0e1a0b	0.008673201
164	0x3b9c5b08	0.004771594
165	0xbcb4ea2b	-0.022084316
166	0xbe26a18e	-0.16272566
167	0x3e311b34	0.17295533
168	0x3da2cbaf	0.07949006
169	0x3d7c13ea	0.06154243
170	0xbe5e3db8	-0.21703231
171	0x3e17f130	0.148381
172	0xbe598c3d	-0.21244903
173	0x3eb5eca3	0.35532102
174	0xbe3232e1	-0.17402221
175	0x3e13f906	0.14450464
176	0x3e157665	0.14595945
177	0x3e853fa8	0.26025128
178	0xbe6c3801	-0.23068239
179	0x3a0e9026	0.000543835
180	0x3dfe6726	0.12422018
181	0x3e14cd13	0.14531355
182	0xbcf1b09f	-0.029503165
183	0x3c85ccf6	0.016333085
184	0xbbbd1606	-0.0057704477
185	0x3e706d2c	0.23479146
186	0x3e9a6016	0.30151433
187	0xbd2143a0	-0.039371133
188	0xbe1a8292	-0.15088871
189	0x3b21c21a	0.0024682344
190	0xbc554789	-0.013017544
191	0x3e0c236e	0.1368539
192	0x3ed1dd6f	0.40989253
193	0x3d4efcd9	0.050534103
194	0xbe455fe4	-0.1927486
195	0xbe000b92	-0.12504414
196	0x3e1c904a	0.15289417
197	0xbdd27748	-0.10276657
198	0xbd959a62	-0.07304837
199	0x3e080426	0.13282833
200	0xbebf9262	-0.3741637
201	0x3ca95707	0.02067138
202	0x3e9cb40d	0.30606118
203	0xbe41b39b	-0.1891617
204	0x3e75ea21	0.24015094
205	0xbe22a12c	-0.15881795
206	0xbd299743	-0.04140402
207	0xbc856f34	-0.016288377
208	0x3d6231c5	0.055223245
209	0xbe315908	-0.17319119
210	0x3d3e1db1	0.046415035
211	0xbd936d82	-0.07198621
212	0x3d727772	0.059195943
213	0x3e562d3c	0.20915693
214	0xbb479f11	-0.0030459801
215	0xbcce1a75	-0.0251591
216	0xbcfe951d	-0.031076962
217	0x3ded5717	0.11588877
218	0xbda75012	-0.08169569
219	0xbedadb01	-0.42745212
220	0xbd9f1e9c	-0.0776951
221	0xbd82da23	-0.063892625
222	0xbdaff9d6	-0.08592574
223	0x3d3155aa	0.043294586
224	0x3e2beca4	0.1678949
225	0x3e96a0c2	0.29419523
226	0x3de07f02	0.10961725
227	0xbd0e0b3a	-0.034678675
228	0x3b8d402e	0.0043106293
229	0x3ebd32f4	0.36952937
230	0x3dc9c650	0.09852278
231	0xbe9ab464	-0.30215752
232	0xbce124ee	-0.02748343
233	0x3e8d3352	0.27578217
234	0xbe2c04ac	-0.16798657
235	0xbd36d092	-0.044632502
236	0x3d856319	0.06513042
237	0xbd27a57e	-0.04092931
238	0xbcedb773	-0.02901814
239	0x3d963688	0.0733462
240	0xbc2db838	-0.010603003
241	0xbcda7b2a	-0.026670057
242	0x3e3a0c24	0.18168694
243	0xbd94ef5f	-0.07272219
244	0x3d444b4d	0.047923375
245	0xbaf5f8ad	-0.0018766128
246	0x3d348742	0.044074304
247	0xbe07318c	-0.13202494
248	0xbe135f96	-0.14391932
249	0x3e03d144	0.12872797
250	0x3dd36e18	0.10323733
251	0xbd0aa092	-0.033844538
252	0xbcdcbb7d	-0.02694487
253	0x3e297aba	0.16550723
254	0x3eaae495	0.3337752
255	0x3e34aeb0	0.17644763

linear_relu_stack.4.bias f4 [30]
0	0xbeb17918	-0.346627
1	0xbe52f44a	-0.20601001
2	0x3e243819	0.16037025
3	0xbea19698	-0.31560206
4	0x3e8cfde8	0.27537465
5	0xbdd49e1f	-0.10381722
6	0x3d8cce68	0.06875306
7	0x3dc382d4	0.09546438
8	0x3e84a2d0	0.25905466
9	0xbd2e5f0b	-0.04257111
10	0x3dfda3c6	0.12384753
11	0x3e3007ae	0.1719043
12	0x3e1d9b74	0.15391332
13	0xbd9f19a6	-0.07768564
14	0x3d3bac61	0.04581869
15	0x3c62caa3	0.013842258
16	0x3e223652	0.15841034
17	0x3e94d29f	0.2906694
18	0xbdb48ae9	-0.088155575
19	0xbe52626f	-0.20545362
20	0x3e97dd00	0.29660797
21	0x3e8c6620	0.27421665
22	0x3d49b71f	0.049246904
23	0xbd09e8a5	-0.033669133
24	0xbe094d6a	-0.13408437
25	0x3b34cdf7	0.0027588585
26	0x3e04c467	0.12965547
27	0x3d14e6ea	0.03635303
28	0xbd9b880b	-0.075943075
29	0x3c0e6e94	0.008693356

linear_relu_stack.6.weight f4 [40, 30]
0	0xbdcd0adb	-0.10011836
1	0xbd28b580	-0.041188717
2	0xbe0511ed	-0.1299512
3	0xbd1dcd52	-0.038525887
4	0x3dbfb64e	0.09360944
5	0xbe335555	-0.1751302
6	0x3e250a38	0.1611718
7	0x3ec7eca6	0.39047736
8	0x3de0e450	0.10981047
9	0x3dca586b	0.09880146
10	0x3d33e010	0.043914855
11	0xbe994cde	-0.29941458
12	0xbe7ebf08	-0.2487756
13	0x3b5f13bb	0.003403886
14	0xbdfca534	-0.123361975
15	0xbe239954	-0.15976459
16	0xbe867ecd	-0.26268616
17	0x3dfe4834	0.124161154
18	0x3e020a55	0.12699254
19	0xbdb177da	-0.08665438
20	0xbe7d39a3	-0.24729018
21	0xbda25747	-0.07926803
22	0xbe04ba60	-0.12961721
23	0xbe3af0d3	-0.1825593
24	0xbe360ab6	-0.17777523
25	0xbdb9675b	-0.090529166
26	0xbdb58dbe	-0.08864926
27	0xbdc775f8	-0.09739298
28	0xbe16bc44	-0.14720255
29	0xbe07bc59	-0.13255443
30	0x3dd44c64	0.10366133
31	0xbd9a20bc	-0.07525775
32	0xbcc98b0f	-0.024602441
33	0xbe0d9856	-0.13827643
34	0xbcc55a73	-0.024090981
35	0x3e23f3f3	0.16011028
36	0x3dbc51f4	0.09195319
37	0x3dc4832c	0.095953315
38	0xbe3f198b	-0.18662088
39	0xbe241f30	-0.16027522
40	0xbd698694	-0.05701311
41	0x3de340c0	0.110963345
42	0xbd7c4e98	-0.06159839
43	0x3dc83bcb	0.097770296
44	0x3d9aadd3	0.075526856
45	0xbd0d5f9e	-0.034515016
46	0xbdffb84e	-0.12486325
47	0xbd134995	-0.035958845
48	0x3dd6bfdb	0.10485812
49	0x3d6ec48c	0.05829291
50	0x3ddd1444	0.10794881
51	0xbe15e24b	-0.14637105
52	0xbd77a5a4	-0.0604607
53	0xbde3bca8	-0.11119968
54	0xbe0d9710	-0.13827157
55	0xbd1216b9	-0.0356662
56	0x3c83e27e	0.01609921
57	0x3d9946d3	0.07484212
58	0xbe3a0b57	-0.18168388
59	0x3e171b36	0.14756474
60	0xbd6873c4	-0.056751028
61	0xbe39067e	-0.18068883
62	0x3db0de34	0.08636132
63	0x3e21fc80	0.15818977
64	0xbde39109	-0.11111648
65	0xbc912550	-0.017717987
66	0x3c7f3930	0.015577599
67	0xbde9506d	-0.11392293
68	0xbdcbd6f4	-0.099531084
69	0x3d9ae180	0.07562542
70	0xbe2b73e9	-0.16743435
71	0x3de7c73c	0.11317298
72	0xbda97e14	-0.082760006
73	0x3d8107b6	0.06300299
74	0xbd214630	-0.039373577
75	0x3d3552f8	0.04426858
76	0xbcfe69f8	-0.03105639
77	0xbdca4735	-0.09876863
78	0x3d02509c	0.031815156
79	0x3cb55ed8	0.022139952
80	0x3c941a58	0.018078968
81	0xbe0d95aa	-0.13826624
82	0xbdfbd150	-0.122957826
83	0x3deba6a0	0.115063906
84	0x3d4ba61c	0.04971896
85	0xbdd1c3b0	-0.102424026
86	0xbe0c6616	-0.13710818
87	0xbde8116c	-0.11331448
88	0xbe0c3a7d	-0.13694187
89	0xbd49d9c8	-0.049279958
90	0xbc5331eb	-0.012890319
91	0xbe33dde7	-0.17565118
92	0xbd3a5f8b	-0.045501273
93	0x3d4a7ec3	0.049437296
94	0x3daf7aaf	0.08568322
95	0x3e44d1d9	0.19220676
96	0xbe2caa43	-0.16861825
97	0x3cf14528	0.029451922
98	0xbdfbc460	-0.12293315
99	0xbdacea50	-0.08443129
100	0xbd957afa	-0.072988465
101	0xbd178964	-0.03699626
102	0x3decc327	0.1156066
103	0x3e42c1b6	0.19019207
104	0x3e03fe26	0.12889919
105	0xbd9433bd	-0.07236431
106	0x3cf05567	0.029337598
107	0xbe34c452	-0.17653015
108	0x3e2526f0	0.16128135
109	0x3dd636d7	0.104596786
110	0x3e7dc0b8	0.24780548
111	0x3e6ca03d	0.23108001
112	0x3df66db7	0.12032645
113	0x3ceddf83	0.029037243
114	0xbdafa16e	-0.08575712
115	0xbe075266	-0.13215026
116	0x3d9c56b3	0.07633724
117	0x3dc8c5e6	0.09803371
118	0xbc4cc854	-0.012498934
119	0x3c94c1ab	0.018158754
120	0xbdf95e8d	-0.12176237
121	0x3de81624	0.11332348
122	0xbdc7c942	-0.09755184
123	0xbba65eea	-0.0050772326
124	0xbdcceb7e	-0.10005854
125	0xbdbeb6f7	-0.093122415
126	0x3d79b647	0.06096485
127	0xbdc4ed24	-0.096155435
128	0x3d481ad4	0.04885371
129	0xbc3c69d9	-0.011499845
130	0xbdda25f6	-0.10651772
131	0xbdfb60e0	-0.12274337
132	0xbd4f07a9	-0.050544415
133	0x3d793a88	0.060846835
134	0xbdda09d4	-0.10646406
135	0x3d94588f	0.07243454
136	0xbd53c741	-0.051703695
137	0x3d3a96e4	0.045554057
138	0x3dc98e26	0.09841566
139	0xbe1a9af9	-0.1509818
140	0x3e112dfe	0.14177701
141	0xbdaf1973	-0.08549776
142	0xbd89954a	-0.06717928
143	0x3d9f8629	0.07789261
144	0x3b441c80	0.0029924214
145	0x3e142331	0.1446655
146	0xb92f44fa	-0.00016714996
147	0xbe3dbbb8	-0.1852864
148	0x3df11087	0.117707305
149	0xbe1ee9f3	-0.15518932
150	0xbd975b13	-0.07390418
151	0xbe141aca	-0.14463344
152	0xbe918813	-0.2842413
153	0x3ed25b76	0.41085404
154	0x3dba96e2	0.0911081
155	0x3e5f37fd	0.21798702
156	0x3ca7dc64	0.020490833
157	0x3e296af7	0.1654471
158	0x3d87a5a3	0.066233896
159	0xbe180cc8	-0.14848626
160	0x3e2d713f	0.16937731
161	0xbe9344b1	-0.28763345
162	0xbdb2a216	-0.08722322
163	0x3e18567f	0.14876746
164	0xbd6b9587	-0.057515647
165	0x3e617500	0.22017288
166	0x3e78a7bd	0.24282737
167	0x3c9f6d5e	0.01946133
168	0xbdae3cfe	-0.08507727
169	0xbe24f1aa	-0.16107813
170	0xbc1c9368	-0.009556629
171	0x3da76f9c	0.08175585
172	0x3e87976a	0.26482707
173	0x3d65b1e3	0.05607785
174	0xbd2b5113	-0.041825365
175	0xbcc409b7	-0.023930414
176	0x3d15bcc7	0.036556985
177	0x3a409ba7	0.0007347413
178	0x3e3397a1	0.1753831
179	0xbdfdfd92	-0.1240188
180	0x3c19d110	0.009388223
181	0xbe000780	-0.12502861
182	0x3e8a2e31	0.26988366
183	0x3e53952a	0.2066237
184	0xbdd5e835	-0.104446806
185	0xbd4bedc1	-0.049787287
186	0xbd45e6ec	-0.048315927
187	0xbe0ee69f	-0.13955162
188	0xbc238676	-0.009980788
189	0xbe360be1	-0.17777969
190	0x3de95f86	0.11395173
191	0xbdd64d8f	-0.10464012
192	0xbdc3e3c7	-0.095649295
193	0xbe039d75	-0.12853034
194	0x3ea9e13a	0.33179647
195	0xbcb88dac	-0.022528492
196	0x3b4704af	0.0030367782
197	0x3c257ef1	0.010101066
198	0x3c89625a	0.01677053
199	0xbd3e4c69	-0.04645959
200	0x3dc6ee4a	0.09713419
201	0xbe52a8d4	-0.20572215
202	0x3d9c282d	0.076248504
203	0xbda34612	-0.07972349
204	0xbd6dba81	-0.058039192
205	0x3e6e1ff8	0.23254383
206	0x3d87c9fb	0.066303216
207	0x3de2e4fd	0.11078832
208	0xbe202935	-0.15640719
209	0xbc162347	-0.009163684
210	0xbd1f8452	-0.03894455
211	0x3d2ac3e7	0.041690733
212	0xbdc224c2	-0.09479667
213	0x3e3729f4	0.17887098
214	0xbe9b705d	-0.30359164
215	0x3da05588	0.07828814
216	0x3e7c25d9	0.24623813
217	0xbd4bd82b	-0.0497667
218	0xbe2bca21	-0.16776325
219	0xbe0f4a83	-0.13993268
220	0xbd0036a7	-0.03130212
221	0x3e35c38b	0.17750375
222	0x3d46a883	0.04850055
223	0xbdc04d17	-0.09389704
224	0x3d3be491	0.045872275
225	0x3d9abe1a	0.0755579
226	0x3d5666f5	0.05234428
227	0x3db8cd48	0.09023529
228	0xbc5f6f7b	-0.013637419
229	0x3d392dbf	0.045209642
230	0xbda2c2f6	-0.07947342
231	0xbecb2634	-0.39677584
232	0x3e0a8ca1	0.13530208
233	0xbd98c219	-0.07458896
234	0x3e3bc498	0.18336713
235	0xbc97d3d3	-0.018533623
236	0x3e439ad5	0.19102032
237	0x3e4154f5	0.18880065
238	0x3d8ada7c	0.06779954
239	0xbd62f782	-0.055411823
240	0x3cc3d1ea	0.023903806
241	0xbda74497	-0.08167379
242	0x3c8a397d	0.016873116
243	0xbdbeac73	-0.09310236
244	0xbde9d738	-0.11418003
245	0x3e2de63d	0.1698236
246	0x3e3eb8c5	0.18625171
247	0xbe064ec2	-0.13115981
248	0xbe121ce6	-0.14268836
249	0xbddf4deb	-0.109035335
250	0xbcb8edb7	-0.022574289
251	0x3da2f67e	0.07957171
252	0x3def01c4	0.11670259
253	0xbd044bc8	-0.032298833
254	0x3e8e9167	0.27845308
255	0x3e49cabd	0.19706245

linear_relu_stack.6.bias f4 [40]
0	0x3e0e0e15	0.1387256
1	0xbe85ba09	-0.26118496
2	0xbe2ad0a8	-0.16681159
3	0x3cbc64f8	0.022997364
4	0xbe017e3b	-0.1264581
5	0xbdb8a420	-0.09015679
6	0x3cb337f9	0.021877276
7	0x3eb3bb92	0.35104042
8	0xbddafadc	-0.10692379
9	0x3dc87cbd	0.09789417
10	0x3d0b13b4	0.033954337
11	0xbdb7ec19	-0.08980579
12	0x3e211994	0.15732414
13	0x3efcd35e	0.4938001
14	0x3e40c4ad	0.18825026
15	0xbdfa668e	-0.12226592
16	0x3e2a2b56	0.16618094
17	0x3c9d6ec6	0.01921786
18	0x3e832c1a	0.25619584
19	0x3dd1548d	0.10221205
20	0x3ea664e9	0.32498863
21	0x3e14af65	0.14520033
22	0xbdaa79d4	-0.08324018
23	0xbe075134	-0.1321457
24	0xbd3b3999	-0.045709226
25	0xbd3a354e	-0.04546099
26	0x3df19b8e	0.11797248
27	0xbd6a3de8	-0.057187945
28	0xbf200016	-0.6250013
29	0xbe43081a	-0.19046059
30	0x3ebae023	0.36499128
31	0x3ce7c0b4	0.02829013
32	0xbb50922c	-0.0031825406
33	0xbdb25c3d	-0.08708999
34	0x3e1a7c57	0.15086494
35	0x3de1c699	0.110242076
36	0x3d117f30	0.035521686
37	0x3d37abd5	0.044841606
38	0x3dffbb73	0.12486925
39	0xbdbbc795	-0.091689266

linear_relu_stack.8.weight f4 [50, 40]
0	0xbd918c57	-0.07106846
1	0x3df7293f	0.12068414
2	0xbdf6fad1	-0.12059558
3	0x3d89c52a	0.06727059
4	0xbd59a9c8	-0.05314043
5	0xbd873989	-0.06602771
6	0x3d960cd3	0.07326665
7	0x3d10678a	0.035254993
8	0x3caf54ca	0.021402735
9	0xbd978f77	-0.074004106
10	0xbe0ce5d7	-0.13759552
11	0xbb5af7b8	-0.0033411812
12	0x3d8325b2	0.06403674
13	0x3da456c7	0.08024364
14	0x3df72cb3	0.120690726
15	0x3a30dff3	0.0006747238
16	0xba72f530	-0.0009268103
17	0xbdfb4802	-0.12269594
18	0x3d2e0288	0.042482883
19	0xbe195e4a	-0.14977375
20	0xbdab3fd5	-0.08361784
21	0x3d1537cb	0.03643016
22	0x3d854a6f	0.06508338
23	0xbd705698	-0.058676332
24	0xbddb7622	-0.107158914
25	0x3da859c9	0.0822025
26	0xbd7bad01	-0.061444286
27	0xbdc419cb	-0.09575232
28	0x3cd07d3f	0.025450347
29	0x3e219cda	0.1578249
30	0x3d98d2f9	0.07462115
31	0xbd0a9574	-0.033833936
32	0x3c4a58a1	0.012350232
33	0xbdd276c7	-0.10276561
34	0x3c9f3b37	0.019437416
35	0x3db27a87	0.087147765
36	0xbd64e723	-0.05588449
37	0x3e2fe027	0.17175351
38	0xbdea06ca	-0.11427076
39	0x3dcff1f1	0.101535685
40	0x3c6e5c33	0.014548349
41	0x3c9da0fb	0.0192418
42	0x3da178a4	0.078843385
43	0x3dec9a70	0.11552894
44	0xbcd88246	-0.026429307
45	0xbbafd70b	-0.0053662113
46	0x3d09064a	0.033453263
47	0x3ea6b2b7	0.32558224
48	0x3e5b2982	0.21402553
49	0xbd05e9db	-0.032693725
50	0x3d3a3309	0.045458827
51	0x3d50da64	0.050989524
52	0xbe011eb2	-0.12609366
53	0xbe25d950	-0.1619618
54	0x3c8dfb38	0.017331704
55	0xbe183244	-0.14862925
56	0xbd23a81a	-0.039955236
57	0xbdcf4b3a	-0.1012177
58	0xbe19b002	-0.15008548
59	0x3e32d579	0.17464246
60	0xbd90ead7	-0.07076042
61	0xbd2f1cd3	-0.0427521
62	0xbdf0cf74	-0.117583185
63	0xbce133e8	-0.027490571
64	0xbd60e587	-0.054906394
65	0xbe0ae60e	-0.13564321
66	0x3e1da561	0.15395118
67	0x3e3f7426	0.18696651
68	0xbb24f2f9	-0.0025169237
69	0xbd8cf1b1	-0.068820365
70	0xbe412727	-0.18862592
71	0x3e1f0c65	0.15532072
72	0x3d2546b9	0.04035065
73	0xbd44c450	-0.04803878
74	0xbd10c0a5	-0.03533997
75	0x3c5ed0fc	0.01359963
76	0xbd6d6280	-0.057955265
77	0x3c7af58f	0.015317335
78	0xbdc9acff	-0.098474495
79	0x3de33411	0.11093915
80	0xbe1472e9	-0.1449696
81	0x3ddea276	0.10870831
82	0xbe1432f4	-0.14472562
83	0x3dde8d9a	0.10866852
84	0x3e0bd635	0.13655932
85	0xbda512bb	-0.08060213
86	0x3d849567	0.06473809
87	0x3c951ed3	0.018203175
88	0xbe0b49e3	-0.13602404
89	0xbd57a337	-0.05264589
90	0xbcf6bd6c	-0.03011962
91	0x3dff2c8e	0.1245967
92	0x3e027421	0.12739612
93	0xbdec3429	-0.11533386
94	0x3d809c61	0.06279827
95	0xbd769d92	-0.060208865
96	0xba9d2b2c	-0.0011991016
97	0x3d421331	0.047381584
98	0x3dabaffe	0.08383177
99	0xbe0f38bc	-0.13986486
100	0x3da897ef	0.08232104
101	0x3c37fc2b	0.011229555
102	0x3db8ab82	0.090170875
103	0xbe201a35	-0.15634997
104	0xbdbf99ec	-0.0935553
105	0x3c6d7a10	0.014494434
106	0x3df6f62d	0.12058673
107	0xbd3303d9	-0.04370484
108	0x3dbe7e13	0.093013905
109	0xbd520c8e	-0.051281504
110	0x3b7480bc	0.0037308177
111	0xbe23abb3	-0.15983467
112	0x3d24ec92	0.040264674
113	0x3dfce716	0.12348764
114	0xbd757989	-0.059930358
115	0xbd67ba29	-0.05657402
116	0xbde0596c	-0.10954556
117	0x3da907c7	0.082534365
118	0xbdc4f3c5	-0.09616808
119	0xbdc576f2	-0.09641828
120	0xbdc81515	-0.09769646
121	0xbcf3cf18	-0.029761836
122	0xbe158bdf	-0.14604138
123	0xbd6ee501	-0.058323864
124	0xbce581ef	-0.028016059
125	0xbca54940	-0.02017653
126	0x3dbf17d3	0.09330716
127	0x3da69c31	0.0813526
128	0xbc5d2320	-0.013497144
129	0xbc8ad699	-0.016948031
130	0xbdf7b116	-0.12094323
131	0xbc60acf0	-0.0137131065
132	0x3daafc43	0.08348896
133	0xbd6741ba	-0.056459166
134	0xbe150a10	-0.1455462
135	0x3da4fa56	0.0805556
136	0xbde204aa	-0.11036046
137	0x3e027208	0.12738812
138	0xbe1f04c5	-0.15529163
139	0x3d761e32	0.06008739
140	0x3e061bbc	0.13096517
141	0x3d9a7db5	0.07543508
142	0xbd82fe19	-0.063961215
143	0x3e0928de	0.13394496
144	0x3d96e7e3	0.07368448
145	0xbdec1dd3	-0.11529126
146	0x3d17476c	0.036933348
147	0xbd40828a	-0.04699949
148	0xbdd45bc4	-0.103690654
149	0x3d6d815a	0.057984687
150	0xbde4f7b6	-0.111800596
151	0xbd8d4e2a	-0.06899674
152	0xbcfe78f4	-0.031063534
153	0x3db96adc	0.09053585
154	0xbda83e8b	-0.08215054
155	0xbd234be6	-0.039867304
156	0x3e16346a	0.14668432
157	0xbd9599c9	-0.07304723
158	0xbe269810	-0.16268945
159	0x3d733b37	0.059382644
160	0xbd8c268a	-0.06843288
161	0xbd4a7d45	-0.049435873
162	0xbddee2ad	-0.10883079
163	0xbda85256	-0.08218829
164	0x3d4ceee6	0.05003252
165	0xbc6f640b	-0.014611254
166	0xbb13466e	-0.00224724
167	0xbe75b155	-0.23993428
168	0x3dbffa34	0.09373894
169	0xbecc3bc8	-0.3988936
170	0xbe8a32ae	-0.2699179
171	0x3de79bb0	0.11308992
172	0x3b4ac1e9	0.0030938333
173	0x3d760178	0.060059994
174	0xbe5bd346	-0.21467313
175	0x3ba64eac	0.0050752964
176	0x3e37fa15	0.17966492
177	0xbcdbcf4a	-0.026832242
178	0x3d34ecaf	0.04417103
179	0xbe035864	-0.12826687
180	0xbe13a555	-0.14418538
181	0x3e93f9e1	0.2890158
182	0xbd9947ad	-0.07484374
183	0xbd42e601	-0.04758263
184	0x3edd931f	0.43276307
185	0x3de491ca	0.111606196
186	0xbe1a14db	-0.15047018
187	0x3dcceb50	0.1000582
188	0x3ebbf3f4	0.3670956
189	0x3e109bc3	0.14121918
190	0xbe0194a8	-0.12654364
191	0xbdb0e8d1	-0.08638156
192	0xbdf590a4	-0.11990479
193	0xbd4b799e	-0.04967653
194	0xbebc4561	-0.36771682
195	0x3e866cd8	0.26254916
196	0xbdb39c12	-0.087700024
197	0xbe6397bb	-0.2222585
198	0xbdd7ac2e	-0.105308875
199	0x3dc933ef	0.09824359
200	0xbd8684a7	-0.0656827
201	0x3dfbbae0	0.12291503
202	0xbe1d890a	-0.15384308
203	0x3e81784a	0.25287086
204	0x3da136be	0.07871769
205	0x3d95a376	0.07306568
206	0x3e1024c7	0.1407653
207	0x3cea0d57	0.028570814
208	0xbd633166	-0.055467032
209	0x3de9a7d6	0.11408965
210	0xbd307f3c	-0.04309009
211	0xbdbf036b	-0.09326824
212	0x3e1b7c25	0.15184076
213	0xbe3131d8	-0.1730417
214	0x3c4ec7e0	0.012620896
215	0xbe962234	-0.2932297
216	0xbb84606b	-0.004039814
217	0xbdb9ae05	-0.09066395
218	0xbe0d9567	-0.13826524
219	0x3dc568e2	0.096391454
220	0x3da9e6d1	0.08295978
221	0xbdde9a74	-0.10869303
222	0xbe194708	-0.14968503
223	0xbd954df4	-0.07290259
224	0xbdd4eb98	-0.103964984
225	0xbecb82b1	-0.39748147
226	0xbe16d8ac	-0.14731091
227	0xbe152bc9	-0.14567484
228	0x3dce362c	0.10068926
229	0xbdaaff2b	-0.08349451
230	0x3d877f91	0.06616128
231	0x3e4437ef	0.19161962
232	0xbdaab6a3	-0.083356164
233	0x3e294754	0.16531116
234	0x3d847afa	0.064687684
235	0x3e7bfff8	0.24609363
236	0xbdb24f6c	-0.08706555
237	0xbcbc2422	-0.022966448
238	0xbdc85f8e	-0.097838506
239	0x3c938594	0.018008031
240	0xbe163cf8	-0.14671695
241	0x3d7be7a5	0.06150021
242	0xbdcea760	-0.10090518
243	0x3d2b02d9	0.041750763
244	0x3d2411ba	0.040055968
245	0xbc8ba55a	-0.01704662
246	0x3d96caf3	0.07362928
247	0xbe11ea62	-0.14249566
248	0xbe626ff6	-0.22113022
249	0xbd16b589	-0.03679422
250	0xbdf8d1cd	-0.12149391
251	0x3e1cb486	0.15303239
252	0x3d2724e6	0.040806673
253	0x3d1bc525	0.03802981
254	0x3d211ac9	0.039332185
255	0x3e267115	0.16254075

linear_relu_stack.8.bias f4 [50]
0	0x3e8b3028	0.27185178
1	0x3e812774	0.25225413
2	0xbe047341	-0.12934591
3	0xbe2461ad	-0.16052885
4	0x3e49b1ca	0.19696727
5	0x3eab5dcc	0.3347
6	0x3e46ecb7	0.19426237
7	0xbde6b61a	-0.11265202
8	0x3e1450a8	0.14483893
9	0x3bae76f3	0.0053242384
10	0x3d4c7ba6	0.049922608
11	0x3df72eb2	0.12069453
12	0x3dce5a7a	0.10075851
13	0x3ed56efe	0.41686243
14	0xbe29efab	-0.16595332
15	0xbd647aa2	-0.055781014
16	0xbe12ac94	-0.14323646
17	0x3e4e98d3	0.20175485
18	0x3e54db27	0.20786725
19	0x3eb7a407	0.3586733
20	0x3e47008b	0.19433801
21	0x3e8ec435	0.2788407
22	0x3d9dcd1c	0.07705137
23	0x3e4d8fef	0.20074438
24	0x3e263892	0.16232517
25	0x3e82fba0	0.255826
26	0x3e6a15ff	0.22859953
27	0x3e6f72fb	0.23383705
28	0xbe2d9047	-0.16949569
29	0x3e89b95d	0.26899233
30	0x3f0a1034	0.53930974
31	0x3e077e6d	0.13231821
32	0xbc8a1161	-0.01685399
33	0x3dcf005d	0.10107491
34	0x3ceafd2d	0.028685177
35	0x3e73b98b	0.23801248
36	0xbc873fc9	-0.016509907
37	0xbdb44c8c	-0.08803663
38	0x3d5748de	0.052559726
39	0x3d515b17	0.05111226
40	0xbc4d2404	-0.012520794
41	0xbba1e8ec	-0.0049410965
42	0x3d875e77	0.066098146
43	0x3c3765c9	0.011193701
44	0xbdd1a9f3	-0.10237493
45	0x3e9333b9	0.287504
46	0xbdfdc5f9	-0.12391276
47	0xbdfae026	-0.12249784
48	0xbe4aaddf	-0.19792889
49	0xbdfafd98	-0.122554004

linear_relu_stack.10.weight f4 [180, 50]
0	0x3b131f47	0.0022449063
1	0x3c959b11	0.018262418
2	0xbdacb5e2	-0.08433129
3	0x3d9160af	0.07098519
4	0xbc63ac64	-0.013896082
5	0xbd44fde3	-0.048093688
6	0xbd36ce3f	-0.044630285
7	0xbd9571cf	-0.07297098
8	0x3b9172cc	0.0044387337
9	0xbdc79b81	-0.09746457
10	0x3d84cc2b	0.064842544
11	0x3c811358	0.015756294
12	0x3c8ea3bf	0.017412065
13	0x3d73b147	0.059495237
14	0xbd419fef	-0.047271665
15	0x3d3baade	0.04581725
16	0xbe0b01e7	-0.13574944
17	0x3d4d651c	0.050145254
18	0xbd4c449d	-0.049870122
19	0xbb4f2596	-0.0031608096
20	0xbbc0e5d8	-0.0058867745
21	0x3d17ada9	0.03703085
22	0xbdfcd5d7	-0.12345474
23	0xbcda22c3	-0.026627904
24	0xbd1f0925	-0.03882708
25	0x3de874fd	0.11350439
26	0xbcf0578b	-0.029338619
27	0x3c45344e	0.012036396
28	0x3da66681	0.0812502
29	0xbd9373e0	-0.07199836
30	0xbb72b415	-0.0037033607
31	0xbc4643ea	-0.012101153
32	0x3d86ad31	0.065760024
33	0xbd8dafde	-0.0691831
34	0xbcb45531	-0.022013279
35	0x3d1dfdad	0.038572002
36	0x3de89604	0.11356738
37	0xbd3dc327	-0.04632869
38	0x3dc0aa37	0.09407466
39	0x3d2318fb	0.039818745
40	0x3cb9f6a4	0.022700615
41	0xbc0778e2	-0.008268567
42	0xbd1ff773	-0.039054345
43	0x3d0c86e9	0.034308348
44	0xbdfce6ef	-0.123487346
45	0xbd66ed85	-0.05637886
46	0x3d1079bd	0.03527235
47	0xbd7e8119	-0.062134836
48	0xbdb65053	-0.089020394
49	0x3de35a13	0.11101165
50	0xbd3b76d4	-0.04576762
51	0x3d010c22	0.03150571
52	0xbd76547d	-0.060139168
53	0xbcf97231	-0.030449959
54	0xbd8a1dd0	-0.067439675
55	0xbc2961da	-0.010338271
56	0x3d7c7049	0.06163052
57	0x3cac1c00	0.021009445
58	0x3c98377d	0.018581146
59	0x3d5b9615	0.053609926
60	0x3d433d3a	0.047665812
61	0x3d818445	0.063240565
62	0xbcdd0e5a	-0.026984382
63	0xbd8dcf6a	-0.06924327
64	0x3c0e646b	0.008690934
65	0x39f0cd2d	0.00045929235
66	0x3c99fe47	0.018798007
67	0xbd9190e0	-0.07107711
68	0xbd9c4f60	-0.07632327
69	0xbc2c81a4	-0.010528956
70	0xbb5bfa1e	-0.003356583
71	0xbd83128e	-0.064000234
72	0x3c9daf86	0.019248735
73	0x3cac76dd	0.021052772
74	0x3d05eaa6	0.03269448
75	0xbc372372	-0.011177884
76	0x3c8e7193	0.01738814
77	0x3cc9b507	0.024622453
78	0xbd1df565	-0.038564105
79	0x3d9e9dcb	0.0774494
80	0xbd70ed97	-0.058820333
81	0xbca6494a	-0.020298619
82	0x3df39b97	0.11894911
83	0xbdb7f458	-0.08982152
84	0x3c986905	0.018604765
85	0x3b70bbc9	0.0036733022
86	0xbda0cf5b	-0.0785205
87	0x3d89746c	0.06711659
88	0x3b0f6d43	0.0021885193
89	0xbd489830	-0.048973262
90	0xbbb1e25a	-0.0054285945
91	0x3d49d64f	0.049276646
92	0x3cda95a0	0.026682675
93	0x3da77250	0.081761
94	0xbc500d30	-0.012698457
95	0x3e162041	0.14660741
96	0x3d866b8d	0.065634824
97	0xbdef1e15	-0.116756596
98	0x387742da	5.895165e-05
99	0xbdd8c55b	-0.105845176
100	0x3d84d0cc	0.06485137
101	0x3c8bb678	0.017054781
102	0xbdd0fe2b	-0.10204729
103	0x3d87620d	0.066104986
104	0xbd25bf9f	-0.040465947
105	0x3cb25031	0.021766754
106	0xbd436d25	-0.04771151
107	0x3db1fe4e	0.08691083
108	0x3d438467	0.04773369
109	0xbd7a8e98	-0.061171144
110	0xbccfaecd	-0.025351906
111	0x3d6a19b1	0.057153407
112	0x3c5c54d8	0.013447963
113	0x3d747dcd	0.059690285
114	0xbcf077ce	-0.029354002
115	0xbc8a1a01	-0.016858103
116	0xbd263085	-0.040573616
117	0x3c1ce56f	0.009576186
118	0xbce479b7	-0.02789007
119	0x3d049555	0.032368977
120	0xbcaa0b1c	-0.02075725
121	0x3cb479a1	0.022030653
122	0xbc82f393	-0.015985286
123	0x3c8666c8	0.016406432
124	0x3d56d0f4	0.052445367
125	0x3cbf27ee	0.02333447
126	0xbbcd0140	-0.0062562525
127	0x3cde6f43	0.027152663
128	0x3c5195a4	0.012792025
129	0x3ccc771b	0.024959138
130	0x3da6cc6f	0.08144461
131	0xbca91910	-0.020641834
132	0x3df90264	0.12158659
133	0x3be9acbf	0.0071311886
134	0xbc1362cf	-0.008995726
135	0xbc904c4b	-0.017614504
136	0xbc4105c4	-0.01178116
137	0xbd10be6d	-0.035337854
138	0x3a3ec33c	0.0007277017
139	0x3d5779af	0.05260628
140	0xbae6be5d	-0.001760434
141	0xbd84b7db	-0.0648038
142	0x3cc33313	0.023828065
143	0x3be73bc3	0.0070566847
144	0x3d0b7081	0.03404284
145	0x3ce1a388	0.027543798
146	0xbdc240ce	-0.09485017
147	0xbcc9f3db	-0.024652412
148	0x3e0859d9	0.13315524
149	0x3dfb1ee1	0.12261749
150	0xbd1f4558	-0.03888449
151	0x3c064c8e	0.008196963
152	0xbdc45e83	-0.09588339
153	0x3decf86b	0.115708195
154	0x3caf2700	0.021380901
155	0xbe67f84a	-0.22653309
156	0xbe84336f	-0.2582049
157	0xbe02d0e5	-0.12775
158	0x3d57f0c5	0.05271985
159	0xbdbf701a	-0.093475536
160	0xbe11ee81	-0.14251138
161	0xbdae72c0	-0.085179806
162	0x3e3475e2	0.17623094
163	0x3e004354	0.12525684
164	0xbdb75ac3	-0.08952858
165	0x3d6cd0cc	0.05781631
166	0xbdf2c6aa	-0.118542984
167	0x3db6bc0c	0.08922586
168	0x3d4644c1	0.048405413
169	0xbdff158b	-0.12455281
170	0x3d9abcd6	0.07555549
171	0xbe5eed03	-0.217701
172	0xbe18362c	-0.14864415
173	0x3d2af7ad	0.04174011
174	0x3e1b8ff0	0.15191627
175	0xbec8feb2	-0.39256817
176	0x3dbeaa19	0.09309787
177	0x3c7b4c96	0.015338084
178	0x3d7c75b7	0.0616357
179	0xbdddc3ad	-0.10828338
180	0x3e0875a4	0.13326126
181	0xbe46bac0	-0.19407177
182	0xbde294b9	-0.11063523
183	0x3e25836b	0.16163413
184	0xbcc92897	-0.024555488
185	0x3e5539cb	0.20822828
186	0x3dd31f94	0.103087574
187	0xbca3eec5	-0.020011315
188	0x3df0d5ac	0.11759505
189	0xbdfc67c0	-0.12324476
190	0xbc24a371	-0.010048733
191	0x3ea1d194	0.31605208
192	0x3e447025	0.19183405
193	0xbd9d514c	-0.07681522
194	0xbc7f92c6	-0.015598958
195	0x3e4a0d31	0.19731595
196	0xbd8236af	-0.06358086
197	0xbdd464e8	-0.10370809
198	0x3e00bc9b	0.12571947
199	0x3e0819cb	0.13291089
200	0x3e0192de	0.12653682
201	0xbdcb0f5b	-0.09915038
202	0x3c0c340d	0.008557332
203	0x3b58132c	0.0032970412
204	0xbdfb5f3c	-0.12274024
205	0x3cf82532	0.030291174
206	0x3d16ed31	0.036847297
207	0xbdd0732c	-0.10178217
208	0xbdf2ef65	-0.11862067
209	0xbd65b2f5	-0.05607887
210	0x3e6121de	0.21985576
211	0x3e21edfc	0.1581344
212	0x3e9911d4	0.29896414
213	0xbbb4469e	-0.0055015823
214	0x3dcf5e4b	0.10125407
215	0x3e0eca9d	0.13944478
216	0x3b8b2a75	0.0042470046
217	0x3e86b506	0.26309985
218	0xbdc433e7	-0.09580212
219	0x3ca44b68	0.020055488
220	0xbe279a22	-0.16367391
221	0xbe4cd70c	-0.20003909
222	0x3dd1b876	0.10240261
223	0xbe0d57b6	-0.1380299
224	0x3e0d6bde	0.1381068
225	0xbd20edcf	-0.039289292
226	0x3dfc5def	0.12322604
227	0x3dfec7ad	0.12440429
228	0x3d0812ee	0.033221178
229	0x3c2c99f6	0.010534754
230	0xbea90910	-0.33014727
231	0xbeebe3dc	-0.4607228
232	0x3db8fa59	0.09032125
233	0xbc693a2f	-0.014235063
234	0x3e69a6b1	0.22817494
235	0x3d8f6a7c	0.07002732
236	0x3dc8c7ba	0.0980372
237	0x3dc494f8	0.09598726
238	0x3db35f26	0.087583825
239	0x3e26c5b3	0.16286354
240	0xbcade682	-0.021228079
241	0xbc8d856d	-0.017275536
242	0x3d383866	0.04497566
243	0x3d560af2	0.052256532
244	0xbdcea483	-0.10089972
245	0xbe063a1e	-0.13108107
246	0xbd62a85f	-0.055336352
247	0x3c8939ca	0.016751189
248	0x3ddc7472	0.10764398
249	0x3b8c1d27	0.004275936
250	0x3d7933c2	0.060840376
251	0xbe2cee53	-0.16887788
252	0xbe061377	-0.13093363
253	0xbd087923	-0.03331865
254	0xbe02613f	-0.12732409
255	0xbbe02c22	-0.0068411985
