baselines/autoenc_basic/Weights/model_weights_AMASS1o2_i1o6.pth (torch, 104114 bytes, 12 tensors)

linear_relu_stack.0.weight f4 [50, 180]
000000 0c 17 ad 3c 22 2b 9c bc ab 4b 87 3d 8b c4 93 3c
       0.021129154 -0.019063536 0.066062294 0.018038055
000010 71 dd 0f 3d 5f bf ee bd 79 2a 40 3c 5e a0 3d bd
       0.035123292 -0.11657595 0.011728876 -0.046295516
000020 5e 5c ae 3b 6e 5e aa bc cd 67 c5 bb a6 4b 8f 3d
       0.0053210696 -0.02079698 -0.006024337 0.06996851
000030 1a 91 b3 3c d9 02 c8 bc 56 77 b3 bc c0 ab 42 3c
       0.021919776 -0.02441542 -0.02190749 0.011881769
000040 ce 2b 3a 3d 5f f7 18 bc f5 85 3c bd 4a 1d f8 bc
       0.04545193 -0.009336322 -0.04602619 -0.030287404
000050 85 2d a4 bc 58 cf 35 3d 2e 7a 33 3d 52 ce d4 3c
       -0.020041237 0.04438719 0.04381769 0.025977287
000060 c0 6f 3a 3c 41 c0 5f 3d aa a7 24 3d f4 5d 2e 3d
       0.011379182 0.054626707 0.04019896 0.04257007
000070 76 95 5f bc 01 90 76 bc 61 1a 0c bd 12 b7 9e 3c
       -0.013646474 -0.015048982 -0.034204844 0.019374404
000080 9e 9c cf bc 86 02 9c bc 12 92 3c 3d 68 5b 70 3d
       -0.025343236 -0.019044172 0.04603774 0.05868092
000090 c9 0a 94 bc 3d 7c 20 bd 1b ef 85 3c 9c 61 bb 3d
       -0.018071549 -0.039180983 0.016349366 0.09149477
0000a0 f6 01 5e bd ea 3b 4e bd b8 01 a1 3c 4d 82 19 bd
       -0.05420109 -0.050350107 0.01965414 -0.03747778
0000b0 5f 6f 91 3d 0b 30 5d bd 26 c8 8f 39 02 6d 14 3b
       0.071013205 -0.054000895 0.00027424208 0.0022647982
0000c0 ad 86 0e bd ed 51 4c bd d2 f8 90 3d 8d c5 cf 3d
       -0.034796406 -0.049882818 0.07078709 0.10145102
0000d0 64 02 3f 3d 00 72 3d bc 39 8b 83 3b 0a aa 63 3c
       0.04663314 -0.011562824 0.0040143994 0.013895521
0000e0 58 52 2a bd 78 7b e1 3c c5 17 31 bd 2e e5 df 3c
       -0.041582435 0.027524695 -0.04323556 0.027330961
0000f0 c7 eb 5b 3c 2e 18 0b 3d 92 7e d0 bb 20 9f 80 3d
       0.013422913 0.033958606 -0.0063627446 0.06280351
000100 84 e2 53 bd 04 c9 64 3c 64 96 aa bd 6c 22 5d bd
       -0.051729694 0.0139639415 -0.08329466 -0.053987905
000110 ca 46 68 bc 6d 83 77 3d cf 13 36 3d fe 7a 32 bb
       -0.014177034 0.06042807 0.044452485 -0.0027233954
000120 bf 35 06 3d a4 12 5e bd 40 10 30 bd 38 b7 bb 3d
       0.0327661 -0.054216996 -0.042984247 0.091658056
000130 7f dc f0 3c fb 32 af bc ce 2c 72 bd 28 93 f3 bc
       0.029402016 -0.021386614 -0.05912476 -0.029733256
000140 cf 21 1e 3d 1d 0a 01 bd 26 75 ba 3c 8a 86 9f bb
       0.03860646 -0.031503785 0.022760939 -0.004868333
000150 ea e1 a5 3d 22 0e ab bc 7c 0d 17 bc 1f a6 92 3d
       0.0809973 -0.020880762 -0.0092195235 0.07160591
000160 3f 75 b0 3d f8 96 83 bd fb ae 3b 3d 84 96 3d bd
       0.08616113 -0.064252794 0.04582117 -0.04628612
000170 85 0e 62 bd e4 5f 94 bd e3 90 2a bd fc 4c 7c 3d
       -0.05518963 -0.07244852 -0.04164208 0.061596856
000180 f2 4c 9d bc 36 ba d4 3c 2b 9e 21 3d 1e f9 05 bd
       -0.01920173 0.025967699 0.03945748 -0.03270828
000190 df 38 fe bc 6b fb fe 3b 89 d1 fd 3c 2f de 81 bd
       -0.031032978 0.007781436 0.030983703 -0.06341206
0001a0 72 de 0c bd f8 0b 9b bd 2c 6b 69 bb 50 00 81 bb
       -0.034391828 -0.07570642 -0.0035616858 -0.003936805
0001b0 6f 96 8c bd 98 76 af 3d 09 95 88 ba f4 ca 0d bd
       -0.068646304 0.08567542 -0.0010420393 -0.03461738
0001c0 a0 c2 93 3c a2 ab dc bc f0 2d 01 3d a4 52 9d bd
       0.01803714 -0.02693731 0.03153795 -0.07681778
0001d0 dd e9 40 3d b5 b9 a8 bc c0 91 3e 3d 2f 75 8a 3d
       0.04709803 -0.020596365 0.046525717 0.06760632
0001e0 08 a9 65 bd ad a2 b4 3c e0 b4 46 3c 92 9c 98 bc
       -0.056069404 0.022050226 0.012128085 -0.018629346
0001f0 aa ab ce 3b 93 d3 ba bc 54 ad 82 3c 39 6c a5 3b
       0.006307085 -0.022805965 0.01595179 0.0050483015
000200 fe 85 ea 3c 43 30 82 bd 3a a4 f0 3d 63 fb 57 3c
       0.028628346 -0.063568614 0.11750074 0.013182494
000210 86 5f 63 bd 38 81 51 3d b8 f0 14 bd b4 ca 39 3d
       -0.05551102 0.051148623 -0.03636238 0.04535933
000220 eb a3 f4 3d 32 4b d1 bc b1 21 8e bd b0 66 8d 3d
       0.11945327 -0.025548551 -0.0694002 0.06904352
000230 a6 21 76 bc e8 8e a0 bd bb 94 c8 3d 8e 68 2f bd
       -0.015022671 -0.07839757 0.09793993 -0.04282432
000240 77 2e 59 3d 08 31 91 3d 68 2c 69 bc 9d 6e 9b bc
       0.053022828 0.0708943 -0.014231779 -0.018973643
000250 26 30 2b 3d 4e a7 27 bd 29 a8 8a 3b 70 ee 6c 3d
       0.041793965 -0.04093104 0.004231472 0.05784458
000260 03 7a 22 3d 1e fc e8 bd 74 f5 a4 3d 0b 4d 92 bc
       0.03966714 -0.113762125 0.08054629 -0.017859003
000270 57 06 22 3c c3 ff 13 3d 6c 5e 85 bc 25 75 da bb
       0.009889207 0.036132585 -0.016280375 -0.0066667967
000280 a0 e9 fb 3c 48 00 e6 bb 27 11 10 be 39 dc bf 3d
       0.03075105 -0.0070190765 -0.14069043 0.09368176
000290 60 3a 8d bc 3e 5e 9d bc 08 54 1a 3e bc 92 90 3d
       -0.01723975 -0.019209977 0.15071118 0.07059237
0002a0 d0 72 9c bd 02 12 e8 3d 27 c9 ca 3b 0f da c3 3c
       -0.07639086 0.1133156 0.00618853 0.02390769
0002b0 97 11 af bc e0 59 2d 3d 06 d8 02 be 3f a3 96 3e
       -0.021370692 0.04232204 -0.12777719 0.29421422
0002c0 fe b2 69 bd 9f 10 12 bd e7 2f 20 3e a9 4e 94 3d
       -0.057055466 -0.035660382 0.15643273 0.07241566
0002d0 d5 dd 8e 3d 0f d1 70 bd 55 26 65 3d c8 88 46 3d
       0.06975905 -0.058793124 0.05594476 0.04847029
0002e0 3e 17 38 3c ab 4e 79 bd 79 5b 62 3b af f2 42 bd
       0.01123601 -0.06086604 0.0034539385 -0.047594722
0002f0 d0 8e c1 3d f2 36 c4 3d be 06 26 3b 24 cd a5 3c
       0.094510674 0.095807925 0.0025333609 0.02023942
000300 67 f0 98 3d 0a 3b 8f 3d de 0d 0b 3d 7c 09 a0 bd
       0.07467728 0.06993683 0.03394877 -0.07814309
000310 46 39 26 3c 0f 54 a2 bd 7b 5d 80 3d 9b bd 88 bc
       0.010145491 -0.07926189 0.0626783 -0.016691973
000320 a3 26 2a bd e3 89 af 3d e5 e5 17 bd f5 c3 30 3d
       -0.041540753 0.08571222 -0.03708448 0.04315563
000330 83 df 4c bc aa 6a b3 3b 72 fe 26 bd c7 2a ac bd
       -0.012504461 0.005475362 -0.04077 -0.08406597
000340 fe 40 8d 3c 4f 4f 12 bc 80 8a 85 3d b8 61 ae bc
       0.017242905 -0.008930041 0.065205574 -0.02128683
000350 20 17 8c 3c 30 a2 c5 3d 74 f2 dd 3c a1 e7 01 bd
       0.01710087 0.096500754 0.02709315 -0.03171504
000360 c3 66 2c 3c 25 25 75 bd 97 de 8f bd ba 7d 5e bc
       0.010522547 -0.059849877 -0.070248775 -0.01357978
000370 8a c2 df 3c 1d e4 23 bd 55 28 d8 ba 67 63 b6 3d
       0.027314443 -0.040012468 -0.0016491512 0.08905678
000380 2a 30 ba 3d 5a 1b 88 bc 38 ec 71 3d 44 2c 6d bd
       0.09091218 -0.016614605 0.059063166 -0.057903543
000390 2b 74 af 3d 1c eb 6c 3d 4e cf 26 3d 1a 8b 9f 3c
       0.08567079 0.057841405 0.040725045 0.019475508
0003a0 d6 d1 d3 3c e8 52 bb bd b8 c2 98 3d 0c c9 ae 3d
       0.025856894 -0.091466725 0.07459015 0.085344404
0003b0 63 16 c3 3d 80 2e 5f 3d de 2c 6f bc fe c9 ba bc
       0.09525754 0.054487705 -0.0145980995 -0.022801396
0003c0 17 94 a4 bc d0 ae 47 3c f0 9d 29 bc 39 e6 16 bd
       -0.020090146 0.012187675 -0.010352597 -0.03684065
0003d0 db 11 f4 bc 19 fd a5 bc 8a 4f a8 3d 82 21 ba 3c
       -0.02979367 -0.020262288 0.08218296 0.022721056
0003e0 de 51 6a 3d 7a 77 a9 3d ab 76 06 bd aa dc 54 bc
       0.05720698 0.082747415 -0.032828014 -0.012992064
0003f0 37 86 de bc dd da 8d bc 1f 0b 57 bd 8f 02 30 3c
       -0.027163608 -0.017316276 -0.05250084 0.0107427975

linear_relu_stack.0.bias f4 [50]
000000 57 ba a2 bc 89 c9 29 3d 23 a4 06 3e 3d b9 57 3d
       -0.019864244 0.041451965 0.1314855 0.05266689
000010 47 ce 89 3d 52 89 cf bd 02 bd a0 3d 51 47 f9 3c
       0.067287974 -0.10133614 0.078485504 0.030429514
000020 7f fd 48 3d 79 2a 00 3e 9d d8 74 3d f0 b4 4e bd
       0.049069878 0.12516202 0.05977689 -0.050465524
000030 3c 40 cd 3c bb 5c 05 3a 3a 2f ab bc f8 47 b7 3d
       0.025055043 0.0005087365 -0.020896543 0.08949274
000040 73 0b b5 3d 7f 01 21 bd 0e 30 8f bd d4 5c 70 bd
       0.088400744 -0.039308067 -0.069915876 -0.058682278
000050 69 b9 98 3d 99 93 bb bd 5d 78 83 be 95 7d 18 3d
       0.07457239 -0.091590114 -0.25677767 0.03722914
000060 d9 8f 09 3d 3f b1 af bd 32 f5 ae 3d ea 26 5f bd
       0.03358445 -0.08578729 0.08542861 -0.05448047
000070 1b fe ff 3d f2 71 b4 3c 75 64 37 bd 0a 7e 6d 3d
       0.12499639 0.02202699 -0.044773538 0.05798153
000080 bf 93 09 bd ed bf 44 3d 79 62 83 bd c3 f7 91 bc
       -0.033588167 0.048034597 -0.064152665 -0.017818337
000090 08 d6 15 3d 1d 93 9f bd 5f 5e bc 3c c1 c6 de 3d
       0.03658107 -0.077917315 0.022994218 0.10877753
0000a0 9d a2 0f 3e 8b ca 47 3d c4 39 a9 3c db 76 8a 3d
       0.14026876 0.048777144 0.020657428 0.06760951
0000b0 f8 34 24 bd 44 d0 8d 3d 36 49 27 3d 3e 54 d0 bc
       -0.040089577 0.06924489 0.040841304 -0.025430795
0000c0 d6 98 13 3e 9e 70 78 bb
       0.14413771 -0.0037908922

linear_relu_stack.2.weight f4 [40, 50]
000000 42 dd 5c be e4 8f 42 3e ef 94 c1 bd f9 e9 e2 3d
       -0.21568778 0.19000202 -0.09452235 0.11079783
000010 d9 c4 6b 3c b3 62 60 3c 55 1b f0 3d 86 06 b8 bd
       0.014390194 0.013695407 0.11723963 -0.08985619
000020 25 32 10 3e 7e b6 8c 3e f6 c3 8c 3d 14 91 a6 bd
       0.14081629 0.2748298 0.06873314 -0.0813314
000030 f1 3e 10 be f0 9b fa bc 3d a8 9d bd ed 43 63 be
       -0.1408651 -0.030591935 -0.076981045 -0.2219388
000040 84 e1 2f bd 76 55 b0 3a 8a d6 eb 3d c4 19 16 be
       -0.042939678 0.0013453204 0.115155295 -0.14658266
000050 a7 e3 50 bd e5 35 ae 3d 83 81 75 bd aa 03 f0 bc
       -0.050998356 0.08506373 -0.059937965 -0.029298622
000060 ca 7d 1e 3d 7a 4f 3a 3d 3f 28 05 be 1f 9b a1 3d
       0.03869418 0.04548595 -0.13003634 0.07890915
000070 1a d8 8e 3d 50 1d 18 3d 62 01 df bd a9 ea e0 bd
       0.06974812 0.03713733 -0.108889356 -0.10982258
000080 69 91 18 3e 8d 6b 4c 3c 73 b9 cf bd 7b 8e 17 bd
       0.1489922 0.012476814 -0.101427935 -0.037001114
000090 70 65 02 3d ea 30 20 3e c1 73 00 be 43 e1 0b be
       0.03183502 0.15643659 -0.12544157 -0.1366015
0000a0 12 5f ba 3d d8 b4 f8 3d 9b e6 42 bd 83 b5 b3 bd
       0.091001645 0.12143868 -0.047583204 -0.08774855
0000b0 24 1e 05 be da 5a 9b 3e f1 99 2e 3d 6b 75 9e bd
       -0.12999779 0.30342752 0.04262728 -0.077372395
0000c0 95 68 22 3e 15 2f 2c 3d 6f 20 01 3e 84 8c 17 bd
       0.15860207 0.04203709 0.12610029 -0.03699924
0000d0 1d 85 0c 3e 4e 1d c9 3d da 30 6d bd 9d 6e f4 3d
       0.13722654 0.098200426 -0.057907917 0.1193516
0000e0 c0 d1 e4 3d 0a ae 23 bd e4 26 c3 bd f2 84 09 bd
       0.11172819 -0.0399609 -0.09528902 -0.033574052
0000f0 12 ad 09 3e 68 e9 89 bd a2 ec 94 3c b6 ed dd bd
       0.13444927 -0.06733972 0.018179242 -0.108363554
000100 8f 3f 19 3d 33 3b 89 bb 98 b4 53 3e b3 87 88 3d
       0.03741413 -0.0041879653 0.2067436 0.066665076
000110 b2 0e 33 3d 0f cf 03 3e ae 87 52 3e 29 b9 b0 bd
       0.043715186 0.12871955 0.2055957 -0.086290665
000120 5b b2 49 bd ff a4 81 bd 37 89 18 3e 93 c2 a4 3d
       -0.04924236 -0.06330299 0.14896093 0.080449246
000130 be 91 3a 3c 6c bf 99 bb 6a 1a bc bc f2 fb 2a 3d
       0.011387287 -0.0046920087 -0.022961814 0.04174418
000140 c1 79 9c 3d 7c e2 20 3e 74 ea f3 bd fa 89 37 bd
       0.0764041 0.15711397 -0.11909953 -0.04480932
000150 e4 58 e4 bc f5 19 fb 3d 67 e6 d9 3d 0f e9 71 3d
       -0.027874418 0.1226081 0.10639649 0.059060153
000160 5b f7 33 bd 2a a8 42 3e e3 c2 4b 3d ea 0a 1b 3d
       -0.04393707 0.19009462 0.049746405 0.037852205
000170 9f 14 b7 3d b1 c9 c2 bc 4b 82 fb bd 3a 4b dd bd
       0.0893948 -0.023777815 -0.12280711 -0.10805364
000180 94 62 46 3e 5b e8 70 bd a4 25 c8 bc 67 1a 03 3d
       0.19373542 -0.05881534 -0.024432011 0.0320076
000190 45 9d be bd 1a ad dd 3d 65 64 55 3d 85 4f 7f 3d
       -0.093073405 0.10824032 0.052097697 0.062331695
0001a0 b4 18 0b be 1d 04 3a bd 57 48 08 3e 5a 7f 1b 3d
       -0.13583642 -0.04541408 0.13308845 0.03796325
0001b0 3a c7 09 be 7f c8 9d bd 9d c1 a6 bd d0 10 93 bd
       -0.13454905 -0.07704257 -0.081423976 -0.07180941
0001c0 a9 d1 02 3e 06 fc 8b 3d ab cd 16 3d 79 a6 44 bb
       0.12775292 0.06835179 0.036817234 -0.0030006452
0001d0 02 f9 53 3d d6 f5 c3 3d 38 49 ae bd aa 16 6c 3d
       0.051751144 0.09568374 -0.08510059 0.0576388
0001e0 ff 1c 08 3e 45 f7 06 3e ee 8e bf bd ae b1 e6 bd
       0.13292311 0.13180263 -0.093534335 -0.112643585
0001f0 37 af 0c 3d 0d c4 70 bc 27 c0 ec bd af f0 a7 bd
       0.034346785 -0.01469518 -0.11560088 -0.082002036
000200 2c df 0f be 8b bd 97 bd 7a f6 bd bd 60 64 b6 3d
       -0.14049977 -0.07409199 -0.09275527 0.08905864
000210 55 48 e2 3d 34 52 8b bc 99 51 f6 bc 48 cc 65 3d
       0.110489525 -0.017006971 -0.030068206 0.05610302
000220 85 19 4c bd 8f 2c 0e be 84 58 44 bd 77 cf ed bd
       -0.049829025 -0.13884185 -0.047935978 -0.116118364
000230 18 2b 94 bc b4 8e e7 bd 0d ca 8c bd 56 16 e2 bd
       -0.018086955 -0.11306515 -0.06874476 -0.110394165
000240 c3 50 1d bc 5e 3c f4 3d d0 cc a6 bd 09 5c c1 bd
       -0.009601775 0.119255766 -0.08144534 -0.094413824
000250 02 72 c2 bc 1b ee 89 3d 28 4c c9 3d c3 a0 5e bd
       -0.023736004 0.06734868 0.09828979 -0.054352533
000260 fc 42 20 3d 65 33 d1 3d 79 e4 c7 3d 96 41 e4 bb
       0.03912638 0.10214881 0.097603746 -0.0069658263
000270 30 94 65 3e b0 d2 b1 3d c5 f7 11 3d d3 fa c4 bc
       0.2241981 0.086827636 0.035636682 -0.024045384
000280 50 ce 2a 3e 60 07 ce 3c e2 d1 11 be 1d 26 1e be
       0.16680264 0.025150001 -0.1424022 -0.15444227
000290 2d ed 06 3e 44 60 27 be 6d ce 63 bd ff 3d be bd
       0.13176413 -0.16345316 -0.055616785 -0.092891686
0002a0 2b 0e 2f be 1f dc 04 be f1 ad 32 3e a0 72 e3 3d
       -0.17095248 -0.12974595 0.17449166 0.11105847
0002b0 2d f8 55 3e 22 d4 27 3c 25 12 8f 3d c2 ce e2 bd
       0.20895453 0.0102434475 0.06985883 -0.11074592
0002c0 ff 5c 92 3d 81 fa b4 3d 36 46 2c be bb 47 e4 bb
       0.07146644 0.08836842 -0.16823658 -0.0069665588
0002d0 c5 82 89 bd 39 e4 83 bd 46 6c a1 bc 96 dd 0e 3e
       -0.067143954 -0.064400144 -0.01970495 0.13951716
0002e0 ba fb e9 bc 71 66 11 3e 51 09 c9 3d 79 07 5e bd
       -0.028562415 0.14199235 0.0981623 -0.054206345
0002f0 53 95 8c 3d 5b f2 fd 3d 0a a3 8d bd bc 1e 33 3d
       0.06864419 0.12399741 -0.06915863 0.043730482
000300 11 b2 96 bc 3a cd 22 be 0a 8a 85 be b0 70 e8 3c
       -0.018395456 -0.158986 -0.26081878 0.028374046
000310 0b 7f 11 3e 33 30 60 be a8 a5 22 be 72 7c fc 3d
       0.1420862 -0.21893387 -0.15883505 0.123284236
000320 d6 9e a8 bd d7 b5 fc 3c e9 f8 0e be bd e7 ce 3d
       -0.082334206 0.030848427 -0.13962139 0.10102794
000330 fb 9e f1 3d 06 c5 6b 3d b5 bc f8 bd f8 3d e1 3b
       0.11797901 0.057560943 -0.12145368 0.0068738423
000340 ee d9 d3 3c 6f a5 d8 bd cc b4 a1 bd 02 1a d9 3d
       0.025860753 -0.10578429 -0.078958124 0.10600664
000350 4b fe d9 bc 13 67 16 bd d0 fc 79 bb 6b 08 96 3d
       -0.026610514 -0.036719393 -0.0038145073 0.07325824
000360 68 91 fa 3b b0 39 42 bd 63 87 07 3d e8 7e be 3d
       0.0076467283 -0.047418296 0.0330881 0.09301549
000370 4c a5 eb 3d d2 e4 4c 3c 42 bd fc bd 98 8a c2 bd
       0.11506137 0.012505727 -0.123407856 -0.09499091
000380 37 34 a0 bd 1e 99 de 3b d9 bb c9 bd 40 c7 03 3e
       -0.07822459 0.0067931553 -0.09850282 0.12868977
000390 86 78 fe bc 88 b4 9c bd 31 d5 c7 bd 15 f9 93 bd
       -0.03106333 -0.07651621 -0.0975746 -0.07225243
0003a0 a2 2d 78 bd 16 a4 0a bd 07 0d 08 be 8f d8 97 bd
       -0.060590394 -0.03384789 -0.1328622 -0.07414352
0003b0 31 61 df bd ed 0c ca bd ff 2b 9e 3d 0a ee be 3d
       -0.1090721 -0.09865747 0.07723235 0.09322746
0003c0 d2 d0 d6 3c b5 d2 b2 bd 44 7a fd bd 0c 64 7a 3d
       0.02622262 -0.087315954 -0.12376836 0.06113057
0003d0 16 6f ae bc 31 b2 7c 3d d9 ed 8c 3c ad 15 8d 3d
       -0.021293204 0.061693374 0.017203258 0.068889
0003e0 b9 48 03 be 2e b0 6f bd 7c e2 cf bd 2e 30 b3 bd
       -0.1282071 -0.058517627 -0.1015062 -0.08749424
0003f0 b4 ab f3 3c 0e d1 a0 bd 97 42 4f bd 3d 37 2d bd
       0.02974496 -0.07852374 -0.050600614 -0.042289007

linear_relu_stack.2.bias f4 [40]
000000 2a 73 56 3e d8 cd 16 3d aa 8f a2 bd 38 13 93 3d
       0.20942369 0.0368174 -0.07937558 0.071814
000010 92 c7 01 3e 04 7c 11 3e b3 d3 86 3e 9e f4 e4 bd
       0.12673786 0.14207464 0.2633339 -0.111794695
000020 b3 ad df bc 90 c7 4c 3e 5c ec 49 3d 01 d0 20 3e
       -0.027304506 0.19998002 0.049297675 0.15704347
000030 63 2e cd bd 02 24 9a 3d 5a ac af bd bc 13 21 be
       -0.10018613 0.07526399 -0.08577795 -0.15730184
000040 b1 cb a4 bc 4a b8 9f bc 0a fe a4 3d 04 74 b4 3d
       -0.020116659 -0.019497056 0.080562666 0.08811191
000050 60 fb 52 3d 26 8f cd 3d a3 94 04 be 32 da d0 bd
       0.05150926 0.10037069 -0.12947325 -0.101978675
000060 f4 6f 9d bd 21 2e 16 3e c1 cb 92 3d 16 93 0c be
       -0.07687369 0.14666034 0.07167769 -0.13727984
000070 9b 67 08 bd b7 68 2d 3e ef b3 14 3e 1a 49 0e bc
       -0.03330193 0.16934477 0.14521764 -0.008684421
000080 8d 39 aa 3d 66 15 a7 3d b7 a5 b8 bc 31 b3 80 bd
       0.08311758 0.08158378 -0.022539956 -0.06284178
000090 20 b3 a4 bd 0f 4c 96 3d 8d 3f bd bc 77 75 31 bd
       -0.08041978 0.07338726 -0.023101592 -0.043324914

linear_relu_stack.4.weight f4 [30, 40]
000000 50 0b 85 3d 43 00 be bd bc f9 d4 bc 9f a8 34 be
       0.06496298 -0.09277394 -0.025997989 -0.17642449
000010 28 51 12 3e 2f b2 2c 3e 09 ea 50 3e e8 1f 82 3d
       0.14288771 0.16864847 0.20401777 0.06353742
000020 57 03 5a 3d f2 cc db bd ff cd 1e be f6 7e e4 bd
       0.05322584 -0.107324496 -0.15508269 -0.111570284
000030 d4 42 09 3d 3e 43 ab bd 5b 1d d5 bd 78 93 94 bd
       0.033510998 -0.08362435 -0.1040599 -0.0725469
000040 aa f4 08 be e2 43 de 3d 36 ec 19 3e b7 2c 7e 3d
       -0.13374582 0.10852791 0.15031514 0.062054362
000050 35 df 3c 3d b6 50 54 3d 89 2b 07 be 22 7b eb bd
       0.046111304 0.051834784 -0.13200201 -0.11498095
000060 fe a9 61 bc 53 2a ca bd 5a 04 29 bd cf 45 1e be
       -0.013773439 -0.09871354 -0.041263916 -0.15456317
000070 1f 4f 1c bc 39 0b b6 3d 95 4a e0 bd c6 8c 18 bd
       -0.009540348 0.08888859 -0.109517254 -0.037243627
000080 f1 39 29 bc 1c bf 32 3d ac 8b c9 bc d3 55 9c 3c
       -0.010328756 0.043639287 -0.024602734 0.019083893
000090 1c 38 b4 bd 52 91 f6 bc a7 46 aa bd bf 21 d1 bd
       -0.087997645 -0.030098591 -0.08314257 -0.10211515
0000a0 d8 57 b6 3c 60 53 ef 3b 44 de de bd 3a a0 99 3d
       0.022258684 0.0073036402 -0.108822376 0.07501264
0000b0 0c 3a 6e 3d 48 e5 8b bc 20 51 40 bd c2 35 ef 3d
       0.058160827 -0.017077103 -0.046952367 0.11680175
0000c0 b6 87 8f bd 0b 11 af bd 5c bd 5f 3d 92 88 c5 3d
       -0.07008307 -0.085481726 0.054623947 0.09645189
0000d0 4e 7a 10 be 40 00 86 3d 7e cd d1 3d 52 9a bb bd
       -0.14109156 0.065430164 0.10244273 -0.09160294
0000e0 a0 f3 04 be b0 08 41 3d e4 56 a7 bd 9a f5 bd 3d
       -0.1298356 0.047127426 -0.0817087 0.092753604
0000f0 c4 19 d5 bd 98 75 df bd 7f 32 bc bd 44 d7 df bd
       -0.10405305 -0.10911101 -0.09189319 -0.109297305
000100 e4 e6 10 be 50 13 5c 3d e0 bb c7 3b a0 21 bb bc
       -0.14150578 0.053729355 0.0060953945 -0.022843182
000110 3e f6 11 bd af ff 03 be 78 34 a8 bc 53 1c 0f 3e
       -0.035635225 -0.12890504 -0.020532832 0.13975649
000120 ea c5 f5 3d 5f 39 a2 bd 6e f9 c4 bd 17 3c 04 be
       0.1200064 -0.07921099 -0.096178874 -0.12913547
000130 6c 29 53 3d ce c4 e3 3d ae fd db 3d b6 30 13 bd
       0.051553175 0.11121522 0.10741745 -0.035935126
000140 96 30 ba 3d d0 3d 88 bd fd cb b9 bd fd d1 04 3d
       0.09091298 -0.06652415 -0.09072111 0.032426823
000150 83 de 42 3d dd 71 3b 3e 31 4c 3e 3e 16 9a b5 bd
       0.047575485 0.18305154 0.18583752 -0.0886728
000160 d3 44 27 bd c1 f8 9b bd 7c c5 d1 bd e3 8c 82 be
       -0.04083712 -0.076158054 -0.10242745 -0.25498113
000170 d1 4b 93 bd 8c b9 f2 3b 3c 8c 85 bd 66 6c c1 3d
       -0.07192195 0.007407373 -0.06520888 0.094445035
000180 7a 79 6f bd be f7 7a 3d 52 17 cc bd fc 75 9c 3c
       -0.05846546 0.06127142 -0.099653855 0.019099228
000190 15 11 f4 3d 14 d6 21 be 1b 46 4f 3d 7f 48 84 3d
       0.11917321 -0.1580432 0.050603967 0.0645914
0001a0 af f5 17 3d d5 15 63 3d 13 ce e9 3c 90 17 0d 3c
       0.037099537 0.055440743 0.028540647 0.008611575
0001b0 b6 de e4 bc d1 c3 6c bd 4e fb 3f 3e 91 8b d2 3d
       -0.027938228 -0.057803933 0.18748209 0.102805264
0001c0 90 d5 1f 3e 9e 8a d5 bd fc fc 4d bb 5b c6 64 bd
       0.15608811 -0.1042683 -0.0031431308 -0.05585323
0001d0 c5 b3 a7 3c e1 b9 81 3d 62 ab 6c be 86 b8 22 3d
       0.020471463 0.06334282 -0.23112252 0.039726757
0001e0 d9 02 79 3d 84 05 50 be 07 f3 a3 bb 6c e3 14 be
       0.06079373 -0.20314604 -0.0050033364 -0.1453988
0001f0 09 5e da 3d 1d fd 3f bc 17 36 9f 3e 62 c3 40 bb
       0.10662467 -0.011718062 0.31095955 -0.0029413332
000200 47 fa 35 3d a6 6a e7 3d 4a 00 16 3e 59 5a 8e 3d
       0.044428136 0.112996385 0.14648548 0.06950826
000210 e5 2d 51 3d ca 94 da bd d1 c5 df bc 5e 6c 5c 3d
       0.05106916 -0.106729105 -0.027316006 0.053814285
000220 88 4e 74 bd 9a eb b0 3d 47 7a 74 bd 26 b7 26 be
       -0.059645206 0.086386874 -0.059686925 -0.16280803
000230 41 a1 36 3d e4 5c 8a bd fb 6e 92 bd 48 1a 47 3d
       0.044587377 -0.06755999 -0.07150074 0.048609048
000240 85 2a bf bd df de 19 be 59 1b 31 be 07 ef c1 bd
       -0.09334282 -0.15026425 -0.17295589 -0.09469419
000250 65 90 16 be 51 5e a4 bd 7a 78 9f 3d 13 04 e2 bd
       -0.1470352 -0.08025802 0.07786651 -0.11035933
000260 a4 54 42 bd 3f e8 b6 bc 6c 04 a6 bb 68 00 32 be
       -0.047444 -0.02232754 -0.005066445 -0.17382967
000270 db d8 18 be 5f 10 a5 bd 2d 2c 02 be da fc 24 bb
       -0.14926474 -0.08059763 -0.12712164 -0.0025175125
000280 30 46 85 3e 65 11 73 be db d5 c3 3d ba 44 bc bd
       0.2603011 -0.23737104 0.09562274 -0.09192796
000290 54 65 d3 3d a9 86 dd 3d dd 78 85 bd 20 41 81 3d
       0.10322061 0.108167 -0.065171935 0.0631125
0002a0 af b1 52 bd 5c 65 04 3e e0 26 ba 3d 37 26 7f be
       -0.051438984 0.1292929 0.09089446 -0.24916922
0002b0 05 dc b6 3d 27 ae 1d 3e 83 93 8e bd 91 4c ef bd
       0.08928684 0.15398465 -0.069617294 -0.11684526
0002c0 cb 42 0c 3e d8 0e f0 bd 9e 6b 29 be 68 38 1f 3d
       0.13697354 -0.11721581 -0.16544959 0.038872153
0002d0 45 17 1d bd 76 0e aa bd 16 3a f6 3d 4b 1f bc 3d
       -0.03835227 -0.083035395 0.12022798 0.09185656
0002e0 43 dc 32 bd 34 41 f1 bd 5a c0 c5 bd 31 38 1e be
       -0.04366709 -0.11780015 -0.09655829 -0.15451123
0002f0 49 90 9a 3d 19 4e 6e 3e 5a 5e cf bd 3d 65 d6 bd
       0.075470515 0.2327198 -0.10125418 -0.104685284
000300 3a 9e 46 3e 98 49 a9 bd 48 96 2d 3c 8a e3 e3 bc
       0.19396296 -0.0826599 0.010594912 -0.02781846
000310 87 ac 0f bc a1 03 e5 3d 58 69 56 be 60 d2 a6 bd
       -0.008769161 0.11182333 -0.20938623 -0.081455946
000320 e9 8e 41 be 5c f8 f3 bc 33 9b 34 bd 4c 4d 1e be
       -0.18902172 -0.029781513 -0.044093322 -0.15459174
000330 2d 6d 34 3d 07 eb f7 3d 2d db 90 3e 54 20 c0 3d
       0.04404943 0.12105375 0.28292218 0.09381166
000340 e7 5f 03 3d ff 56 6e 3e 71 7f 5c 3d 87 70 88 3e
       0.03207388 0.23275374 0.053832475 0.26648352
000350 88 77 ec bd d1 80 45 be 0b 2b f9 bb 29 37 3d 3d
       -0.11546236 -0.19287421 -0.007604008 0.046195183
000360 00 ae e4 3b ce 41 98 bb a9 b7 58 3c c0 0e 43 3b
       0.00697875 -0.0046465164 0.013227382 0.002976343
000370 27 28 75 3e 9c 3b 56 bd 28 2e 53 bd 60 86 07 be
       0.23941098 -0.05230294 -0.05155769 -0.13234854
000380 b7 0d 41 bd cb aa 4d 3d 38 aa 91 bc 13 89 03 3e
       -0.04713222 0.05021171 -0.017781362 0.12845258
000390 e7 3e a9 bd 62 ad 48 3d 1d f7 4b 3c 71 c0 83 bd
       -0.08263951 0.048993476 0.012449053 -0.0643319
0003a0 f0 ed 27 be 63 61 17 bc f9 9f 42 bd 16 5d 0f be
       -0.1639936 -0.009239527 -0.047515843 -0.14000353
0003b0 ba 31 35 bd f0 cb f4 bb 8a 19 db 3d 1a 73 db 3d
       -0.044236876 -0.0074706003 0.106982306 0.10715313
0003c0 c2 b2 62 3d c8 fa 60 bd d0 30 d7 bc 04 6e e6 bb
       0.055346258 -0.054926664 -0.026268393 -0.007032158
0003d0 d4 10 f5 bd 0c 0d a5 bd 58 5d 06 bd 56 57 f7 bd
       -0.119661 -0.08059129 -0.032803863 -0.12077205
0003e0 08 a7 12 bd 7b 75 65 bd f2 87 4a 3d 29 d0 b8 3d
       -0.035803825 -0.05602024 0.049446054 0.090240784
0003f0 f3 fb 20 be aa 68 8d bd c8 b3 d8 3d e7 e5 6e bc
       -0.15721111 -0.06904729 0.105811656 -0.01458118

linear_relu_stack.4.bias f4 [30]
000000 03 5c 8f bc 6c f3 19 be 76 55 46 3e 11 d1 31 3e
       -0.01749993 -0.15034264 0.19368538 0.17364909
000010 7d 13 3c 3e 63 d3 57 3e 3f e8 12 be 67 84 d3 3d
       0.18366809 0.21076731 -0.14346407 0.10327988
000020 dc 99 c7 3d 2c 2e 8e bd e2 99 89 3d 45 eb 22 3e
       0.09746143 -0.069424 0.06718804 0.1591006
000030 e7 6b 57 3c d2 f8 c3 3d 1a 13 87 3e aa 4b 80 3e
       0.0131482845 0.09568943 0.2638176 0.25057727
000040 f6 3b 11 3e f3 20 d9 3c 59 cf a9 3d 52 b8 10 be
       0.1418303 0.02650497 0.082915016 -0.14132813
000050 c0 33 69 3e af 78 a3 3c 4b 74 0f be 88 bc 2c 3e
       0.22773647 0.019955007 -0.14009206 0.16868794
000060 53 aa e3 3d c7 ec 24 3e ee ce 1e be 1c fd 86 bc
       0.11116471 0.16105948 -0.15508625 -0.016478114
000070 b2 b4 43 bc 11 75 76 3e
       -0.011944937 0.24068095

linear_relu_stack.6.weight f4 [40, 30]
000000 4f 80 c0 3d 6c 45 54 bd 6b de 34 bd 4e 9d b1 bd
       0.09399473 -0.05182402 -0.044157427 -0.086725816
000010 6e 5b d6 bd 1d 74 51 3d 05 d5 80 bd cd ae 7b bd
       -0.104666576 0.051136125 -0.0629063 -0.061446
000020 28 0a a1 bd d4 30 c4 3d 28 ca de bd 1a 3b 8c 3c
       -0.07863265 0.09579626 -0.10878402 0.017118026
000030 73 1b c9 bd 1a 2c f8 3d 8d a6 00 3e 43 69 05 3e
       -0.09819689 0.12117787 0.12563534 0.13028435
000040 79 c1 f6 bd 84 ee 14 be af 1b b7 bc 40 ae a1 3b
       -0.12048621 -0.14544111 -0.022352068 0.0049341023
000050 31 4e c3 3d 81 a1 f2 bd 3a ba 17 3e 04 cc e3 3d
       0.09536398 -0.11847211 0.14817134 0.11122897
000060 58 24 db 3c 87 57 8c 3d 9f 8a 0a be b6 2d 69 3d
       0.026750728 0.06852632 -0.13529442 0.05692836
000070 ef f2 d2 bd 03 8a 8c 3d 88 0b fc bd dc 9b 03 3d
       -0.10300242 0.06862261 -0.12306887 0.03213106
000080 1e 2f 92 bd e3 9a 94 bc ba d4 6a 3d 73 ab 86 bd
       -0.07137893 -0.018140262 0.057331778 -0.0657567
000090 f0 10 16 bd a6 5d bf bd af c5 a2 bd d4 02 8e 3d
       -0.036637247 -0.09344034 -0.079478614 0.06934133
0000a0 9c 5c fd bc ec 9e 8d 3d 38 82 8e 3d a5 2e 4f 3e
       -0.030927949 0.069150776 0.06958431 0.20232637
0000b0 f6 86 3d 3d 64 d6 0a 3e 56 27 4d bd 04 34 ab 3c
       0.046271287 0.13558346 -0.05008634 0.020898826
0000c0 5c 4c b7 3d 8c e2 ff 3d 00 40 42 be 22 48 d9 bd
       0.08950111 0.12494382 -0.18969727 -0.10609461
0000d0 10 9b 45 bc df a5 fa 3d 85 1d b6 3d 55 92 cd bd
       -0.012060896 0.12238669 0.08892349 -0.10037676
0000e0 38 f8 64 3d 7f 41 7b bd 16 5b a2 3c 60 86 f0 3d
       0.055900782 -0.06134176 0.019818824 0.1174438
0000f0 9d 72 0a 3e 20 24 da bd 21 76 f9 3d 2f b6 13 3e
       0.13520284 -0.106514215 0.121807344 0.14424966
000100 c6 4e 6a 3d 05 b7 b3 bd b6 b4 72 3c 88 e0 28 bd
       0.05720403 -0.087751426 0.014813593 -0.041229755
000110 4b 07 2a be 7c a5 12 3e fc 70 21 3e c9 05 7e 3e
       -0.16604345 0.1432094 0.15765756 0.24806894
000120 2d 2b f1 3d d1 8f 20 be 7e f0 f5 3c d3 42 25 be
       0.11775813 -0.15679862 0.030021902 -0.16138773
000130 93 4a 05 3e ba 8f bd 3d 8a 7e d3 3d 5a ad 2d 3e
       0.13016729 0.09255929 0.1032687 0.1696066
000140 4b b6 ee bd 71 a8 1a bd 02 75 86 3b 59 db 23 3e
       -0.116558634 -0.037758294 0.004103304 0.16001643
000150 ed e1 25 be 00 ee 63 3e c0 b0 12 bc 8e d2 93 3d
       -0.16199465 0.22258759 -0.008953273 0.072178945
000160 6c 77 4a 3e b9 9e a5 3d f6 ab b3 3d 26 2c 08 be
       0.19772118 0.080869146 0.08773033 -0.13298091
000170 3d 61 fe bd ec 4e 41 3d 87 2d 21 3d 48 30 ed 3d
       -0.124208905 0.047194406 0.03935006 0.115814745
000180 ae 27 83 3d 50 41 69 3e d9 eb 0c 3e cc bd ae 3d
       0.06404053 0.22778821 0.13761844 0.08532295
000190 84 ed 10 3e a5 bd 73 3e 62 a2 94 bd aa 5c 2a be
       0.14153105 0.23802812 -0.072575346 -0.16636911
0001a0 6f 17 e6 bd e5 50 b5 3d 8a 1e 84 be 56 48 27 be
       -0.11234938 0.0885332 -0.2580455 -0.16336188
0001b0 af 86 ec 3d f4 a6 e4 3d 62 e1 2e 3d 2b fa 4e bd
       0.11549126 0.11164656 0.04269541 -0.050531548
0001c0 7f 15 4a 3d e1 f5 03 3d 90 03 0f 3d 62 cb 98 3e
       0.049336907 0.03221691 0.034915507 0.2984267
0001d0 96 7b 09 be de eb 65 be 0d c0 e6 bd 00 28 f1 3d
       -0.1342605 -0.22453257 -0.112670995 0.117752075
0001e0 99 10 09 be a8 23 0f be 3a b1 72 3c 69 f2 ca bd
       -0.13385238 -0.13978446 0.014812762 -0.09909517
0001f0 00 06 a2 3c 1f 44 1a be d1 39 24 3e 18 43 83 3d
       0.019778252 -0.15065049 0.1603768 0.064092815
000200 f3 64 71 3d 70 a4 2f be c9 05 a2 3d 60 53 72 3d
       0.058934163 -0.17152572 0.0791126 0.059161544
000210 4d 33 fd 3c a3 8f 38 bd f0 cf 92 be 5e 4f 13 bd
       0.030908251 -0.045058858 -0.2867427 -0.035964362
000220 1b 04 54 be ff c5 e3 3d 18 7f 1b 3d 86 f0 f9 bd
       -0.20704691 0.11121749 0.037963003 -0.12204079
000230 8c 35 f5 3d 93 88 4d 3e 9c 93 fe bd df de fa bd
       0.11973104 0.2007163 -0.12430498 -0.122495405
000240 bb 78 71 3e bb 2a 3e 3e b0 91 65 3d fc 5b a1 bd
       0.23581211 0.18570988 0.05604714 -0.07878873
000250 c1 3f 09 be ac dd 45 bd 30 b2 cf ba e4 75 14 be
       -0.13403226 -0.048307106 -0.0015845951 -0.14498097
000260 c0 21 05 3e 0a e6 aa bc 59 f0 b0 3d 27 6f 43 be
       0.13001156 -0.020861644 0.08639593 -0.1908537
000270 f4 db de bd ae 0a 07 3e 0a 60 ad 3d ec 39 1d bd
       -0.108817965 0.13187668 0.084655836 -0.038385317
000280 c2 0e 0e 3d f6 9a bd bd 37 89 52 3d a4 4d cb bd
       0.034682043 -0.09258072 0.05140039 -0.09926918
000290 6e 2a b0 3d e4 d8 33 be 4b 66 f4 3b f8 b7 15 bd
       0.08601843 -0.17563206 0.0074584833 -0.0365524
0002a0 1b 14 62 3c 30 64 64 bc 29 21 c5 3d df 07 bf bd
       0.013798739 -0.013939902 0.096254654 -0.09327673
0002b0 10 42 ff bd f9 fd c8 3d 26 fc 8d bc e4 40 2e 3e
       -0.12463772 0.098140664 -0.017332148 0.17016941
0002c0 bc 8c 1a be c7 b9 71 bc 07 8b 14 be 01 6e 0a 3e
       -0.15092748 -0.014753765 -0.1450616 0.13518526
0002d0 33 1e 13 3d 88 12 28 3e af 61 12 bc 7f 39 0c be
       0.035917472 0.16413319 -0.008934422 -0.13693808
0002e0 b1 ce 14 3d aa da ec 3d cf 1b e2 bd b3 ac dd bd
       0.03632993 0.11565144 -0.1104046 -0.108239554
0002f0 4a fc b7 3c c4 96 c7 3d cc 1f 88 b9 01 21 47 3e
       0.022459168 0.09745553 -0.00025963632 0.19446184
000300 1d 4a 11 bd 88 64 04 be af 62 1c 3e dc c3 da 3d
       -0.03547107 -0.12928975 0.1527202 0.106818885
000310 68 96 61 be 53 6d a6 3e a8 fb bf 3d e0 db 24 3e
       -0.22030032 0.32505283 0.093741715 0.160995
000320 da 28 f6 b9 88 45 03 3e e9 c7 a1 bd 3f 09 b8 3d
       -0.00046951213 0.12819493 -0.07899458 0.089861386
000330 3c e4 de 3d 81 55 37 3e 82 78 e1 bd 92 86 f9 3d
       0.10883376 0.17903711 -0.11009313 0.121838704
000340 73 2f a7 3e e1 f2 b8 bd d4 7f ac 3d d0 e7 c4 bc
       0.32653388 -0.090307005 0.08422819 -0.024036318
000350 2c f6 d8 3b 91 db fc 3d a0 d4 30 3e 9f 07 4d bd
       0.006621143 0.123465665 0.1726861 -0.050056096
000360 be 52 a5 bd 23 93 c3 3d 92 df 53 3e 80 eb a6 bd
       -0.080724224 0.095495485 0.20690754 -0.08150387
000370 53 90 90 bd b6 66 35 be 30 66 19 3e 5d bd bc bc
       -0.07058778 -0.17714962 0.14980388 -0.023039514
000380 86 02 9b bd 0d 5f 16 bd fa b7 a1 3d 54 56 73 bd
       -0.07568841 -0.03671174 0.07896419 -0.0594085
000390 17 75 7f bc bb a4 18 bd 26 98 09 be 50 ea 35 be
       -0.015591881 -0.037266474 -0.13436946 -0.17765164
0003a0 56 56 33 be c9 74 a2 bd 30 b7 c8 bd 05 d4 14 3e
       -0.17513403 -0.07932431 -0.09800565 0.14534004
0003b0 2d 60 d2 bd 18 8c 67 3e 13 35 fc 3d bf 16 28 3e
       -0.1027225 0.22612035 0.123148106 0.16414927
0003c0 ce 1a 17 3e 00 30 00 3e 9f fc 7f 3e 78 d1 07 3d
       0.14756319 0.1251831 0.24998711 0.03315875
0003d0 b8 7b 8b 3e 73 f4 3a be 26 eb f9 bd 6a d4 a9 bc
       0.27242827 -0.18257312 -0.12203054 -0.02073117
0003e0 ef 0f b1 bb 14 2d ae 3d 8a 50 01 be d2 b9 28 3e
       -0.0054035108 0.08504692 -0.1262838 0.16477135
0003f0 c1 d8 6e bc 6e dd 18 be 7d cb 3d 3e 17 b1 d3 bd
       -0.014578045 -0.14928219 0.18534656 -0.103365116

linear_relu_stack.6.bias f4 [40]
000000 67 e7 d8 bd c2 81 b2 bd 81 0b 47 3d 25 a3 4e 3e
       -0.105910115 -0.087161556 0.048594955 0.20179422
000010 88 e4 45 3e be 79 16 be c1 3b 19 be c1 f3 06 be
       0.19325459 -0.14694878 -0.149642 -0.13178922
000020 4d b0 55 3e 5b c1 41 3e 81 e2 14 be 0e d7 d2 bd
       0.20868035 0.18921416 -0.1453953 -0.10294925
000030 c4 91 a4 3d c5 34 80 3e 53 b0 a8 3d c0 2c 7a 3e
       0.08035615 0.2504026 0.08236756 0.24431133
000040 df d9 4e 3d 5e d1 ac 3d 89 92 54 be 68 c2 62 3d
       0.050500747 0.08438371 -0.20759024 0.05536118
000050 86 37 c4 bd 5d 0e c9 bd 70 32 4f bd 67 a0 13 bd
       -0.09580903 -0.09817193 -0.05058521 -0.036041643
000060 84 0d a8 bd fd b4 d1 3d e3 db 1f be 82 0b e3 3d
       -0.08205703 0.10239599 -0.15611224 0.11086179
000070 63 4c 01 be 90 64 73 3e 98 a4 3d be e8 10 16 3e
       -0.12626795 0.2376883 -0.18519819 0.14654887
000080 12 1d 96 3e a9 ff 5c 3d 7d ba fe 3d 5e 60 dc 3d
       0.29319054 0.053954754 0.124379136 0.10760568
000090 71 f9 72 3e 9c 07 63 3d 4f 35 66 3e ff b2 4b bc
       0.23727967 0.05542718 0.22481273 -0.012432813

linear_relu_stack.8.weight f4 [50, 40]
000000 98 a3 1f 3e 07 f6 9b bc 6d b5 88 3d a0 23 f7 bd
       0.1558975 -0.019038213 0.06675229 -0.12067342
000010 c8 8b 2e 3d 20 72 74 bc af 37 f5 3d 28 49 f7 bd
       0.042613775 -0.014919788 0.119735114 -0.120745
000020 f8 3d af 3d 6b 62 1f be ce 14 b8 bd eb 33 0d 3e
       0.085567415 -0.15564887 -0.08988343 0.13789336
000030 82 57 3e 3c c1 18 46 bd a4 b2 dd bc 35 25 87 bc
       0.011617543 -0.04836345 -0.027062722 -0.016497234
000040 7e c3 82 3d 72 66 d5 bd bd 50 10 3e 2f f2 81 bd
       0.063849434 -0.104199305 0.14093299 -0.06345021
000050 26 95 09 be 00 f8 bf bd 85 a2 0b 3e 39 2b 20 3e
       -0.13435802 -0.09373474 0.13636215 0.15641488
000060 80 56 17 3e ae 36 02 bc 0e f4 12 be 11 bc 15 bd
       0.14779091 -0.007947607 -0.14350912 -0.036556307
000070 af 30 b0 bd d1 c4 95 3d 11 3a 1f be 21 33 83 3d
       -0.08603036 0.073129304 -0.15549494 0.064062364
000080 72 3c 93 3d 79 1f 0c bc e0 d2 c8 bc 39 af 1f be
       0.071892634 -0.008552426 -0.024514616 -0.15594186
000090 da 4e a7 bb 7d 4a 45 bc a4 e3 96 3d 59 d9 55 bd
       -0.0051058354 -0.012041685 0.07367638 -0.052209232
0000a0 8a 45 20 3e a6 2f 04 be a3 4c 0d 3e b0 2a b6 3c
       0.15651527 -0.12908801 0.13798766 0.022237152
0000b0 c3 c4 27 3d b0 3c d3 3b f5 de 44 3e 79 6a e9 3b
       0.04095913 0.0064464435 0.19225676 0.0071232882
0000c0 64 ce a9 3d e3 22 23 3c 28 63 d4 ba 80 40 2d 3c
       0.08291319 0.009957048 -0.0016203867 0.01057446
0000d0 c8 16 32 3e 8a 4b fd bd 2e b2 68 3e 3c 58 92 3d
       0.17391503 -0.123679236 0.2272422 0.071457356
0000e0 0d 5f e1 3d f5 59 c3 3d f5 d8 f6 bd 84 b4 10 3e
       0.110044576 0.09538642 -0.120531 0.14131361
0000f0 1f d6 46 3d 92 2b 9a 3e 6c b2 1b 3e 5c 72 11 3e
       0.048544046 0.30111367 0.15204781 0.14203781
000100 6b 2d c6 bd 12 47 62 3d 21 04 c2 3d 4f 16 13 bd
       -0.096766315 0.05524356 0.09473444 -0.035909947
000110 53 0d 14 be 75 3d 10 3e 11 a8 95 3e b1 10 7c 3e
       -0.14458208 0.14085944 0.29229787 0.24615742
000120 8a da 36 3d 55 b1 5c 3e cd e7 1f 3e ea ce db bc
       0.04464201 0.21552022 0.15615769 -0.026832063
000130 d4 1e ef bc a0 70 ec 3d 33 ce 5b be 2a b8 b1 3d
       -0.029189505 0.11544919 -0.21465378 0.08677705
000140 68 46 c0 bc 40 f9 9c bc 3a 6c ea 3d 97 96 1d be
       -0.023471072 -0.01916182 0.11446424 -0.15389477
000150 b9 8a 03 3e b2 ca ba 3d 44 86 e4 bd 92 65 b9 3d
       0.12845887 0.09120692 -0.11158422 0.09052576
000160 28 68 ba 3c 96 0f 1f be e8 47 9b bd 84 5c 7e 3d
       0.022754744 -0.1553329 -0.075820744 0.06209995
000170 68 cc b9 3c 8a c5 c2 3d 16 3d f9 3d 21 7b 1d 3e
       0.022680476 0.09510334 0.12169854 0.15379001
000180 66 57 e1 3d 10 f4 b3 3c cc ee 58 bd 5c cf 60 3d
       0.11002998 0.021966964 -0.05296211 0.054885253
000190 1a c3 b9 bd 31 d2 11 3e df 56 e9 bd c0 86 0a bc
       -0.09070416 0.14240338 -0.113935225 -0.0084549785
0001a0 67 16 01 3e 64 76 28 3d 86 32 72 bd b0 10 e1 3c
       0.12606202 0.04112853 -0.059130214 0.027473778
0001b0 c0 7d 44 bb 79 21 02 be 46 b3 13 be 20 11 fc 3c
       -0.002998218 -0.12708081 -0.14423856 0.030769885
0001c0 ee c0 e8 bd 72 14 49 bd f1 b3 1c be 30 29 3f 3d
       -0.113649234 -0.049091764 -0.15303017 0.04667014
0001d0 b8 44 19 be 50 a3 54 3c 8a c8 f6 3d 18 44 0e be
       -0.1496762 0.01297839 0.120499685 -0.13893163
0001e0 2b 33 09 be 41 59 b6 bd cd e7 34 bd e9 c7 ac bd
       -0.13398425 -0.089037426 -0.044166375 -0.08436567
0001f0 a5 51 62 bc 2c 2e 0e be 7f 53 ce bd de 63 f8 bd
       -0.013813411 -0.138848 -0.10074519 -0.12128423
000200 3c f3 1b 3d 78 81 52 3b 25 85 04 3e b0 97 ed 3c
       0.038073763 0.0032120626 0.12941416 0.029002994
000210 42 f5 29 bd 6a 18 a4 3c 88 a1 0a 3e 77 c9 7b bc
       -0.04149366 0.020031173 0.13538182 -0.015367857
000220 d6 fb d3 bc 29 08 a1 3d 37 c3 e5 3d af 6a 99 bd
       -0.02587692 0.078628846 0.11218875 -0.074910514
000230 f6 39 66 3c 60 27 04 3e 3d cf 07 be 15 a7 16 3d
       0.014051905 0.12905645 -0.13262649 0.036780436
000240 97 ae 82 3d b1 9f 16 3d 48 80 ce bc 88 2e 89 3b
       0.063809566 0.036773387 -0.025207654 0.004186455
000250 09 f7 ed bd f1 07 a2 3d f1 50 0f be f0 1c bc bd
       -0.11619384 0.07911671 -0.1399572 -0.09185207
000260 44 ef 0b be 04 a8 51 3d da f7 e6 3d 23 19 28 be
       -0.13665491 0.051185623 0.11277743 -0.16415839
000270 d2 c9 98 3c 95 2c 00 3e c1 dd b3 3d ea ec c7 3d
       0.018650923 0.12517007 0.087825306 0.09761985
000280 fe 54 20 be 30 1e 20 be e8 b1 37 3d 71 45 91 bc
       -0.15657422 -0.15636516 0.0448474 -0.017733308
000290 6d 16 8e bd 6f 75 60 3d 5e 99 23 3e 65 0a 1b 3e
       -0.06937871 0.054799493 0.15976474 0.15140684
0002a0 bf b6 89 3e d9 22 37 3e 0b 83 03 be 5e 86 a2 3d
       0.26897237 0.17884387 -0.12842958 0.07935785
0002b0 fc 15 38 3e 70 5a 25 be 3e 5c cd 3d fc 93 16 be
       0.17977136 -0.1614778 0.100273594 -0.14704889
0002c0 cd 3b 2f 3c 0f 58 b0 3d 1e f1 19 be b8 ad 00 bd
       0.01069541 0.08610546 -0.15033385 -0.03141567
0002d0 15 29 57 3d b9 31 85 3d f2 c7 05 3e ec 02 ae 3d
       0.052529413 0.065036245 0.13064554 0.08496651
0002e0 16 7b 82 3b 7b 68 84 bd 5e 00 ce bc cd e3 85 bd
       0.003981958 -0.064652406 -0.02514666 -0.0653759
0002f0 b6 d2 a3 bd 45 0f 83 3e 02 2c 32 3d 38 75 15 be
       -0.07999174 0.25597587 0.043499 -0.14595497
000300 97 48 1b 3d be a4 39 3e c9 df cf 3c 90 fa 15 3e
       0.037911024 0.1812925 0.025375264 0.14646363
000310 b3 15 43 3e 1d ef 1f bc 40 23 2c 3e dd 04 82 bd
       0.19051246 -0.009761599 0.16810322 -0.06348584
000320 e1 bc b2 bd 9d 67 e4 bd f6 da 43 bd 1b 8f a2 bd
       -0.08727432 -0.11152575 -0.04781624 -0.079374515
000330 69 be bc bd 00 d0 50 bd c7 1b 38 be ef d0 25 be
       -0.09216005 -0.050979614 -0.17979346 -0.16192983
000340 f6 0a d7 3c e6 14 f2 3d 9e 31 de bd 2b 52 f6 bd
       0.026250344 0.11820392 -0.108493075 -0.12027391
000350 79 a5 9c bd 42 22 6d 3c 9c ed 9c bd a9 c2 ac 3d
       -0.07648749 0.0144735 -0.07662508 0.08435566
000360 1b 33 91 bd 15 d1 4e 3e 53 df 24 be 61 f4 d7 bc
       -0.07089826 0.20196946 -0.16100816 -0.026361646
000370 c0 82 65 3d b8 ab 9b bc 5f 60 00 3e cb fe ff 3d
       0.056032896 -0.01900278 0.12536763 0.1249977
000380 5f b0 0e 3e 5d 67 dc 3d 38 e3 06 be bd 9c 1a be
       0.13934468 0.107619025 -0.13172615 -0.15098853
000390 14 05 9d 3d 15 5c b0 3d ef 51 be 3c 9b 0a d3 bb
       0.07666984 0.08611313 0.023232428 -0.0064404733
0003a0 ba b5 c1 3d 22 ec 46 bd 85 f8 0d 3e 24 1c 68 38
       0.0945849 -0.048565038 0.13864334 5.533932e-05
0003b0 d3 3d 9e 3d e0 38 97 bd f0 20 70 3d b7 c6 42 be
       0.07726636 -0.07383895 0.05862516 -0.19021116
0003c0 79 77 ae 3c d8 35 2f 3c 34 ed 20 be 59 c3 98 3b
       0.021297203 0.01069399 -0.15715486 0.004661959
0003d0 c3 9e 3e bd e2 1d d7 3d 00 9b 71 bd c0 24 4e bc
       -0.046538126 0.105037466 -0.05898571 -0.012582004
0003e0 38 62 15 be 46 24 b0 bc 8a 29 90 3d c2 c4 f3 3d
       -0.14588249 -0.021501672 0.07039173 0.11902763
0003f0 6d 29 3e bd 53 87 b9 bc 75 37 05 3e ca 0f 12 3e
       -0.046426225 -0.022647535 0.13009436 0.14263836

linear_relu_stack.8.bias f4 [50]
000000 7d 2b 0d be a6 8e 31 bd cb c3 1c be 97 b8 8c bd
       -0.1378612 -0.04334893 -0.15309064 -0.06871145
000010 01 6e c1 3b ef 52 c3 3e 94 77 11 be 05 eb 2b be
       0.005903006 0.3814921 -0.14205772 -0.16788872
000020 72 a2 86 3d de 97 d7 3d cd fc 6e bb 87 b7 da 3e
       0.06573953 0.10527013 -0.00364666 0.42718145
000030 53 68 f8 bd 43 ba cf bd 58 e7 98 bd 28 fa 91 bc
       -0.12129273 -0.101429485 -0.07466 -0.01781948
000040 b9 05 22 be 35 c3 f4 3d 6f 4a d6 bd 96 7e 82 3e
       -0.15822496 0.11951295 -0.10463416 0.25487202
000050 b7 9f 94 bd b0 0d a1 bd 72 33 be 3d fa dc 5a 3e
       -0.07257026 -0.07863939 0.09287156 0.21373358
000060 9c 1a ff bd d2 9a 74 3e 28 d2 dd bd 48 46 1d be
       -0.12456247 0.23887184 -0.108311 -0.15358841
000070 c7 67 e2 bd 90 45 f2 3d 69 f2 af 3d a3 01 35 3e
       -0.1105495 0.11829674 0.08591158 0.17676406
000080 6e 84 48 3e b2 7b 0a be 20 78 c3 bd 83 ad 11 be
       0.19581768 -0.13523749 -0.095443964 -0.14226346
000090 0b cb 05 be b7 46 fd bd 03 82 3a bd 0f 64 58 bd
       -0.13065736 -0.123670034 -0.045534145 -0.0528298
0000a0 f0 7a 1b bc 2e ba 19 be f0 8b 86 bd 45 84 b9 bd
       -0.00948976 -0.15012428 -0.0656966 -0.090584315
0000b0 44 1d ab 3e 8e ba 0b be 75 63 dd 3e b9 0e 57 3e
       0.33420765 -0.13645384 0.43239942 0.2100171
0000c0 2e 8c db 3c e4 e7 1d bd
       0.026800241 -0.038551226

linear_relu_stack.10.weight f4 [180, 50]
000000 c0 33 9a bb 08 24 c2 3d dc 2e 32 bd 1d a8 3a ba
       -0.004705876 0.09479529 -0.04350172 -0.0007120388
000010 b4 32 a3 3d 47 53 26 3e cf 7e eb bd 1b 95 6d 3c
       0.07968655 0.16242705 -0.11498796 0.014500882
000020 0c 13 6d 3d b8 67 64 3d 55 34 5a bd d3 03 83 3d
       0.057879493 0.055762976 -0.053272564 0.06397214
000030 c5 08 30 bd c2 20 b9 3b 44 00 73 3d dc 0d 8d 3d
       -0.042977113 0.005649657 0.059326425 0.06887409
000040 3a 3e 01 bd d5 0b 22 bd 4d 01 ff bd 39 40 d3 39
       -0.031553484 -0.039562065 -0.1245142 0.00040292906
000050 e4 03 b6 3d 00 1a 13 3a b6 74 da 3c a3 74 3c 3c
       0.08887461 0.0005611479 0.02666698 0.011502418
000060 53 1d d1 3d 49 92 1e bd 9d af c2 3c b2 6a 07 be
       0.10210671 -0.038713727 0.02376538 -0.13224295
000070 00 50 7f 3d 46 f3 22 bc ae 39 ab 3d 7d 86 3e 3c
       0.062332153 -0.009945696 0.08360611 0.011628744
000080 b7 8c 54 bd 82 3e 04 3e ab ca aa 3c 98 b8 dc 3c
       -0.05189201 0.1291447 0.020848593 0.02694349
000090 de 46 45 bd da 18 cf bd a3 92 0b bd 30 85 f7 bd
       -0.048163287 -0.10112162 -0.03407539 -0.120859504
0000a0 46 14 9c bd 60 93 e3 bb 91 8f a1 bd 9e 31 a8 3d
       -0.07621054 -0.0069450587 -0.07888711 0.08212589
0000b0 f4 cb a3 3c 9d ff ba 3c 4a 6f d8 bc 77 8b 2e bb
       0.019994713 0.022826964 -0.026420254 -0.002663342
0000c0 53 e8 74 bd f9 31 00 be ed d4 d3 bd a3 b0 61 bc
       -0.059791874 -0.12519063 -0.10343347 -0.013775024
0000d0 20 93 0c 3d 1d eb a4 bd 58 5a 3e 3d d8 ca c4 3d
       0.034319997 -0.08052657 0.046472877 0.09609002
0000e0 15 62 6f bc ee e9 d4 bd f8 9d 5c bd 61 95 bd 3c
       -0.014610787 -0.10396181 -0.05386159 0.023142518
0000f0 79 6c a7 bc 71 73 ed bb 20 36 29 bc fa af d6 3d
       -0.020437466 -0.0072464277 -0.010327846 0.104827836
000100 f2 26 38 bd 46 fc c5 bd b0 ee 8b bc 7b 82 19 3e
       -0.044959016 -0.09667258 -0.017081589 0.1499118
000110 54 b1 60 3c 95 85 34 3d 58 23 07 be c0 b3 03 be
       0.013714153 0.044072706 -0.13197076 -0.12861538
000120 2b 34 0c bb cb f2 1f be 9f 00 e9 bd 73 52 12 be
       -0.00213934 -0.15619962 -0.113770716 -0.14289264
000130 00 0c da bd 93 59 ad bd 93 b1 ad bd dd ac e6 3d
       -0.1064682 -0.084643506 -0.08481135 0.1126344
000140 58 df 9a 3d 7d b1 8c bd 9e 5c 27 bd 36 46 71 bd
       0.07562131 -0.06869791 -0.04085981 -0.05890485
000150 50 64 34 3c 40 47 84 3d 5a cc be bd d0 57 03 be
       0.0110102445 0.06458902 -0.09316321 -0.12826467
000160 50 e4 9b 3c 1b ec 89 bc fa e9 bd bd 6e 8b 49 bd
       0.019029766 -0.016836217 -0.09273143 -0.049205236
000170 09 78 be 3c 78 3f d2 3d 7c e0 10 3d 89 3e e2 bc
       0.023250597 0.10266012 0.035370335 -0.02761771
000180 d2 74 6b 3c 30 77 d4 bd 31 21 a0 bc 55 8a 7d bb
       0.014371114 -0.10374296 -0.019547077 -0.0038687189
000190 66 fb be bb 25 4c 13 bd 82 d9 e9 bd 69 c3 c0 3d
       -0.005828309 -0.03596129 -0.114184394 0.094122715
0001a0 94 fa a6 bc 07 d9 3c 3d c7 48 03 be 36 05 a7 3d
       -0.020383157 0.04610541 -0.12820731 0.08155291
0001b0 4e 5a e7 3b 90 57 56 3d a2 bd 26 bd c1 b2 4d 3e
       0.0070603257 0.0523296 -0.04070819 0.2008772
0001c0 c9 f6 06 3d fa e1 44 bd 56 c2 30 bd 80 58 cf 3d
       0.032950196 -0.04806707 -0.043154083 0.10124302
0001d0 7c 79 03 bc 49 e6 29 bd 3e b4 01 3e 04 2b 4e 3d
       -0.00802457 -0.041479383 0.12666413 0.05033399
0001e0 61 00 09 3e d8 13 8d 3d 59 e5 c9 3d e1 97 f0 bd
       0.13379051 0.068885505 0.09858198 -0.117477186
0001f0 db 3f 00 be c5 86 60 3e 31 b9 93 3c 38 46 09 bc
       -0.12524359 0.2192641 0.018032642 -0.008378558
000200 aa d8 64 3d d7 f4 47 bd 1f bc bc bd a8 47 0d bd
       0.05587069 -0.04881748 -0.09215569 -0.034492165
000210 dc 5c a5 bb 68 37 83 bd 07 2c 0a bd c8 32 55 3d
       -0.00504647 -0.06407052 -0.033733394 0.052050382
000220 0a 92 e7 3c 56 b1 69 bd 38 af a6 bd cf 9d 98 3c
       0.028267879 -0.057053886 -0.08138889 0.018629937
000230 1c c5 82 3d 74 5a a8 bd 65 cd ab 3d 9f cd fb 3c
       0.06385252 -0.082203776 0.08388785 0.030737696
000240 73 25 93 3d e5 ac a4 3d 91 98 4d 3d fb ce 25 bd
       0.07184877 0.080407895 0.050194327 -0.040480595
000250 b7 c1 8a 3d 97 42 40 3d 76 64 0b 3d 79 ec 57 3e
       0.067752294 0.046938505 0.034031354 0.21086301
000260 f7 b3 03 be 4b 45 b8 3c 69 7e 91 3e de d5 1f 3e
       -0.1286162 0.022493979 0.28416756 0.15608928
000270 b3 f8 b0 bd a8 26 d1 3d 51 14 1c be 4e 7a 56 be
       -0.086411856 0.10212451 -0.15242125 -0.20945093
000280 5c a8 cd bc 7c 4c 68 3d e9 4b 03 be 78 8c f4 3d
       -0.025104694 0.056713566 -0.12821926 0.11940855
000290 92 aa 92 3d 71 bf a1 bb a2 3a cc 3c bb 9d 79 3c
       0.0716144 -0.0049361517 0.024930302 0.01523536
0002a0 88 16 da 3c 44 f4 25 be 88 53 e4 3d e8 25 38 3d
       0.026622072 -0.16206461 0.11148745 0.044958025
0002b0 18 d1 af 3e bf da 21 3e 03 6d 96 3d 1c e8 3b 3e
       0.34339213 0.15806101 0.07345011 0.18350261
0002c0 c3 0d b6 3c c8 57 3b 3c f8 97 27 bc 09 56 98 3c
       0.022223359 0.011434503 -0.010229103 0.018595712
0002d0 07 61 95 3d 65 97 85 bd 81 7d 4d be bc 9d 4a bd
       0.07293897 -0.06523017 -0.20067407 -0.049466833
0002e0 e5 bd 8e 3d 00 fe 20 3a da 67 a1 bd 06 fc 00 be
       0.06969813 0.00061413646 -0.07881136 -0.1259614
0002f0 e1 aa 02 3e d7 47 b9 3c 48 ea 2e 3d 06 6f cb 3d
       0.12760498 0.022617264 0.042703897 0.099332854
000300 07 12 b7 bd 70 8c ce bd b9 0d ab 3d 72 c0 12 be
       -0.08938985 -0.1008538 0.08352227 -0.14331225
000310 1b d0 f7 bd 11 d7 e7 3d 98 2e 6a 3d c1 05 94 bd
       -0.1210024 0.113203175 0.05717334 -0.0722766
000320 7c de bb bc bc 1c d6 bb a8 10 c6 bd 9d 14 8b 3d
       -0.022933237 -0.006534187 -0.09671146 0.06791041
000330 83 d9 c4 bd 5e 74 d5 3c ed b6 50 bc 10 25 04 bd
       -0.096117996 0.026056465 -0.012738925 -0.032261908
000340 39 f6 ee 3d 0f 66 db 3c e7 45 08 be b2 34 29 3e
       0.11668057 0.026782064 -0.13307916 0.16524008
000350 3c 09 b7 3d 92 90 cc bc 42 e0 6d 3d fe 28 9d 3d
       0.08937308 -0.02497128 0.058075197 0.07673834
000360 5a 2d e8 3c 58 ad 80 be 24 d0 da 3c 7a b2 09 3e
       0.028341938 -0.2513225 0.026710577 0.1344699
000370 fe e0 f6 3d 72 31 f5 3d b0 e7 36 3e b4 a3 55 3d
       0.120546326 0.119723216 0.1786182 0.052158073
000380 46 99 05 be 8b e3 0a be 62 b1 10 3d 7f e2 c3 bd
       -0.1304675 -0.13563363 0.035325415 -0.09564685
000390 3d 5c 12 be cd 07 8d 3e a8 57 41 3e 2e c9 b2 bc
       -0.14292999 0.27545014 0.18881094 -0.021824446
0003a0 5a 49 bd bd 4a 81 fc bd db 5d be bd 60 33 7f 3c
       -0.09242506 -0.123293474 -0.09295245 0.015576214
0003b0 c4 8f ff 3d 10 6d d0 bd 80 d6 da bd 94 de 72 3c
       0.12478593 -0.10177052 -0.10685444 0.014823575
0003c0 d0 a1 be 3c 4a 33 87 bd 69 07 fc bd 44 ca ab 3d
       0.023270518 -0.066015795 -0.12306101 0.083881885
0003d0 29 f6 8c be c2 9d 3d 3c 93 f2 8c 3d 39 72 6c 3e
       -0.27531555 0.011573257 0.06882205 0.23090447
0003e0 2a db 14 be 2f 8f 86 3d d8 ec 54 bd d2 1e 06 be
       -0.1453673 0.06570279 -0.051983684 -0.13097695
0003f0 2d 13 00 be f6 b9 85 3d bc 68 20 be a9 c2 45 be
       -0.12507315 0.0652961 -0.15664953 -0.19312538
