baselines/autoenc_basic/Weights/model_weights_AMASS1o2.pth (torch, 104034 bytes, 12 tensors)

linear_relu_stack.0.weight f4 [50, 180]
000000 14 26 be 3d f7 bd 05 3d 71 d8 8b bd d7 57 06 bd
       0.092846066 0.032651868 -0.06828392 -0.032798614
000010 7d 7e 59 3c f2 15 5c bd 3d ad 29 3e e2 0e db bd
       0.013274786 -0.053731866 0.16569991 -0.10696198
000020 e1 fa 06 bd b1 65 b0 3c 45 e3 18 3d 4d 59 6d bb
       -0.0329541 0.021532865 0.037326116 -0.0036216557
000030 9d 3d 8f bc d8 f7 b7 3a 4b dc 7b 3d a4 8c fd bc
       -0.017485434 0.0014035655 0.061489385 -0.030950852
000040 e9 ae 3f bd 3f 90 f2 bc 46 5d 98 3d 44 5f 7f 3c
       -0.046797667 -0.029609798 0.074396655 0.015586678
000050 ad 90 ff 3a ee fe a2 3d d8 6e 86 3d 68 be 92 bd
       0.0019498073 0.0795878 0.065641105 -0.07165223
000060 0e a9 d1 3d ec f2 fd 3c 77 a6 0c bc 9c 52 16 bc
       0.10237323 0.030999623 -0.00858461 -0.009174969
000070 53 18 87 bc 21 41 11 bd 8a 02 02 3b 65 c2 60 bd
       -0.01649109 -0.035462502 0.001983794 -0.05487289
000080 73 4f 14 bd b9 c6 38 bc 69 5d 73 3d e6 6f 1e 3d
       -0.03620858 -0.011277848 0.059415255 0.038680933
000090 4a 03 cc 3c ff 8c 56 3d 58 05 08 3d 81 fa 35 bc
       0.024903912 0.052380558 0.03320822 -0.011107088
0000a0 39 5b c0 bd a5 76 49 3d 99 96 44 bc d5 f5 ca 3c
       -0.09392399 0.049185414 -0.011998796 0.024775425
0000b0 60 06 28 bd 8b 3a 6b bc 64 c8 b4 3d 9c 64 53 bc
       -0.041021705 -0.014357219 0.08827284 -0.012902405
0000c0 50 62 5a 3d a5 06 f5 3c 77 e3 1e bd bb 28 f6 3d
       0.053316414 0.029910395 -0.038791146 0.120194875
0000d0 da c7 9a bd b4 03 2d bc 3b 1a 11 be c8 de d7 bc
       -0.0755765 -0.010559965 -0.14170162 -0.026351348
0000e0 43 02 62 bd cb a3 99 3d 39 72 32 bd e4 8a a5 3b
       -0.05517794 0.07501944 -0.043565962 0.0050519574
0000f0 2b 99 d1 3d 05 92 ac 3d 7d 7a f6 3c 1c 33 87 3d
       0.102342926 0.084262885 0.030087704 0.06601545
000100 57 d0 59 bd fc e0 92 3d 69 68 1b be 00 92 43 bc
       -0.053177204 0.071718186 -0.15176548 -0.011936665
000110 db ab 46 3d 40 b6 f9 3c 6e be 15 3d 53 36 04 3d
       0.048503738 0.030482411 0.03655856 0.03227837
000120 26 7e 9d 3d 6f 8f 9e 3d 9c 5d 73 bd bf 10 0f 3e
       0.076900765 0.077422015 -0.059415445 0.13971232
000130 a2 cf f0 bd 7b d5 35 bd ea b6 ec bd 8c 74 7b bc
       -0.11758353 -0.044393044 -0.115583256 -0.015347611
000140 b3 d2 ce 3b 00 be 5c bc 99 99 02 bd a1 30 a5 3d
       0.0063117384 -0.013473034 -0.031884763 0.08065916
000150 09 c4 60 3d f2 dd 01 bc 2a 7c 55 bc 6a fc 57 3d
       0.054874454 -0.007926451 -0.013030091 0.052730955
000160 62 5c 84 bc 58 a4 0a 3d 2f f0 25 bd 22 06 bc bd
       -0.016157333 0.033848137 -0.04051226 -0.09180857
000170 f3 6c 45 3c 08 4a af bc 8b 0a 16 bd 86 6e a5 3d
       0.012049901 -0.021397606 -0.03663115 0.08077721
000180 26 5c 65 3d 44 56 93 3d bc 9c 63 bc 9f 7a 93 bc
       0.055996083 0.07194188 -0.013892349 -0.018002806
000190 8c 12 37 bd ab 4d 24 3d 19 d4 6d 3d 74 50 16 be
       -0.044695422 0.040113132 0.0580636 -0.14679128
0001a0 07 fb 3c bd 4c be 77 bc d3 e9 4e 3d 2a d8 f2 3c
       -0.046137836 -0.015121054 0.05051596 0.02964409
0001b0 85 cb af 3d 7c b1 5e bd 73 4f 0b 3d 0e 6e c0 3c
       0.0858374 -0.05436848 0.034011316 0.023489978
0001c0 53 7d 00 3d 08 12 41 bd fd 97 94 3d 55 cf 18 be
       0.03136952 -0.047136337 0.07255552 -0.14922841
0001d0 85 12 87 bc 1e bc 9d bc 52 37 67 3d 15 f8 22 3c
       -0.016488323 -0.01925474 0.056449242 0.009946843
0001e0 1a f8 37 bd 75 43 7a 3d 2e 07 9b bb 1c 71 6f bd
       -0.044914342 0.06109949 -0.0047310805 -0.05845748
0001f0 5a 2b f5 3c 40 99 ce bd 1a 64 ca 3d 86 d3 4f be
       0.029927898 -0.10087824 0.09882374 -0.20295534
000200 9b 1e 34 bd a8 0c a6 3c d0 6c 0d 3d f8 b0 63 3d
       -0.0439745 0.020269707 0.0345276 0.055588692
000210 f3 5b a9 39 f8 f4 99 3d 19 54 f0 3c 9c 04 2e bd
       0.000323027 0.07517427 0.029336976 -0.042484865
000220 3b ba 4c bd e0 5d e2 bd b8 81 2c 3e 65 52 9c bd
       -0.04998229 -0.110530615 0.16846359 -0.07632903
000230 b7 a4 c0 bd 8d 8d d9 bd 99 91 43 bb a2 d7 02 3d
       -0.09406417 -0.10622702 -0.0029841422 0.031943925
000240 54 b6 a9 bd db 99 79 3d 21 13 6d bd fd 7f 15 3c
       -0.082867295 0.060937744 -0.05787957 0.009124753
000250 eb 49 7a b9 eb 0a 55 be 3c 74 93 3d 5e f7 f9 bc
       -0.00023869394 -0.20804946 0.07199904 -0.030513462
000260 7c 8e 95 bd 20 30 55 bd 63 b9 06 3d 22 ff c8 3b
       -0.07302567 -0.05204785 0.032891642 0.00613393
000270 6b 87 1e bd 6d 2d 22 bd 72 76 9a 3c df be fe bc
       -0.038703363 -0.039594103 0.018855307 -0.031096874
000280 6b 26 e5 bd b5 5b 40 be ee 8e d5 bd e6 52 b7 3e
       -0.11188968 -0.18784983 -0.10427652 0.35805434
000290 00 91 c1 3b 62 56 21 be e7 15 3e bd 6a c6 8f bd
       0.005907178 -0.15755609 -0.046407606 -0.07020266
0002a0 c3 e9 1b be da 20 15 3d 51 9c 25 bd eb 86 24 3e
       -0.15225892 0.036408283 -0.040432278 0.16067092
0002b0 a0 d3 87 be 28 98 82 be 8c 0c b2 be 5e 64 4d 3f
       -0.26528645 -0.2550671 -0.34775198 0.80231273
0002c0 e5 1b 8e bd f6 d7 8b be 5d 7f cb bd 34 1f 67 bd
       -0.06938914 -0.27313203 -0.09936402 -0.056426242
0002d0 03 8c aa bc 8d b2 84 3d c8 8e 98 bd 93 dc da bc
       -0.020818716 0.06479368 -0.07449108 -0.026716506
0002e0 f5 c2 55 3c 1f ec fe bd 11 17 fa bc 15 7e e5 3c
       0.01304697 -0.1244738 -0.030528577 0.028014222
0002f0 60 80 5a bd 5f d6 c5 bd 89 83 db 3b d9 f4 4a be
       -0.053345084 -0.09660029 0.00669903 -0.19819964
000300 77 79 01 bd 6e af 73 3c c2 57 99 3c 4c 11 0a 3d
       -0.03160998 0.014873369 0.018718604 0.0337079
000310 a3 85 08 bd d6 03 06 bd ec 5e 7e bd 81 ad 14 ba
       -0.03333057 -0.032718502 -0.062102243 -0.0005671606
000320 34 75 d0 bd b2 a3 db bc d5 ad 34 3d f5 98 59 bd
       -0.10178605 -0.026811454 0.04411109 -0.053124387
000330 94 0a 3b 3d 05 90 8c bd 68 4d dd bd 57 a9 be 3c
       0.045664385 -0.06863407 -0.1080578 0.023274107
000340 d0 90 75 3d ce ce ed 3c cb 3e 9f bd a7 64 4b bd
       0.059952557 0.029029276 -0.07775649 -0.049656536
000350 66 97 60 3d ad 05 05 bd f2 0e 35 bd e1 61 2c be
       0.054831885 -0.032476116 -0.044203706 -0.16834213
000360 e7 84 8c 3b e5 47 25 3d 3b d8 5d 3c b2 94 cc 3b
       0.004288304 0.040351767 0.013540323 0.006243312
000370 19 dd 24 3d a5 b6 d5 bc b4 e8 35 3d 61 48 a1 3d
       0.040249918 -0.026088068 0.044411376 0.07875133
000380 82 fe cd 3c f2 21 e3 bb 6f 15 8e bb 74 9e f0 bd
       0.025145773 -0.006931537 -0.004336051 -0.117489725
000390 45 b0 35 3d db c6 00 3d 09 5d f6 bd b1 37 6d bd
       0.044357557 0.031439643 -0.12029464 -0.05791444
0003a0 2c 19 69 bd e2 59 97 bd 4f 45 d3 bc 07 32 20 bd
       -0.05690877 -0.07390191 -0.025789885 -0.03911021
0003b0 48 3e b5 3c 4a bd 76 bd 3d c3 9e bb f2 cf a6 bd
       0.022124425 -0.060239114 -0.0048450516 -0.08145131
0003c0 f3 95 04 3d 97 4e 30 bd 23 85 0c bd f0 5b 81 3d
       0.032369565 -0.0430437 -0.034306657 0.06316364
0003d0 64 76 13 3d f7 4d 5a 3d 77 b4 89 3b 49 cf 7f 3d
       0.036001578 0.05329701 0.0042024213 0.062453542
0003e0 80 ba f5 bc 1b a0 0c 3d fd 69 8e 3d 64 82 e6 bd
       -0.029996157 0.034332376 0.069538094 -0.11255339
0003f0 e2 08 76 bd e5 e5 94 3d a8 28 d4 bd a0 d9 8a 3d
       -0.060067065 0.072704114 -0.10359317 0.0677979

linear_relu_stack.0.bias f4 [50]
000000 e2 59 99 3d 88 a2 5b bd e1 21 89 3c 87 f6 13 3e
       0.07487847 -0.0536218 0.016739788 0.14449511
000010 69 3a 31 bd d1 d9 0a be 2b 4a 1c be a6 ac 6c 3e
       -0.043268595 -0.13559653 -0.15262668 0.23112735
000020 f0 51 d7 3e 5e 9f 1c bd 34 e2 09 3e 53 5d ff 3d
       0.420547 -0.038237922 0.13465196 0.12468972
000030 07 22 c4 3e 22 6d ab 3e 6c de 8f 3c 59 66 d1 3c
       0.3830721 0.334817 0.017562114 0.025561498
000040 22 2e 28 bc d0 f1 51 3c 3e 9c f8 3d f8 52 1f 3e
       -0.010264905 0.012814 0.12139176 0.15558994
000050 90 99 2a 3e 5f 2a 24 3e 70 11 80 3e 87 62 8f 3b
       0.16660142 0.16031788 0.25013304 0.004375759
000060 59 7d e0 3e 16 03 ff 3d 95 5e 4d 3e 42 60 57 3e
       0.43845633 0.124517605 0.20055611 0.21032813
000070 69 ff 5b 3e e0 1c e8 3d 88 80 4c 3e 70 e3 5d 3d
       0.2148415 0.113336325 0.19970906 0.05417198
000080 12 e5 b2 bd 37 c6 1c 3d 1a 60 d7 3d 9a 18 8a bc
       -0.08735098 0.03827497 0.10516377 -0.016857434
000090 6d 95 c1 bb 38 b4 e7 3e 7d 4c 11 3f d8 73 00 be
       -0.0059077055 0.45254683 0.56757337 -0.12544191
0000a0 1d e4 95 bd 28 3f 38 bd 62 74 73 3e 3d f2 c9 3d
       -0.073189 -0.044982105 0.23774865 0.098606564
0000b0 0f 1e 4a bd 63 b9 85 3e a3 c7 fb 3c e9 2a 57 3d
       -0.049345072 0.26118 0.030734843 0.052531157
0000c0 76 97 16 3d 27 d1 e5 3e
       0.03676554 0.44886133

linear_relu_stack.2.weight f4 [40, 50]
000000 35 0f 0d 3e e0 4f d1 3d 9a 37 f9 bd fe 40 41 3e
       0.13775332 0.10220313 -0.12168808 0.18872449
000010 64 4f fc bc bf f9 26 be 57 db 4c be 5f 60 a0 3d
       -0.030799575 -0.16306208 -0.20005547 0.07830881
000020 53 fe c3 bc ed cb ca bd fe 22 17 3c 61 84 19 3e
       -0.023924982 -0.09902177 0.009224651 0.14991905
000030 9d 4b 3e 3e d8 01 5e 3d 0e 5f 90 3d 02 6b eb bc
       0.18583532 0.054200977 0.0704938 -0.028737549
000040 a6 d4 de 3d db a3 14 bd 4a 90 e8 3d 3f 5e 20 3c
       0.10880403 -0.036289077 0.11355646 0.009788095
000050 62 47 3d be 8b 28 9e bd c8 58 ba 3d b9 8d d8 bd
       -0.18484262 -0.07722577 0.09098965 -0.105739065
000060 93 d9 6d be 0e c9 fb 3b a4 c0 ae 3d c1 8a 91 bd
       -0.23227529 0.0076838797 0.08532837 -0.07106543
000070 27 c2 82 3e 65 be f5 bc a5 7e 11 bd ba 0a 9b bd
       0.2553875 -0.029998014 -0.03552117 -0.07570405
000080 b2 28 32 be 82 e2 2f bd e2 7d e0 3a d1 5b 70 3d
       -0.17398337 -0.042940624 0.001712736 0.058681313
000090 ba c1 1d bd fc cb 57 3e 4d 91 1d 3e cb 56 11 3d
       -0.03851483 0.21073908 0.15387459 0.035483163
0000a0 2d 03 4b 3e f2 d8 3d 3d 70 e3 0d 3e 8b 2b c2 bc
       0.1982543 0.046349473 0.13856292 -0.023702404
0000b0 af 49 0a be 9c 6e f1 bd 0c ba 6d bd f6 33 c2 3d
       -0.1350467 -0.11788675 -0.058038756 0.09482567
0000c0 b6 ff 31 3e 5c fc 4c 3c 69 47 34 3e 22 c3 7a 3d
       0.17382702 0.012511339 0.17605366 0.06122125
0000d0 8b b5 50 be 58 77 06 be 84 d4 f0 3c 0d a3 79 be
       -0.20381753 -0.13131464 0.02939821 -0.24378605
0000e0 f6 13 28 bd 53 a7 a9 bc a4 3c 2c bc e4 b6 cd ba
       -0.04103466 -0.02070967 -0.010512505 -0.0015694764
0000f0 95 53 8f bd 05 05 16 bd fa 1e 35 3c bc 4e 16 3e
       -0.06998364 -0.03662588 0.011054749 0.14678472
000100 d8 51 a2 3d 44 a0 35 3e 93 cd 47 3e c1 83 a2 bd
       0.07925767 0.17736918 0.19512014 -0.07935286
000110 c7 fe 8f be cb 49 37 3e d0 f8 12 3e 42 b3 9c 3c
       -0.28124067 0.17899244 0.14352727 0.019128446
000120 36 1e 9a 3d fb 40 26 3e 94 a1 1a be 86 67 5f be
       0.075252935 0.16235726 -0.151007 -0.21816835
000130 90 75 ba 3d 95 c4 b8 be f6 ec 48 3c df 33 7f 3d
       0.091044545 -0.3608748 0.012263527 0.062305328
000140 11 12 62 3e 9f 77 13 3d 2a c4 e6 bc ba fb ed bd
       0.22077204 0.03600275 -0.02816971 -0.11620279
000150 d9 85 9a bd e6 87 e4 3d 3d f7 00 be cf 33 d5 bc
       -0.07545061 0.11158733 -0.12594314 -0.02602568
000160 ab 0c e2 be 1b e2 68 3c e0 af e9 3d c4 82 b2 bb
       -0.4415029 0.014214064 0.114104986 -0.0054477174
000170 74 44 28 3e 2e e0 36 3e 34 d7 01 3e 4f 5d bb bd
       0.16432363 0.17858955 0.1267975 -0.091486566
000180 c5 0d be 3d 60 4a 61 3e 9e 4c d2 3d 31 84 01 3e
       0.0927997 0.22001028 0.1026852 0.12648083
000190 22 3e a5 3d a2 9f 4d 3e 10 e5 c9 bc d2 ec 22 be
       0.080684915 0.20080426 -0.024645358 -0.15910652
0001a0 75 e7 51 3e b6 f7 96 bd 7c 99 e8 3d e5 28 f6 3d
       0.2049845 -0.07371466 0.113574 0.12019519
0001b0 14 1b 10 3c 6f a6 19 3c ff 6d ef bc e5 5c 58 3e
       0.008795518 0.00937806 -0.029227255 0.21129186
0001c0 76 df dd bc 47 06 cb 3c 41 fc a9 bb f2 17 f2 3d
       -0.027084094 0.024783267 -0.0051875417 0.118209735
0001d0 9e 0f df 3b 99 08 59 bc d7 a1 d1 bc ed 66 3a 3d
       0.0068072816 -0.013246679 -0.025589867 0.045508314
0001e0 e2 9b d6 3d a6 7b 89 be 0e 2f 92 3e c4 3d 8c bd
       0.10478951 -0.2685215 0.28551525 -0.06847718
0001f0 69 bb 84 bd c0 62 bf 3d c6 fd 57 3d cd d0 8b bd
       -0.06481058 0.09345007 0.05273225 -0.06826935
000200 8c a1 81 be ae 76 9a 3d 39 c0 d2 3d 58 96 2a bd
       -0.25318563 0.075421676 0.1029057 -0.041647285
000210 cd 5b d4 3c 27 33 28 3e 7f 98 20 3e ee 09 e3 3d
       0.02592268 0.16425763 0.15683173 0.11085878
000220 d2 e8 b2 bd 9c 08 ad bd de 1a 09 bd 47 b8 06 bd
       -0.08735813 -0.08448908 -0.03347289 -0.032890584
000230 79 9b 2f be a6 42 af bd 8a 8c 7a 3e 9e 15 8c 3d
       -0.17149152 -0.08557634 0.24467674 0.06840061
000240 fe 86 66 bd df 3f 54 bd 43 a1 28 3d 12 90 6f 3c
       -0.056281082 -0.051818725 0.041169416 0.014621751
000250 d8 3b 1e bd d3 95 76 3e 5c 7c 53 3d 9d 72 37 bd
       -0.03863129 0.24080591 0.05163227 -0.044787038
000260 79 e5 31 bb c9 82 6d 3d f8 e1 86 3e 37 f8 2e 3d
       -0.0027144833 0.057986055 0.26344275 0.042717185
000270 6a 8c 76 be 73 bb 0f bd e0 19 5d 3e f4 70 23 3e
       -0.24077001 -0.035090875 0.21591902 0.15961057
000280 85 c1 3f 3e d2 2b 4a bd ec 74 3e 3e 5b 7e 48 bd
       0.18726166 -0.049358197 0.1859929 -0.048948627
000290 f9 6c 8a bd a9 bc 64 3e 0b 01 28 be f0 36 9c bd
       -0.06759066 0.22337593 -0.16406648 -0.07627666
0002a0 76 02 62 3e be c2 33 3e 92 8c c1 bd da fb 18 3e
       0.22071251 0.17554757 -0.0945064 0.14939824
0002b0 38 6e 4b be 03 aa 01 3d 64 d5 6f 3e 6d 10 1b be
       -0.19866264 0.031656276 0.23421246 -0.15142985
0002c0 79 69 a6 3e dc 0a 10 be 21 b3 1e 3e c1 15 24 be
       0.32502344 -0.14066643 0.1549802 -0.16023923
0002d0 c5 bf 63 3e 9e 0b 50 bd 78 bd dc 3d da 7f 3b be
       0.22241123 -0.05079233 0.10778326 -0.1831049
0002e0 71 43 e2 3c e4 b8 47 bd 27 e1 ce 3c 0e 09 ab 3e
       0.02762005 -0.04876031 0.025253845 0.33405346
0002f0 96 8a 2a 3e fd a6 8a 3d 12 68 ab bd fc 3d 5a be
       0.16654429 0.06770132 -0.08369459 -0.21312708
000300 2d ec 74 3e 4d 8f e7 3d a1 61 ca bd ad ad 91 3b
       0.23918219 0.11306629 -0.098819025 0.0044457526
000310 5d c1 cf 3c 11 d7 b0 bc 5a 24 95 bd 47 92 31 be
       0.025360757 -0.021586927 -0.07282324 -0.17340957
000320 3c 48 21 3e 6d 8f 2c 3e cc 21 a2 3d a4 4c a8 3d
       0.15750211 0.16851588 0.079166025 0.08217743
000330 ee bb 90 bd c0 ce 9d be 9a 70 60 bd 8b 77 ea 3c
       -0.07067095 -0.308218 -0.054794885 0.028621456
000340 4f 97 f0 3c bc 35 8e 3d 5f 7e 41 3d ac 92 aa bd
       0.029369025 0.06943843 0.047239657 -0.08328757
000350 5b 21 10 bb dc dd 5a 3e d0 ae 2b bd 04 71 1b 3d
       -0.0021992538 0.21373695 -0.04191476 0.037949577
000360 d9 f3 04 3c 02 12 0c be 12 5b 32 be 78 6e 57 ba
       0.008114778 -0.13678744 -0.17417553 -0.000821806
000370 85 c6 d6 3d 87 61 35 3d ee 41 43 be 07 21 ee 3d
       0.10487083 0.044282462 -0.19068119 0.11627393
000380 cd da ec bd 37 2d 47 bd 39 37 e2 bd 63 d4 72 be
       -0.115651704 -0.048627105 -0.11045689 -0.23713832
000390 e2 10 05 be f4 35 af 3d d3 df e8 3d 32 31 e0 bd
       -0.12994722 0.085552126 0.11370816 -0.10946883
0003a0 d4 7a 38 be 98 1d 1c bc 7e a1 9b 3e aa fe 3c 3e
       -0.18015605 -0.00952854 0.30396646 0.18456522
0003b0 9e 84 2d bd 46 5b 7c 3b 5b 5d b3 3d 07 d3 c1 bd
       -0.0423628 0.0038506552 0.087580405 -0.094640784
0003c0 3d 0a ec bd 18 1b cb bd 02 03 95 bc de 54 2b 3e
       -0.1152539 -0.09917277 -0.01818991 0.16731593
0003d0 aa cf 4e bd b9 e8 54 be 7c ba 82 bc 85 29 33 3e
       -0.050491013 -0.20791902 -0.015958063 0.17496307
0003e0 a7 13 da bc 93 45 bc 3e 81 59 17 bc 31 a2 ec 3d
       -0.0266207 0.3677183 -0.009237648 0.11554373
0003f0 00 ad d2 bc 11 9a da bd e6 1c ee bd 89 a3 83 bd
       -0.025717258 -0.10673917 -0.11626606 -0.06427676

linear_relu_stack.2.bias f4 [40]
000000 42 38 44 3d 9f 4e 1e 3e 3c 6f 1b 3e 01 48 e2 3d
       0.047905214 0.15459679 0.15179151 0.1104889
000010 b4 20 49 3d 9d e6 fb 3d 49 4c c0 bd 24 f8 98 bd
       0.049103454 0.12299845 -0.0938955 -0.07469204
000020 10 5d 3b 3e 0a af 02 3d 13 91 46 bd a2 95 10 3e
       0.1829722 0.03190521 -0.048478197 0.1411958
000030 d6 a9 84 3c cf 42 3a 3e e6 66 16 3d fe 07 9a 3e
       0.016194265 0.18189548 0.036719225 0.30084223
000040 90 eb da 3c cc 93 a0 bd e7 62 3e 3d 7b ea 0f 3e
       0.026723653 -0.0784069 0.04648104 0.14054291
000050 02 4b 87 3d c5 f7 68 3d 0d e0 ed 3d 18 10 3d bc
       0.066061035 0.056876916 0.11615 -0.011539482
000060 ee 52 20 3e 5b b4 74 3e cb 08 89 3d 6c 87 4d 3d
       0.15656635 0.23896925 0.0669113 0.050177976
000070 59 93 45 be 3d ad 3a 3e 3f f4 b6 3d 38 89 82 bd
       -0.1929449 0.18230148 0.08933305 -0.06373829
000080 55 d8 a0 bd 71 f9 9a 3e cf 4c 41 3d 51 17 4b 3d
       -0.07853762 0.30268434 0.04719239 0.049582783
000090 fd af 54 be 4d 92 0e 3e 04 5b 9c bb 8a cf ef bd
       -0.20770259 0.13922997 -0.004771592 -0.11709507

linear_relu_stack.4.weight f4 [30, 40]
000000 6e 9e fa 3b 57 bc 98 bd 46 f0 73 be 6b 1f 01 3f
       0.007648281 -0.07457798 -0.23822126 0.50438565
000010 64 33 04 be 46 30 15 3e 68 00 10 be ed 6c 82 3e
       -0.12910229 0.14569196 -0.14062655 0.2547373
000020 32 85 89 3e e7 f0 6c 3e aa 0d 66 3c 65 32 ed 3d
       0.26859432 0.23138772 0.014041344 0.115818776
000030 1c c8 41 be 22 99 e7 bd 14 f4 12 3d 85 f1 1e be
       -0.18923992 -0.11308505 0.035877302 -0.1552182
000040 32 77 8e bd c5 08 ba bd bf 9d 81 3b 94 a5 24 3d
       -0.069563285 -0.09083704 0.0039555724 0.04019697
000050 c1 18 81 be e6 18 62 3e 10 89 dd bd 7a 2d 48 3e
       -0.25214198 0.2207981 -0.10817158 0.19548598
000060 c0 a6 c1 bd 58 8e d1 bb e4 fd 07 3e ea 57 0c 3e
       -0.09455633 -0.0063951425 0.13280445 0.13705412
000070 0b c9 46 3d 66 31 50 3c f3 d3 2e 3e ef 49 69 bd
       0.048531573 0.01270709 0.1707304 -0.056955274
000080 7b 42 04 3e a3 00 55 be f2 66 02 bd 0d 0b 3e 3e
       0.12915985 -0.20801024 -0.031836458 0.18558903
000090 c5 52 ae 3d 48 43 9f 3d 3c 17 ee bd b2 36 a7 bd
       0.08511881 0.07776505 -0.11625525 -0.08164729
0000a0 4f c1 b8 bd ce 86 9f 3c 10 ac 61 3d 5a de 92 3d
       -0.09021246 0.01947346 0.055095732 0.071713164
0000b0 7d 67 71 3d 96 11 fe bd d2 92 3c 3d b8 6b d6 bd
       0.058936585 -0.12405698 0.046038456 -0.104697645
0000c0 a6 2e e3 3d 49 f8 ef b9 d0 9d f8 3b 32 b8 c7 bd
       0.11092882 -0.0004577062 0.007587172 -0.09751929
0000d0 6e e9 13 be 95 12 e6 3d 8f 00 2e 3d 00 c1 9c 3d
       -0.14444515 0.11234013 0.042481 0.07653999
0000e0 69 67 4e bc ee 98 c2 3d 52 70 2f bb 37 cc 14 bc
       -0.012597897 0.09501825 -0.002676983 -0.009081892
0000f0 f9 94 09 be 4e a4 1e be 32 bc 42 3c eb dc 02 be
       -0.13435735 -0.15492365 0.01188569 -0.12779586
000100 c2 ec cb 3a 86 b1 92 bd 78 41 a6 3d 02 81 7a 3d
       0.001555823 -0.07162766 0.08117956 0.061158188
000110 32 6b 68 3d f8 d6 97 ba 60 f1 03 3e 28 4d 06 be
       0.056742854 -0.0011584451 0.12885046 -0.1311537
000120 60 1a a8 bd 29 60 5c bd 39 e7 7b bc 26 a6 86 3d
       -0.08208156 -0.053802643 -0.015374952 0.06574659
000130 be 39 1a 3e 15 ed 49 3d 56 bb 08 bd 3b 61 0f 3e
       0.1506109 0.049298365 -0.033381782 0.14001934
000140 ed ba 92 bd b4 41 0b be d0 90 89 3e 4a ca b5 bd
       -0.071645595 -0.13599283 0.26868296 -0.08876474
000150 63 eb bf bd 58 e5 94 3d 8c 73 71 bd 77 09 16 bc
       -0.09371068 0.07270306 -0.058948085 -0.00915753
000160 fd 34 f3 bd fc a4 12 3e f6 9f 07 be 2e 30 07 bd
       -0.11875341 0.14320749 -0.13244614 -0.033004932
000170 04 f7 1b be 4a 37 96 3d f5 74 a6 3b ec 84 29 bd
       -0.15230948 0.07334764 0.0050798603 -0.04138653
000180 9d 95 1e 3e b7 37 30 be db 76 29 3e b2 93 57 3e
       0.1548676 -0.17208754 0.16549246 0.21052435
000190 f7 1e f6 3d 7f dd c9 bd a2 75 8c 3d 98 bd e6 3d
       0.12017625 -0.098567 0.06858374 0.11266631
0001a0 fe ed 15 be 75 0e e3 bc 7e 5d 2f 3e 03 81 65 3d
       -0.14641568 -0.027716855 0.17125508 0.05603124
0001b0 a9 73 90 be 9c 1f b4 3e a2 54 1d be ab 58 06 be
       -0.28213242 0.35180366 -0.15364316 -0.13119762
0001c0 39 ac 5c 3e 09 db 9d 3e b2 79 1a be b2 e7 59 3d
       0.21550073 0.30831173 -0.15085486 0.053199477
0001d0 d6 8a 66 bd 61 90 09 be 57 ed f7 bd 50 92 a1 3c
       -0.056284748 -0.13433982 -0.12105816 0.019723088
0001e0 8d 28 2f be 0a 17 1b 3c 35 62 05 be bf e3 85 be
       -0.17105313 0.009465942 -0.13025744 -0.2615032
0001f0 ec 9b 38 be c0 ef 69 bd 03 b7 c8 bc 2f e7 15 3e
       -0.1802823 -0.05711341 -0.02450133 0.14638971
000200 6f 82 04 be 28 97 bb 3d 84 ec 42 3e 2d 44 8b 3d
       -0.12940381 0.0915969 0.19035536 0.06800113
000210 f0 08 25 3e 98 20 8d 3d c3 fc 26 be fe 16 e1 3d
       0.1611669 0.068909824 -0.16307358 0.109907135
000220 22 e1 0c be bd b6 0f be e7 ac 8c 3e 80 65 09 3e
       -0.13757756 -0.14034553 0.27475664 0.13417625
000230 d8 39 28 be c7 45 de bd 93 22 05 be 8a d7 df 3d
       -0.16428316 -0.10853153 -0.1300147 0.10929783
000240 b7 08 e5 bb 19 47 c6 3d 7b 37 27 be 1c 6d 04 3e
       -0.0069895643 0.096815296 -0.16329758 0.12932247
000250 0a 3c 3f be b4 16 a9 3d 3d 52 86 3d d1 92 76 bd
       -0.18675247 0.082562834 0.065586545 -0.06019861
000260 5e ed 21 be 16 57 0a 3e f7 90 7f 3e 92 cd c6 3d
       -0.15813205 0.13509783 0.24957643 0.09707178
000270 04 50 d6 bc 11 11 f7 3d ea 79 cc ba 1f 65 4b bd
       -0.026161201 0.12063802 -0.0015600298 -0.049656983
000280 82 9d 0e bd fd ce b7 3e 5e eb 9b bd 3d 11 81 3d
       -0.03481818 0.35900107 -0.07613252 0.06302116
000290 65 e8 ce 3d a9 c5 0b be ff 94 db bd 17 a7 8d 3c
       0.101029195 -0.1364962 -0.10721778 0.017291589
0002a0 9c de 95 3d 6c 7e 84 3d 46 55 81 be 4c ba 06 3e
       0.0731785 0.064694256 -0.2526037 0.13157004
0002b0 ca dd 5b be dc e7 0e 3e ae 04 3c be 89 85 46 3e
       -0.21471325 0.13955635 -0.1836116 0.19386877
0002c0 ab 39 04 3e f5 0f aa 3d 06 9d 6b be 89 06 1b 3c
       0.12912624 0.08303825 -0.23009118 0.009462007
0002d0 1b d5 c8 3d a6 5a d6 3d 36 b4 00 3d 19 08 a2 bc
       0.09806272 0.104665086 0.031421863 -0.019779252
0002e0 70 4e 2b bd d9 4a 49 3e c6 0e 39 3e 02 d1 a9 bc
       -0.04182285 0.19657458 0.18072042 -0.020729546
0002f0 31 0f 05 be ff c0 b5 3c c5 0a da bc a0 d2 0a bd
       -0.12994076 0.022186754 -0.026616463 -0.033892274
000300 54 3b c2 3e d9 44 2e 3d c3 32 c5 bd 5d dd bb bd
       0.3793589 0.042546127 -0.09628823 -0.09173081
000310 44 e0 15 3e 27 5e 08 3d 39 07 43 bd 5d 54 ee 3d
       0.14636332 0.033292916 -0.04761431 0.11637185
000320 ea d4 af be 59 b0 a5 3d 96 42 84 3e 69 85 01 be
       -0.34342128 0.08090276 0.2583205 -0.12648548
000330 31 2d 9a 3e 17 c9 21 be eb da 17 bd d8 fc 84 bd
       0.30112603 -0.15799366 -0.03707401 -0.064935386
000340 95 c4 aa 3d 16 83 1f be de 2d 70 3d 0d bc 6d bc
       0.08338276 -0.15577349 0.058637492 -0.014510167
000350 b4 93 46 3c 6f 52 8c 3d 2b 0d e3 bb 5a 52 7a 3d
       0.012120176 0.068516605 -0.00692906 0.061113693
000360 8d 4d 09 be 68 9a 0c 3e 9d 9e 12 be 93 d4 ac be
       -0.1340849 0.13730776 -0.14318319 -0.3375593
000370 03 fe 9d bd 51 0e 97 bd c1 4a 88 bd db 03 dc 3c
       -0.077144645 -0.073757775 -0.06654883 0.026857307
000380 e4 1e e2 3d 43 16 51 3e 99 c2 0a 3e 06 ec 01 bd
       0.11041048 0.20418648 0.13550796 -0.03171923
000390 9a 0f 83 bd 71 cc 86 3e f5 07 ab 3d a9 39 8f be
       -0.0639946 0.2632785 0.08351127 -0.2797368
0003a0 9a fb 70 bd e6 36 41 3e 89 e7 ed bd de 0a ca bb
       -0.058833696 0.18868598 -0.116164275 -0.0061658463
0003b0 15 e0 82 3d 10 62 8b bb d3 b4 72 bd 08 bf 91 3d
       0.063903965 -0.0042536333 -0.05925448 0.071165144
0003c0 d0 86 4b 3c e5 dc be 3d 56 27 c0 3d 2f 3e 08 bd
       0.0124222785 0.09319476 0.09382503 -0.033262428
0003d0 0b 30 9b bc 33 01 9e 3a c3 4c f2 3d 4b f9 13 be
       -0.018943807 0.0012054801 0.118310474 -0.14450566
0003e0 41 16 5c bd 87 71 b8 3d 03 8c 2b 3e 29 df eb bd
       -0.05373216 0.090060286 0.16752629 -0.11517174
0003f0 b6 70 cc bd eb 09 93 3d 22 cb 84 3e 5a 1a 55 3e
       -0.099824354 0.07179626 0.25936228 0.20810834

linear_relu_stack.4.bias f4 [30]
000000 0a 3c 93 be 50 d4 4f be 0b 23 59 3e a0 5b 3f be
       -0.28756744 -0.20295835 0.21204774 -0.18687296
000010 92 8f 67 3e 91 63 29 bd 99 0c 47 3d f8 6a 3c 3d
       0.22613361 -0.04135472 0.048596 0.04600045
000020 42 15 87 3e ce 02 a5 bc 0b 52 1b 3e 43 8f f4 3d
       0.26383406 -0.020142939 0.15168016 0.119413875
000030 8d c9 09 3e e5 8c ce bd 24 16 1d 3d 05 a6 a1 3b
       0.13455792 -0.10085467 0.038351193 0.004933121
000040 29 ea dc 3d 21 a6 65 3e b5 a9 95 bd 9b 4d 1f be
       0.1078685 0.22426654 -0.0730776 -0.15556948
000050 4b 21 5f 3e 27 e5 57 3e e2 59 b9 3c e2 d8 da bd
       0.21790044 0.21083508 0.022625867 -0.10685898
000060 b6 31 03 be f8 cf b1 bc 54 ea e1 3d 05 9f 33 3d
       -0.12811932 -0.021705613 0.11031023 0.043852825
000070 7d f2 78 bd 8f 30 06 3c
       -0.06077813 0.008190288

linear_relu_stack.6.weight f4 [40, 30]
000000 9d 5b 9b bd 80 b5 28 bd 8c f6 85 bd 07 a1 9c bc
       -0.07585833 -0.041188717 -0.06541166 -0.019119753
000010 94 a5 9d 3d 04 bd 1a be bf fc d4 3d b6 e6 82 3e
       0.07697597 -0.15111166 0.1039977 0.25566643
000020 2d 06 e9 3d fc 4a e0 3d 8d 91 2b 3d 2e 30 3c be
       0.11378131 0.10951802 0.041886855 -0.18377754
000030 16 b0 ee bd 80 b1 5f 3b d3 4d c9 bd 6f 61 4c be
       -0.116546795 0.0034132898 -0.09829297 -0.19959043
000040 83 39 5b be db 4a 8f 3c 22 19 73 3e aa c3 ae bd
       -0.21408658 0.017491749 0.23740056 -0.08533414
000050 df 86 06 be 3b e1 8b bd 29 02 1a be da 66 09 be
       -0.13137387 -0.06830069 -0.15039887 -0.13418141
000060 b6 0a 36 be b3 09 90 bd 30 05 4a bd 65 81 db bd
       -0.17777523 -0.070331 -0.049321353 -0.107180394
000070 38 ac f1 bd 59 bc 07 be 7d d5 d4 3d bc 20 9a bd
       -0.11800426 -0.13255443 0.10392282 -0.07525775
000080 b7 9e c1 bc f3 7f 0d be 23 29 ae bc 9e b7 29 3e
       -0.023635251 -0.1381834 -0.02125985 0.1657395
000090 ce a8 cc 3d 2c 83 c4 3d f3 8d 3d be 30 1f 24 be
       0.099931344 0.095953315 -0.1851118 -0.16027522
0000a0 94 86 69 bd 7e fd e3 3d 82 f4 69 bd 17 1c c8 3d
       -0.05701311 0.11132334 -0.057117946 0.09770983
0000b0 ee e4 a6 3d 9f 6c 09 bd a2 da fa bd ab e9 10 bd
       0.081491336 -0.033550855 -0.12248732 -0.035379093
0000c0 23 9a e4 3d 17 43 70 3d ca c2 e9 3d 95 cd 0d be
       0.11162212 0.05865773 0.11414106 -0.13847955
0000d0 35 7f 75 bd f8 e6 e3 bd 10 97 0d be 52 34 ec bc
       -0.059935767 -0.11128038 -0.13827157 -0.028833542
0000e0 17 42 ad 3c 12 de a9 3d 57 0b 3a be 36 1b 17 3e
       0.021149678 0.0829431 -0.18168388 0.14756474
0000f0 c4 73 68 bd 7e 06 39 be 34 de b0 3d 80 fc 21 3e
       -0.056751028 -0.18068883 0.08636132 0.15818977
000100 09 91 e3 bd 50 25 91 bc 30 39 7f 3c 6d 50 e9 bd
       -0.11111648 -0.017717987 0.015577599 -0.11392293
000110 f4 d6 cb bd 80 e1 9a 3d e9 73 2b be 3c c7 e7 3d
       -0.099531084 0.07562542 -0.16743435 0.11317298
000120 14 7e a9 bd b6 07 81 3d 30 46 21 bd f8 52 35 3d
       -0.082760006 0.06300299 -0.039373577 0.04426858
000130 f8 69 fe bc 35 47 ca bd 9c 50 02 3d d8 5e b5 3c
       -0.03105639 -0.09876863 0.031815156 0.022139952
000140 58 1a 94 3c aa 95 0d be 50 d1 fb bd a0 a6 eb 3d
       0.018078968 -0.13826624 -0.122957826 0.115063906
000150 1c a6 4b 3d b0 c3 d1 bd 16 66 0c be 6c 11 e8 bd
       0.04971896 -0.102424026 -0.13710818 -0.11331448
000160 7d 3a 0c be c8 d9 49 bd e5 b1 1f 3c 54 e6 34 be
       -0.13694187 -0.049279958 0.009747003 -0.17665988
000170 ca f8 a4 bd ea ca bc 3c 3f 1c 3c bd 76 67 4c 3e
       -0.08055265 0.023045976 -0.045925375 0.19961342
000180 39 a2 02 be a4 5d 04 3e 26 1f fa bd e8 3e ab bd
       -0.12757196 0.12926346 -0.12212972 -0.08361608
000190 9e 88 2a bd eb 8a a1 3c 3b 80 d3 3d 02 3c 36 3e
       -0.041634195 0.019719562 0.103271924 0.17796329
0001a0 2c f9 2e 3e 19 a3 e0 bc ef 1b 9b 3d 40 c4 e9 bd
       0.17087239 -0.027421521 0.07573687 -0.11414385
0001b0 6a 57 0f 3e 18 9c c3 3d 2e 70 8a 3e 75 84 b0 3e
       0.1399819 0.09551257 0.2703871 0.34476057
0001c0 07 da a1 3d b2 cb 06 3d 81 55 b3 bd 43 b3 05 be
       0.079029135 0.032909103 -0.08756543 -0.13056664
0001d0 f3 34 d0 3d 39 29 e2 3d f0 b4 b0 3c d4 f1 94 3c
       0.10166349 0.11043019 0.021570653 0.018181719
0001e0 d3 7c fb bd 24 16 e8 3d 51 01 d3 bd 94 40 c4 bb
       -0.12279668 0.11332348 -0.103029855 -0.0059891436
0001f0 df 41 c1 bd 84 ba b9 bd 27 c0 89 3d 61 92 c6 bd
       -0.09436392 -0.09068778 0.06726103 -0.09695888
000200 d8 ce 42 3d e0 4f 3c bc 79 c5 d4 bd 65 17 fc bd
       0.047560543 -0.011493653 -0.103892274 -0.1230915
000210 05 19 39 bd 88 3a 79 3d cb ce d0 bd 4c 09 a0 3d
       -0.045189876 0.060846835 -0.10195693 0.07814273
000220 df aa 4f bd ae ab 34 3d b9 39 d5 3d 94 89 1a be
       -0.050700065 0.04410904 0.104114 -0.15091544
000230 2a 62 13 3e a2 ea ae bd 16 2f 7b bd 82 7b 9d 3d
       0.14392915 -0.085408464 -0.0613242 0.07689573
000240 80 1c 44 3b 04 27 1c 3e 68 ab a9 3b fb bc 3a be
       0.0029924214 0.15249258 0.005177904 -0.18236153
000250 d4 6f f2 3d 7d dd 1e be f2 e2 42 bd b5 29 14 be
       0.11837736 -0.15514179 -0.047579713 -0.14469035
000260 0b 8e 44 be 3b 22 63 3e 55 dd cc 3d 9f 4d 4b 3e
       -0.1919481 0.22181027 0.10003153 0.19853829
000270 12 6c da 3d e9 4a 0d 3e 67 aa ba 3c dd 1c b9 bd
       0.10665144 0.13798107 0.022786332 -0.09038708
000280 a1 58 55 3e 13 ed 58 be 7e eb 83 bc 9e 66 0c 3e
       0.2083459 -0.21184187 -0.016103502 0.1371102
000290 0d 93 b9 bb d7 e1 63 3e e3 93 35 3e 42 0c f0 bb
       -0.005663282 0.2225412 0.17732196 -0.00732568
0002a0 c8 49 cc bd 25 09 1f be 3d af 1a bd 05 5a ef 3a
       -0.0997501 -0.15530832 -0.037764776 0.0018261081
0002b0 07 d3 8e 3e 45 16 7e 3d ca 20 2d bd be 88 d3 3d
       0.27895376 0.062032957 -0.0422676 0.10328816
0002c0 ce 78 8d 3d e4 94 97 bd b8 48 1e 3e f1 65 fd bd
       0.06907807 -0.074014455 0.15457428 -0.123729594
0002d0 b2 72 01 bc 2a 57 00 be d6 60 54 3e eb 10 12 3d
       -0.007900881 -0.1253325 0.20740065 0.035660665
0002e0 81 a7 43 bd 8f 17 e2 bd 00 54 55 bd 18 c9 38 be
       -0.047767166 -0.1103965 -0.05208206 -0.18045461
0002f0 f1 6f 8c bd 50 68 30 be b0 52 8c 3d 88 20 ae bd
       -0.06857289 -0.17227292 0.06851709 -0.085022986
000300 a5 9d d5 bd b2 a3 0d be 12 ef 9b 3e cd 5c 69 3d
       -0.10430459 -0.13831976 0.30455834 0.056973267
000310 d6 22 fa 3d 30 df 3f 3d 98 a5 d7 3b a7 ec 5c bd
       0.12213676 0.046843708 0.0065810196 -0.053936627
000320 81 98 b2 3d 3e b8 0d be 4d ad ca 3d 4e 7e 7f bd
       0.08720494 -0.13839814 0.09896336 -0.062376313
000330 8b 73 72 bd 0f 9f 2b 3e 3c b1 9d bb 85 c9 1a 3d
       -0.05919222 0.16759895 -0.0048123877 0.03778984
000340 ce 86 28 be e5 c4 15 bc 30 c8 dd bd dd ee 27 3d
       -0.16457674 -0.009141182 -0.10829198 0.040999282
000350 dc 17 31 bd a6 ca 06 3e 45 13 85 be 61 7c 1f 3d
       -0.043235645 0.13163242 -0.25991264 0.038936976
000360 6e 61 20 3e b7 ce a5 bd 0f 38 0e be b1 72 cc bd
       0.15662166 -0.08096068 -0.13888572 -0.09982813
000370 2b b3 0c 3c 5e 7e 21 3e 45 d5 a2 3d e3 9a c8 bd
       0.008587639 0.15770862 0.07950834 -0.09795167
000380 81 5c 71 3d 54 c0 2a 3d 1c 3b 91 3d bb 0d a7 3d
       0.05892611 0.041687325 0.07091352 0.08156916
000390 e4 3b a5 3d ee 3f ce 3c 2a e2 f8 bd 92 13 cf be
       0.08068064 0.025176968 -0.12152512 -0.40444618
0003a0 10 dd 10 3e 52 1d 36 be a0 bd 3a 3e 12 1a 8f bb
       0.14146829 -0.17784622 0.18236399 -0.0043671215
0003b0 e3 a5 28 3e e7 3d c1 3d 0d ce 99 3d 23 54 61 bd
       0.16469531 0.09435635 0.07510004 -0.05501188
0003c0 90 72 9a 3d fb 21 ad bd 15 dd 4f bc fc b2 06 be
       0.07541382 -0.08453747 -0.012686987 -0.13154215
0003d0 ea 86 21 bd 87 5f 15 3e 15 bb fe 3d ce 51 f8 bd
       -0.039435305 0.14587222 0.12438027 -0.12124978
0003e0 4a 71 90 be 70 e9 9a bd a1 6b db ba 19 85 b6 3d
       -0.28211433 -0.07564056 -0.001674045 0.08912105
0003f0 c6 47 a3 3d 8d 78 00 bd f4 a8 92 3e 6a 3e 0d 3e
       0.07972674 -0.031364966 0.28644526 0.1379334

linear_relu_stack.6.bias f4 [40]
000000 80 74 77 3d cf 0b 82 be a8 d0 2a be 4b 63 d0 3c
       0.060413837 -0.25399634 -0.16681159 0.025437972
000010 c1 20 f0 bd 47 98 23 bd da 2c 89 3c 00 df 6b 3e
       -0.11724997 -0.039940145 0.01674502 0.23034286
000020 32 b5 fd bc b9 e4 9e 3d 98 4c c2 bc 63 84 a1 bd
       -0.03097019 0.07758469 -0.023718163 -0.07886579
000030 f3 c8 39 3e 39 e1 b4 3e 26 9e 43 3e 0d fb 15 be
       0.18143062 0.3532808 0.19103298 -0.1464655
000040 9c f3 a0 3c 75 01 5e 3d 9f 3b 78 3e 76 29 7d 3c
       0.019647412 0.05420061 0.24241494 0.01545178
000050 df 50 ad 3e 64 fc 95 3d f5 cd d8 bd a9 05 f5 bd
       0.33850762 0.0732353 -0.10586158 -0.1196397
000060 02 45 65 bd c4 fe 98 bc 68 54 06 3e 20 5a a3 bd
       -0.055974014 -0.01867617 0.13118136 -0.07976174
000070 2e fa ed be 12 e6 34 be f9 a1 40 3e 59 37 f2 3c
       -0.46479934 -0.1766589 0.18811788 0.029567407
000080 ba b2 2b 3d e8 9e c5 bd 4c f4 00 3e 48 ba e1 3d
       0.041918494 -0.096494496 0.12593192 0.110218585
000090 e5 d7 b1 3c 62 95 bd 3d 2d 86 44 3e 90 06 db bc
       0.021709392 0.09257008 0.19191809 -0.026736528

linear_relu_stack.8.weight f4 [50, 40]
000000 29 4a da bd 7d 05 f7 3d d1 fa f6 bd e6 98 99 3d
       -0.10658676 0.12061594 -0.12059558 0.07499866
000010 01 61 4e bd 6c 7b a0 bd a4 68 74 3d 54 1d b2 3d
       -0.05038548 -0.07836041 0.059670106 0.08697
000020 6f 01 8c 3d b4 50 12 bd af fd 29 bd 02 2a c8 bb
       0.06836211 -0.035721496 -0.041501697 -0.0061085233
000030 5c 1a 78 3d 28 8b 5f 3d ab a6 0b 3e 55 03 56 3d
       0.060572013 0.05457607 0.13637798 0.05224927
000040 06 94 0b bd f5 7f 8e bd b5 08 80 3d b7 83 b9 bd
       -0.034076713 -0.069579996 0.06251661 -0.09058326
000050 8f 9e 85 bd e6 3d 73 3d 6f 26 77 3d 7e 69 6c bd
       -0.06524383 0.059385203 0.060339388 -0.057717793
000060 fb 9a 95 bd a7 98 51 3d 04 2e 99 bd 56 26 b8 bd
       -0.07304951 0.05117097 -0.0747948 -0.08991687
000070 d1 6d da bc ce 8a 21 3e a5 a5 f5 3d 01 66 f1 3b
       -0.026663693 0.15775606 0.11994485 0.007366896
000080 f6 56 0e bd d2 7b d5 bd f3 33 94 3c 06 09 7a 3d
       -0.0347509 -0.104240075 0.018091178 0.06104376
000090 c9 5d 98 bd af 37 f7 3d 1e be ef bd e2 3d e8 3d
       -0.07439763 0.12071168 -0.11706184 0.11339928
0000a0 c5 ff 16 3d 23 73 a2 3c a4 78 a1 3d 0a f3 4a 3e
       0.036865015 0.019830292 0.078843385 0.19819275
0000b0 81 11 f4 bc 04 ca 9e bb ba da c4 ba d4 12 93 3e
       -0.029793503 -0.0048458595 -0.0015018799 0.28725302
0000c0 85 e3 3c 3e 4f c2 69 3d 10 9a 7a 3d ce 39 55 3d
       0.18446167 0.057070073 0.06118208 0.05205708
0000d0 81 d0 1e be d3 f2 07 be 8e f9 97 3d 1e 91 a7 bd
       -0.15509225 -0.13276224 0.07420646 -0.08181976
0000e0 b0 c1 17 bd 00 a6 75 bd f7 3f 5e be 49 ce 3a 3e
       -0.03704995 -0.059972763 -0.21704088 0.18242754
0000f0 0a fa 8c bd 67 3d 3d bd 93 fa d2 bd ea 29 e4 bc
       -0.06883629 -0.046201136 -0.103016995 -0.027852017
000100 44 3f f1 bc f9 70 80 bd 48 4d dd 3d a3 26 24 3e
       -0.029449113 -0.06271548 0.10805756 0.16030364
000110 ee 4e 99 3d 38 1f 8e bd 30 df 1c be 63 51 4a 3e
       0.07485758 -0.06939548 -0.15319514 0.19757609
000120 c8 f5 c8 bd 0d c3 53 bd bd 6a 04 bd 5e 19 e1 bb
       -0.09812504 -0.051699687 -0.032328356 -0.006869479
000130 9d c0 7d bd 40 5d fd 3d 7a 77 e2 bc 17 6d eb bc
       -0.06195127 0.12371302 -0.027644861 -0.028738542
000140 e9 72 14 be 76 a2 de 3d f4 32 14 be e4 c4 e9 3d
       -0.1449696 0.10870831 -0.14472562 0.11414507
000150 35 d6 0b 3e 06 9c 9c bd e3 2c 88 3d 25 9c 95 3c
       0.13655932 -0.076469466 0.066491865 0.018262932
000160 d0 80 09 be 64 5b 54 bd 4a 95 e8 bc 8e 2c ff 3d
       -0.13428044 -0.05184497 -0.0283915 0.1245967
000170 c8 49 05 3e 4c 33 eb bd a8 9c 80 3d f9 76 76 bd
       0.13016427 -0.114843935 0.0627988 -0.060172055
000180 cc 70 23 3b f8 2a 50 3d f3 9e b2 3d bc 38 0f be
       0.0024939058 0.05082223 0.087217234 -0.13986486
000190 ef 97 a8 3d fd 7f 75 3c 82 ab b8 3d 35 1a 20 be
       0.08232104 0.014984128 0.090170875 -0.15634997
0001a0 04 46 b9 bd 10 7a 6d 3c f5 80 f7 3d e4 d5 32 bd
       -0.090465575 0.014494434 0.120851435 -0.043661013
0001b0 44 cd cb 3d 8e 0c 52 bd 78 eb dd 3b 75 7d 22 be
       0.09951261 -0.051281504 0.006772455 -0.1586817
0001c0 9e 23 2c 3d 22 f8 fc 3d 14 e7 74 bd 9d 5a 3a bd
       0.042026155 0.12352015 -0.059790686 -0.04549657
0001d0 f4 36 df bd 26 f4 af 3d 86 56 c4 bd f2 76 c5 bd
       -0.10899153 0.085914895 -0.095868155 -0.09641828
0001e0 98 16 c8 bd 18 cf f3 bc df 8b 15 be 31 7d 72 bd
       -0.097699344 -0.029761836 -0.14604138 -0.059201423
0001f0 10 5a e5 bc fa 2c bc bc cf 97 c3 3d 5d 59 ad 3d
       -0.027997047 -0.022970665 0.095504396 0.0846431
000200 75 4c 3c bc ea 1d 78 bc 5c a5 f3 bd f0 ac 60 bc
       -0.011492838 -0.015143851 -0.11896774 -0.0137131065
000210 b7 42 a9 3d 6b 88 5b bd 15 6f 15 be 27 6c a7 3d
       0.08264678 -0.053596895 -0.14593156 0.08174925
000220 e3 cc e1 bd c7 ef 01 3e 3c a2 1e be d1 4f 84 3d
       -0.11025407 0.12689124 -0.15491575 0.06460536
000230 80 37 08 3e e6 61 9d 3d 19 fe 82 bd de 28 09 3e
       0.13302422 0.07684688 -0.063961215 0.13394496
000240 00 a5 99 3d a7 0c ec bd c1 21 18 3d d3 df 3b bd
       0.075021744 -0.11525851 0.037141565 -0.045867752
000250 83 3f d5 bd 5a 81 6d 3d 26 d3 e3 bd 1d 74 8d bd
       -0.104125045 0.057984687 -0.11124258 -0.069069125
000260 22 ab e4 bc dc 6a b9 3d 32 03 ab bd a8 d4 2b bd
       -0.027913634 0.09053585 -0.08350219 -0.04195085
000270 af 3d 17 3e 0a ee 8f bd fe a7 25 be b8 ba 76 3d
       0.14769624 -0.07027824 -0.16177365 0.060236663
000280 87 d9 4e bd 22 ed 4b bd ad e2 de bd 18 1e cc bd
       -0.05050042 -0.049786694 -0.10883079 -0.099666774
000290 db 2c 48 3d 11 c9 87 3d f3 3c f1 bc 84 3d 80 be
       0.048870903 0.06630147 -0.029448008 -0.25046933
0002a0 bd f1 c4 3d 27 0d e3 be 54 4e 8c be 85 9b e6 3d
       0.096164204 -0.44345972 -0.2740351 0.11260132
0002b0 fb c1 0a bc 92 a2 a7 3d 0d 2d 57 be b1 ea fc 3a
       -0.0084691 0.08185305 -0.2101328 0.0019296018
0002c0 86 5d f3 3d 76 53 c7 3c f7 f3 8a bb d1 f5 0d be
       0.118830726 0.02433179 -0.0042405087 -0.13863303
0002d0 8f ff c1 bd 08 7b 8a 3e ec 15 be bd e4 3c 44 bd
       -0.09472572 0.2704699 -0.09281525 -0.047909632
0002e0 0b 9d b2 3e c0 6b fd 3d 2b 68 22 be 5b 97 02 3e
       0.3488544 0.12374067 -0.1586005 0.1275305
0002f0 f1 23 af 3e 37 3a 11 3e 83 56 bc bd 3b bf 74 bd
       0.3420711 0.14182363 -0.09196188 -0.059752684
000300 5e 5e 10 be fd b5 15 bd 3f 42 bc be 26 a4 4c 3e
       -0.14098498 -0.03655051 -0.36769292 0.19984493
000310 00 ef 0a be 9b 20 90 be dd c8 f8 bd 40 70 94 3d
       -0.13567734 -0.28149876 -0.12147687 0.072479725
000320 d3 a2 39 3c 75 29 fc 3d 0a 89 1d be b3 cb 7b 3e
       0.011330324 0.12312595 -0.15384308 0.24589424
000330 bf 56 97 3d 73 72 61 3d c8 4c d5 3d 6f 44 c5 3b
       0.073895924 0.055040788 0.104150355 0.006020121
000340 76 bd 9d bc c3 6f 39 3e dd 96 a4 bc 32 de b7 bd
       -0.019255381 0.1810904 -0.020091468 -0.08977927
000350 bd 58 42 3e e8 84 3a be 1e da f6 3c 97 27 5b be
       0.18979163 -0.18214762 0.030133303 -0.21401821
000360 88 12 f7 3d f9 da 5a bd 46 95 36 be d7 2a eb 3d
       0.120640814 -0.053431485 -0.17830381 0.114827804
000370 4e ef f5 3c db d4 9e bd 44 c0 fe bd 65 d9 96 bd
       0.030021336 -0.07755443 -0.124390155 -0.073656835
000380 d5 55 d1 bd 67 0c 91 be e3 a8 0c be 7c 22 0f be
       -0.10221449 -0.28329775 -0.137363 -0.13977998
000390 20 55 e3 3d dd 24 a9 bd 90 11 44 3c 50 bd 3f 3e
       0.11100221 -0.08258984 0.011967078 0.1872456
0003a0 9a 02 cb bd eb e9 0d 3e e6 d2 0a 3d 05 41 85 3e
       -0.099126056 0.13858764 0.033892535 0.26026168
0003b0 a1 fd 25 bd 90 16 69 3d 5d 49 d9 bd cd 6f 21 bd
       -0.040525082 0.056906283 -0.10609696 -0.039413262
0003c0 42 56 b1 3c 9a 3b 7b 3d 60 a7 ce bd e6 bc 24 3c
       0.021647576 0.061336137 -0.10090518 0.0100548025
0003d0 70 0b 1f 3d 3d de a5 3d 1c 5a 32 3d 65 d0 a5 bd
       0.038829267 0.08099029 0.043542966 -0.08096389
0003e0 a1 38 45 be 9d 66 15 bd c9 75 07 be e3 19 1e 3e
       -0.19259883 -0.036474813 -0.13228525 0.15439562
0003f0 0c b7 4f 3d f1 93 b5 b9 22 f8 e3 3d 99 3c a9 3d
       0.050711676 -0.00034633235 0.11131312 0.08263511

linear_relu_stack.8.bias f4 [50]
000000 74 22 a0 3e aa 9e 5c 3e fb e2 fd bd 89 da 1f be
       0.31276286 0.215449 -0.12396809 -0.15610708
000010 59 3a 9a 3e 1b 4c 90 3e 1d 8c 90 3e 8b b9 e1 bd
       0.3012264 0.28183064 0.28231898 -0.11021718
000020 30 d1 0f 3e b1 20 1b 3d 86 44 a3 3d bd 51 15 3e
       0.14044642 0.037872974 0.07972054 0.14581962
000030 21 c9 26 3e a5 b9 c4 3e 75 d2 1d be d0 1a e7 bc
       0.16287662 0.38422886 -0.15412314 -0.028211027
000040 2a 71 00 be 54 e6 20 3e 92 c5 88 3e 32 4c a1 3e
       -0.12543169 0.15712863 0.26713234 0.31503445
000050 43 84 88 3e fc 63 66 3e 81 37 9f 3d ae 7c 7d 3e
       0.26663408 0.22499079 0.077742584 0.24754593
000060 47 75 1b 3e 84 ec 6d 3e e6 9a 50 3e 94 b1 0d 3e
       0.15181457 0.23234755 0.20371589 0.13837272
000070 e6 c4 17 be 57 0a 8b 3e 7e 28 0f 3f 4f 1d 20 3e
       -0.14821205 0.27156326 0.5592116 0.1563618
000080 8f 08 de bb 4b 19 40 3d b8 62 56 3d 62 c8 f0 3d
       -0.0067759226 0.04689912 0.05234024 0.1175697
000090 99 16 87 3d cc 2a bb bd 26 a6 c0 3c c7 46 04 3d
       0.06596107 -0.09139022 0.023516726 0.03229406
0000a0 47 ce 53 bd b2 48 0f bd 64 92 39 3d b6 3d 1b 3d
       -0.051710393 -0.034981437 0.045305625 0.03790065
0000b0 4f 56 cc bd 7c 40 77 3e 09 dc ec bd 62 e2 d2 bd
       -0.099773996 0.24145693 -0.11565406 -0.10297085
0000c0 14 14 4a be b4 7a e0 bd
       -0.19734222 -0.10960904

linear_relu_stack.10.weight f4 [180, 50]
000000 63 51 50 bb 77 c1 8a 3d 72 03 ad bd aa 1a 92 3d
       -0.0031786792 0.06775182 -0.08447923 0.07133992
000010 9f 6e 77 bc b5 df 67 bd c1 d0 bb bd 49 21 92 bd
       -0.015102058 -0.056609828 -0.09170676 -0.07135255
000020 e5 6c 72 3c 89 39 e5 bd 53 de c6 3d fd 47 ca bc
       0.01479647 -0.111926146 0.09710374 -0.02469253
000030 3d 63 fe ba 29 15 b9 3d 44 1b 43 bd 5a c1 db 3d
       -0.0019408237 0.09037239 -0.047633424 0.10730238
000040 eb 6a 0b be 41 0f 8e 3d d3 35 8a bd 00 b6 a3 3c
       -0.13615005 0.06936503 -0.067485474 0.019984245
000050 b6 62 2f 3b e2 1f 04 3d 1a ee ef bd 04 d0 28 ba
       0.0026761717 0.03225697 -0.11715336 -0.0006439688
000060 4a ed 35 bd 14 8e dc 3d 85 ae a4 bc f2 fb 97 3c
       -0.04441575 0.10769287 -0.020102749 0.018552754
000070 d9 a7 a4 3d b7 0d 97 bd 58 55 66 3c 59 ce 2b ba
       0.08039827 -0.07375663 0.0140584335 -0.00065538805
000080 a1 89 86 3d f3 d1 c3 bd e4 6c cb bc 5e 5c 92 3d
       0.065692194 -0.09561529 -0.024832197 0.07146524
000090 2d 89 c3 3d 7a a6 3d bd ff e8 e9 3d e1 41 a8 3d
       0.095476486 -0.046301343 0.114213936 0.082156904
0000a0 d0 ca e3 ba cc bf a3 bc 55 ea 7d bd d5 98 32 3d
       -0.0017379168 -0.019988917 -0.061991055 0.043602783
0000b0 68 f6 fc bd ea e5 a4 bd 38 9f 62 3d 24 78 c1 bd
       -0.12351686 -0.08051665 0.055327624 -0.09446743
0000c0 11 89 b6 bd 62 97 e2 3d 6e 72 cc bc d4 03 39 3d
       -0.08912862 0.1106403 -0.024956908 0.045169666
0000d0 bd 43 76 bd f4 3b fa bc 53 08 82 bd 04 08 02 bd
       -0.060123194 -0.030546166 -0.06349244 -0.031745926
0000e0 c8 16 75 3d e6 4d bc 3c af e8 8b 3b 93 4c 3e 3d
       0.05983618 0.022986364 0.0042696814 0.046459746
0000f0 80 bf 8f 3d 51 07 78 3d fc 04 91 bc b3 f0 95 bd
       0.070189476 0.060553852 -0.017702572 -0.073213
000100 76 95 09 3c 9f 31 65 bd 17 5f 9b 3c 68 82 e8 bd
       0.008397451 -0.055955525 0.01896624 -0.11352998
000110 58 72 80 bd 42 66 fc bb 36 29 09 bc 5c 4b 81 bd
       -0.06271809 -0.00770262 -0.008371642 -0.06313202
000120 fe bd 91 3a da d4 37 bc e0 c4 3c 3d e4 c2 1c bd
       0.0011119244 -0.011220181 0.046086192 -0.0382718
000130 04 8f 47 3d 80 cd 84 3d 10 32 21 bd ce d8 a3 3d
       0.048720375 0.064845085 -0.039354384 0.080003366
000140 a9 5f e0 bd 89 65 9e bc e7 d5 f3 3d 2f 20 e9 bd
       -0.10955746 -0.019335525 0.11906033 -0.11383092
000150 20 73 d4 3c 4b a8 9a bb 97 ab 44 bd 39 b3 8a 3d
       0.025933802 -0.004719769 -0.048015203 0.06772465
000160 44 7a 98 bb 7c 68 89 bd 7a 9b cd bc af eb 2a 3d
       -0.004653247 -0.06709382 -0.025098551 0.04172867
000170 c0 46 3e 3d 1b e3 d6 3d 10 bc 4f bc c2 fa 18 3e
       0.04645419 0.10492536 -0.012679115 0.14939407
000180 14 15 97 3d 02 70 e7 bd 44 6f 99 37 d2 82 d8 bd
       0.07377067 -0.11300661 1.8290833e-05 -0.10571827
000190 03 97 e6 3d 12 41 5f 3d d1 55 d1 bd 2c d5 87 3d
       0.11259272 0.054505415 -0.10221446 0.06632456
0001a0 15 b7 6e bd b3 12 f7 3c 83 32 8c bd 8a a5 b1 3d
       -0.05828007 0.030160284 -0.06845572 0.08674152
0001b0 9f 41 a0 3d 88 46 dd bd c6 1f 00 bd bf d9 72 3d
       0.07825016 -0.108044684 -0.0312803 0.05928969
0001c0 5e a1 31 3d 30 1b c5 3d 2b f0 f0 bc 64 36 6b bc
       0.043366782 0.09624326 -0.029411396 -0.014356229
0001d0 8e c6 25 bd 1f d4 27 bc 03 4b 6e bc 32 72 93 3c
       -0.04047256 -0.010243445 -0.014544251 0.017998789
0001e0 48 57 6d bd b5 bf 56 3d 76 19 97 bc 32 6b 10 3c
       -0.057944566 0.05242892 -0.018444758 0.00881462
0001f0 66 55 8f 3d 2f 4c 4a 3c c2 00 d0 bc 7a 2c b5 3d
       0.0699871 0.012347265 -0.025390986 0.08846374
000200 99 b1 50 3c 54 59 ca 3c dc 53 c1 3d f7 64 ea 3b
       0.012737655 0.024700798 0.09439823 0.007153149
000210 30 81 f9 3d 8e 57 29 3a ca 92 06 ba c4 2d 0d bd
       0.12182844 0.0006459885 -0.00051335676 -0.034467474
000220 ff 46 0f 3c 4e c5 10 bd a7 89 84 bc 0e d9 93 3d
       0.008744954 -0.035344414 -0.016178919 0.07219134
000230 64 5d 29 bd c8 62 8d bd d1 7f 9c 3c b9 d8 c6 3c
       -0.04134883 -0.06903607 0.019103916 0.024273263
000240 e8 74 0b 3d 14 10 e4 3a a3 62 c6 bd a4 36 bb bc
       0.034047037 0.0017399811 -0.09686782 -0.022853203
000250 0c 4b 08 3e a8 40 fb 3d 3a 44 45 bd cf ba d7 bd
       0.13309878 0.122681916 -0.04816077 -0.10533678
000260 2b 25 c4 bd 98 34 ed 3d 27 51 e2 3c 41 86 8f be
       -0.09577402 0.11582297 0.027626587 -0.28032115
000270 7d e2 36 be 3a d8 02 be 52 3c 16 3d 19 0e 86 bc
       -0.17859836 -0.12777796 0.03667862 -0.016364144
000280 88 da 22 be 24 17 0b be 9d e8 12 3e 94 7d 0a 3e
       -0.15903676 -0.13583046 0.14346547 0.13524467
000290 ca bb b7 bd 92 98 46 3d ed 27 f2 bd b6 cc 87 3d
       -0.08971365 0.048485346 -0.118240215 0.066308424
0002a0 ed 2c 7d 39 e3 a5 1e be ea 8d ff 3d 3f 95 6e be
       0.00024144696 -0.15492968 0.1247824 -0.2329912
0002b0 c3 1e e8 bd 38 8d 03 3e 48 3d 02 3e 86 0d 9a be
       -0.11333992 0.1284684 0.1271869 -0.30088443
0002c0 0e 8c 3b 3d 8d 30 ac 3d a6 d0 7c 3d 7f 50 9e 3d
       0.045787863 0.08407698 0.06172242 0.07730197
0002d0 cf a9 0e 3e 9f 95 e1 bd b1 df e2 bd ca f6 7f 3d
       0.13931964 -0.11014866 -0.11077822 0.062491216
0002e0 2a 63 bd bd 8f 50 a3 3d 2d 8f 42 3d c2 11 a6 bc
       -0.0924743 0.0797435 0.047499824 -0.02027214
0002f0 15 59 11 3e ed 37 9c bc 73 22 3e 3d ee c1 1f 3e
       0.14194138 -0.019069636 0.046419572 0.15601322
000300 31 2f 09 3e e4 69 3b bd e0 cf 7f bc 78 80 26 3e
       0.13396908 -0.045755282 -0.015613526 0.16259944
000310 ba cd 5e bd 29 17 e5 bd 38 a3 00 3e 6b 4f 07 3e
       -0.054395415 -0.11186058 0.12562263 0.1321389
000320 41 d7 13 3d e9 32 9a bd 82 d4 07 3c a8 1d 7c 3b
       0.036093954 -0.075292416 0.008290412 0.0038469825
000330 e3 85 d6 bd 82 37 29 3d 39 33 c6 bd 6e 62 d2 bd
       -0.104747556 0.041312702 -0.09677739 -0.1027268
000340 e9 40 d0 bd a3 b6 24 3c c3 f0 44 3e 1e 6a ca 3d
       -0.10168631 0.01005331 0.19232468 0.098835215
000350 45 7d 69 3e f2 4a 4e 3c d2 b4 cf 3d 4d 32 c9 3d
       0.22801693 0.012591111 0.101419106 0.09824047
000360 dc 7d 9e 3b b3 5b 3a 3e 6d 51 ab bd b4 6a ce 3c
       0.004836781 0.18199043 -0.0836514 0.025197364
000370 6c 92 ec bd bb 2e b7 bd 10 f7 03 3e 16 b3 a9 bd
       -0.11551365 -0.0894446 0.12887216 -0.08286111
000380 3f fe 0e 3e 74 ff a5 bd 87 02 03 3e c7 82 cd 3c
       0.13964175 -0.081053644 0.12793933 0.025086774
000390 27 66 04 3d 7e 8e f0 3c 2a af 93 be ca a5 b2 be
       0.032323983 0.02936482 -0.28844577 -0.34892112
0003a0 9f 5e b9 3d 01 c8 c8 3d 94 55 58 3e 1e f9 e2 3d
       0.09051251 0.09803773 0.21126395 0.110826716
0003b0 97 b2 67 3d 8b 4f c3 3d 02 72 da 3d b8 34 2f 3e
       0.0565668 0.09536656 0.106662765 0.17109954
0003c0 c3 fc 80 bd ca fb cd bc cc e6 5e bb 11 82 f2 3c
       -0.062982105 -0.025144476 -0.0034012077 0.029603036
0003d0 5e aa ce bd cc 63 04 be 36 9c 7b bd 2d c7 69 3c
       -0.10091089 -0.12928694 -0.06142827 0.014268679
0003e0 5a 58 dc 3d b2 c0 b2 3b 74 58 6f 3c 54 a1 03 be
       0.10759039 0.0054551 0.014608491 -0.1285451
0003f0 14 08 06 be 33 a4 06 bd 1a 1d 25 be dc bd b6 3b
       -0.13089019 -0.032871436 -0.16124383 0.005576832
