baselines/autoenc_basic/Weights/model_weights_AMASS1o2_i1o2.pth (torch, 104114 bytes, 12 tensors)

linear_relu_stack.0.weight f4 [50, 180]
0.076835334 0.022551952 -0.087531865 -0.093078904 0.012600421 -0.04578959 0.3202738 -0.21436854
0.020219726 -0.05139129 0.02143012 -0.024150766 -0.034669906 -0.00847906 0.043504983 -0.055755727
-0.072901346 -0.0040179715 0.149498 -0.018639486 0.041563064 0.014566332 0.049459733 -0.08690733
0.08412337 0.022811435 -0.02651089 -0.022496449 -0.012261093 0.0056209033 0.018454617 -0.024574239
-0.0013352062 -0.068429396 0.043926965 0.026226075 0.0066786376 0.043643516 0.016338874 -0.006163879
-0.08197474 0.097662754 -0.047595643 0.08721776 -0.013408278 -0.060157858 0.07257579 -0.020594472
0.0326957 0.018457592 -0.05414213 0.16723788 -0.056845915 0.03134238 -0.20196995 0.063195035
-0.00824525 0.03556598 -0.058083266 0.0043026796 0.082630605 0.071500026 0.016953321 0.13959233
-0.02380564 0.11397794 -0.23625246 0.09293646 0.09200702 -0.00063276995 0.025778357 0.037666775
0.06019176 0.061119102 -0.07189103 0.21899408 -0.09843212 -0.020524839 -0.20924109 0.0751619
0.04343519 -0.0366946 -0.039397422 0.09458356 0.041382607 -0.022626324 -0.02575091 0.13455625
0.008308364 0.05535349 -0.12404694 -0.036780503 0.032855902 -0.034864455 -0.042951927 0.10189784
0.048979983 0.06256739 -0.0262724 0.08105341 -0.026145803 0.060809273 -0.015081631 -0.16080616
-0.05696811 -0.022229213 0.04598911 0.058226578 0.07857872 -0.062696606 0.020432506 0.103959024
0.04015262 -0.016884154 0.012057779 -0.22180294 -0.044657987 -0.027805017 0.054221403 0.044811368
-0.051327743 0.054420754 -0.020827366 -0.0039986563 0.056489144 -0.07909977 0.062457185 -0.35114613
-0.08911001 0.0067897914 0.03598181 0.09472364 -0.012627735 0.07192327 0.011987104 -0.01878275
-0.0003654019 -0.087780125 0.16296718 -0.27023837 -0.13271903 -0.13614902 -0.0013896758 0.07889114
-0.10910845 0.059051804 -0.079590775 0.008674602 0.02253392 -0.21234478 0.06942712 -0.22018917
-0.099960394 -0.10791669 0.035371196 0.057773396 -0.086790204 -0.041188087 -0.00525631 -0.01430932
-0.14586592 -0.24968362 -0.14767222 0.2850232 -0.007485449 -0.25395113 -0.043027118 -0.015488525
-0.23020649 0.03402032 -0.07157566 0.22583346 -0.43537113 -0.42290318 -0.5238578 0.9673155
-0.08595327 -0.4235372 -0.09517502 -0.0057453476 -0.024051508 0.05096406 -0.07812562 -0.024804827
-0.009584443 -0.12013807 -0.03639967 0.008468373 -0.057100814 -0.1034785 -0.015806312 -0.21503797
-0.03481605 0.0008114445 0.014814462 0.03812693 -0.05796318 -0.024033483 -0.062185623 -0.016599892
-0.09923405 -0.033040065 0.021007067 -0.06956171 0.04214651 -0.08272695 -0.111717746 0.025105448
0.037587818 0.038863633 -0.07685212 -0.06286057 0.05936632 -0.03961393 -0.06784291 -0.18359601
0.0004985853 0.026526056 0.010102636 0.0008705261 0.025370013 -0.017056147 0.042239048 0.065785766
0.033532444 -0.014987842 -0.027243402 -0.13054803 0.040539585 0.017817523 -0.123303756 -0.06732031
-0.069921225 -0.06578152 -0.031316176 -0.053193673 0.033403683 -0.06858662 -0.027916038 -0.09349267
0.028193854 -0.0567038 -0.037403785 0.051658005 0.023604 0.058477897 -0.0023324394 0.049033683
-0.018042905 0.025660036 0.04552278 -0.12383076 -0.0642246 0.05870023 -0.10624911 0.05268331
00000000: d85b 9d3d dfbe b83c e843 b3bd 27a0 bebd
00000010: ff71 4e3c dd8d 3bbd edfa a33e 6d83 5bbe
00000020: d7a3 a53c ac7f 52bd 388e af3c d4d7 c5bc
00000030: 0802 0ebd c1eb 0abc 4832 323d 1e60 64bd
00000040: 4d4d 95bd 30a9 83bb 0116 193e d6b1 98bc
00000050: 083e 2a3d a0a7 6e3c 4a96 4a3d 78fc b1bd
00000060: e048 ac3d 0cdf ba3c 5e2d d9bc 794a b8bc
00000070: c0e2 48bc 8e2f b83b 232e 973c ea4f c9bc
00000080: 1602 afba b624 8cbd c3ec 333d 11d8 d63c
00000090: 79d8 da3b 8bc3 323d 1ad9 853c 5dfa c9bb
000000a0: 5fe2 a7bd 6903 c83d a6f3 42bd 3a9f b23d
000000b0: 65ae 5bbc 1668 76bd 9ea2 943d bdb5 a8bc
000000c0: edeb 053d 6034 973c 23c4 5dbd 6840 2b3e
000000d0: 43d7 68bd de60 003d 36d1 4ebe 666c 813d
000000e0: 1617 07bc a2ad 113d b8e8 6dbd 7efd 8c3b
000000f0: 3c3a a93d 9b6e 923d b1e1 8a3c 4bf1 0e3e
00000100: 0c04 c3bc 446d e93d 2aec 71be 7955 be3d
00000110: 2d6e bc3d 79e0 25ba 222d d33c 7a48 1a3d
00000120: a38b 763d 0658 7a3d 9b3b 93bd fc3f 603e
00000130: c896 c9bd b523 a8bc 4c43 56be 7bee 993d
00000140: 19e9 313d 144d 16bd 315f 21bd 07b5 c13d
00000150: cf80 293d d75a b9bc 93f3 d2bc 1dc9 093e
00000160: ce1f 083c 57ba 623d 520c febd 27a7 16bd
00000170: e993 063d 08ce 0ebd 5cee 2fbd d1af d03d
00000180: 3c9f 483d 5523 803d 3739 d7bc 55ff a53d
00000190: b92f d6bc 2513 793d f218 77bc 5faa 24be
000001a0: 6557 69bd 0a1a b6bc 145f 3c3d fe7e 6e3d
000001b0: e1ed a03d 1467 80bd 1262 a73c 78e8 d43d
000001c0: 1377 243d a350 8abc fe8d 453c 4f20 63be
000001d0: 4beb 36bd 59c7 e3bc 4317 5e3d 208c 373d
000001e0: 0a3d 52bd 4ce8 5e3d 279e aabc 2907 83bb
000001f0: 2961 673d 0fff a1bd 1bd3 7f3d 6dc9 b3be
00000200: 4f7f b6bd e67c de3b aa61 133d 78fe c13d
00000210: 8fe4 4ebc 824c 933d 8f65 443c 48de 99bc
00000220: 6a93 bfb9 11c6 b3bd dee0 263e af5c 8abe
00000230: 7fe7 07be a66a 0bbe c825 b6ba ae91 a13d
00000240: 4074 dfbd 4ee0 713d 7d00 a3bd eb1f 0e3c
00000250: 0e99 b83c e970 59be ce2f 8e3d 4579 61be
00000260: 09b8 ccbd 6d03 ddbd 63e1 103d cca3 6c3d
00000270: 10bf b1bd d7b4 28bd 203d acbb a371 6abc
00000280: e05d 15be 10ad 7fbe 6337 17be 90ee 913e
00000290: 7f48 f5bb e205 82be 343d 30bd 95c3 7dbc
000002a0: 40bb 6bbe e458 0b3d 4296 92bd e340 673e
000002b0: f7e8 debe c486 d8be 8b1b 06bf fda1 773f
000002c0: 4508 b0bd ded9 d8be 1feb c2bd 7843 bcbb
000002d0: ab07 c5bc b1bf 503d 5300 a0bd 7e33 cbbc
000002e0: 1108 1dbc f30a f6bd d217 15bd eebe 0a3c
000002f0: 8be2 69bd 89ec d3bd 3d7c 81bc ea32 5cbe
00000300: 469b 0ebd 1eb7 543a 5bb8 723c fc2a 1c3d
00000310: cd6a 6dbd dee1 c4bc 5ab6 7ebd 7ffc 87bc
00000320: 393b cbbd 0555 07bd 0317 ac3c 5f76 8ebd
00000330: d2a1 2c3d bf6c a9bd 46cc e4bd f1a9 cd3c
00000340: aff5 193d 792f 1f3d a564 9dbd 0bbd 80bd
00000350: 192a 733d 3742 22bd 39f1 8abd 9800 3cbe
00000360: 7eb3 023a 2c4d d93c 8785 253c 0534 643a
00000370: c6d4 cf3c 55b9 8bbc da02 2d3d b0ba 863d
00000380: 5159 093d 918f 75bc 8e2d dfbc 62ae 05be
00000390: d60c 263d 0ef6 913c ae86 fcbd 3bdf 89bd
000003a0: dc32 8fbd 76b8 86bd 6445 00bd 9ce1 59bd
000003b0: 4dd2 083d 2477 8cbd 2db0 e4bc 1679 bfbd
000003c0: ccf6 e63c 3e42 68bd b634 19bd 5897 533d
000003d0: 2d5d c13c 8586 6f3d d7db 18bb 8bd7 483d
000003e0: b7ce 93bc ff34 d23c 1876 3a3d fb9a fdbd
000003f0: 3088 83bd a76f 703d 2299 d9bd 74ca 573d

linear_relu_stack.0.bias f4 [50]
0.00030042275 -0.062326644 0.039649203 0.15518527 -0.14513403 -0.3258765 -0.24493918 0.43550077
0.52609885 -0.05439457 0.21689354 0.30390167 0.45442757 0.52283746 -0.05193831 0.033693995
-0.093942985 -0.24859896 0.11753667 0.18004829 0.30504027 0.34557274 0.36369422 0.009176464
0.6744697 0.16221718 0.10662246 0.3574809 0.4029019 0.20666508 0.13408674 -0.006128812
-0.1098815 -0.10585494 0.015213659 -0.06379578 -0.01939666 0.6669453 0.7297475 -0.20227298
-0.3172898 -0.10374921 0.41586983 0.063003436 -0.15400793 0.3734875 0.03851954 0.086561896
0.21810204 0.5871957
00000000: 0f82 9d39 394a 7fbd 3467 223d e3e8 1e3e
00000010: 049e 14be 49d9 a6be 56d1 7abe f5f9 de3e
00000020: 6aae 063f d7cc 5ebd 5719 5e3e 0099 9b3e
00000030: bbaa e83e add8 053f 44bd 54bd b702 0a3d
00000040: 2e65 c0bd ba90 7ebe 11b7 f03d 945e 383e
00000050: 3d2e 9c3e e9ee b03e 2136 ba3e e158 163c
00000060: 0caa 2c3f 431c 263e e05c da3d bd07 b73e
00000070: 2849 ce3e 03a0 533e 094e 093e 34d4 c8bb
00000080: 8d09 e1bd 7aca d8bd b642 793c 5da7 82bd
00000090: bfe5 9ebc edbc 2a3f bbd0 3a3f a620 4fbe
000000a0: cf73 a2be 777a d4bd e4ec d43e f207 813d
000000b0: 41b4 1dbe c139 bf3e aac6 1d3d 5d47 b13d
000000c0: 2456 5f3e 7552 163f

linear_relu_stack.2.weight f4 [40, 50]
0.107027344 0.10435618 -0.078798935 0.25981486 0.059879612 -0.23854917 -0.18001719 0.02818265
-0.02951531 0.038861915 0.0129417665 0.19611615 0.17877424 0.19481279 0.05299609 -0.014832953
0.09249817 -0.078291886 0.17322028 0.01772665 -0.21933769 -0.011208812 -0.021259956 -0.15822858
-0.19743401 0.062181547 -0.01025277 -0.11853707 0.2939095 -0.04019816 -0.101740725 -0.06514595
-0.04672072 -0.02502608 -0.06721743 0.10613872 0.009382096 0.282031 0.11967678 -0.025400564
0.114213884 0.036516245 0.059218835 -0.027422057 -0.16092551 -0.27043724 -0.07557899 0.04370089
0.20168507 0.0076436405 0.26159108 0.038680676 -0.23078498 -0.11280864 -0.07848573 -0.3223298
-0.060596574 -0.0056598526 -0.07104375 0.17420608 -0.10528854 0.031965278 -0.05207961 0.14121081
0.04839491 0.093583345 0.3299698 -0.13324723 -0.23757091 0.18811214 0.05843094 0.093790986
0.082493864 0.194168 -0.28937027 -0.1993496 -0.00015916931 -0.5718565 -0.016978608 -0.021107804
0.2501956 0.08686265 -0.07960172 -0.019598572 -0.03929333 0.18813576 -0.2580484 -0.0018298884
-0.42304415 -0.04048847 -0.07176447 -0.045922592 0.21369185 0.29921207 0.037279867 -0.22005369
0.095395945 0.17892995 0.22489488 0.24911915 0.11438764 0.15397768 -0.034968667 -0.1960478
0.113939926 -0.041983955 0.07062337 0.13504988 -0.015044307 -0.104966216 0.059271134 0.15622714
0.010846799 -0.025505507 0.09910676 0.14387332 -0.051767156 -0.051499654 0.040504664 0.07952651
0.20302902 -0.24871005 0.2335646 -0.017983943 -0.07032217 0.14615202 -0.00877427 -0.16500932
-0.20212191 0.08038724 -0.0038157813 0.068200685 -0.019341365 0.07112348 0.23408449 0.076142505
-0.039204504 -0.12400562 0.07649533 0.117088154 -0.20155293 -0.052630063 0.43929127 0.094714105
-0.018811034 0.073383175 0.030737104 -0.032927472 -0.07449811 0.21725576 -0.010044414 -0.025160305
-0.046522573 0.05186641 0.3312957 -0.033951167 -0.3243031 -0.08914507 0.3506033 0.22806099
0.06635759 0.06684614 0.15440571 -0.030634698 -0.0012957891 0.3308426 -0.13826163 -0.073312454
0.17483702 0.2957865 -0.14311582 0.3008941 -0.29313332 0.1176784 0.2300584 -0.23081812
0.3516236 -0.18889749 0.12393746 -0.10054324 0.09048418 -0.11259394 -0.016974142 -0.16122372
0.035119377 0.04677852 0.024516232 0.2682575 0.1898496 0.18152712 -0.28652027 -0.29269227
0.23045519 0.08132488 -0.029989772 0.1514883 0.10071533 -0.09976684 -0.17545812 -0.30811805
0.13371101 0.10822731 0.09280609 -0.027452718 -0.029580824 -0.4769075 -0.17717534 0.13627794
-0.0012055637 0.028174846 0.07813612 -0.1865362 0.01415592 0.26659605 -0.074272424 -0.09933039
-0.0702059 -0.14115618 -0.27156445 -0.015644332 0.10089147 0.18080758 -0.098571226 0.15924408
-0.22317462 0.052037578 -0.3039145 -0.28418374 -0.014908119 -0.10021052 0.11406896 -0.0010029091
-0.28137517 -0.0023970946 0.26317057 0.30826205 -0.019214517 -0.021285007 -0.033758722 -0.08972645
-0.23554978 -0.15651765 0.05291456 0.18799204 -0.09683477 -0.15890506 -0.006662156 0.18480524
0.09316413 0.61424893 0.0606186 0.17984182 -0.10232282 -0.08912222 -0.15731715 -0.12323588
00000000: 2731 db3d b1b8 d53d 5661 a1bd 7406 853e
00000010: 5344 753d 3c46 74be 6d56 38be 4ddf e63c
00000020: 17ca f1bc ac2d 1f3d b409 543c acd2 483e
00000030: 9810 373e 017d 473e 6e12 593d ea05 73bc
00000040: ae6f bd3d 7f57 a0bd a860 313e 7b37 913c
00000050: 0f9a 60be 2aa5 37bc 5c29 aebc ac06 22be
00000060: 242c 4abe 14b2 7e3d 3cfb 27bc 90c3 f2bd
00000070: 4e7b 963e d3a6 24bd 715d d0bd 3d6b 85bd
00000080: 3a5e 3fbd 7e03 cdbc 4ba9 89bd 425f d93d
00000090: 5db7 193c 5e66 903e 1a19 f53d d814 d0bc
000000a0: f8e8 e93d 0f92 153d 738f 723d 39a4 e0bc
000000b0: a8c9 24be c076 8abe 28c9 9abd b4ff 323d
000000c0: 8886 4e3e 8177 fa3b 44ef 853e a16f 1e3d
000000d0: e652 6cbe 3708 e7bd 20bd a0bd 6908 a5be
000000e0: 1d34 78bd 4976 b9bb 637f 91bd 1463 323e
000000f0: 85a1 d7bd 06ee 023d 6e51 55bd 9199 103e
00000100: be39 463d a0a8 bf3d cdf1 a83e f671 08be
00000110: ca45 73be 78a0 403e 4855 6f3d 7d15 c03d
00000120: 8bf2 a83d fad3 463e 5728 94be 4d22 4cbe
00000130: b0e6 26b9 3065 12bf b916 8bbc 46ea acbc
00000140: a319 803e 0ce5 b13d 3a06 a3bd 2f8d a0bc
00000150: 0bf2 20bd a9a6 403e eb1e 84be ded8 efba
00000160: 3e99 d8be 3dd7 25bd 40f9 92bd 5419 3cbd
00000170: 09d2 5a3e 5332 993e c6b2 183d c155 61be
00000180: f35e c33d 6a39 373e d84a 663e 1719 7f3e
00000190: 1144 ea3d 53ac 1d3e 4e3b 0fbd c1c0 48be
000001a0: 5659 e93d 5ef7 2bbd fca2 903d 844a 0a3e
000001b0: 667c 76bc 87f8 d6bd 4ac6 723d 02fa 1f3e
000001c0: c6b6 313c edf0 d0bc 7cf8 ca3d 8753 133e
000001d0: cc09 54bd 4df1 52bd 38e8 253d cbde a23d
000001e0: d7e6 4f3e d9ad 7ebe 8f2b 6f3e 1053 93bc
000001f0: 1205 90bd e0a8 153e f5c1 0fbc 34f8 28be
00000200: 0cf9 4ebe 11a2 a43d 3012 7abb cdac 8b3d
00000210: c871 9ebc 30a9 913d d8b3 6f3e 9af0 9b3d
00000220: e794 20bd a9f6 fdbd 95a9 9c3d eacb ef3d
00000230: e463 4ebe 9f92 57bd c9ea e03e 78f9 c13d
00000240: 9919 9abc eb49 963d 61cc fb3c f5de 06bd
00000250: 7792 98bd 4b78 5e3e 5391 24bc fc1c cebc
00000260: 748e 3ebd df71 543d 979f a93e 6110 0bbd
00000270: 0e0b a6be b191 b6bd 4782 b33e d288 693e
00000280: 7de6 873d a1e6 883d 881c 1e3e 9ef5 fabc
00000290: 78d7 a9ba 3464 a93e 7594 0dbe d724 96bd
000002a0: 7a08 333e 5471 973e f48c 12be cb0e 9a3e
000002b0: 9215 96be 5f01 f13d 6e94 6b3e 965b 6cbe
000002c0: 0208 b43e 586e 41be ecd2 fd3d 9de9 cdbd
000002d0: c54f b93d a797 e6bd 5b0d 8bbc d517 25be
000002e0: 56d9 0f3d d59a 3f3d 44d6 c83c 0c59 893e
000002f0: ef67 423e 3fe2 393e c9b2 92be c3db 95be
00000300: 72fc 6b3e a98d a63d 1cad f5bc c01f 1b3e
00000310: d743 ce3d 8f52 ccbd 4bab 33be a6c1 9dbe
00000320: 8aeb 083e 48a6 dd3d 1f11 be3d 86e4 e0bc
00000330: 7c53 f2bc 382d f4be 746d 35be 728c 0b3e
00000340: 0104 9eba efce e63c d505 a03d 5803 3fbe
00000350: 3bee 673c 477f 883e 241c 98bd bb6d cbbd
00000360: 1cc8 8fbd 3f8b 10be 7f0a 8bbe 8b28 80bc
00000370: 30a0 ce3d 9f25 393e b6df c9bd e110 233e
00000380: e387 64be 5b25 553d ae9a 9bbe 8880 91be
00000390: 2f41 74bc 2c3b cdbd fd9c e93d 0c74 83ba
000003a0: 6810 90be 9318 1dbb 4bbe 863e 86d4 9d3e
000003b0: c367 9dbc e55d aebc 9646 0abd 80c2 b7bd
000003c0: f633 71be 2a46 20be f0bc 583d fc80 403e
000003d0: 4f51 c6bd 02b8 22be 374e dabb 963d 3d3e
000003e0: d6cc be3d 6b3f 1d3f 364b 783d 7428 383e
000003f0: a08e d1bd b685 b6bd bf17 21be 1863 fcbd

linear_relu_stack.2.bias f4 [40]
0.01198372 0.2728604 0.12584142 0.13994876 0.08478057 0.05453408 -0.18234742 -0.19107573
0.22691186 0.060715526 -0.061894003 0.3044119 -0.12143756 0.21017718 0.020946901 0.3345939
-0.013979059 -0.36515385 -0.17035632 0.05432122 -0.015656589 0.063389525 0.09372136 -0.18375723
0.143608 0.24491875 0.13248695 0.04402972 -0.39644277 0.20428923 0.055925522 -0.0014689657
-0.03347078 0.42841586 -0.15700468 0.08686504 -0.22086 0.20812896 -0.11536119 -0.1321229
00000000: 5d57 443c 5cb4 8b3e 93dc 003e ba4e 0f3e
00000010: 6fa1 ad3d 215f 5f3d 48b9 3abe 5ba9 43be
00000020: 955b 683e d8b0 783d 9184 7dbd e0db 9b3e
00000030: 41b4 f8bd b038 573e d698 ab3c e44f ab3e
00000040: 6c08 65bc 72f5 babe e371 2ebe ed7f 5e3d
00000050: 3f42 80bc 5ed2 813d fcf0 bf3d db2a 3cbe
00000060: fa0d 133e fbcb 7a3e a9aa 073e 8258 343d
00000070: 8cfa cabe 3231 513e 2912 653d 4f8a c0ba
00000080: a818 09bd 5359 db3e d6c5 20be 4ce6 b13d
00000090: 2029 62be c21f 553e 7d42 ecbd 3a4b 07be

linear_relu_stack.4.weight f4 [30, 40]
0.24364038 -0.03716713 -0.2838067 0.53617924 -0.21321623 0.15384552 -0.14498505 0.3230041
0.27013183 0.41249144 0.12116856 0.011046716 0.036725737 -0.12035714 -0.057386093 -0.15857655
-0.0833653 -0.08947364 -0.12490414 0.072300926 -0.21650147 0.23082432 -0.19692414 0.25130522
-0.17065711 -0.024174228 0.05635352 0.13892347 0.03436541 0.054934986 -0.051940106 -0.15798497
0.17842157 -0.18459462 -0.04052184 0.25972465 0.087757945 -0.05311983 -0.13915886 -0.07349631
-0.092107385 0.025456123 0.055668343 0.10280645 0.058607563 -0.12156843 0.04512723 -0.09948755
0.11902855 -0.005716535 0.013328247 -0.08836024 -0.14142379 0.10803666 0.04207864 0.080930814
-0.01562712 0.09501825 0.010692835 -0.01123227 -0.12953737 -0.13437097 0.019407969 -0.13530004
0.012798576 -0.0515236 0.08929155 0.060936768 0.05063571 0.025625587 0.16770563 -0.12979844
-0.08208156 -0.053014666 -0.010275209 0.06394331 0.15002315 0.04710407 -0.039363652 0.1400349
-0.16079837 -0.22867948 0.16024502 -0.09257953 -0.19342992 -4.8485734e-05 0.04719756 0.051754374
-0.021300433 0.12728466 -0.021832144 -0.12002046 -0.10983309 0.25891453 -0.00482664 -0.12651917
0.006811379 -0.4321816 0.27100372 0.23014392 0.1915193 -0.047682263 0.07340729 0.14190948
-0.33191565 -0.1476409 0.17643632 0.13912448 -0.24719226 0.3514434 -0.20917438 -0.08959958
0.11423481 0.29871383 -0.13822919 0.0055110557 -0.060865376 -0.028182708 -0.018895233 0.026098074
-0.32959142 0.03080438 -0.0033749621 -0.4921576 -0.19341739 0.05393258 -0.03721582 -0.04288463
-0.08634629 0.26491216 0.31194592 0.021072902 0.31577203 -0.082057506 -0.21275486 0.30940214
0.020120002 0.036923405 0.43353847 0.18667099 -0.3294633 -0.35935652 -0.08199751 -0.018842764
0.02704552 0.20675081 -0.29776278 0.10373276 -0.17405275 0.021955298 0.09164473 -0.140415
-0.15343975 0.16576518 0.60664326 -0.015903676 -0.02917947 0.0674318 0.123489395 -0.049851183
0.033525407 0.31698343 -0.05223488 -0.034241337 -0.030231424 0.055207506 -0.178002 0.20349659
0.13535519 0.111744665 -0.060160834 0.10612878 -0.17173535 0.40196908 -0.20874013 0.0901447
0.18276444 0.34865013 -0.23586436 -0.036517702 0.14918724 0.0980215 -0.011174233 -0.021614254
0.0033620987 0.17039995 0.30580133 -0.09722273 -0.1445993 -0.029598875 -0.0840808 0.23281285
0.33878025 0.0087233195 -0.10200252 -0.18372694 0.15570132 -0.14968967 -0.089818306 0.09077111
-0.39617205 -0.009749918 0.32491007 -0.20271735 0.21475863 -0.13817218 -0.00023770356 0.05636504
0.019943038 -0.16026108 0.065317884 -0.069785334 0.045609165 0.32892874 -0.028624585 -0.02598602
-0.04584226 0.1367846 -0.1569153 -0.37896606 -0.06911109 -0.06276168 -0.07510593 0.03661666
0.14858496 0.3057991 0.13153975 -0.052646346 0.044954292 0.41672778 0.12779494 -0.36360973
-0.021795945 0.2772138 -0.17295495 -0.06454869 0.07250993 0.011831691 -0.05259459 0.073716484
-0.04208784 -0.047688052 0.15589759 -0.049891923 0.022553055 -0.0037074776 0.002200019 -0.08770722
-0.11107817 0.13471885 0.17079355 -0.029542685 -0.027465226 0.14880349 0.29542816 0.094160944
00000000: dd7c 793e 8f3c 18bd 1d4f 91be 0b43 093f
00000010: 5b55 5abe ae89 1d3e f676 14be cb60 a53e
00000020: b84e 8a3e 1432 d33e 3927 f83d 49fd 343c
00000030: ba6d 163d ce7d f6bd ae0d 6bbd e461 22be
00000040: 6dbb aabd f53d b7bd becd ffbd 8212 943d
00000050: 90b2 5dbe 365d 6c3e 7ba6 49be 14ab 803e
00000060: bdc0 2ebe 0809 c6bc f3d2 663d f441 0e3e
00000070: bfc2 0c3d 8203 613d 26bf 54bd d0c6 21be
00000080: 25b4 363e 5f06 3dbe 3bfa 25bd a1fa 843e
00000090: 70ba b33d 2e94 59bd a97f 0ebe 3c85 96bd
000000a0: cca2 bcbd 5c89 d03c 7d04 643d 308c d23d
000000b0: 7c0e 703d def8 f8bd 55d7 383d 21c0 cbbd
000000c0: 3ec5 f33d c551 bbbb b85e 5a3c 37f6 b4bd
000000d0: 66d1 10be 5342 dd3d a75a 2c3d 0ebf a53d
000000e0: 7204 80bc ee98 c23d 0031 2f3c 8e07 38bc
000000f0: 72a5 04be 8b98 09be 76fd 9e3c 188c 0abe
00000100: 1eb1 513c 690a 53bd 7dde b63d d598 793d
00000110: 6467 4f3d c0ec d13c 06bb 2b3e e2e9 04be
00000120: 601a a8bd e825 59bd 5a59 28bc b6f4 823d
00000130: ab9f 193e 33f0 403d c83b 21bd 4f65 0f3e
00000140: 54a8 24be f42a 6abe 4517 243e 569a bdbd
00000150: 7e12 46be 295d 4bb8 3b52 413d 65fc 533d
00000160: 3f7e aebc e956 023e 53d9 b2bc 49cd f5bd
00000170: 2cf0 e0bd 7290 843e ca28 9ebb 3e8e 01be
00000180: fd31 df3b e846 ddbe 00c1 8a3e d9aa 6b3e
00000190: a31d 443e 7a4e 43bd 9056 963d b850 113e
000001a0: d9f0 a9be 2d2f 17be b9ab 343e a676 0e3e
000001b0: f81f 7dbe 64f0 b33e cf31 56be fc7f b7bd
000001c0: f1f3 e93d 05f1 983e f48b 0dbe 1696 b43b
000001d0: f94d 79bd 6cdf e6bc 2dca 9abc a1cb d53c
000001e0: 35c0 a8be 7859 fc3c 782e 5dbb 15fc fbbe
000001f0: 350f 46be 69e8 5c3d 9e6f 18bd cba7 2fbd
00000200: 53d6 b0bd 91a2 873e 60b7 9f3e 14a1 ac3c
00000210: dfac a13e c40d a8bd 69dc 59be f569 9e3e
00000220: b4d2 a43c ff3c 173d c1f8 dd3e ae26 3f3e
00000230: 6aaf a8be 94fd b7be 4fee a7bd 245c 9abc
00000240: 918e dd3c 7cb6 533e 5d74 98be d771 d43d
00000250: e23a 32be 99db b33c 3bb0 bb3d f3c8 0fbe
00000260: 4f1f 1dbe 59be 293e f94c 1b3f 6d48 82bc
00000270: c909 efbc af19 8a3d 02e8 fc3d c130 4cbd
00000280: f051 093d a74b a23e 3ef4 55bd a540 0cbd
00000290: e4a7 f7bc 4421 623d 2846 36be 6961 503e
000002a0: 8d9a 0a3e 63da e43d 356b 76bd 0c5a d93d
000002b0: 64db 2fbe e4ce cd3e f9bf 55be c99d b83d
000002c0: 9a26 3b3e 4582 b23e 6d86 71be 9693 15bd
000002d0: 8ac4 183e 7fbf c83d 2114 37bc 6010 b1bc
000002e0: a856 5c3b 537d 2e3e fe91 9c3e b61c c7bd
000002f0: d711 14be 5779 f2bc 8e32 acbd 7e66 6e3e
00000300: 9b74 ad3e 41ec 0e3c b2e6 d0bd ea22 3cbe
00000310: 2b70 1f3e 4048 19be a9f2 b7bd 34e6 b93d
00000320: 10d7 cabe 1fbe 1fbc 9d5a a63e 2395 4fbe
00000330: b0e9 5b3e 027d 0dbe 1040 79b9 07df 663d
00000340: 955f a33c 7b1b 24be 62c5 853d 9deb 8ebd
00000350: add0 3a3d 5969 a83e 1b7e eabc a2e0 d4bc
00000360: 18c5 3bbd 4311 0c3e 68ae 20be d707 c2be
00000370: 1d8a 8dbd 3289 80bd 23d1 99bd 5afb 153d
00000380: a826 183e b391 9c3e 5bb2 063e b2a3 57bd
00000390: fe21 383d 585d d53e addc 023e 0e2b babe
000003a0: 698d b2bc f8ee 8d3e 1a1b 31be 1b32 84bd
000003b0: 1680 943d b5d9 413c 6d6d 57bd abf8 963d
000003c0: 4d64 2cbd 8c54 43bd 9ea3 1f3e 795b 4cbd
000003d0: 2fc1 b83c 27f9 72bb 322e 103b d89f b3bd
000003e0: f47c e3bd bdf3 093e 81e4 2e3e 8003 f2bc
000003f0: c1fe e0bc f15f 183e 5c42 973e 74d7 c03d

linear_relu_stack.4.bias f4 [30]
-0.33702037 -0.20336218 0.16538446 -0.3465223 0.28877166 -0.18434088 0.048263617 0.1720988
0.26223537 -0.117447175 0.12488357 0.19192772 0.15338989 -0.040725302 0.060813926 0.0077043953
0.22104286 0.2884314 -0.06972612 -0.2583946 0.3125853 0.3456899 0.08201772 0.00090732664
-0.13539584 0.06985267 0.06931495 0.007139506 -0.08832892 0.0058820588
00000000: ef8d acbe 2d3e 50be 8b5a 293e 5f6b b1be
00000010: e1d9 933e dbc3 3cbe 12b0 453d ab3a 303e
00000020: b743 863e 2588 f0bd f5c2 ff3d b388 443e
00000030: 3d12 1d3e 93cf 26bd 0618 793d 2775 fc3b
00000040: 0f59 623e 48ad 933e 91cc 8ebd 4c4c 84be
00000050: 2e0b a03e 44fe b03e e8f8 a73d a9d9 6d3a
00000060: 35a5 0abe eb0e 8f3d fff4 8d3d 84f2 e93b
00000070: cbe5 b4bd 49be c03b

linear_relu_stack.6.weight f4 [40, 30]
-0.11783994 -0.04118898 -0.103748016 -0.054732103 0.03884557 -0.19433329 0.100941375 0.47356817
0.15958618 0.056555923 0.02877822 -0.32921556 -0.34763753 0.0025470844 -0.110834144 -0.15435
-0.2837838 0.18416265 0.07125913 -0.087470666 -0.2891789 -0.112075746 -0.09006185 -0.23476255
-0.17777523 -0.14990133 -0.21608715 -0.058671445 -0.17563502 -0.13255443 0.12990898 -0.075257726
-0.014442322 -0.13829191 -0.02882581 0.14471442 0.087725915 0.09551181 -0.19903654 -0.1606288
-0.056517914 0.12245626 -0.06596963 0.10114343 0.08631776 -0.033938106 -0.1417382 -0.015489466
0.10544486 0.056171585 0.09727894 -0.15646145 -0.04258761 -0.10509659 -0.13827157 -0.027099958
0.04685585 0.0657536 -0.18174356 0.14756474 -0.056751028 -0.18068883 0.08636132 0.15818977
-0.11111648 -0.017717987 0.015577599 -0.11392293 -0.099531084 0.07562542 -0.16743435 0.11317298
-0.082760006 0.06300299 -0.039373577 0.04426858 -0.03105639 -0.09876863 0.031815156 0.022139952
0.018078968 -0.13826624 -0.122957826 0.115063906 0.04971896 -0.102424026 -0.13710818 -0.11331448
-0.13694187 -0.049279958 0.007645996 -0.16982654 -0.011857209 0.085724846 0.13816176 0.14245427
-0.111597456 -0.06440576 -0.1576786 -0.046037488 -0.09664199 -0.026797755 0.0983882 0.20138843
0.04828506 -0.07465004 0.029836018 -0.21705432 0.13166624 0.07851699 0.21820472 0.17444967
0.14527242 0.08190997 -0.08456623 -0.12063525 0.07740998 0.0808411 -0.00956305 0.018155763
-0.12634118 0.11288255 -0.08333851 -0.008307002 -0.0997826 -0.092839584 0.061026204 -0.09894741
0.04890212 -0.015401756 -0.103827134 -0.12359698 -0.06264458 0.060897917 -0.11683202 0.065697074
-0.055155396 0.058274552 0.08710899 -0.15188009 0.15025693 -0.09164285 -0.06172264 0.08332771
0.0029924214 0.14608164 -0.0058899736 -0.18765508 0.117684826 -0.15518932 -0.057061926 -0.15196994
-0.3793981 0.5620983 0.19708367 0.20207463 0.12048451 0.19935177 0.06730073 -0.33127472
0.15239388 -0.29150853 -0.036976572 0.14333309 -0.11255214 0.24407434 0.2872764 0.002221558
0.008326809 -0.14864413 -0.08591261 0.06556721 0.27304447 0.018595917 -0.041911606 -0.079147436
-0.03801169 0.013366528 0.2095211 -0.12424017 0.049614817 -0.12400112 0.31934574 0.21225111
-0.11036889 -0.01866601 -0.056325022 -0.03226983 0.0035999513 -0.25273436 0.15836047 -0.09551389
-0.08099381 -0.070904955 0.32493812 -0.09794894 -0.17395814 0.027805584 0.017949281 -0.012008197
0.11317207 -0.24081145 0.057781763 -0.06930703 -0.058169678 0.2711126 0.0417286 0.10305666
-0.1481391 -0.009163684 -0.0037324063 0.03958379 -0.10659907 0.17880167 -0.26768908 0.12452954
0.24720435 -0.04338037 -0.18150112 -0.16630754 -0.007681322 0.10668676 0.11643118 -0.093200356
-0.013595436 0.10248413 0.003041527 0.15880045 0.012068032 0.0890065 -0.09087183 -0.40606785
0.14462633 -0.04538721 0.18362056 0.010173671 0.06759769 0.08469699 0.118996955 -0.05661154
-0.09487304 -0.07442638 -0.0010953975 -0.022688579 -0.24154171 0.21597715 0.13133474 -0.15332629
-0.024825783 -0.19104804 0.027771428 0.122297525 0.09185919 -0.0014075118 0.2552765 0.34725785
00000000: 1156 f1bd c7b5 28bd d779 d4bd c52e 60bd
00000010: 881c 1f3d 4eff 46be 5aba ce3d 8777 f23e
00000020: 8f6a 233e 2fa7 673d 4dc0 eb3c f18e a8be
00000030: 8cfd b1be fcec 263b 03fd e2bd ed0d 1ebe
00000040: 1c4c 91be 2295 3c3e 4ff0 913d d223 b3bd
00000050: 420f 94be f887 e5bd 5972 b8bd 9865 70be
00000060: b60a 36be bc7f 19be f345 5dbe 7851 70bd
00000070: abd9 33be 59bc 07be dc06 053e b920 9abd
00000080: 7d9f 6cbc 659c 0dbe 1b24 ecbc 0430 143e
00000090: a5a9 b33d b29b c33d 3cd0 4bbe e07b 24be
000000a0: 547f 67bd 59ca fa3d 161b 87bd 4924 cf3d
000000b0: 5ec7 b03d af02 0bbd d223 11be 87c7 7dbc
000000c0: 7af3 d73d 2d14 663d 2e3a c73d 6e37 20be
000000d0: 5970 2ebd e23c d7bd 1097 0dbe bb00 debc
000000e0: ebeb 3f3d d3a9 863d fc1a 3abe 361b 173e
000000f0: c473 68bd 7e06 39be 34de b03d 80fc 213e
00000100: 0991 e3bd 5025 91bc 3039 7f3c 6d50 e9bd
00000110: f4d6 cbbd 80e1 9a3d e973 2bbe 3cc7 e73d
00000120: 147e a9bd b607 813d 3046 21bd f852 353d
00000130: f869 febc 3547 cabd 9c50 023d d85e b53c
00000140: 581a 943c aa95 0dbe 50d1 fbbd a0a6 eb3d
00000150: 1ca6 4b3d b0c3 d1bd 1666 0cbe 6c11 e8bd
00000160: 7d3a 0cbe c8d9 49bd 438b fa3b 02e7 2dbe
00000170: bd44 42bc 8290 af3d 477a 0d3e 88df 113e
00000180: 358d e4bd 2be7 83bd 8076 21be ce91 3cbd
00000190: 3cec c5bd f786 dbbc c17f c93d c538 4e3e
000001a0: 8ec6 453d 1fe2 98bd aa6a f43c 7d43 5ebe
000001b0: 84d3 063e 84cd a03d 0f71 5f3e efa2 323e
000001c0: 4bc2 143e 6ac0 a73d 0f31 adbd 9d0f f7bd
000001d0: 2089 9e3d 0590 a53d 57ae 1cbc 65bb 943c
000001e0: 955f 01be f72e e73d 61ad aabd 171a 08bc
000001f0: d25a ccbd ae22 bebd 9df6 793d f1a4 cabd
00000200: 974d 483d a657 7cbc 52a3 d4bd 6a20 fdbd
00000210: cd4b 80bd 1870 793d a045 efbd 308c 863d
00000220: a0ea 61bd 4cb1 6e3d 3366 b23d 7486 1bbe
00000230: f4dc 193e 3faf bbbd e1d0 7cbd b8a7 aa3d
00000240: 801c 443b 6d96 153e ae00 c1bb a728 40be
00000250: be04 f13d f3e9 1ebe c4b9 69bd 029e 1bbe
00000260: 7840 c2be ade5 0f3f 4dd0 493e a7ec 4e3e
00000270: 95c0 f63d df22 4c3e f7d4 893d d79c a9be
00000280: 240d 1c3e 9b40 95be bf74 17bd e9c5 123e
00000290: bd81 e6bd a0ee 793e e415 933e 8f97 113b
000002a0: 2b6d 083c 2b36 18be f3f2 afbd 1a48 863d
000002b0: 7ccc 8b3e 7756 983c 81ab 2bbd 0d18 a2bd
000002c0: 25b2 1bbd 48ff 5a3c b38c 563e a171 febd
000002d0: e838 4b3d 4df4 fdbd 4981 a33e 5b58 593e
000002e0: 1609 e2bd 76e9 98bc 11b5 66bd 5f2d 04bd
000002f0: 29ed 6b3b 6666 81be 3f29 223e c99c c3bd
00000300: 15e0 a5bd 9e36 91bd 4a5e a63e 7499 c8bd
00000310: 1522 32be 89c8 e33c 5f0a 933c 07be 44bc
00000320: c2c6 e73d 4797 76be 92ac 6c3d d8f0 8dbd
00000330: 5443 6ebd 45cf 8a3e 9ceb 2a3d 5f0f d33d
00000340: c7b1 17be 4723 16bc 639b 74bb 9d22 223d
00000350: 9d50 dabd c917 373e 8b0e 89be 5809 ff3d
00000360: 2323 7d3e 9daf 31bd 6edb 39be 864c 2abe
00000370: 99b3 fbbb 977e da3d 7873 ee3d d4df bebd
00000380: 64bf 5ebc 33e3 d13d 5b54 473b 969c 223e
00000390: ffb8 453c 0a49 b63d 031b babd 20e8 cfbe
000003a0: ed18 143e f0e7 39bd 0707 3c3e 78af 263c
000003b0: a870 8a3d 9e75 ad3d adb4 f33d 81e1 67bd
000003c0: cc4c c2bd dc6c 98bd 7193 8fba 66dd b9bc
000003d0: b656 77be 1d29 5d3e 9d7c 063e 9101 1dbe
000003e0: 715f cbbc 19a2 43be e880 e33c 2077 fa3d
000003f0: ac20 bc3d 427c b8ba 9ab3 823e c8cb b13e

linear_relu_stack.6.bias f4 [40]
0.22546855 -0.24577472 -0.16681159 0.06914954 -0.11748072 -0.09113584 0.011503814 0.42030802
-0.18328226 0.15271474 0.11968766 -0.097260885 0.1652974 0.5573082 0.22710429 -0.13148575
0.21776403 0.033841293 0.30887428 0.12403761 0.27396646 0.20811063 -0.16323309 -0.13368149
-0.02194558 -0.07538343 0.14726935 -0.051517017 -0.71337867 -0.19438717 0.38012943 -0.02905147
-0.05768277 -0.08165767 0.20859891 0.071540214 0.03908972 0.038318314 0.0943293 -0.16372575
00000000: 3ae1 663e 5eac 7bbe a8d0 2abe 469e 8d3d
00000010: bb99 f0bd 6da5 babd 7e7a 3c3c 9d32 d73e
00000020: 58ae 3bbe 4161 1c3e ce1e f53d b730 c7bd
00000030: b943 293e c0ab 0e3f 078e 683e 33a4 06be
00000040: 89fd 5e3e 2b9d 0a3d c524 9e3e 6e07 fe3d
00000050: 5545 8c3e f41a 553e 9326 27be cde3 08be
00000060: 38c7 b3bc a162 9abd c7cd 163e 8203 53bd
00000070: fc9f 36bf 6e0d 47be 53a0 c23e 59fd edbc
00000080: c544 6cbd 233c a7bd f49a 553e ad83 923d
00000090: 8b1c 203d aaf3 1c3d b82f c13d b9a7 27be

linear_relu_stack.8.weight f4 [50, 40]
-0.044057008 0.12607157 -0.12059558 0.04861402 -0.054967612 -0.020820148 0.07466069 0.11672438
0.07594409 -0.05732084 -0.19109645 -0.002707036 0.060251728 0.049533173 0.12379608 0.006311401
0.013171561 -0.18178108 0.07065399 -0.20095475 -0.021714827 0.093305156 0.0796498 -0.06827167
-0.20874329 0.0957117 -0.074663706 -0.105520055 0.09318238 0.15782034 0.026160449 -0.039510787
0.011990617 -0.094771676 0.074044414 0.029875083 0.011518211 0.19767864 -0.09033466 0.06995162
-0.06011275 0.012623073 0.078843385 -0.030426268 -0.027302124 0.025255669 0.01074476 0.3580724
0.23839794 -0.09275663 -0.011584681 0.05078609 -0.19925778 -0.21380848 -0.015660198 -0.18960504
-0.028914923 -0.09046023 -0.12359111 0.13320532 -0.008558344 0.053173877 -0.11553751 -0.026982937
-0.09599841 -0.20140052 0.17056465 0.17492943 -0.04360579 -0.06847143 -0.1481182 0.18885489
0.111117154 -0.03359244 0.0056247287 -0.049586363 0.0068648406 -0.09952242 -0.13020463 0.18593177
-0.1449696 0.10870509 -0.14472562 0.103445284 0.13634442 -0.08312802 0.061260927 0.016542077
-0.13926025 -0.054644965 -0.031176092 0.1245967 0.12620568 -0.11493142 0.06030654 -0.060214937
-0.0019916112 0.043695077 0.08230189 -0.13980353 0.08232104 0.009333516 0.090197906 -0.15634997
-0.09290659 0.014494434 0.12089684 -0.044734724 0.0924708 -0.051281504 0.00069419586 -0.16003431
0.03752904 0.12324274 -0.061060045 -0.061859224 -0.10945886 0.07477769 -0.09702866 -0.09643028
-0.09769642 -0.029761836 -0.14604138 -0.056992643 -0.028016059 -0.018714458 0.08758684 0.07681124
-0.015621536 -0.020590026 -0.122701414 -0.0137131065 0.08360248 -0.06054463 -0.14613959 0.07288241
-0.110390626 0.11882954 -0.15517467 0.05276896 0.12439813 0.073929265 -0.063961215 0.13394496
0.0685195 -0.11651988 0.032486 -0.052349985 -0.10343336 0.057984687 -0.11402365 -0.06979892
-0.036819153 0.090532504 -0.08426423 -0.038373373 0.14183769 -0.07917429 -0.1671456 0.05805573
-0.097265534 -0.047551356 -0.10883079 -0.064202994 0.05045711 -0.02821359 0.046941016 -0.2180451
0.071995 -0.3588153 -0.21592484 0.11209025 -0.036244817 0.008356666 -0.1960094 0.0627628
0.2110509 -0.024816351 0.07902683 -0.104916014 -0.1580344 0.32339022 -0.067843385 -0.04323002
0.4518025 0.070856325 -0.15298079 0.05434658 0.35365444 0.14091022 -0.16325022 -0.1455503
-0.08968996 -0.043070305 -0.3740023 0.30837432 -0.06009031 -0.16266108 -0.096439034 0.11051678
-0.12503655 0.117952146 -0.15384308 0.2182695 0.08430081 0.006537783 0.15625739 0.047277287
-0.10421518 0.103411704 -0.04024847 -0.09437226 0.18248554 -0.17847739 -0.028123204 -0.3453093
-0.076322146 -0.06646222 -0.1063035 0.14868751 0.11265301 -0.13705517 -0.19830137 -0.07537919
-0.04984579 -0.44600862 -0.12848575 -0.14945638 0.04715975 -0.08326194 0.12142263 0.12883906
-0.101108655 0.20757295 -0.00914242 0.20659117 -0.081381984 -0.097392574 -0.118748546 0.05266641
-0.2279942 0.057927478 -0.10090518 0.06097016 0.038342085 -0.03958553 0.046296597 -0.13142936
-0.24039476 0.0009197661 -0.12238203 0.1526003 0.030037468 0.03247522 -0.009206164 0.11120659
00000000: 1f75 34bd e818 013e d1fa f6bd 7f1f 473d
00000010: b825 61bd 048f aabc b4e7 983d 310d ef3d
00000020: 9388 9b3d 42c9 6abd caae 43be 8768 31bb
00000030: 84ca 763d 4ce3 4a3d cd88 fd3d decf ce3b
00000040: 88cd 573c d224 3abe 0ab3 903d 15c7 4dbe
00000050: 4be3 b1bc c616 bf3d 6f1f a33d 04d2 8bbd
00000060: cdc0 55be 7f04 c43d 49e9 98bd e61a d8bd
00000070: 67d6 be3d a89b 213e 704e d63c 10d6 21bd
00000080: 4b74 443c a717 c2bd 99a4 973d 97bc f43c
00000090: e1b6 3c3c 456c 4a3e 6101 b9bd cc42 8f3d
000000a0: c938 76bd 01d1 4e3c a478 a13d 8240 f9bc
000000b0: b4a8 dfbc fae4 ce3c ca0a 303c 4455 b73e
000000c0: 971e 743e 30f7 bdbd adcd 3dbc 1305 503d
000000d0: 3b0a 4cbe 9cf0 5abe d149 80bc d327 42be
000000e0: fdde ecbc 3743 b9bd 561d fdbd fa66 083e
000000f0: 4c38 0cbc dacc 593d ee9e ecbd 520b ddbc
00000100: d09a c4bd f03b 4ebe 80a8 2e3e b320 333e
00000110: fc9b 32bd c03a 8cbd 4cac 17be 2d63 413e
00000120: 6491 e33d 3a98 09bd a54f b83b 121b 4bbd
00000130: 75f2 e03b 69d2 cbbd 5d54 05be e664 3e3e
00000140: e972 14be c6a0 de3d f432 14be 1fdb d33d
00000150: df9d 0b3e 063f aabd bdec 7a3d 4083 873c
00000160: 3d9a 0ebe 66d3 5fbd 0165 ffbc 8e2c ff3d
00000170: 103c 013e 2a61 ebbd fe03 773d f0a3 76bd
00000180: b185 02bb 9cf9 323d e58d a83d a828 0fbe
00000190: ef97 a83d 9aeb 183c aeb9 b83d 351a 20be
000001a0: cf45 bebd 107a 6d3c c398 f73d c23b 37bd
000001b0: 5561 bd3d 8e0c 52bd b2fa 353a 09e0 23be
000001c0: 0db8 193d b166 fc3d 191a 7abd 1960 7dbd
000001d0: f72b e0bd 0c25 993d f6b6 c6bd 3d7d c5bd
000001e0: 1015 c8bd 18cf f3bc df8b 15be 1e71 69bd
000001f0: ef81 e5bc 104f 99bc bb60 b33d 364f 9d3d
00000200: 79f1 7fbc 6aac a8bc e14a fbbd f0ac 60bc
00000210: c737 ab3d a5fd 77bd 9ea5 15be 5f43 953d
00000220: 7b14 e2bd e75c f33d 1ce6 1ebe 4424 583d
00000230: 72c4 fe3d 3a68 973d 19fe 82bd de28 093e
00000240: f453 8c3d faa1 eebd 0a10 053d f06c 56bd
00000250: dfd4 d3bd 5a81 6d3d 3b85 e9bd bcf2 8ebd
00000260: aecf 16bd 1b69 b93d ba92 acbd 662d 1dbd
00000270: e63d 113e 2126 a2bd 3728 2bbe d8cb 6d3d
00000280: 2733 c7bd 36c5 42bd ade2 debd dc7c 83bd
00000290: 1dac 4e3d 3020 e7bc 3945 403d 3747 5fbe
000002a0: 1d72 933d a4b6 b7be 671b 5dbe 938f e53d
000002b0: 7275 14bd 66ea 083c b0b6 48be c889 803d
000002c0: ba1d 583e a94b cbbc d2d8 a13d 35de d6bd
000002d0: c5d3 21be 6793 a53e 79f1 8abd f611 31bd
000002e0: a852 e73e 1f1d 913d ffa6 1cbe 859a 5e3d
000002f0: 3212 b53e c54a 103e 112b 27be 230b 15be
00000300: 5faf b7bd 7d6a 30bd 3b7d bfbe 3de3 9d3e
00000310: 4221 76bd a090 26be d481 c5bd 9f56 e23d
00000320: 9509 00be e590 f13d 0a89 1dbe 0a82 5f3e
00000330: e7a5 ac3d e63a d63b f001 203e d4a5 413d
00000340: c56e d5bd 84c9 d33d 94db 24bd 3e46 c1bd
00000350: 7ddd 3a3e c7c2 36be a262 e6bc 61cc b0be
00000360: c94e 9cbd 581d 88bd a6b5 d9bd 8a41 183e
00000370: 9fb6 e63d 3158 0cbe 840f 4bbe 6860 9abd
00000380: 192b 4cbd 3e5b e4be c591 03be 180b 19be
00000390: 952a 413d 3c85 aabd 6eac f83d 63ee 033e
000003a0: 0e12 cfbd 018e 543e 17ca 15bc a38c 533e
000003b0: 99ab a6bd c275 c7bd 7032 f3bd bcb8 573d
000003c0: 5077 69be 5d45 6d3d 60a7 cebd d9bb 793d
000003d0: 970c 1d3d 7024 22bd 80a1 3d3d 6b95 06be
000003e0: 0b2a 76be 751c 713a 6ea3 fabd 4143 1c3e
000003f0: 2311 f63c bc04 053d 73d5 16bc 48c0 e33d

linear_relu_stack.8.bias f4 [50]
0.27600598 0.28423277 -0.13672961 -0.17190707 0.14659649 0.40336552 0.20045352 -0.1193376
0.19247505 -0.038105343 0.0771191 0.13964549 0.05170023 0.48620296 -0.1716953 -0.060580146
-0.1496977 0.22925682 0.22048032 0.39681086 0.15083379 0.30906782 0.0674788 0.18969052
0.2012881 0.30273324 0.26405206 0.31879565 -0.17561248 0.22045383 0.4283591 0.09797387
-0.03462076 0.0705972 -0.012365118 0.29784614 0.019178055 -0.08801003 0.087859206 0.07065445
0.043199338 0.040697865 0.13867109 -0.0012613859 -0.115487635 0.33697784 -0.1311378 -0.15073262
-0.19773099 -0.12238321
00000000: a850 8d3e f586 913e d902 0cbe 6808 30be
00000010: 641d 163e ed85 ce3e b043 4d3e 4667 f4bd
00000020: 2e18 453e 5914 1cbd 9ef0 9d3d 3aff 0e3e
00000030: 9fc3 533d 98ef f83e e5d0 2fbe e322 78bd
00000040: 5b4a 19be 4dc2 6a3e 98c5 613e cb2a cb3e
00000050: 2c74 1a3e 233e 9e3e 5332 8a3d 3b3e 423e
00000060: 781e 4e3e daff 9a3e d531 873e 2f39 a33e
00000070: c2d3 33be a6be 613e e251 db3e 86a6 c83d
00000080: 7fce 0dbd 4495 903d 1097 4abc 4a7f 983e
00000090: 4c1b 9d3c 9a3e b4bd 87ef b33d 48b3 903d
000000a0: caf1 303d ceb2 263d cbff 0d3e 1655 a5ba
000000b0: c884 ecbd 5c88 ac3e fd48 06be a759 1abe
000000c0: fe79 4abe 0ca4 fabd

linear_relu_stack.10.weight f4 [180, 50]
-0.00043762877 0.0068928944 -0.08442057 0.069886535 -0.0036279382 -0.03685726 -0.025873926 -0.07346724
0.017136429 -0.08061346 0.03539532 0.005343356 0.034019537 0.022866894 -0.047157876 0.0048116595
-0.13547166 0.03747669 -0.042711046 -0.013160562 0.0017109776 0.04618953 -0.12048264 -0.034974515
-0.037554514 0.091681585 -0.029402416 0.0033321881 0.08261091 -0.048586998 -0.021349238 -0.005577289
0.06592516 -0.013969949 -0.03958482 0.00798066 0.09494748 -0.046525195 0.075926185 0.0014406808
0.02362941 0.012023903 -0.012652993 0.025080612 -0.123362295 -0.033602413 0.024841698 -0.035268497
-0.08882975 0.11166671 -0.0343181 0.008035838 -0.059981946 -0.03103364 -0.059176885 0.013353584
0.08275943 0.018327892 0.02308859 0.021462891 0.02367185 0.059453927 -0.0325933 -0.056619164
0.008804127 0.022991441 0.01885895 -0.035630956 -0.079409145 -0.0034042227 0.007857165 -0.05118942
0.037807442 0.039123666 0.018356783 0.015219508 -0.0149455555 0.011075903 -0.036603574 0.06386563
-0.03389284 -0.03951601 0.11899749 -0.072068475 -0.0018115084 -0.0013948019 -0.064768314 0.06690828
-0.0036801745 -0.024043182 0.007904457 0.047232714 0.02246003 0.055516694 -0.012652796 0.108797476
0.06277244 -0.10947761 0.0002982722 -0.10579498 0.033596884 0.017578984 -0.101919726 0.06576951
-0.035489984 0.011405109 -0.020364443 0.08490328 0.024710856 -0.043431994 -0.010331977 0.039096557
0.012600903 0.05128419 -0.029313834 -0.019239398 -0.04056435 0.017414568 -0.029790504 0.03515857
-0.0004244583 0.014999943 -0.0113395 0.0054546455 0.028465925 0.025640225 0.0064972914 0.0035977382
0.013492882 0.03082578 0.05041895 -0.02129354 0.121261105 -0.0021883303 0.0029935904 -0.0072964253
-0.015174466 -0.03513734 0.019649347 0.023886532 0.006000726 -0.05356991 0.0086633945 -0.0073477835
0.03403143 0.03343081 -0.09589908 -0.02378646 0.13290738 0.123075455 -0.006081011 0.13667813
-0.09591128 0.11529215 0.013036126 -0.19233277 -0.2448325 -0.1289245 0.03756565 -0.06896451
-0.1868079 -0.07902938 0.18247515 0.06836947 -0.08948299 0.048584275 -0.11849667 0.048702527
0.06830827 -0.10795779 0.039271843 -0.19119214 -0.16101792 0.023599787 0.15575777 -0.36389163
0.08805572 -0.073024765 0.06304664 -0.115562424 0.13464415 -0.24308956 -0.11017641 0.14553703
-0.05942982 0.15414354 0.0806992 -0.020207815 0.11210465 -0.16831912 0.016750759 0.34002197
0.20275839 -0.07986625 -0.015442124 0.23897043 -0.072848395 -0.077008106 0.1262046 0.13336714
0.14502622 -0.06579431 0.008531171 0.0026162032 -0.05702776 -0.00031161547 0.09287306 -0.09738181
-0.120232604 -0.12307083 0.24796039 0.18129247 0.29364595 0.01689043 0.10122004 0.12689444
0.004349674 0.23784429 -0.114097774 0.060889583 -0.1651024 -0.23551056 0.09393025 -0.13814062
0.121353135 -0.014029051 0.106370896 0.13235202 0.03455305 -0.05349696 -0.29667664 -0.46835297
0.09018367 -0.09588063 0.19777243 0.08664031 0.124319024 0.096199565 0.066968106 0.17717959
-0.015359087 -0.039749727 0.043987244 0.052924898 -0.10092182 -0.115242384 -0.05512031 0.009599927
0.10780144 0.003614346 0.076703645 -0.13629308 -0.13113967 -0.033995748 -0.07022306 -0.008155014
00000000: 8a71 e5b9 cadd e13b b1e4 acbd ac20 8f3d
00000010: b4c2 6dbb a3f7 16bd 8ef5 d3bc fe75 96bd
00000020: b261 8c3c ab18 a5bd affa 103d 5217 af3b
00000030: 1258 0b3d 5a53 bb3c 9e28 41bd 20ab 9d3b
00000040: 15b9 0abe 2881 193d c7f1 2ebd 669f 57bc
00000050: e242 e03a 3c31 3d3d 9abf f6bd 7041 0fbd
00000060: c3d2 19bd 8ec3 bb3d 56dd f0bc d760 5a3b
00000070: e92f a93d 2903 47bd 99e4 aebc b1c1 b6bb
00000080: c503 873d 37e2 64bc b123 22bd 50c1 023c
00000090: d373 c23d 3491 3ebd 307f 9b3d 3ad5 bc3a
000000a0: 7792 c13c e8ff 443c 804e 4fbc db75 cd3c
000000b0: 5fa5 fcbd afa2 09bd d180 cb3c b375 10bd
000000c0: 5fec b5bd 84b1 e43d 2391 0cbd bfa8 033c
000000d0: a1af 75bd 433a febc 7663 72bd fec8 5a3c
000000e0: c77d a93d 6024 963c 4824 bd3c f2d2 af3c
000000f0: 78eb c13c f685 733d 8d80 05bd 7fe9 67bd
00000100: 2f3f 103c 8c58 bc3c 167e 9a3c c4f1 11bd
00000110: 43a1 a2bd 6119 5fbb 57bb 003c ffab 51bd
00000120: fadb 1a3d 2340 203d f760 963c 3e5b 793c
00000130: 34de 74bc b477 353c a1ed 15bd fccb 823d
00000140: 38d3 0abd 8adb 21bd f5b4 f33d a398 93bd
00000150: 2370 edba c9d1 b6ba 40a5 84bd 3507 893d
00000160: 152f 71bb 35f6 c4bc b281 013c 1777 413d
00000170: 19fe b73c 7965 633d ac4d 4fbc 36d1 de3d
00000180: d68e 803d cc35 e0bd 6b61 9c39 0aab d8bd
00000190: e39c 093d cd01 903c 4abb d0bd 2ab2 863d
000001a0: f25d 11bd 7fdc 3a3c 55d3 a6bc c5e1 ad3d
000001b0: 6c6e ca3c bfe5 31bd 7447 29bc b623 203d
000001c0: 0574 4e3c 5f0f 523d 9123 f0bc f19b 9dbc
000001d0: ce26 26bd ffa8 8e3c 370b f4bc 6f02 103d
000001e0: d489 deb9 52c2 753c 4fc9 39bc e2bc b23b
000001f0: 5f31 e93c 730b d23c 3be7 d43b 08c8 6b3b
00000200: 4011 5d3c 5986 fc3c 1a84 4e3d ca6f aebc
00000210: be57 f83d 176a 0fbb 1d30 443b da16 efbb
00000220: 539e 78bc 2cec 0fbd abf7 a03c b0ad c33c
00000230: bda1 c43b 1f6c 5bbd e9f0 0d3c adc5 f0bb
00000240: 8a64 0b3d bfee 083d bd66 c4bd d2db c2bc
00000250: df18 083e fc0e fc3d 3843 c7bb 5af5 0b3e
00000260: 226d c4bd 4a1e ec3d 7a95 553c e2f2 44be
00000270: 5fb5 7abe c904 04be 70de 193d 443d 8dbd
00000280: 924a 3fbe 28da a1bd c4da 3a3e 4b05 8c3d
00000290: dc42 b7bd 4e00 473d 62ae f2bd 4d7c 473d
000002a0: 35e5 8b3d f918 ddbd 83db 203d dfc7 43be
000002b0: e2e1 24be 5754 c13c f77e 1f3e 0150 babe
000002c0: 8f56 b43d 028e 95bd 991e 813d feab ecbd
000002d0: 28e0 093e 78ec 78be 2ba4 e1bd a907 153e
000002e0: af6c 73bd ced7 1d3e 9f45 a53d dc8a a5bc
000002f0: 1f97 e53d d95b 2cbe e338 893c 5c17 ae3e
00000300: e59f 4f3e eb90 a3bd f600 7dbc aab4 743e
00000310: 8a31 95bd 6db6 9dbd c73b 013e 6591 083e
00000320: c181 143e 2bbf 86bd 53c6 0b3c 9b74 2b3b
00000330: f195 69bd 5260 a3b9 3b34 be3d 1d70 c7bd
00000340: 833c f6bd 8f0c fcbd 54e9 7d3e bca4 393e
00000350: c358 963e cd5d 8a3c 744c cf3d 9ef0 013e
00000360: b687 8e3b 748d 733e 18ac e9bd 5b67 793d
00000370: 9b10 29be ae29 71be 815e c03d bc74 0dbe
00000380: fe87 f83d 1bda 65bc fcd8 d93d 4a87 073e
00000390: 8087 0d3d a11f 5bbd 00e6 97be f6cb efbe
000003a0: 37b2 b83d 105d c4bd db84 4a3e 7a70 b13d
000003b0: f99a fe3d 4704 c53d 9326 893d 916e 353e
000003c0: aea4 7bbc 9cd0 22bd f82b 343d c7c7 583d
000003d0: 19b0 cebd 3304 ecbd d6c5 61bd 0349 1d3c
000003e0: 00c7 dc3d aade 6c3b cd16 9d3d 6a90 0bbe
000003f0: 7a49 06be 203f 0bbd 1cd1 8fbd 9c9c 05bc

linear_relu_stack.10.bias f4 [180]
0.03638395 -0.026929695 0.23731376 0.16701324 -0.15299164 0.049632628 -0.16131954 -0.017631683
-0.1416707 0.06767644 -0.1467183 0.3764852 0.024819847 -0.02910671 0.23767304 0.10095424
-0.1844973 0.05197379 -0.13049953 0.042012528 -0.11070983 0.09069535 -0.19034873 0.40689945
0.030868713 -0.028211625 0.26814637 0.123753674 -0.20403396 0.056461215 -0.1867095 0.07550625
-0.061240014 0.090717874 -0.12613942 0.4028393 0.021863993 -0.025334384 0.2698627 0.16363022
-0.1314137 0.041284695 -0.23023534 0.020349346 -0.09711372 0.0495104 -0.11447711 0.38125163
0.074224286 -8.8255845e-05 0.2830579 0.16280104 -0.18857098 0.02621759 -0.19968303 -0.056460664
-0.039840512 0.07885047 -0.13982025 0.39446712 0.06023452 -0.02073218 0.268111 0.055120792
-0.099824645 -0.07132132 -0.17383242 -0.07851961 -0.100253075 0.0682695 -0.14092506 0.38828328
0.024213329 -0.021784013 0.2797067 0.16162166 -0.07362429 -0.07234591 -0.1690708 -0.07055104
0.037403967 0.04051911 -0.08384486 0.4500656 0.027958762 -0.0010577218 0.261258 0.097078085
-0.02985483 -0.13424644 -0.14248557 -0.030922879 -0.05831839 0.046531703 -0.052479718 0.42144638
0.018953683 -0.011798246 0.27507806 0.14494918 0.035946604 -0.025864758 -0.15652458 -0.17281307
-0.066881135 0.063899845 -0.03463644 0.43063626 0.0422975 -0.016864117 0.28004548 0.15608995
0.070852526 -0.08790699 -0.12696084 -0.19580436 -0.071616 -0.015395667 -0.08854716 0.40849152
0.033941757 -0.029348271 0.26073554 0.18146048 0.08297664 -0.045962602 -0.104581356 -0.18522125
-0.06681296 0.03344268 -0.08191606 0.41839474 0.05394647 0.0013830712 0.2714494 0.07757833
0.016170835 -0.0018394041 -0.101902366 -0.20765144 -0.037355732 0.07577333 -0.08179678 0.4494705
0.013575975 0.028768172 0.26928884 0.13426022 0.054391734 -0.030145768 -0.16619289 -0.17954965
-0.008251968 -0.020476075 -0.01965083 0.4282003 0.027561937 -0.016042104 0.2867763 0.07475129
0.038178444 -0.02148861 -0.13519616 -0.1348812 0.000823001 -0.0031614292 -0.04301398 0.4416962
0.029678375 -0.016366228 0.28511694 0.1735954 0.046659105 -0.06409791 -0.053569812 -0.1992842
-0.013402091 0.0022679232 -0.07514478 0.42936978
00000000: 5607 153d aa9b dcbc 6102 733e 8505 2b3e
00000010: d7a9 1cbe 954b 4b3d f330 25be 5270 90bc
00000020: 2012 11be f299 8a3d 523d 16be abc2 c03e
00000030: fe52 cb3c 3271 eebc 9060 733e 19c1 ce3d
00000040: dcec 3cbe 78e2 543d aba1 05be 5415 2c3d
00000050: d6bb e2bd 7cbe b93d c7ea 42be 2055 d03e
00000060: 62e0 fc3c 111c e7bc 7b4a 893e 9172 fd3d
00000070: 47ee 50be e043 673d c630 3fbe 05a3 9a3d
00000080: cfd6 7abd 4bca b93d b12a 01be f440 ce3e
00000090: 1e1c b33c 0e8a cfbc 722b 8a3e ae8e 273e
000000a0: 5091 06be 241a 293d d0c2 6bbe acb3 a63c
000000b0: 8fe3 c6bd 6bcb 4a3d fa72 eabd 6a33 c33e
000000c0: e702 983d ff15 b9b8 f7ec 903e 51b5 263e
000000d0: c018 41be 45c6 d63c b579 4cbe 4c43 67bd
000000e0: ce2f 23bd 5b7c a13d 0a2d 0fbe 98f7 c93e
000000f0: 79b8 763d 88d6 a9bc d845 893e 57c6 613d
00000100: dd70 ccbd ea10 92bd 2001 32be e4ce a0bd
00000110: 7c51 cdbd e1d0 8b3d a94e 10be 11cd c63e
00000120: 085b c63c 6374 b2bc b735 8f3e 2680 253e
00000130: 55c8 96bd 182a 94bd e520 2dbe 107d 90bd
00000140: e734 193d 5ef7 253d dbb6 abbd 006f e63e
00000150: c609 e53c 41a3 8aba 9cc3 853e e0d0 c63d
00000160: 1e92 f4bc e677 09be bde7 11be fa51 fdbc
00000170: 44df 6ebd 0798 3e3d f9f4 56bd d2c7 d73e
00000180: c144 9b3c 6e4d 41bc 08d7 8c3e 8f6d 143e
00000190: bf3c 133d 54e2 d3bc fb47 20be e9f5 30be
000001a0: faf8 88bd ecdd 823d f1de 0dbd 5b7c dc3e
000001b0: 2540 2d3d 9e26 8abc 1f62 8f3e 0bd6 1f3e
000001c0: 211b 913d 9408 b4bd 0602 02be f080 48be
000001d0: 69ab 92bd 1c3e 7cbc 3758 b5bd cd25 d13e
000001e0: 8306 0b3d c96b f0bc 217f 853e c7d0 393e
000001f0: a8ef a93d 4843 3cbd c02e d6bd a4aa 3dbe
00000200: 3cd5 88bd 31fb 083d 9bc3 a7bd d637 d63e
00000210: f9f6 5c3d 2b48 b53a 6afb 8a3e 63e1 9e3d
00000220: b378 843c 2918 f1ba 30b2 d0bd 94a2 54be
00000230: 5302 19bd 0c2f 9b3d 1285 a7bd ff20 e63e
00000240: c46d 5e3c 3bab eb3c 3ae0 893e 837b 093e
00000250: dec9 5e3d 42f4 f6bc 782e 2abe dddb 37be
00000260: 4333 07bc 71bd a7bc c7fa a0bc 123d db3e
00000270: 92c9 e13c bb6a 83bc 58d4 923e 3417 993d
00000280: 0061 1c3d e208 b0bc dd70 0abe 4c1e 0abe
00000290: aabe 573a fb2f 4fbb 6d2f 30bd 0126 e23e
000002a0: 1020 f33c 7812 86bc d9fa 913e fec2 313e
000002b0: 9e1d 3f3d c445 83bd 056c 5bbd 2811 4cbe
000002c0: 7294 5bbc 70a1 143b 82e5 99bd 5bd6 db3e
