baselines/autoenc_basic/Weights/model_weights_AMASS1o2_i1o4.pth (torch, 104114 bytes, 12 tensors)

linear_relu_stack.0.weight f4 [50, 180]
0	0xbd82185f	-0.06352305
1	0xbd6469f5	-0.05576511
2	0xbd507f2d	-0.050902534
3	0xbc32ab70	-0.010905132
4	0x3dbbce81	0.09170247
5	0x389353cc	7.0251146e-05
6	0xbc0f95f7	-0.008763782
7	0xbc712f80	-0.014720798
8	0xbc75c85c	-0.015001383
9	0x3d07d760	0.033164382
10	0xbcc2bc77	-0.023771508
11	0x3aaa6588	0.0013000229
12	0xbcd40a4e	-0.02588382
13	0x3ccf3639	0.02529441
14	0x3caf5fa8	0.021407917
15	0xbcef4187	-0.02920605
16	0xbd83cddd	-0.0643575
17	0x3ce380cc	0.027771376
18	0x3d4fb84c	0.05071287
19	0x3dc1d862	0.094651
20	0x3cc5264a	0.02406611
21	0x3cfde0a6	0.03099091
22	0x3d7a85da	0.061162807
23	0xbc3b1a2f	-0.011419817
24	0xbd4147e8	-0.047187716
25	0xbc97d9c2	-0.018536452
26	0xbd0072a2	-0.031359322
27	0xbd4cb974	-0.04998155
28	0x3d2c70da	0.04209981
29	0x3d6fce50	0.058546364
30	0x3be80c6a	0.007081558
31	0xbc2daa52	-0.01059969
32	0xbd40db6c	-0.047084257
33	0xbce93f94	-0.0284727
34	0x3b6617a2	0.00351093
35	0x3d4fc230	0.0507223
36	0x3d786250	0.060640633
37	0x3bd66cf4	0.00654375
38	0xbd348dec	-0.04408066
39	0xbdc28c92	-0.09499468
40	0x3ce053f9	0.027383791
41	0x3d39e9ee	0.04538911
42	0x389e4c64	7.548256e-05
43	0x3d4707c7	0.0485914
44	0xbbd56199	-0.0065118787
45	0xbca84081	-0.02053857
46	0xbc1df028	-0.009639777
47	0x3d9fa93e	0.07795952
48	0x3c352e56	0.011058411
49	0xbda8c89b	-0.082413875
50	0x3c5b7623	0.013394865
51	0xbb8a2a67	-0.0042164805
52	0xbd687b71	-0.056758348
53	0xbd0d57c7	-0.03450754
54	0xbbf7df14	-0.007564435
55	0x3cd56941	0.026051166
56	0xbd4da449	-0.050205503
57	0xbd4a149a	-0.049336053
58	0xbd066999	-0.03281555
59	0x3d7f62cc	0.06235008
60	0xbca450dc	-0.020058088
61	0x3d1e4ba8	0.03864637
62	0xbd4db6ac	-0.050223038
63	0xbd8905f6	-0.0669059
64	0xbd14ee62	-0.036360152
65	0x39c7fefb	0.00038146213
66	0x3d12e1ed	0.03585999
67	0xbc400998	-0.011721037
68	0xbd6a1085	-0.05714466
69	0x3d128c1b	0.035778146
70	0xbcfb59e7	-0.030682517
71	0x3cad573f	0.021159766
72	0x3c501ac1	0.012701691
73	0xbb217bd8	-0.0024640467
74	0x3d425587	0.047444846
75	0xbd11d30d	-0.035601664
76	0xbdcaaf15	-0.098966755
77	0x3b3bd42e	0.0028660404
78	0x3d66c26e	0.056337766
79	0x3dac3a91	0.08409608
80	0x3c2f0a4c	0.010683607
81	0xbd932a08	-0.07185751
82	0x3d2a60a4	0.04159607
83	0xbd8c3ea4	-0.06847885
84	0xbca6c45a	-0.0203573
85	0xbd05d431	-0.032673065
86	0x3d132da5	0.035932202
87	0x3d8ace2f	0.06777608
88	0xbbc5342d	-0.0060181827
89	0xbadfb27d	-0.0017066743
90	0xbcd444d8	-0.025911734
91	0xbd133619	-0.035940263
92	0x3b8070cd	0.003919697
93	0xbd4c7516	-0.04991635
94	0x3d611af2	0.054957338
95	0x3d6d2f0c	0.057906196
96	0x3aeb3805	0.0017945772
97	0xbd1a6285	-0.03769161
98	0x3cc398d3	0.023876583
99	0xbcd5cd8b	-0.026098987
100	0xbcae4bbe	-0.021276351
101	0x3d3b56ed	0.045737196
102	0xbc230556	-0.009950003
103	0xbd0831c8	-0.0332506
104	0x3d86e703	0.06587031
105	0xbc6a2884	-0.014291886
106	0xbd4af103	-0.049546253
107	0x3d39df21	0.045378808
108	0xbc2d6815	-0.010583897
109	0xbd9c7c9a	-0.07640953
110	0x3d81263a	0.06306119
111	0xbcb2bdaf	-0.021818964
112	0xbda3ed0b	-0.08004197
113	0xbd4bfabd	-0.04979967
114	0xbd4e3133	-0.05033989
115	0xbd1004a0	-0.03516066
116	0x3ce5f255	0.028069654
117	0x3c127e74	0.008941282
118	0x3c96adec	0.01839348
119	0xbd6262e5	-0.055270094
120	0x3c9d71e6	0.01921935
121	0x3ceff7ba	0.02929293
122	0x3d9a15eb	0.07523712
123	0x3c277b76	0.0102223065
124	0xbb4f7f64	-0.0031661624
125	0x3d099e6c	0.03359835
126	0x3bf4a059	0.007465404
127	0xbd1dfcaa	-0.038571037
128	0xbd73dbf5	-0.05953594
129	0xbdcb9252	-0.09940018
130	0x3cbf88f3	0.023380732
131	0xbd4933dd	-0.049121726
132	0xbd1bb068	-0.03801003
133	0x3d1a8fd9	0.03773484
134	0x3cfb1a3e	0.030652162
135	0x3b71fda7	0.003692487
136	0xbd1f31d7	-0.03886589
137	0xbd280561	-0.041020755
138	0xbd36f418	-0.04466638
139	0xbd5b02c6	-0.05346944
140	0xbbafba66	-0.0053627966
141	0xbd93e376	-0.07221119
142	0x3d9a5e07	0.075374655
143	0x3ce9381a	0.028469134
144	0x3cb4fd75	0.022093514
145	0xbcea8e91	-0.028632434
146	0xbd34e23a	-0.04416106
147	0xbd7208d4	-0.05909045
148	0xbb195e7c	-0.0023402264
149	0x3c3ace00	0.011401653
150	0x3c5d313e	0.01350051
151	0xbd425e06	-0.04745295
152	0x3d6aa616	0.0572873
153	0xbbbaad1d	-0.0056969062
154	0x3c1d31c1	0.009594382
155	0xbd06a77c	-0.03287457
156	0x3d0ac06e	0.03387492
157	0xbccf8e3c	-0.025336377
158	0x3cedb840	0.029018521
159	0xbd990c54	-0.074730545
160	0x3d0e7e4d	0.03478842
161	0xbc815133	-0.01578579
162	0x3d14801e	0.036254995
163	0xbc818dc6	-0.015814673
164	0xbd7846c8	-0.060614377
165	0xbe0dc760	-0.13845587
166	0xbd36c76d	-0.04462378
167	0xbd917847	-0.07103019
168	0xbcd464e3	-0.025927013
169	0x3dacb5ff	0.084331505
170	0xbd30dd03	-0.043179523
171	0xbdd1f12a	-0.102510765
172	0xbd8b086d	-0.067887165
173	0xbd1dbabd	-0.038508166
174	0xbd476520	-0.048680425
175	0x3dd34de4	0.10317591
176	0xbd9e3cd7	-0.07726448
177	0xbe23f129	-0.16009964
178	0xbcfe99ef	-0.03107926
179	0x3cb43875	0.021999577
180	0xbdaa102d	-0.083038665
181	0x3d2037b2	0.039115615
182	0xbb1a2016	-0.002351766
183	0xbc6ef7f9	-0.0145854885
184	0xbd6f3879	-0.058403466
185	0xbd3147a8	-0.043281227
186	0xb91c0e47	-0.00014882638
187	0xbd53589e	-0.051598184
188	0x3b4fc521	0.0031703191
189	0x3d2d0621	0.042242173
190	0x3cf34a47	0.029698504
191	0xbc473681	-0.012158991
192	0x3c70824e	0.014679505
193	0x3d867469	0.06565172
194	0xbd8c6aa4	-0.068562776
195	0x3cd79009	0.026313799
196	0x3b90170d	0.004397279
197	0xbaf399dc	-0.0018585282
198	0x3b4bfa0e	0.0031124386
199	0x3d890388	0.06690127
200	0x3d4282e9	0.047488127
201	0xbd91538d	-0.07096014
202	0x3c1e3bd3	0.009657818
203	0x3c3c36b9	0.011487656
204	0x3cf206c5	0.029544244
205	0x3bf1f41d	0.007383837
206	0xbd16da9e	-0.036829583
207	0xbd1e2c94	-0.03861673
208	0xbdcb814c	-0.09936771
209	0xbd18ae29	-0.037275467
210	0x3bfbcbbb	0.0076841987
211	0x3d72afbc	0.059249625
212	0x3c379261	0.011204333
213	0xbd0b7314	-0.034045294
214	0x3c844789	0.016147392
215	0x3d93194b	0.071825586
216	0xbdaa6227	-0.08319502
217	0xbcca259e	-0.02467614
218	0xbd759a02	-0.059961326
219	0x3d9013ea	0.07035048
220	0xbd3df3ef	-0.04637521
221	0x3d817208	0.06320578
222	0xbd2096a8	-0.039206177
223	0xbc9823a3	-0.01857168
224	0xbc8fd266	-0.01755638
225	0xbb9fe35d	-0.0048793987
226	0x3e04317b	0.129095
227	0x3dae827f	0.08520984
228	0x3d3a74a0	0.04552138
229	0x3b6ddeea	0.0036296197
230	0xbd842d03	-0.06453898
231	0x3d131a60	0.035913825
232	0x3ce8b6f0	0.028407544
233	0x3c3230c0	0.010875881
234	0x3af0341d	0.0018326078
235	0x3dec7b88	0.11546999
236	0xbb63a2ba	-0.0034734444
237	0x3cfbe5b4	0.03074918
238	0x3d92c923	0.0716727
239	0xbc2ef771	-0.010679112
240	0xbd555cb3	-0.052090358
241	0x3d96800b	0.07348641
242	0xbd68c7d0	-0.05683118
243	0xbd36e8f7	-0.044655766
244	0x3d952b9a	0.07283707
245	0xbc3eca1e	-0.011644868
246	0x3b6e8756	0.0036396584
247	0x3de6abff	0.112632744
248	0xbd6fa268	-0.058504492
249	0xbdb2e6be	-0.08735417
250	0x3cb835a3	0.022486513
251	0x3cb537bf	0.022121308
252	0x3be6e0fc	0.007045863
253	0x3db54900	0.08851814
254	0x3cee2936	0.029072385
255	0x3d8e2544	0.069407016

linear_relu_stack.0.bias f4 [50]
0	0xbc91d610	-0.017802268
1	0x3e27c88c	0.16385096
2	0x3e4a8f0b	0.19781129
3	0x3ce32478	0.02772735
4	0x3d6d8e2b	0.05799691
5	0xbd028733	-0.031867217
6	0xbe03bb1a	-0.12864342
7	0xbd77f95f	-0.060540553
8	0xbd8202c0	-0.06348181
9	0x3d3327b9	0.043739054
10	0x3d94673d	0.07246254
11	0x3e21ed26	0.15813121
12	0xbdea840c	-0.11450967
13	0x3defa620	0.11701608
14	0xbcce3fdb	-0.025176933
15	0xbc0e6b6c	-0.008692604
16	0x3cd06c22	0.025442187
17	0x3e3540e9	0.17700543
18	0x3d9e5e4c	0.077328295
19	0xbb82e5b7	-0.0039946693
20	0x3e284375	0.16431983
21	0x3e33a211	0.17542292
22	0xbcb2603b	-0.021774402
23	0xbc8771b0	-0.016533703
24	0xbd88d149	-0.06680543
25	0x3e0e4900	0.13895035
26	0x3d3c7407	0.04600909
27	0xbd002e78	-0.031294316
28	0x3e0f7072	0.14007738
29	0x3c564d16	0.013079902
30	0x3d47baa4	0.04876198
31	0x3dac33e8	0.08408338
32	0x3dc2b9f1	0.09508122
33	0x3d5dae90	0.054121554
34	0x3e4b11bd	0.19830985
35	0xbcf46f0e	-0.029838111
36	0x3d84e019	0.06488056
37	0x3e08193e	0.13290879
38	0x3dda7119	0.10666103
39	0x3ccfce04	0.02536679
40	0x3d9f598c	0.077807516
41	0xbd0fa98c	-0.035073802
42	0xbc1c2784	-0.009530906
43	0x3bf3f800	0.0074453354
44	0x3e22b2b0	0.15888476
45	0xba825f38	-0.000994659
46	0xbb6a0ace	-0.0035712007
47	0x3d002861	0.03128851
48	0x3e95c480	0.2925148
49	0xbd4465b7	-0.047948565

linear_relu_stack.2.weight f4 [40, 50]
0	0xbdb52e71	-0.088467486
1	0x3dd30980	0.10304546
2	0x3d2e2667	0.042517092
3	0x3e0e1105	0.1387368
4	0x3b93e818	0.0045137517
5	0x3d326afd	0.043559063
6	0x3b9ca513	0.0047804206
7	0xbdf123be	-0.117743954
8	0x3dd96145	0.10614256
9	0xbda5df3a	-0.08099218
10	0xbde7e791	-0.11323465
11	0xbde28c7c	-0.110619515
12	0xbdddbda1	-0.108271845
13	0x3dd64fb9	0.10464425
14	0xbda0b4d3	-0.078469895
15	0xbddc74ef	-0.10764491
16	0x3debf8ab	0.11522039
17	0x3de779e1	0.113025434
18	0x3aa35705	0.0012461847
19	0xbc113d4a	-0.00886471
20	0xbc937b3e	-0.018003102
21	0x3dd9c9d6	0.106342
22	0x3e126bac	0.14298886
23	0x3dbc8878	0.09205717
24	0xbd5f615e	-0.054536216
25	0x3cf21cd5	0.029554764
26	0x3df58f23	0.11990192
27	0xbdd71319	-0.105016895
28	0x3d84073b	0.064466916
29	0x3d7fd147	0.06245544
30	0x3d5772d0	0.052599728
31	0xbe12366c	-0.14278573
32	0x3d87ef7a	0.066374734
33	0x3de3a9c1	0.11116362
34	0xbdfbcb96	-0.1229469
35	0x3c8e8da9	0.017401533
36	0x3df0da28	0.1176036
37	0x3d92b578	0.07163519
38	0xbe8c7f4e	-0.27440876
39	0x3e12d56a	0.14339224
40	0x3d21af6b	0.039473932
41	0x3d6dcee2	0.058058627
42	0xbbe365a2	-0.006939606
43	0xbd2aa6ab	-0.041662853
44	0xbd4ce881	-0.05002642
45	0x3df5b940	0.11998224
46	0x3ddb6db3	0.10714283
47	0x3e20b40e	0.15693685
48	0x3b93892f	0.0045024375
49	0x3d0ff65e	0.035147063
50	0x3d2ba106	0.04190161
51	0xbcc50bf0	-0.024053544
52	0x3d433881	0.04766131
53	0xbdaa987b	-0.083298646
54	0x3d1e7f88	0.038695842
55	0xbcce9a00	-0.025219917
56	0x3de53095	0.11190907
57	0xbdceb413	-0.1009294
58	0xbdf5487a	-0.119767144
59	0x3da42c6b	0.080162846
60	0x3e005c0c	0.12535113
61	0xbe08bee2	-0.13354066
62	0xbe009bf0	-0.12559485
63	0xbd3bb77d	-0.045829285
64	0x3df2036e	0.118170604
65	0x3c1acb5c	0.009447899
66	0xbcaeb7eb	-0.021327933
67	0xbe025b7e	-0.12730214
68	0x3c595b06	0.013266331
69	0x3d0ea3bb	0.034824114
70	0xbe18fcd4	-0.14940196
71	0xbc4de595	-0.012566944
72	0x3da3baad	0.0799459
73	0x3c1dd603	0.009633544
74	0xbca03985	-0.019558677
75	0x3c1f00f7	0.00970482
76	0xbdc78d91	-0.097437985
77	0xbddf80b1	-0.10913218
78	0xbdffc078	-0.124878824
79	0xbcdf6d29	-0.027273731
80	0xbcd4ff81	-0.02600074
81	0x3d5bff9d	0.05371057
82	0x3d320dcc	0.04347019
83	0x3d87550f	0.066080205
84	0x3df33f09	0.118772574
85	0xbd99cd07	-0.07509809
86	0x3e01c611	0.12673213
87	0x3d80e658	0.062939346
88	0xbdbc20a5	-0.09185914
89	0xbcc96a63	-0.024586862
90	0x3da3dd6f	0.080012195
91	0x3e01982c	0.12655705
92	0xbd0ad0dc	-0.03389059
93	0xbd82c24c	-0.063847154
94	0x3dac7f1d	0.084226824
95	0xbc33b452	-0.010968285
96	0x3d68f841	0.05687738
97	0x3cec70ef	0.028862445
98	0xbe09188c	-0.1338827
99	0x3c91676c	0.01774951
100	0xbdf88027	-0.12133818
101	0xbd873311	-0.06601537
102	0xbdcd51f7	-0.10025399
103	0xbde6a9d2	-0.112628594
104	0x3c227620	0.0099158585
105	0x3c835374	0.016031004
106	0x3c367d23	0.011138233
107	0xbda09d01	-0.07842446
108	0x3d855780	0.0651083
109	0xbd1bc1bd	-0.03802656
110	0xbd6b3cac	-0.057430908
111	0x3db603f1	0.088874705
112	0xbde7b882	-0.11314489
113	0x3d44785b	0.047966342
114	0x3e0fc791	0.14040972
115	0x3ba13e4a	0.0049207555
116	0x3d93011a	0.071779445
117	0x3e05765e	0.13033435
118	0xbdec364d	-0.115337946
119	0xbd8c34b3	-0.06845989
120	0xbdd101c2	-0.102054134
121	0x3dbae756	0.09126155
122	0xbe283abb	-0.16428654
123	0xbdee23db	-0.11627933
124	0xbdc43433	-0.09580269
125	0x3e57cccb	0.21074216
126	0x3d8a4ab8	0.06752533
127	0x3e0825d0	0.13295674
128	0x3e460b11	0.19340159
129	0xbdd3c912	-0.103410855
130	0xbe1eecc7	-0.15520011
131	0x3c313150	0.01081498
132	0x3c1e7d83	0.009673479
133	0xbdffb1b6	-0.124850675
134	0xbdc82dce	-0.097743616
135	0xbd792bce	-0.06083279
136	0x3e545810	0.20736718
137	0xbd896911	-0.06709493
138	0x3dacc4ce	0.08435975
139	0xbd805ef2	-0.062681094
140	0xbd80483a	-0.06263776
141	0xbddd9ae2	-0.10820557
142	0xbe12558d	-0.14290448
143	0x3d374db1	0.044751827
144	0x3e4c7485	0.19966324
145	0xbe19025a	-0.14942303
146	0xbc60c8b6	-0.013719728
147	0x3dd4ab38	0.1038422
148	0x3e467198	0.1937927
149	0x3d3bf15f	0.045884486
150	0x3e0608f6	0.13089356
151	0x3dd13816	0.10215776
152	0x3c92a7bb	0.017902246
153	0x3d60ba3b	0.054865103
154	0x3e074e1f	0.13213395
155	0xbd0fad9c	-0.035077676
156	0xbe092c75	-0.13395865
157	0xbd010d55	-0.031506855
158	0xbd84ab0e	-0.064779386
159	0x3c282587	0.0102628535
160	0xbc7fe5bd	-0.015618739
161	0x3df08d3d	0.11745689
162	0x3ddbce8c	0.10732755
163	0xbd1a0e82	-0.037611492
164	0x3d95ad8a	0.073084906
165	0xbda712da	-0.081578925
166	0x3dd63a76	0.10460369
167	0xbe3bab50	-0.1832707
168	0x3d8e09c4	0.069354564
169	0xbdebdac9	-0.11516339
170	0xbdc3a82e	-0.09553562
171	0xba899ac7	-0.0010498398
172	0xbd9950a9	-0.07486088
173	0xbe1b45a2	-0.15163282
174	0xbe053d9f	-0.13011788
175	0x3d3b4ba2	0.045726426
176	0x3d922832	0.07136573
177	0xbe4475ac	-0.19185513
178	0x3e696ca4	0.2279535
179	0xbda154ac	-0.07877478
180	0x3e2c842f	0.16847299
181	0x3e185d98	0.14879453
182	0x3c4f7b20	0.012663633
183	0xbd93aba1	-0.0721047
184	0xbea79784	-0.32732785
185	0x3dddb258	0.10825032
186	0xbdd30265	-0.10303191
187	0x3d31db14	0.04342182
188	0xbeb03ada	-0.344199
189	0x3e1366ec	0.1439473
190	0x3d769f04	0.060210243
191	0x3deb2bc8	0.1148296
192	0xbd376616	-0.04477509
193	0x3d060ab5	0.032725055
194	0x3d750fc3	0.059829485
195	0x3d5da9ff	0.0541172
196	0x3d5e037e	0.05420255
197	0x3c89aa1e	0.016804751
198	0xbd8662e4	-0.06561831
199	0xbe02ec1c	-0.12785381
200	0xbc93e1ae	-0.018051948
201	0xbd9855c1	-0.07438231
202	0x3de8533b	0.11344
203	0x3df87f8b	0.12133702
204	0xbd9ac2c0	-0.07556677
205	0xbcb68dbc	-0.022284381
206	0xbd9124bf	-0.07087087
207	0x3d296085	0.041351814
208	0xbd66b673	-0.05632634
209	0xbe25f687	-0.16207324
210	0xbd868b78	-0.0656957
211	0x3cc2e2d9	0.02378981
212	0xbd33bbf1	-0.043880407
213	0xbe235bca	-0.15952983
214	0x3d8b21c0	0.06793547
215	0x3e00d14c	0.1257984
216	0x3e14dd66	0.14537582
217	0x3d079da0	0.033109307
218	0xbde78586	-0.113047644
219	0xbe1401b6	-0.14453778
220	0x3dbacee3	0.09121492
221	0x3dc64d69	0.096827336
222	0xbcbb3f5e	-0.022857364
223	0xbd4f2f86	-0.05058243
224	0x3c27f24b	0.010250638
225	0xbb3aa6a8	-0.0028480683
226	0xbe60ac50	-0.21940732
227	0xbc8c8f74	-0.017158248
228	0x3e7b7486	0.24556169
229	0xbdc124cc	-0.094308466
230	0x3c84774c	0.016170166
231	0x3d1fd5a0	0.039022088
232	0xbdedb32a	-0.116064385
233	0x3e120cab	0.14262645
234	0x3e08b934	0.133519
235	0xbdb515c4	-0.08842042
236	0xbe060586	-0.13088045
237	0x3c914eee	0.017737832
238	0xbe099b43	-0.13438134
239	0xbd64808d	-0.055786658
240	0xbd64ca11	-0.055856768
241	0xbd142255	-0.036165554
242	0xbe470e89	-0.19439138
243	0x3e019985	0.1265622
244	0x3dbf7366	0.093481824
245	0xbc88ea8c	-0.016713403
246	0xbcc01b91	-0.023450645
247	0xbc448415	-0.011994381
248	0x3e428d80	0.1899929
249	0x3e09a795	0.13442834
250	0x3da4335d	0.08017609
251	0xbc09acf6	-0.0084030535
252	0xbe55b218	-0.20868719
253	0x39c5e02d	0.00037741792
254	0x3d627c5a	0.055294372
255	0xbd85b61f	-0.065288775

linear_relu_stack.2.bias f4 [40]
0	0xbda55537	-0.08072894
1	0xbe1d5977	-0.1536616
2	0x3b2a852e	0.0026019323
3	0x3e440b57	0.19144951
4	0x3dc3fb77	0.095694475
5	0xbe00ac27	-0.12565671
6	0x3e5c1d75	0.21495612
7	0x3dd205fe	0.10255049
8	0xbc7889e3	-0.0151695935
9	0x3cb09fd6	0.02156059
10	0xbcf8c89c	-0.030369096
11	0x3d9d006d	0.07666097
12	0x3e0a5899	0.1351036
13	0x3e567dac	0.20946378
14	0x3e4be17c	0.19910234
15	0x3dee0f26	0.11623983
16	0x3e6252ff	0.22101973
17	0xbd331d1c	-0.043728933
18	0x3e6acce9	0.2292973
19	0xbd5e1439	-0.054218505
20	0x3e0fad04	0.14030844
21	0xbdb882f4	-0.09009352
22	0x3e400588	0.1875211
23	0xbe085c4f	-0.13316463
24	0xbdf5713e	-0.1198449
25	0x3d3139eb	0.043268126
26	0x3d0de821	0.034645204
27	0x3e024f20	0.12725496
28	0xbdd14c20	-0.10219598
29	0xbd0d6875	-0.034523446
30	0x3dad25e2	0.08454491
31	0xbda37dd9	-0.07982988
32	0x3cf4a59f	0.02986413
33	0xbd953e9d	-0.07287333
34	0xbdd0d051	-0.10195983
35	0x3e377455	0.17915471
36	0x3cb48f45	0.022040972
37	0x3e36823f	0.17823122
38	0x3d387535	0.045033652
39	0x3dcfe276	0.10150616

linear_relu_stack.4.weight f4 [30, 40]
0	0xbe012600	-0.12612152
1	0xbc226ce0	-0.009913653
2	0xbd828546	-0.06373076
3	0x3d8637b1	0.06553591
4	0xbd76d8c5	-0.06026532
5	0x3dde673e	0.10859536
6	0x3d863e95	0.06554905
7	0xbe21c717	-0.15798603
8	0xbd7a57bd	-0.06111883
9	0x3bf12913	0.0073596328
10	0x3d4f80f0	0.050660074
11	0x3d778f15	0.060439188
12	0x3e10d531	0.14143826
13	0x3d46c276	0.048525296
14	0xbde5340a	-0.11191566
15	0xbcf9d228	-0.030495718
16	0xbdefe4be	-0.11713551
17	0x3d0e6cc4	0.034771696
18	0xbc47910d	-0.012180579
19	0xbdc5e99f	-0.096637
20	0xbdd0f5dd	-0.10203145
21	0x3d869d5e	0.06572984
22	0x3d62d458	0.055378288
23	0x3e05a3dc	0.13050789
24	0xbd987ba9	-0.07445461
25	0x3dd1ac06	0.10237889
26	0xbd1d174f	-0.038352307
27	0xbe1ac3c4	-0.15113741
28	0xbda91c50	-0.08257353
29	0xbdcf146a	-0.101113155
30	0xbd64bedc	-0.05584608
31	0xbd98417c	-0.07434365
32	0x3d352539	0.04422495
33	0x3ca713d7	0.020395203
34	0xbd8c845f	-0.06861185
35	0xbd286718	-0.041113943
36	0x3d42aea0	0.047529817
37	0xbdfab658	-0.122418106
38	0xbddca3e2	-0.10773446
39	0x3d7f1c0e	0.062282614
40	0x3e0a26e3	0.13491397
41	0x3d96c2d5	0.0736138
42	0x3daa163b	0.083050214
43	0xbc05e1a6	-0.008171475
44	0x3e1ee972	0.1551874
45	0xbcb8d176	-0.022560816
46	0x3e138cd4	0.1440919
47	0x3d50f8e3	0.051018607
48	0x3dab2b60	0.083578825
49	0xbe911640	-0.28337288
50	0x3dae1d6f	0.08501708
51	0xbcea62df	-0.028611599
52	0xbc153663	-0.009107205
53	0x3e889ad7	0.26680633
54	0xbe345b4d	-0.17612953
55	0xbda8c915	-0.08241478
56	0x3c4d0cca	0.012515256
57	0xbbc9ee77	-0.0061624604
58	0x3e2f4979	0.17117871
59	0x3e0e8e18	0.13921392
60	0x3d917217	0.07101839
61	0xbdc94a83	-0.09828665
62	0xbd653020	-0.0559541
63	0x3e142b66	0.1446968
64	0x3e193171	0.14960267
65	0x3e3235b7	0.17403303
66	0xbe1665d9	-0.1468729
67	0x3d2abc7d	0.041683663
68	0xbe168eb8	-0.1470288
69	0x3b51f99c	0.0032039648
70	0xbbafc848	-0.0053644516
71	0x3dfc0f17	0.12307566
72	0xbdd5c449	-0.10437829
73	0xbd85de3a	-0.06536527
74	0x3d39ee9e	0.04539358
75	0xbd98ad7c	-0.074549645
76	0xbd8adffb	-0.06781002
77	0x3d652b8c	0.055949733
78	0x3e81b169	0.25330666
79	0xbdac6bba	-0.08418985
80	0x3e0a9f87	0.13537417
81	0x3c79c130	0.015243813
82	0x3d18c675	0.03729864
83	0x3cac793b	0.021053901
84	0x3d9d3c14	0.076774746
85	0xbd7e6e66	-0.062117003
86	0x3e1b9f5c	0.1519751
87	0x3d907c54	0.07054964
88	0xbdc4d8dd	-0.09611676
89	0x3e118473	0.14210682
90	0x3e06eae0	0.13175535
91	0xbbe5354d	-0.0069948793
92	0xbd2fa9c4	-0.04288651
93	0x3d9b6f82	0.07589628
94	0x3d13db18	0.036097616
95	0x3d414e85	0.047194023
96	0x3e3f2b96	0.1866897
97	0x3e0ec30f	0.13941596
98	0xbe515417	-0.20442234
99	0xbdb61170	-0.08890045
100	0x3e050161	0.12988807
101	0xbe18d614	-0.14925414
102	0x3c221309	0.009892234
103	0xbd061c7f	-0.03274202
104	0x3c89ece2	0.016836587
105	0x3c765fea	0.015037516
106	0x3ccee61c	0.02525621
107	0xbcae7bfd	-0.021299357
108	0x3d59a2f0	0.053133905
109	0x3ce8238c	0.028337263
110	0x3c55f96b	0.013059954
111	0x3d338ef0	0.043837488
112	0x3c9a5286	0.018838178
113	0x3cee0b6f	0.029058186
114	0xbd8755d0	-0.06608164
115	0x3c9ad51d	0.018900448
116	0xbc05ed83	-0.008174303
117	0xbde9ec75	-0.11422054
118	0xbe4675c3	-0.1938086
119	0x3dcb87c4	0.099380046
120	0xbc10b9f6	-0.008833399
121	0x3d6d1946	0.05788543
122	0x3deae157	0.114687614
123	0x3d267c50	0.040645897
124	0xbda825c8	-0.08210331
125	0xbde998c3	-0.1140609
126	0x3db8b5a5	0.09019021
127	0x3df22c5c	0.11824867
128	0xbd8b94ee	-0.068155155
129	0x3ddf09f0	0.10890567
130	0x3dfa6f63	0.122282766
131	0x3e0b664d	0.13613243
132	0xbc4b495b	-0.012407626
133	0xbe1c61eb	-0.15271728
134	0xbb29a20a	-0.0025883936
135	0xbe11463f	-0.14186953
136	0xbd2e6172	-0.0425734
137	0xbda5c9fe	-0.080951676
138	0x3c7e938b	0.015538107
139	0xbda37560	-0.07981372
140	0x3d973287	0.07382684
141	0xbd0cbaed	-0.034357954
142	0xbe16c42d	-0.14723273
143	0xbcbcc9d9	-0.023045467
144	0xbe1f511b	-0.15558283
145	0xbe0321ce	-0.12805864
146	0x3d9373b8	0.07199806
147	0xbd710d0c	-0.058850333
148	0xbcc25e40	-0.023726583
149	0x3dbd552a	0.092447594
150	0xbddc237c	-0.107489556
151	0xbd4387ed	-0.04773705
152	0x3d6fde7e	0.058561794
153	0xbdf539bc	-0.119739026
154	0xbd844501	-0.06458474
155	0x3d2f3553	0.042775463
156	0xbe06d594	-0.13167411
157	0x3de72b9f	0.11287617
158	0x3c98f201	0.018670084
159	0xbe154cc5	-0.14580067
160	0x3e12ff71	0.14355256
161	0x3ddec0a3	0.10876586
162	0xbcba40ea	-0.022736032
163	0xbd1e4084	-0.038635746
164	0xbda6bf63	-0.08141973
165	0xbded4e43	-0.11587193
166	0xbd22d16f	-0.039750513
167	0x3d76370f	0.0601111
168	0x3cf4914d	0.029854441
169	0xbd463b4f	-0.048396405
170	0xbcd63466	-0.026148032
171	0xbdd69ed9	-0.104795165
172	0xbc173ff1	-0.009231553
173	0x3cc4c89d	0.024021441
174	0x3dfd6d5c	0.12374374
175	0x3db11f82	0.08648588
176	0x3df1e618	0.11811465
177	0xbe368d9b	-0.17827456
178	0x3c1e7fc7	0.009674019
179	0xbe03f631	-0.12886883
180	0x3e05257c	0.1300258
181	0x3e118d2e	0.14214012
182	0xbd7b443b	-0.061344367
183	0x3dd556ea	0.10416968
184	0xbd79c575	-0.060979325
185	0xbde7e302	-0.11322595
186	0xbdd62e61	-0.10458065
187	0x3dedc908	0.11610609
188	0xbc6b1570	-0.014348373
189	0xbd1d63b2	-0.038425155
190	0xbcdb6b42	-0.026784543
191	0xbe0fefbc	-0.14056295
192	0x3d256de0	0.040387988
193	0xbc1c5e9d	-0.009544042
194	0x3df62f60	0.12020755
195	0x3e1952ab	0.14972942
196	0x3d122663	0.03568114
197	0xbd6dfcc5	-0.058102388
198	0x3ca3e2d7	0.020005627
199	0xbd78a23e	-0.0607016
200	0xbd87e3c7	-0.06635242
201	0x3c9492dc	0.018136434
202	0xbdfbafed	-0.122894146
203	0x3e3c95aa	0.18416467
204	0x3dc1c6dd	0.09461758
205	0x3d0a1d18	0.033719152
206	0x3df58191	0.119876035
207	0x3e1237e7	0.14279138
208	0xbc34ef3f	-0.011043369
209	0xbde088f8	-0.10963625
210	0x3ddc9641	0.10770846
211	0xbda8ca68	-0.08241731
212	0x3d039d48	0.032132417
213	0x3b658a53	0.0035025075
214	0xbddd3337	-0.10800784
215	0xbd8e63f1	-0.06952656
216	0x3aa8376a	0.0012833897
217	0xbde6f7bc	-0.1127772
218	0xbdfd7d2f	-0.123773925
219	0x3dea75ce	0.11448251
220	0x3b99273e	0.0046738675
221	0xbcceea2b	-0.025258144
222	0xbdad21bf	-0.08453702
223	0x3dccde3e	0.10003327
224	0xbe1d1946	-0.15341672
225	0x3dad8dc7	0.084743075
226	0xbd7338ce	-0.059380345
227	0x3dd11509	0.1020909
228	0x3e0f1b93	0.13975362
229	0x3e0bb33c	0.13642591
230	0x3d1690e7	0.036759283
231	0x3cc2ad74	0.02376435
232	0xbcd6dbbb	-0.026227823
233	0x3d07bd68	0.033139616
234	0xbd8ad572	-0.06778993
235	0x3d08a0cc	0.033356473
236	0xbbdff1c7	-0.006834242
237	0xbd3a1b3c	-0.04543613
238	0xbda5e073	-0.08099451
239	0x3dca938a	0.09891422
240	0x3e832a55	0.25618234
241	0x3c197a44	0.009367529
242	0xbe7fc5b8	-0.24977767
243	0xbc90aa49	-0.017659323
244	0xbe15837a	-0.14600936
245	0xbe22018f	-0.15820907
246	0x3eae4251	0.3403497
247	0xbe14c42c	-0.14527959
248	0x3e20bda0	0.15697336
249	0xbe294cad	-0.16533156
250	0xbe6664df	-0.22499417
251	0xbd95c3c9	-0.07312734
252	0x3e354be6	0.17704734
253	0xbcfebcc0	-0.031095862
254	0xbd44402a	-0.047912754
255	0x3d026db3	0.0318429

linear_relu_stack.4.bias f4 [30]
0	0xbd405f92	-0.046966143
1	0x3e62c3bf	0.22144984
2	0x3dbf9a14	0.0935556
3	0xbe175c91	-0.14781405
4	0xbe0c57a3	-0.13705306
5	0xbdb55ac2	-0.08855201
6	0x3df26986	0.11836533
7	0x3db5bcd7	0.08873909
8	0x3dd2d5cf	0.10294687
9	0x3d38d28b	0.045122664
10	0xbe0d7768	-0.13815081
11	0xbdb1f4ca	-0.08689268
12	0x3e0fe4db	0.14052145
13	0x3e944320	0.28957462
14	0x3e070f10	0.1318934
15	0xbdfe68be	-0.12422322
16	0xbe438a9b	-0.19095843
17	0x3e3d1bed	0.18467684
18	0x3e22601f	0.1585698
19	0xbe5385a6	-0.20656452
20	0xbe157bc8	-0.14598
21	0xbd2be9c2	-0.041970976
22	0x3dbb6d30	0.09151685
23	0xbd888ee1	-0.06667877
24	0xbdfe47db	-0.12416049
25	0xbcc16365	-0.023606965
26	0x3cadc6df	0.021212993
27	0x3e1d5602	0.1536484
28	0x3eb11a64	0.34590447
29	0x3e92fca7	0.28708383

linear_relu_stack.6.weight f4 [40, 30]
0	0x3dd5890f	0.104265325
1	0xbe23ddac	-0.1600253
2	0xbd82cac3	-0.0638633
3	0x3e0bda13	0.13657407
4	0xbe364e1d	-0.17803235
5	0xbc606779	-0.013696545
6	0xbe5bab2e	-0.21452019
7	0x39d6018d	0.00040818416
8	0x3d52bbd4	0.051448658
9	0xbe22fbf0	-0.15916419
10	0x3e1d2aec	0.15348405
11	0x3a828651	0.0009958242
12	0xbe1c1f0d	-0.1524622
13	0x3def0366	0.1167057
14	0xbe31b62c	-0.1735465
15	0xbdeee9ae	-0.116656646
16	0x3e0748ed	0.13211413
17	0x3e013808	0.1261903
18	0x3cb01f37	0.02149926
19	0xbda1d18e	-0.079012975
20	0x3d59ddbb	0.053189974
21	0xbd2a49c6	-0.041574262
22	0x3e9ccee6	0.306266
23	0xbdc62b14	-0.09676185
24	0xbe3ba97e	-0.18326375
25	0x3e0b75bc	0.13619131
26	0x3d6db313	0.058032107
27	0x3cfbac8c	0.030721925
28	0x3d673c87	0.056454208
29	0x3d28b27f	0.041185852
30	0xbe2ca1e1	-0.16858627
31	0x3ca1ffd8	0.019775316
32	0x3da3eb4d	0.080038644
33	0xbe1d5de6	-0.1536785
34	0x3e5dc932	0.21658781
35	0xbde1822b	-0.11011156
36	0x3e728399	0.23683013
37	0xbe426df8	-0.18987262
38	0xbe465260	-0.19367361
39	0xbea4bcce	-0.32175297
40	0x3c1be9c0	0.00951618
41	0xbe24ccaa	-0.16093698
42	0x3da44c6c	0.08022389
43	0x3e9a77c1	0.3016949
44	0x3d995a91	0.07487977
45	0x3dd486f0	0.103773
46	0xbe2a33cd	-0.16621323
47	0xbdad43bd	-0.08460186
48	0xbd698793	-0.05701406
49	0x3e376e0b	0.17913072
50	0x3ce8776c	0.028377257
51	0xbcc11085	-0.023567447
52	0xbe76bd8f	-0.24095748
53	0xbda96ec1	-0.08273078
54	0xbdc62e23	-0.09676769
55	0x3e242302	0.1602898
56	0xbe3149bd	-0.17313285
57	0x3d6f50a2	0.058426507
58	0x3e991c41	0.2990437
59	0xbd094b9a	-0.033519365
60	0xbd97dbcb	-0.07414969
61	0xbdd32331	-0.103094466
62	0x3dc1052c	0.094248146
63	0xbe17853c	-0.14796919
64	0xbb3e314c	-0.0029021082
65	0x3dfa97c9	0.12235982
66	0xbd801ce0	-0.062555075
67	0xbd59bcd2	-0.05315859
68	0xbd83a812	-0.06428541
69	0x3dcfcaf5	0.10146133
70	0x3dad6f2c	0.0846847
71	0xbd2dc1d7	-0.04242119
72	0x3df939b8	0.12169212
73	0xbd4045c4	-0.046941534
74	0x3dfa8c71	0.12233818
75	0x3e25d7fb	0.16195671
76	0x3dd7692c	0.10518107
77	0x3dadf52b	0.08494028
78	0x3d688fdb	0.056777816
79	0x3e053873	0.13009815
80	0x3d00feb8	0.03149292
81	0xbde15247	-0.11002021
82	0xb92acc9a	-0.00016288683
83	0x3e129d6a	0.14317861
84	0xbe3846bf	-0.17995737
85	0x3d7314b2	0.05934591
86	0xbdaf56d1	-0.08561481
87	0x3dbd2c39	0.092369504
88	0xbdab1ac7	-0.08354717
89	0xbd5db8e8	-0.05413142
90	0xbd39df42	-0.04537893
91	0xbdcfb415	-0.1014177
92	0x3daade9f	0.08343243
93	0x3dd293ab	0.10282072
94	0xbd314bcf	-0.043285187
95	0xbdbeda61	-0.09318996
96	0xbe05a8c8	-0.13052666
97	0x3e0714c9	0.13191523
98	0x3d01abea	0.03165809
99	0xbe63c366	-0.22242507
100	0xbd001c8c	-0.031277224
101	0xbdab5eeb	-0.083677135
102	0xbd257051	-0.040390316
103	0x3e36aff6	0.17840561
104	0xbd8df4ca	-0.069314554
105	0xbd42cf1b	-0.047560792
106	0xbdf0ee0f	-0.11764156
107	0x3c5d360f	0.013501658
108	0x3c54885e	0.012971966
109	0xbdf7eaaf	-0.12105309
110	0xbd3d707b	-0.046249848
111	0xbda48f36	-0.08035128
112	0x3c9d7cf0	0.019224614
113	0x3d9fc40c	0.07801065
114	0xbdf088f5	-0.117448725
115	0x3da4285e	0.08015512
116	0xbcf8eb45	-0.030385623
117	0x3e57c6d0	0.21071935
118	0x3b1b9043	0.002373711
119	0x3e1a4f47	0.15069304
120	0x3e376d71	0.17912842
121	0xbdbd8f16	-0.09255807
122	0x3dabc139	0.08386464
123	0xbd3a1640	-0.045431376
124	0xbdfbe791	-0.12300027
125	0xbe1d6521	-0.15370609
126	0xbe29298c	-0.16519755
127	0xbdf7d3d9	-0.121009536
128	0x3cc809dc	0.024418764
129	0x3e20a8c8	0.15689385
130	0xbd57eb78	-0.052714795
131	0xbb7c0bf9	-0.0038459285
132	0xbcc35f55	-0.023849169
133	0xbe406f78	-0.18792522
134	0x3e2c0fd3	0.16802911
135	0xbdcfc9a9	-0.101458855
136	0xbc6e56f4	-0.014547098
137	0xbd826a30	-0.0636791
138	0x3e14d5c8	0.14534676
139	0xbdbfc15b	-0.093630515
140	0xbdc3af8e	-0.09554969
141	0x3e55bb27	0.20872174
142	0xbde9ba56	-0.11412494
143	0xbe06ea6d	-0.13175364
144	0x3f054c44	0.520695
145	0x3e6f7376	0.23383889
146	0x3dfa755e	0.12229417
147	0xbe752e4f	-0.23943447
148	0x3e44c86f	0.19217084
149	0xbe61c69e	-0.22048423
150	0x3c8f63d4	0.017503656
151	0x3d21210b	0.039338153
152	0x3d07764c	0.0330718
153	0x3cad6f43	0.021171218
154	0x3beff9d5	0.0073234835
155	0xbdd8faf4	-0.105947405
156	0xbe3a5c92	-0.18199375
157	0xbd64dd8a	-0.05587534
158	0xbe0f1804	-0.13974005
159	0x3e291262	0.16510919
160	0xbe3a4207	-0.1818925
161	0x3c56c8cb	0.013109396
162	0xbc3133a6	-0.010815537
163	0x3e25ef14	0.16204482
164	0xbd4469fd	-0.04795264
165	0xbe255769	-0.16146626
166	0xbdfa2183	-0.12213423
167	0x3d45c9f0	0.048288286
168	0xbdafce77	-0.08584302
169	0x3e003aa4	0.1252237
170	0x3df5bcbb	0.11998888
171	0x3e614c63	0.22001795
172	0x3e06a261	0.1314788
173	0x3e13b822	0.1442571
174	0x3db365ed	0.08759675
175	0x3dc554dd	0.09635327
176	0x3c7ae9f6	0.01531457
177	0xbdc12f6e	-0.094328746
178	0x3e5117e6	0.20419273
179	0x3e28c28f	0.16480468
180	0x3dc39920	0.09550691
181	0x3e724b7b	0.23661606
182	0x3ae0fdcb	0.001716548
183	0xbded20de	-0.115785345
184	0x3dce3c5a	0.10070105
185	0x3dc8d7da	0.098067954
186	0x3e55c7ed	0.20877047
187	0x3d83f03a	0.06442304
188	0xbe48b921	-0.19601871
189	0xbd361258	-0.044451088
190	0x3d2c4db0	0.042066276
191	0x3e247797	0.16061245
192	0xbe7129cf	-0.23551105
193	0x3ea5385b	0.32269558
194	0xbb90a66a	-0.0044143694
195	0xbe1a0f5b	-0.1504492
196	0xbc4c6278	-0.012474649
197	0xbe2e2ed7	-0.17010055
198	0xbe03a767	-0.12856828
199	0xbda4bf7e	-0.08044337
200	0xbd3191cc	-0.043351933
201	0x3dc276f4	0.09495345
202	0x3e677eed	0.22607012
203	0xbdda33e8	-0.106544316
204	0xbe256a53	-0.1615384
205	0xbca65822	-0.020305697
206	0x3e3a4a5d	0.1819243
207	0x3d14be2a	0.036314167
208	0xbe718443	-0.2358561
209	0xbc90f484	-0.01769472
210	0xbd8911b4	-0.0669283
211	0xbdd3a67e	-0.1033449
212	0x3e2b3a76	0.1672152
213	0xbddbe19b	-0.1073639
214	0xbd506ad4	-0.05088313
215	0x3d9d7ed1	0.07690204
216	0x3bcecdfb	0.006311176
217	0x3e4bc130	0.19897914
218	0xbbb99515	-0.005663524
219	0xbe92a489	-0.28641155
220	0xbe220171	-0.15820862
221	0xbe1861a1	-0.14880992
222	0x3e926456	0.28592175
223	0x3ac48c07	0.0014995345
224	0xbc7e3781	-0.015516163
225	0x3cce781a	0.025203753
226	0x3da3510c	0.07974443
227	0xbe13a9a6	-0.14420184
228	0x3e8cfa6d	0.2753481
229	0x3db4e23c	0.08832213
230	0xbe3035d4	-0.17208034
231	0xbe6bfba8	-0.23045218
232	0xbdbd60c4	-0.09246972
233	0x3e01d3f2	0.12678507
234	0xbe4211ff	-0.18952177
235	0x3caf1440	0.02137196
236	0x3e03d346	0.12873563
237	0x3d854829	0.06507904
238	0x3dddf937	0.108385496
239	0x3eb83149	0.35975102
240	0x3dfe977b	0.12431236
241	0x3e6c09bd	0.2305059
242	0xbd91bc1f	-0.071159594
243	0x3e1e4091	0.15454318
244	0xbe19c734	-0.15017396
245	0xbe25a5c2	-0.16176513
246	0xbdea018c	-0.11426076
247	0x3e3a897b	0.18216507
248	0x3e0d4ce2	0.1379886
249	0x3e5287cd	0.20559616
250	0x3e283cf2	0.16429499
251	0x3c978801	0.018497469
252	0x3e00d7cb	0.12582318
253	0xbdcc314f	-0.09970342
254	0x3d996d1c	0.07491514
255	0xbe0c90ef	-0.13727163

linear_relu_stack.6.bias f4 [40]
0	0x3e3ace23	0.18242697
1	0x3e84363e	0.25822634
2	0xbe37a78e	-0.17935011
3	0x3d0c7669	0.034292612
4	0x3e6bbcc7	0.23021232
5	0xbda20c2a	-0.07912476
6	0x3e07f438	0.13276756
7	0x3e11164e	0.14168665
8	0x3e24e082	0.16101268
9	0x3e154404	0.14576727
10	0xbd0a004c	-0.03369169
11	0x3b8b502b	0.0042515
12	0xbe20753b	-0.1566972
13	0xbe1af15e	-0.15131137
14	0xbdaa3abe	-0.083119854
15	0xbe291bd4	-0.16514522
16	0xbb0f788e	-0.0021891925
17	0xbe1a9ec2	-0.15099624
18	0xbe4dba7f	-0.20090674
19	0x3e391aea	0.18076673
20	0xbd5a363f	-0.05327439
21	0xbded0ea1	-0.11575056
22	0x3e4f14d0	0.20222783
23	0x3ba25cf0	0.0049549267
24	0xbde2641d	-0.11054251
25	0x3e3e473d	0.18581863
26	0xbdd08d52	-0.10183205
27	0x3caffe48	0.021483555
28	0xbe37331d	-0.17890592
29	0xbe3d8b05	-0.18510063
30	0x3e2ef270	0.1708467
31	0x3d49d4af	0.049275097
32	0xbd9c0607	-0.07618337
33	0x3d785eb3	0.060637187
34	0xbd41eb6f	-0.047343668
35	0x3e8d17f9	0.27557352
36	0xbe41d83e	-0.18930146
37	0x3e3d08d5	0.184604
38	0xbe0e756c	-0.1391198
39	0xbe510187	-0.20410739

linear_relu_stack.8.weight f4 [50, 40]
0	0xbda10291	-0.07861818
1	0xbe007f13	-0.12548475
2	0x3e0451e2	0.12921861
3	0xbda5c061	-0.08093334
4	0xbe2ed200	-0.17072296
5	0x3dae6a65	0.08516387
6	0x3dca5b75	0.09880725
7	0xbdfa0ece	-0.12209855
8	0x3d6aeda8	0.057355553
9	0xbddfbc47	-0.10924583
10	0xbdbad28c	-0.0912219
11	0xbe192d92	-0.1495879
12	0xbdd67160	-0.10470843
13	0xbdc14b91	-0.09438241
14	0x3e1277f5	0.14303572
15	0x3d044ffc	0.03230284
16	0xbcf9d648	-0.030497685
17	0xbcd5c9e8	-0.026097253
18	0xbe03dc3d	-0.12876983
19	0xbdff6802	-0.1247101
20	0x3dba5712	0.090986386
21	0xbe188517	-0.1489452
22	0x3dbdc8f2	0.09266843
23	0xbdb9277f	-0.090407364
24	0xbe1d46c8	-0.15359032
25	0x3daef643	0.085430644
26	0xbd5f643a	-0.054538943
27	0x3d9313b6	0.07181494
28	0x3db1f0b4	0.086884886
29	0x3e0e0d59	0.13872279
30	0x3de9045e	0.11377786
31	0x3d2a2318	0.041537374
32	0xbd9a218c	-0.0752593
33	0xbe283ee1	-0.16430236
34	0x3dccd76a	0.100020245
35	0xbdbc9d89	-0.09209735
36	0xbc3d9ca7	-0.011572993
37	0x3ceabb59	0.028653787
38	0x3c6241dc	0.013809647
39	0xbd4b1fca	-0.049590863
40	0x3e59feca	0.212886
41	0x3e632b6f	0.22184537
42	0xbd454f26	-0.048171185
43	0x3d74a49f	0.059727307
44	0x3e075a1c	0.13217968
45	0x3c53e055	0.012931903
46	0xbdf40c12	-0.11916365
47	0x3df22684	0.118237525
48	0xbe05d07b	-0.1306781
49	0xbe34c97f	-0.1765499
50	0xbdf45707	-0.11930662
51	0x3dbb4f88	0.09146029
52	0xbd7008de	-0.058602206
53	0xbcf2cba0	-0.029638112
54	0xbd8d2c24	-0.06893185
55	0x3da44718	0.080213726
56	0xbd97c448	-0.074104846
57	0x3d5a9940	0.053368807
58	0x3dbe010d	0.09277544
59	0xbd9ee3b2	-0.07758273
60	0xbb875e24	-0.0041310955
61	0x3dabb0bb	0.08383318
62	0xbdc2a4b5	-0.095040716
63	0xbdeed0e1	-0.11660934
64	0xbde24afb	-0.11049458
65	0x3df8ce8d	0.121487714
66	0xbe1becbb	-0.15227024
67	0xbd1b6268	-0.037935644
68	0x3db14030	0.08654821
69	0xbdd3a086	-0.10333352
70	0x3e1cb45e	0.1530318
71	0xbd530572	-0.051518865
72	0x3da2d75c	0.07951233
73	0xbd442c8e	-0.047894053
74	0x3db8f087	0.09030252
75	0x3e4d36a9	0.20040382
76	0xbe5b78f6	-0.21432862
77	0x3d1cd936	0.038293086
78	0x3d58d739	0.052939627
79	0x3e038db7	0.12847029
80	0x3e3a9778	0.18221843
81	0x3da04865	0.07826308
82	0xbc4eb84b	-0.012617181
83	0x3c8b861d	0.017031724
84	0xbcf79cb1	-0.030226083
85	0xbe175651	-0.14779021
86	0x3e6a3856	0.22873053
87	0x3e06ae0e	0.13152334
88	0xbe62fa62	-0.22165826
89	0xbd4f2356	-0.05057081
90	0x3df6857e	0.1203718
91	0x3d3ddaa3	0.046351086
92	0x3d0899f7	0.033349957
93	0xbe02c571	-0.1277063
94	0x3dc3c15d	0.095583655
95	0x3deedb68	0.11662942
96	0x3e136432	0.1439369
97	0x3dfeae16	0.12435548
98	0x3ce9a82b	0.028522572
99	0xbc329d6b	-0.010901789
100	0xbc84c505	-0.016207227
101	0xbd0cd618	-0.034383863
102	0xbdce9b15	-0.10088173
103	0x3d14eccc	0.03635864
104	0x3d2c26de	0.042029254
105	0x3d2bfbb1	0.04198808
106	0xbd21a7af	-0.039466556
107	0xbd3aeaea	-0.045634188
108	0x3df6ec07	0.120567374
109	0x3dbbc4ba	0.09168382
110	0x3b91aad4	0.004445413
111	0x3cc52ae3	0.024068302
112	0xbdba927f	-0.09109973
113	0xbde1a5c1	-0.11017943
114	0x3c58943a	0.013218934
115	0x3c0aa4d8	0.008462153
116	0xbc864ce0	-0.016394079
117	0xbdfef532	-0.12449111
118	0xbd2d4a97	-0.042307463
119	0x3d6c6ee8	0.057722956
120	0xbe039261	-0.12848808
121	0xbca55b55	-0.020185152
122	0xbd8e1b0f	-0.06938755
123	0xbe0680e4	-0.13135105
124	0x3d325bae	0.043544464
125	0xbd75b452	-0.05998642
126	0x3de5760e	0.11204158
127	0xbd17e776	-0.037085973
128	0x3dbda4be	0.09259938
129	0xbd23b59e	-0.039968126
130	0x3dafc6e7	0.085828595
131	0xbde9c1c5	-0.11413912
132	0xbe0fcc71	-0.14042832
133	0x3e11fa5b	0.1425566
134	0x3d1bfdd4	0.038083866
135	0x3b8ee59a	0.0043608667
136	0x3c82e018	0.015975997
137	0xbd98e70f	-0.07465946
138	0x3d0b3658	0.033987373
139	0xbd8ca55f	-0.068674795
140	0x3df8a336	0.12140505
141	0x3c3958b0	0.011312649
142	0x3dc7ae80	0.0975008
143	0x3dc3d6eb	0.09562477
144	0xbdc17bf1	-0.09447468
145	0xbdea7414	-0.114479214
146	0xbd6f5c2f	-0.058437523
147	0xbdee6ba0	-0.116416216
148	0xbd330b0b	-0.043711703
149	0x3cb41ede	0.021987375
150	0x3dea7a59	0.11449117
151	0xbe07ba82	-0.13254741
152	0xbd195ee6	-0.037444018
153	0xbe1cfed7	-0.15331589
154	0xbd7a2a14	-0.061075285
155	0xbd9c3649	-0.076275416
156	0x3e1ad565	0.15120466
157	0xbdc671fb	-0.09689709
158	0x3e0467b0	0.12930179
159	0xbd836641	-0.06415988
160	0x3d50237a	0.050815083
161	0xbcce05b0	-0.025149196
162	0x3de417d2	0.11137356
163	0xbbce7059	-0.006300014
164	0xbde03968	-0.109484494
165	0xbd8bcc69	-0.068260975
166	0xbd46327b	-0.048387986
167	0x3e316838	0.17324913
168	0x3de3f9eb	0.111316524
169	0xbd510dc7	-0.05103853
170	0xbe053bcf	-0.13011096
171	0x3dfb5bd9	0.12273378
172	0x3dc6c4e6	0.09705524
173	0xbda5d281	-0.08096791
174	0xbd8f8c20	-0.070091486
175	0xbdfc8846	-0.123306796
176	0x3d0632c8	0.032763273
177	0xbe16e251	-0.1473477
178	0xbe9b7712	-0.3036428
179	0xbd9c0329	-0.0761779
180	0xbe1e2094	-0.15442115
181	0xbdd0305d	-0.101654746
182	0xbddd60e9	-0.108095
183	0x3dec8f28	0.115507424
184	0x3c8c37ea	0.017116506
185	0xbdc91047	-0.09817558
186	0xbda90746	-0.082533404
187	0x3df2b046	0.11850028
188	0xbe303e91	-0.17211367
189	0x3dd23f73	0.10266008
190	0xbe454a8d	-0.1926672
191	0xbda2da43	-0.07951786
192	0x3d300750	0.042975724
193	0x3cfac995	0.0306137
194	0x3e818282	0.25294882
195	0xbe07341d	-0.13203473
196	0x3e5adb22	0.21372655
197	0x3c91ae46	0.017783295
198	0x3c9faf19	0.019492673
199	0xbd2bc731	-0.04193801
200	0x3da59af3	0.08086195
201	0xbd979ab3	-0.074025534
202	0xbe045473	-0.1292284
203	0xbdb74e1d	-0.08950446
204	0x3c1c77f0	0.00955008
205	0xbdaecea3	-0.085355066
206	0xbdcf30c1	-0.10116721
207	0xbdace6d4	-0.084424645
208	0x3df3656c	0.11884579
209	0xbde383b7	-0.11109107
210	0xbddc7fbc	-0.10766551
211	0xbd6c85f9	-0.057744954
212	0x3cd47ce8	0.025938466
213	0x3dd7cf1a	0.10537548
214	0x3d2501a4	0.040284768
215	0xbe036386	-0.12830934
216	0x3e0ad3f9	0.13557424
217	0x3d1a644c	0.037693307
218	0xbd5b2014	-0.05349739
219	0x3d3787fb	0.044807415
220	0x3d4abdbc	0.04949735
221	0x3e0b4ed3	0.13604288
222	0x3e173cb2	0.14769247
223	0xbe1fe8dc	-0.15616173
224	0x3d695530	0.056966007
225	0xbdf0e35f	-0.117621176
226	0x3d65c2d0	0.05609399
227	0x3d172560	0.036900878
228	0xbd70832a	-0.058718838
229	0xbc0b68c0	-0.008508861
230	0x3e009339	0.12556161
231	0xbdecfa23	-0.11571147
232	0x3d0ab68c	0.033865497
233	0xbc2652cf	-0.010151579
234	0xbdb406bb	-0.08790346
235	0xbe16c0e6	-0.14722022
236	0xbe14d621	-0.14534809
237	0xbd5d4734	-0.054022983
238	0xbd4dfac4	-0.050287977
239	0xbc2f3fd0	-0.010696366
240	0x3e857f0d	0.26073495
241	0x3e7024fc	0.23451608
242	0xbe01d85e	-0.12680194
243	0xbd95bf5f	-0.07311892
244	0xbca0a67c	-0.019610636
245	0x3dea9a55	0.11455218
246	0x3c2c0560	0.010499328
247	0xbd19af38	-0.037520617
248	0xbe02ca44	-0.1277247
249	0x3e92b21a	0.28651506
250	0x3d6e535e	0.058184974
251	0x3dbcaddc	0.092128485
252	0xbe02c9cb	-0.1277229
253	0xbd8c150c	-0.06839952
254	0xbe038929	-0.12845291
255	0xbdf7209a	-0.12066765

linear_relu_stack.8.bias f4 [50]
0	0xbcdcf079	-0.026970135
1	0x3d27417d	0.04083394
2	0x3e3a2d63	0.18181376
3	0xbd9445c0	-0.07239866
4	0x3eff1a9f	0.49824998
5	0x3d15406e	0.036438398
6	0x3a592a1d	0.00082841684
7	0x3e3d3fa7	0.18481313
8	0x3e6242d9	0.22095813
9	0xbdfc0196	-0.1230499
10	0xbca32415	-0.019914666
11	0x3dd82ebe	0.1055579
12	0xbd7454c8	-0.059651166
13	0x3df3fe93	0.119137906
14	0xbdbe8911	-0.09303487
15	0x3de08931	0.10963667
16	0x3d1f883e	0.03894829
17	0xbd95d871	-0.073166735
18	0xba8697fb	-0.0010268682
19	0xbe1861f7	-0.1488112
20	0xbdef4b91	-0.11684335
21	0xbc6c786b	-0.014433007
22	0x39bccb8c	0.00036009809
23	0xbc12254a	-0.008920023
24	0xbdd7f554	-0.105448395
25	0x3d48172b	0.04885022
26	0xbe35b1ad	-0.17743559
27	0xbddc4250	-0.107548356
28	0x3db2176e	0.08695875
29	0x3d041df7	0.03225514
30	0xbe088730	-0.1333282
31	0x3d4b661b	0.049657922
32	0xbe4497ca	-0.19198528
33	0xbca14cf7	-0.01969002
34	0x3db22efd	0.087003686
35	0x3e2bbef0	0.16772056
36	0x3e19fb36	0.15037236
37	0x3df6d26e	0.12051855
38	0x3bf3d7fa	0.007441518
39	0x3ebc90c9	0.36829212
40	0x3c8f8c80	0.01752305
41	0x3e9ed2d5	0.31020227
42	0x3e44bc68	0.19212496
43	0x3e06936c	0.13142174
44	0x3dd12bf5	0.10213462
45	0x3dc786d3	0.097425126
46	0x3dc879ac	0.09788832
47	0x3ec868b0	0.3914237
48	0x3dfe7bbd	0.12425945
49	0xbdcc99a4	-0.09990242

linear_relu_stack.10.weight f4 [180, 50]
0	0xbcd9dee0	-0.026595533
1	0x3e013da6	0.12621173
2	0xbd964743	-0.07337811
3	0x3d20fc3e	0.039303057
4	0x3d3c2c30	0.045940578
5	0xbbeda995	-0.007252882
6	0xbc42c24c	-0.011887144
7	0x3d464559	0.04840598
8	0x3d810477	0.0629968
9	0xbdf8f786	-0.12156586
10	0xbe000a48	-0.12503922
11	0x3c9735e3	0.018458312
12	0x3ce5d99d	0.028057868
13	0x3da0171f	0.0781691
14	0xbd9ee450	-0.07758391
15	0xbdf0291b	-0.1172659
16	0xbd5527c2	-0.05203987
17	0x3e02ee20	0.1278615
18	0xbcd97b82	-0.02654815
19	0x3dbbb966	0.09166221
20	0xbdd7b6e7	-0.10532933
21	0xbddac039	-0.10681195
22	0xbdc97b5f	-0.09837984
23	0x3d8c03d6	0.06836669
24	0xbdd166a9	-0.10224659
25	0xbdbfd03e	-0.09365891
26	0xbdc4db13	-0.096120976
27	0x3db2b1ba	0.08725305
28	0x3d406828	0.04697433
29	0x3ce9798f	0.028500346
30	0x3e05bf92	0.1306136
31	0xbe0353bb	-0.1282491
32	0xbdc0df5d	-0.09417603
33	0x3d9c1841	0.076218136
34	0xbd9076ab	-0.07053884
35	0x3c03d664	0.00804672
36	0x3dba519f	0.09097599
37	0xbdc4e197	-0.0961334
38	0xbdf12e2e	-0.11776386
39	0xbe19d4c2	-0.15022567
40	0x3ccb7f70	0.02484104
41	0x3d515cc8	0.051113874
42	0xbdf29f03	-0.11846735
43	0xbd8f8416	-0.07007615
44	0xbd58d9cb	-0.05294208
45	0x3d8bedbb	0.06832453
46	0xbda966a2	-0.08271529
47	0x3cc3829e	0.023865994
48	0xbbdb58b1	-0.0066939224
49	0x3da3c4cf	0.07996523
50	0x3b16ce5e	0.0023011188
51	0x3d997f22	0.07494952
52	0xbe1fdeac	-0.15612286
53	0xbdaf56d6	-0.085614845
54	0x3c5cb81a	0.013471628
55	0xbd959e53	-0.073055886
56	0xbdae177b	-0.08500572
57	0xbd23470e	-0.039862685
58	0x3db4b183	0.0882292
59	0x3ca1ce20	0.019751608
60	0x3ca944b0	0.020662636
61	0xbe15f84d	-0.146455
62	0x3ba73170	0.005102329
63	0x3b6ce2e3	0.0036145977
64	0xbd2bd8d4	-0.04195483
65	0xbdef4193	-0.11682429
66	0xbc3b8e59	-0.011447513
67	0x3dbadc88	0.09124094
68	0x3d87c25a	0.066288665
69	0xbdace861	-0.0844276
70	0x3bc672be	0.006056159
71	0x3da2f358	0.079565704
72	0x3c893b4d	0.01675191
73	0x3d38dc17	0.04513177
74	0xbd3af1c4	-0.045640722
75	0x3deae41e	0.11469291
76	0x3d0b45fc	0.03400229
77	0xbdd3765e	-0.10325311
78	0x3d505f8c	0.05087237
79	0xbc76ac16	-0.015055677
80	0xbb7a6c4a	-0.0038211518
81	0x3dc6e20f	0.09711086
82	0x3d8fcae7	0.070211224
83	0x3df17f15	0.11791817
84	0x3cc03fca	0.023467917
85	0xbd4fa32a	-0.050692715
86	0x3debc439	0.11512036
87	0x3dd79421	0.105263
88	0x3de1d8e4	0.11027697
89	0x3d48df7d	0.04904126
90	0x3beb3907	0.007178429
91	0x3cb9a467	0.022661401
92	0xbd0f4882	-0.03498126
93	0xbc86c1c6	-0.01644982
94	0x3d73f349	0.059558187
95	0x3df3486d	0.118790485
96	0xbe063758	-0.1310705
97	0xbd3758bc	-0.044762358
98	0x3e3ec215	0.18628724
99	0xbaa5281d	-0.0012600456
100	0x3ceb4e3e	0.028723832
101	0xbb9a237a	-0.004703936
102	0x3ca888b4	0.020572998
103	0x3d88244e	0.066475496
104	0x3e170f10	0.1475184
105	0x3e00e206	0.12586221
106	0xbd4109de	-0.04712855
107	0x3d2dce36	0.042432986
108	0x3e10cd95	0.14140923
109	0x3beb4bc0	0.007180661
110	0xbd9df777	-0.07713216
111	0xbd7e7b0b	-0.06212906
112	0x3d9046fd	0.0704479
113	0xbd9ffbeb	-0.078117214
114	0x3d8611c6	0.06546359
115	0x3daed994	0.085375935
116	0xbdbd6e1d	-0.09249518
117	0xbd7aeeb4	-0.0612628
118	0x3bd2b73d	0.006430535
119	0xbdc1d45c	-0.094643325
120	0x3dce83a3	0.100837015
121	0x39ed9c48	0.000453206
122	0xbdc014be	-0.09378956
123	0xbce74bbc	-0.028234355
124	0xbd064de4	-0.032789126
125	0xbd80ae42	-0.06283237
126	0xbdb30a28	-0.087421715
127	0x3c8ed329	0.017434673
128	0xbdefa800	-0.11701965
129	0xbc971e41	-0.018447043
130	0xbd44e64d	-0.048071194
131	0xbbd687ef	-0.0065469663
132	0x3de42c83	0.111413024
133	0x3d654197	0.055970754
134	0x3c034230	0.008011386
135	0x3bd461a5	0.0064813667
136	0xbcd35e29	-0.025801735
137	0x3cbd0369	0.023072915
138	0x3db56994	0.08858028
139	0xbc8cd765	-0.017192552
140	0x3c9328e4	0.017963834
141	0x3de037c8	0.109481394
142	0xbd2c02e0	-0.04199493
143	0xbb12944e	-0.0022366229
144	0xbd778f1e	-0.06043922
145	0x3db8212d	0.08990703
146	0x3da2f552	0.079569474
147	0xbcb89df0	-0.022536248
148	0x3d37ba6c	0.04485552
149	0xbc62dae1	-0.01384613
150	0x3df255b9	0.118327565
151	0x3df812cf	0.121129625
152	0xbd5061d6	-0.050874554
153	0x3e0062d7	0.12537704
154	0x3e084d81	0.13310815
155	0xbc1c52b9	-0.009541207
156	0xbeb051f3	-0.34437522
157	0xbcc05351	-0.023477228
158	0x3d958940	0.07301569
159	0xbd193a3c	-0.037409052
160	0x3a522015	0.0008015645
161	0x3d276750	0.04087001
162	0xbe07d920	-0.1326642
163	0x3e036a8f	0.12833618
164	0x3ddb4e2c	0.107082695
165	0xbe6b0a5b	-0.22953169
166	0xbcc245f5	-0.023714999
167	0x3d74042f	0.059574302
168	0x3ddff40e	0.109352216
169	0x3d8b4380	0.06799984
170	0xbd896b5c	-0.0670993
171	0xbcf9dc60	-0.03050059
172	0x3d413727	0.047171738
173	0xbd42783b	-0.047477942
174	0xbe18c62a	-0.14919344
175	0xbdd79021	-0.10525537
176	0xbc499cb8	-0.012305431
177	0xbd4ed954	-0.05050023
178	0x3b934c40	0.0044951737
179	0x3d87842b	0.06617006
180	0xbce34a65	-0.027745435
181	0xbe0f5012	-0.13995388
182	0xbcb5e8af	-0.022205679
183	0xbe2431c0	-0.16034603
184	0x3dca08f8	0.09864992
185	0xbe4767ec	-0.19473237
186	0x3de78d92	0.11306299
187	0x3d494665	0.0491394
188	0xbd86bbc2	-0.06578781
189	0xbc3e99ff	-0.011633395
190	0xbe0bccb9	-0.13652314
191	0x3e33110f	0.17486976
192	0x3e19fef4	0.15038663
193	0x3dbb3ebb	0.09142824
194	0xbe9a6138	-0.30152297
195	0xbca91ffe	-0.020645138
196	0x3e1710cf	0.14752506
197	0x3e04d786	0.1297284
198	0x3d42d693	0.047567915
199	0xbe0031fe	-0.1251907
200	0xbd869f39	-0.06573338
201	0xbe3d2cb7	-0.18474089
202	0x3dfc6bae	0.12325226
203	0xbcb96959	-0.022633241
204	0x3e821550	0.25406885
205	0xbc4a65a1	-0.012353332
206	0xbd83d6c3	-0.06437447
207	0xbdc29872	-0.09501733
208	0xbe78355c	-0.24239105
209	0x3dec4e56	0.11538379
210	0xbc3763f7	-0.011193267
211	0x3bb9d366	0.0056709526
212	0x3d11beeb	0.035582464
213	0x3d233ea4	0.03985466
214	0xbd92836c	-0.07153973
215	0xbe4c4df6	-0.19951615
216	0xbdf5e66c	-0.1200684
217	0x3e0e963f	0.13924502
218	0x3e6bb085	0.23016556
219	0x3db826f2	0.08991803
220	0x3c04e654	0.008111555
221	0x3dcb11bc	0.09915492
222	0x3dc68df3	0.096950434
223	0xbddb4cee	-0.107080325
224	0x3db3c824	0.08778408
225	0x3ab808f4	0.0014040754
226	0xbdfd0652	-0.12354721
227	0xbde8e9be	-0.11372708
228	0x3d1283bc	0.035770163
229	0xbe08efa3	-0.13372664
230	0x3d285593	0.041097235
231	0x3d3fbdb7	0.046811786
232	0xbd4ff5cd	-0.050771523
233	0x3cb727ee	0.022357907
234	0xbdabc6ba	-0.083875135
235	0x3e42fd57	0.19041954
236	0xbe2834e2	-0.16426423
237	0x3e21779c	0.15768284
238	0xbd601959	-0.054711673
239	0x3d49b185	0.04924156
240	0x3e1223d0	0.14271474
241	0xbd09bf16	-0.0336295
242	0x3d821e4f	0.06353437
243	0xbe3059d2	-0.17221764
244	0xbe1f9847	-0.15585433
245	0xbcd40641	-0.025881888
246	0x3aaba382	0.0013094994
247	0xbdcded94	-0.1005508
248	0xbe092e55	-0.1339658
249	0x3d2e1999	0.04250488
250	0xbc852a1d	-0.016255433
251	0x3e317c77	0.17332636
252	0xbdc75e70	-0.097348094
253	0x3dfe8362	0.12427403
254	0x3df8b813	0.12144484
255	0x3d26a5ce	0.040685467
