baselines/autoenc_basic/Weights/model_weights_AMASS1o2.pth (torch, 104034 bytes, 12 tensors)

linear_relu_stack.0.weight f4 [50, 180]
0.05922818 0.031200388 -0.060810104 0.041851997 -0.0066808565 -0.016690195 0.06908223 -0.03881557
0.0010710969 0.014278003 0.01685304 0.01364637 -0.048206534 -0.0029525845 0.06458155 0.020216215
-0.04392838 -0.018279059 0.039755005 0.03159144 0.02603701 0.0725629 0.03985289 -0.065126985
0.07290038 0.023367362 -0.008562035 0.023134578 -0.015996464 -0.04600269 0.012123193 -0.07253946
-0.018924184 -0.020590711 0.029381962 0.036710326 -0.0043624076 0.04338839 0.02991085 0.0038071768
-0.09048425 0.022253606 0.04302014 -0.010032706 -0.030841978 -0.027809221 0.05576721 -0.022642888
0.02480582 0.020972252 -0.044314798 0.10490676 -0.06471285 -0.043144513 -0.06640847 -0.059325367
-0.05395584 0.059183095 -0.07844066 -0.013407822 0.07261541 0.07412596 0.023372438 0.035147145
-0.038769968 0.03143379 -0.0622377 -0.035428997 0.055331614 0.010646845 -0.002095242 0.0070247715
0.04510214 0.068223916 -0.06552189 0.10570007 -0.08529102 -0.08337566 -0.03441621 -0.0071429205
0.0059227576 -0.03822625 -0.072058596 0.05008594 0.021973914 -0.016903259 -0.017824488 0.016615722
0.019995213 -0.0047082314 0.020521697 -0.059747048 0.012755551 -0.0483783 -0.07602896 0.04676768
0.022474984 0.061335143 -0.016471075 -0.055140793 0.0011097224 0.014179028 0.084617265 -0.0708821
-0.0470423 -0.04038416 0.01513796 -0.005910893 0.05547333 -0.06395812 0.035858102 -0.0025827119
0.07168633 -0.06373459 0.05674986 -0.04872413 -0.027543392 -0.039349515 0.026647719 -0.02330275
-0.070720226 0.053445026 0.0037783475 -0.068999805 0.055297304 -0.091727085 0.036201134 -0.07624235
-0.059946317 0.010259902 0.0140851205 0.028903935 -0.016716111 0.07169115 0.04492164 -0.045935586
-0.044002466 -0.07280665 0.07081649 0.049032174 -0.123665765 -0.09794514 -0.010169852 0.01390241
-0.08408754 0.063534245 -0.032771647 0.015442497 -0.0044788173 -0.13490689 -0.030713165 0.03369867
-0.11175382 -0.01692128 0.041712184 0.0015770871 -0.023071675 -0.028662426 0.053362455 -0.040246952
-0.111756206 -0.05235795 -0.17074284 0.28265265 -0.026405688 -0.09048242 -0.02300011 -0.05747424
-0.11542985 0.056988344 0.007229891 0.13423811 -0.22421177 -0.048982207 -0.3149203 0.49521974
-0.08695408 -0.16589032 -0.061073564 -0.02019938 -0.011223227 0.05659897 -0.049269296 -0.012874122
0.017534515 -0.11679927 -0.004429079 0.006599781 -0.0269975 -0.07365602 -0.011524776 -0.14425041
-0.022506062 0.007046551 0.044753324 0.053596813 -0.033385646 -0.031874675 -0.04290522 -0.022907212
-0.08348807 -0.005698676 0.027861996 0.00264336 0.054460056 -0.076089695 -0.08105003 0.050276037
0.058741577 0.029159179 -0.0626978 -0.07057142 0.07101948 -0.01301287 -0.05924858 -0.11034771
0.01236148 0.033264276 0.041950624 0.034030773 0.03563238 -0.023888215 0.05343293 0.058093537
0.037285715 0.011821786 -0.018232489 -0.05702458 0.05140604 0.024871694 -0.09037213 -0.02788109
-0.061815564 -0.06737709 -0.021379868 -0.05658409 0.032805208 -0.043302033 -0.017543362 -0.018308187
0.037815906 -0.049233276 -0.0022917043 0.093569756 0.034397 0.06491586 0.0057104053 0.04618433
-0.01783855 0.04900935 0.05825724 -0.046750173 -0.056370135 0.06765691 -0.06982524 0.09835629
00000000: 4099 723d f597 ff3c 0414 79bd 006d 2b3d
00000010: 16eb dabb e0b9 88bc fc7a 8d3d 13fd 1ebd
00000020: 0c64 8c3a 49ee 693c 630f 8a3c 0695 5f3c
00000030: 3774 45bd 2680 41bb 5543 843d 7a9c a53c
00000040: 3fee 33bd f7bd 95bc 25d6 223d 0766 013d
00000050: 914b d53c dc9b 943d c93c 233d 4c61 85bd
00000060: cb4c 953d e96c bf3c c747 0cbc ba84 bd3c
00000070: 040b 83bc 516d 3cbd 5ba0 463c 928f 94bd
00000080: e406 9bbc daad a8bc 71b2 f03c 915d 163d
00000090: 87f2 8ebb 06b8 313d 9907 f53c d481 793b
000000a0: ce4f b9bd 324d b63c e335 303d 3860 24bc
000000b0: 51a8 fcbc 2ad0 e3bc 286c 643d 947d b9bc
000000c0: 9335 cb3c 00ce ab3c 6f83 35bd 5bd9 d63d
000000d0: 2c88 84bd 4db8 30bd 2a01 88bd 28ff 72bd
000000e0: cd00 5dbd f969 723d 7fa5 a0bd 7bac 5bbc
000000f0: 63b7 943d 5acf 973d 8e77 bf3c 74f6 0f3d
00000100: 42cd 1ebd b8c0 003d f5ec 7ebd ff1d 11bd
00000110: 67a3 623d 1b70 2e3c 5450 09bb 0e30 e63b
00000120: 06bd 383d fbb8 8b3d 5730 86bd 4779 d83d
00000130: 0fad aebd dcc0 aabd 03f8 0cbd 290f eabb
00000140: b113 c23b 2193 1cbd 7593 93bd ea26 4d3d
00000150: a302 b43c b478 8abc a904 92bc b21d 883c
00000160: 00cd a33c 8247 9abb 1e1d a83c 52b9 74bd
00000170: a9fc 503c 5328 46bd 12b5 9bbd 788f 3f3d
00000180: 751d b83c 8f3a 7b3d 59ee 86bc 50db 61bd
00000190: 1b74 913a 274f 683c d14b ad3d a22a 91bd
000001a0: 6daf 40bd dc69 25bd 3505 783c 2ab0 c1bb
000001b0: 0138 633d 7afc 82bd f2df 123d b742 29bb
000001c0: 48d0 923d 4887 82bd 8b72 683d f492 47bd
000001d0: aea2 e1bc f52c 21bd 514c da3c 69e5 bebc
000001e0: c4d5 90bd 2ce9 5a3d 279e 773b c54f 8dbd
000001f0: 6d7f 623d 69db bbbd a447 143d f324 9cbd
00000200: 458a 75bd 2619 283c 47c5 663c f2c7 ec3c
00000210: 3af0 88bc cfd2 923d c1ff 373d f426 3cbd
00000220: ee3b 34bd a71b 95bd 3c08 913d f6d5 483d
00000230: 7a44 fdbd 7697 c8bd 739f 26bc efc6 633c
00000240: 1736 acbd 3e1e 823d 903b 06bd 8702 7d3c
00000250: 0bc3 92bb 0825 0abe 2d9a fbbc 9e07 0a3d
00000260: 30df e4bd 7f9e 8abc 65da 2a3d 43b6 ce3a
00000270: cf00 bdbc 77cd eabc 9792 5a3d fdd9 24bd
00000280: 70e0 e4bd 4a75 56bd 36d7 2ebe d9b7 903e
00000290: be50 d8bc d94e b9bd ba6a bcbc 1c6a 6bbd
000002a0: 7c66 ecbd 9c6c 693d b9e8 ec3b b775 093e
000002b0: c597 65be 91a1 48bd 3c3d a1be 718d fd3e
000002c0: fb14 b2bd 27df 29be 4628 7abd 2c79 a5bc
000002d0: a0e1 37bc 52d4 673d 9ace 49bd fbed 52bc
000002e0: 8ba4 8f3c 7534 efbd cf21 91bb fa42 d83b
000002f0: dc29 ddbc f8d8 96bd 6ad2 3cbc 61b6 13be
00000300: a25e b8bc c1e6 e63b 434f 373d 5588 5b3d
00000310: 63bf 08bd 058f 02bd 62bd 2fbd e8a7 bbbc
00000320: cbfb aabd f6bb babb d73e e43c 393c 2d3b
00000330: 8211 5f3d ead4 9bbd 8ffd a5bd 3fee 4d3d
00000340: 029b 703d 3bdf ee3c b467 80bd c087 90bd
00000350: a972 913d ef33 55bc a4ae 72bd fbfd e1bd
00000360: ce87 4a3c 1f40 083d 6bd4 2b3d da63 0b3d
00000370: 42f3 113d 38b1 c3bc 7ddc 5a3d 7df3 6d3d
00000380: e8b8 183d 2ab0 413c 4d5c 95bc 9b92 69bd
00000390: 248f 523d b9bf cb3c 0615 b9bd e266 e4bc
000003a0: 5132 7dbd 00fd 89bd d524 afbc b8c4 67bd
000003b0: c15e 063d 795d 31bd 19b7 8fbc 0dfb 95bc
000003c0: dae4 1a3d d5a8 49bd 6b30 16bb 80a1 bf3d
000003d0: dee3 0c3d 9bf2 843d 5a1e bb3b c82b 3d3d
000003e0: 2722 92bc 07be 483d 259f 6e3d 1c7d 3fbd
000003f0: 5fe4 66bd b58f 8a3d 8900 8fbd 066f c93d

linear_relu_stack.0.bias f4 [50]
0.06324526 0.103350185 0.06371385 0.02889716 0.0117981145 -0.08368585 -0.035903282 0.14020532
0.20035936 -0.037262402 0.043102756 0.10561359 0.23105621 0.24143004 0.008782472 -0.028349046
-0.016527189 0.057117574 0.0073613585 0.07011494 0.078780614 0.03717284 0.13264242 -0.015510419
0.12271557 0.14953116 0.09790624 0.0453569 0.05532614 0.08680089 0.12000382 0.050685205
-0.059293006 0.015675282 0.08319993 -0.03001512 -0.033545922 0.21662885 0.29762664 -0.0855109
0.05905222 -0.04846126 0.08659852 -0.00014461289 0.0019733552 0.13465393 -0.019590799 0.0063303723
0.032013133 0.25651583
00000000: bb86 813d 43a9 d33d 687c 823d bdb9 ec3c
00000010: e14c 413c 7d63 abbd 520f 13bd fc91 0f3e
00000020: 012b 4d3e 76a0 18bd 848c 303d f04b d83d
00000030: 009a 6c3e 7039 773e 5ce4 0f3c 423c e8bc
00000040: 0764 87bc 1ef4 693d 8d37 f13b 6c98 8f3d
00000050: bb57 a13d 8c42 183d 6ad3 073e 6a1f 7ebc
00000060: 4d52 fb3d b21e 193e 1183 c83d 28c8 393d
00000070: aa9d 623d aac4 b13d 90c4 f53d 4a9b 4f3d
00000080: 39dd 72bd 7369 803c ba64 aa3d 45e2 f5bc
00000090: 7367 09bd f4d3 5d3e 8562 983e 5720 afbd
000000a0: bee0 713d 507f 46bd 915a b13d 3aa3 17b9
000000b0: 6853 013b b8e2 093e e27c a0bc 036f cf3b
000000c0: 3420 033d 0b56 833e

linear_relu_stack.2.weight f4 [40, 50]
0.069029 0.16359016 -0.07169948 0.09817049 -0.011844444 -0.06557046 -0.06479612 0.09682756
-0.113860026 -0.15082818 0.0068256976 0.07019669 0.15856509 -0.014311786 0.08347789 -0.06451983
0.18301381 -0.06361499 0.090963945 -0.0048203557 -0.12649211 -0.090856805 0.17596182 -0.08676691
-0.18447237 0.042826734 0.017200444 -0.044917207 0.17194358 -0.024974395 -0.048570443 -0.071217135
-0.11554713 0.041793346 0.06177033 0.11857619 -0.025775848 0.19961995 0.17397553 0.041064065
0.20092058 0.018130427 0.118431196 -0.058289923 -0.12932369 -0.042043224 -0.03554106 0.03508137
0.14874473 -0.030710088 0.10863394 0.043127697 -0.098562695 -0.06667838 0.016571062 -0.1188063
-0.017608074 -0.05296922 -0.04152088 0.035617802 -0.10104938 -0.10671621 0.102568865 0.17706412
0.046782173 0.14651565 0.14222395 -0.119855486 -0.15318963 0.11595423 0.17575432 -0.031726353
0.09307 0.13554762 -0.095454715 -0.15100382 0.036999695 -0.26682228 -0.005957114 0.1372897
0.21533775 -0.09256026 -0.06671685 0.010305229 -0.119876206 0.118209116 -0.13047326 -0.10424187
-0.245235 -0.062057965 0.13186742 0.017542358 0.078652345 0.040284548 0.121909745 0.007855804
0.075684 0.20127071 -0.031035896 0.0009647433 0.12773846 0.15124346 0.05417034 -0.06631552
0.1491166 -0.0078108325 0.036465254 0.05730408 -0.00900201 0.020330476 -0.0587665 0.11277542
-0.09879502 -0.067334175 -0.009564064 0.06148249 0.009062623 0.059919234 -0.09905583 0.009405111
-0.083502784 -0.13929375 0.22875375 -0.07089814 -0.11254597 0.0976796 0.08553588 -0.015568046
-0.09602208 0.025758816 0.07671345 -0.027837249 -0.080655225 0.15108186 -0.026047105 0.056960527
-0.11214875 -0.02109767 -0.044438507 -0.15747514 -0.10720317 -0.04817403 0.07427358 0.0823803
-0.022514818 -0.045345888 0.054056868 -0.10275366 0.0059954156 0.17129496 0.080727816 -0.00957234
0.011235589 0.056670085 0.08144493 0.015908886 -0.026988586 -0.13341984 0.17235772 0.12244772
0.18733755 -0.12527727 0.14622407 -0.046035133 -0.07879863 0.14066298 -0.12760027 -0.035990715
0.12414515 0.1076943 -0.1696664 0.048078127 -0.07439114 0.007145675 0.098121405 -0.043637495
0.14465736 -0.08453456 0.11318236 -0.16720456 0.10000653 -0.0058721006 0.053914815 -0.14418495
-0.03122943 -0.09369021 0.02350309 0.21091804 0.24726819 0.109159 -0.114394024 -0.1403672
0.12884949 0.058886204 -0.076614514 -0.052612215 -0.022093162 0.026924852 -0.05294931 -0.07563427
0.21213907 0.14579606 0.011671993 0.12248399 -0.048247218 -0.20056912 0.07676511 0.05847403
0.015959987 0.043944906 0.092974395 -0.048369545 -0.040228173 0.23220414 -0.018788619 0.027920501
0.0068361205 -0.1254291 -0.1689083 -0.025705326 0.07241402 -0.014813578 -0.21001561 0.07989773
-0.120723434 0.036022164 -0.098070756 -0.16247548 -0.060418576 0.0993292 0.07587032 -0.12320285
-0.16165459 0.010391837 0.14935076 0.1464975 -0.047298662 0.036892675 0.020047024 -0.10147302
0.018860308 -0.13020112 -0.047463752 0.12504342 -0.001381493 -0.11882029 -0.04721367 0.15520002
-0.017576229 0.16100608 -0.0119958725 0.03405921 -0.0029020363 -0.04713133 -0.10338324 -0.03733522
00000000: 145f 8d3d 2e84 273e 2dd7 92bd 9c0d c93d
00000010: 330f 42bc ce49 86bd d4b3 84bd 874d c63d
00000020: 722f e9bd b472 1abe 1aaa df3b 48c3 8f3d
00000030: e35e 223e fb7b 6abc 75f6 aa3d f922 84bd
00000040: f967 3b3e 9348 82bd 4e4b ba3d 13f4 9dbb
00000050: 2687 01be 2213 babd 562f 343e dab2 b1bd
00000060: 53e6 3cbe 166b 2f3d f2e7 8c3c 1bfb 37bd
00000070: fa11 303e 1a97 ccbc cdf1 46bd 4ada 91bd
00000080: f9a3 ecbd 802f 2b3d e302 7d3d 13d8 f23d
00000090: df27 d3bc 2c69 4c3e a426 323e cb32 283d
000000a0: 20be 4d3e 4386 943c 0e8c f23d 6ac1 6ebd
000000b0: 6e6d 04be 8435 2cbd 8193 11bd 7cb1 0f3d
000000c0: 8a50 183e b993 fbbc 797b de3d aba6 303d
000000d0: 3ddb c9bd ad8e 88bd 09c0 873c b850 f3bd
000000e0: cf3e 90bc 41f6 58bd cc11 2abd f9e3 113d
000000f0: faf2 cebd 078e dabd a00f d23d 4c50 353e
00000100: aa9e 3f3d 3308 163e 28a3 113e cb76 f5bd
00000110: bedd 1cbe 6979 ed3d f1f8 333e 7ef3 01bd
00000120: 7c9b be3d ffcc 0a3e c37d c3bd bfa0 1abe
00000130: fe8c 173d ee9c 88be e533 c3bb ac95 0c3e
00000140: 8081 5c3e 3c90 bdbd d8a2 88bd 43d7 283c
00000150: a881 f5bd 9f17 f23d c89a 05be c37c d5bd
00000160: e21e 7bbe 7e30 7ebd 4108 073e feb4 8f3c
00000170: 7b14 a13d 6901 253d d1ab f93d a1b5 003c
00000180: 3700 9b3d e919 4e3e fe3e febc d4e6 7c3a
00000190: dfcd 023e 91df 1a3e b8e1 5d3d 6ed0 87bd
000001a0: 06b2 183e 03f2 ffbb 975c 153d afb7 6a3d
000001b0: 2b7d 13bc 198c a63c 24b5 70bd cdf6 e63d
000001c0: 0b55 cabd 80e6 89bd 98b2 1cbc 10d5 7b3d
000001d0: 657b 143c df6d 753d c8dd cabd e517 1a3c
000001e0: 8203 abbd 05a3 0ebe 6c3e 6a3e 0b33 91bd
000001f0: 807e e6bd 3e0c c83d 6f2d af3d 1e11 7fbc
00000200: 39a7 c4bd 2704 d33c f11b 9d3d f10a e4bc
00000210: 912e a5bd 34b5 1a3e bd60 d5bc 714f 693d
00000220: 3eae e5bd 05d5 acbc 2705 36bd 2a41 21be
00000230: 568d dbbd 2252 45bd bf1c 983d 01b7 a83d
00000240: ff70 b8bc 9cbc 39bd bc6a 5d3d 8370 d2bd
00000250: 3175 c43b f267 2f3e a054 a53d 4ed5 1cbc
00000260: 7a15 383c e41e 683d 99cc a63d 5a53 823c
00000270: 2b17 ddbc 369f 08be 8b7e 303e dfc5 fa3d
00000280: 6ad5 3f3e af48 00be c3bb 153e 568f 3cbd
00000290: 2d61 a1bd f509 103e a5a9 02be 006b 13bd
000002a0: d03f fe3d d48e dc3d 07bd 2dbe 92ed 443d
000002b0: 625a 98bd 4426 ea3b e0f3 c83d 3bbd 32bd
000002c0: 0f21 143e 7520 adbd 27cc e73d ac37 2bbe
000002d0: 39d0 cc3d c06a c0bb c8d5 5c3d 38a5 13be
000002e0: ddd4 ffbc a7e0 bfbd 8d89 c03c e6fa 573e
000002f0: df33 7d3e c18e df3d 6a47 eabd 6bbc 0fbe
00000300: 1ff1 033e a932 713d 12e8 9cbd e87f 57bd
00000310: b8fc b4bc 8291 dc3c 60e1 58bd 24e6 9abd
00000320: fc3a 593e 904b 153e e33b 3f3c e3d8 fa3d
00000330: e09e 45bd fe61 4dbe 0737 9d3d 7782 6f3d
00000340: 85be 823c 93ff 333d 5c69 be3d 251f 46bd
00000350: 4cc6 24bd ecc6 6d3e 97ea 99bc 89b9 e43c
00000360: 8901 e03b 7c70 00be 4cf6 2cbe fa93 d2bc
00000370: cd4d 943d a6b4 72bc 550e 57be 6ca1 a33d
00000380: d93d f7bd fa8b 133d 52d9 c8bd f95f 26be
00000390: 7879 77bd 1c6d cb3d e661 9b3d c751 fcbd
000003a0: c888 25be 8642 2a3c 68ef 183e 7103 163e
000003b0: 3ebc 41bd c61c 173d a839 a43c 16d1 cfbd
000003c0: ef80 9a3c 7153 05be 5a69 42bd 620b 003e
000003d0: 3713 b5ba 0d58 f3bd 1f63 41bd c1ec 1e3e
000003e0: 06fc 8fbc c7de 243e 568a 44bc ac81 0b3d
000003f0: 1730 3ebb c80c 41bd 98ba d3bd d1ec 18bd

linear_relu_stack.2.bias f4 [40]
0.08674906 0.0768928 0.111911595 0.18064457 0.03749283 0.14476664 -0.09733 -0.048511256
0.13458431 -0.061141957 0.035268508 0.03132674 0.100980155 0.15334068 0.04332223 0.12547572
0.06168876 -0.11106172 0.057833824 0.14017381 0.12556502 0.13014072 0.031799033 -0.0015972137
0.13346383 0.20390923 -0.05861751 0.06133861 -0.035642616 0.22867389 0.14273582 -0.009606762
-0.084768824 0.24864703 0.081483126 0.06531174 -0.16672577 0.09004649 0.14878038 -0.114775136
00000000: 7ea9 b13d f979 9d3d e831 e53d e4fa 383e
00000010: 1592 193d b53d 143e f354 c7bd bdb3 46bd
00000020: 78d0 093e fd6f 7abd b675 103d 7850 003d
00000030: afce ce3d 5705 1d3e a772 313d b57c 003e
00000040: 5aad 7c3d 5474 e3bd 29e3 6c3d b989 0f3e
00000050: 1e94 003e 9c43 053e b43f 023d 9959 d1ba
00000060: beaa 083e 95cd 503e ea18 70bd 323e 7b3d
00000070: fefd 11bd 7d29 6a3e 5729 123e ae65 1dbc
00000080: 479b adbd 549d 7e3e a0e0 a63d 29c2 853d
00000090: 29ba 2abe 4b6a b83d e259 183e 3a0f ebbd

linear_relu_stack.4.weight f4 [30, 40]
-0.041900806 -0.043560486 -0.1469848 0.2201612 -0.057898503 0.13677657 -0.13324377 0.14835815
0.10723338 0.12685874 0.13135855 0.10248546 -0.15307021 -0.1316201 0.19539542 -0.0673999
-0.04905142 -0.08857659 0.027240722 0.018658934 -0.1924501 0.1590475 -0.0575819 0.1474446
0.003360384 0.008439638 0.12263536 0.13716881 0.05603703 0.028981986 0.14816968 -0.07220813
0.07833164 -0.124111384 -0.0871462 0.12826781 0.08714499 0.19433472 -0.07724784 -0.08620648
-0.09003265 0.02299405 0.05700033 0.07697535 0.059108738 -0.12291522 0.04636503 -0.10335905
0.11317776 0.00059690484 0.008201666 -0.09413808 -0.14456819 0.11445832 0.041973438 0.07673095
-0.01283926 0.09501825 -0.0025053748 -0.008248678 -0.1334555 -0.1534472 0.011833161 -0.12788646
0.0032930076 -0.070258394 0.08232678 0.061154544 0.05634732 0.0043940027 0.1318562 -0.13117397
-0.08208156 -0.053466257 -0.013054209 0.06545026 0.15061656 0.047028724 -0.032769006 0.14001934
0.112309106 -0.03627693 0.16781667 -0.11850924 -0.053579424 0.14739719 -0.07736007 -0.034257855
-0.034691684 -0.009471355 -0.18146643 -0.07108181 -0.07713272 -0.08280661 -0.090597324 -0.01030193
0.18158883 -0.14823993 0.19605577 0.22800864 0.024799204 -0.13596036 0.07946474 0.07220055
-0.003845919 -0.06426563 0.16459991 0.05802227 -0.2239065 0.24291295 -0.12747131 -0.16319555
0.23615825 0.2631173 0.06785721 -0.054994334 -0.046567846 -0.09375835 -0.14375015 0.029716427
-0.11459439 0.08151185 -0.076081425 -0.17350069 -0.13741863 -0.10984746 0.009034419 0.12649184
-0.110618904 0.07667818 0.095312916 0.08291339 0.15088834 0.14050217 -0.14305225 0.1382409
-0.11106708 -0.14813146 0.15242836 0.13560143 -0.08030511 0.0040913075 -0.14147204 0.08680193
0.048556726 0.1321427 -0.10292229 0.12955055 -0.16191128 0.07367786 0.026389679 -0.039350275
-0.15800242 -0.047849722 0.105909675 0.07977413 -0.028503893 0.062549986 -0.07229216 -0.049762014
-0.12351003 0.26806563 0.030767828 0.012042565 0.06836154 -0.12362843 -0.09387401 -0.025684688
0.19560131 0.07396406 -0.1383317 0.121701255 -0.110139355 0.10470354 -0.018011343 0.12958078
0.15008762 0.065217905 -0.22764134 0.05109134 0.14034586 0.16535616 -0.0011030626 -0.115713336
0.14790404 0.22217293 0.12919901 -0.019633066 -0.008573747 0.017588532 -0.03149618 -0.028591633
0.293969 -0.021627156 -0.05342287 -0.06702741 0.14423504 0.016917981 0.109970525 0.10198755
-0.21110837 0.09417781 0.116416216 -0.10785583 0.15986778 -0.15596405 -0.028879179 -0.12103994
0.06290101 -0.13369687 0.11760125 -0.04501121 0.06991366 0.06719598 0.0071573593 0.020552699
-0.19820933 0.14072044 -0.15222898 -0.23312522 -0.015776036 -0.14779936 -0.05433916 0.042673405
0.022075279 0.107069865 0.053303204 -0.032997478 -0.042522024 0.077121146 0.03540489 -0.14407828
-0.077998936 -0.0065589696 -0.0681782 -0.02601146 0.06558527 -0.02384248 -0.10049031 0.069543876
-0.0020762526 0.12910603 0.03303244 -0.04530297 -0.07696089 0.08934051 0.11670992 -0.08149651
0.092652924 0.06376924 0.13498771 -0.053347588 -0.08435047 0.0055417074 0.14082395 0.09606469
00000000: 2ea0 2bbd 7b6c 32bd 2f83 16be f071 613e
00000010: fb26 6dbd 280f 0c3e 0e71 08be 33eb 173e
00000020: 2d9d db3d 42e7 013e db82 063e e6e3 d13d
00000030: 70be 1cbe 6bc7 06be bd15 483e f508 8abd
00000040: 24ea 48bd a567 b5bd ef27 df3c 9fda 983c
00000050: a411 45be 59dd 223e 00db 6bbd b8fb 163e
00000060: e339 5c3b 6846 0a3c 3f28 fb3d fb75 0c3e
00000070: 1687 653d a16b ed3c cbb9 173e dbe1 93bd
00000080: 576c a03d 1c2e febd b579 b2bd a358 033e
00000090: 1379 b23d aeff 463e 1e34 9ebd 068d b0bd
000000a0: 0a63 b8bd 055e bc3c 2e79 693d 41a5 9d3d
000000b0: 011c 723d faba fbbd 42e9 3d3d e9ad d3bd
000000c0: bec9 e73d 9b79 1c3a 4860 063c 77cb c0bd
000000d0: af09 14be 2069 ea3d 57ec 2b3d 1e25 9d3d
000000e0: c25b 52bc ee98 c23d 3731 24bb 7725 07bc
000000f0: 8fa8 08be 4321 1dbe e0df 413c abf4 02be
00000100: 80cf 573b a2e3 8fbd f19a a83d 307d 7a3d
00000110: 73cc 663d 91fb 8f3b 5005 073e 7852 06be
00000120: 601a a8bd 6fff 5abd 52e1 55bc c90a 863d
00000130: 3a3b 1a3e 31a1 403d cb38 06bd 3b61 0f3e
00000140: 5102 e63d 1e97 14bd 22d8 2b3e f9b4 f2bd
00000150: 1976 5bbd 4aef 163e f56e 9ebd f751 0cbd
00000160: de18 0ebd be2d 1bbc 56d2 39be 5793 91bd
00000170: c2f7 9dbd 8396 a9bd 178b b9bd 6dc9 28bc
00000180: 6cf2 393e 35cc 17be d8c2 483e 197b 693e
00000190: b327 cb3c 3139 0bbe 69be a23d e2dd 933d
000001a0: d00b 7cbb b39d 83bd e18c 283e c3a8 6d3d
000001b0: bf47 65be 2cbe 783e d787 02be bc1c 27be
000001c0: 78d3 713e 50b7 863e b9f8 8a3d bd41 61bd
000001d0: edbd 3ebd 6104 c0bd 3d33 13be dd6f f33c
000001e0: 77b0 eabd afef a63d 94d0 9bbd 2aaa 31be
000001f0: 78b7 0cbe b5f7 e0bd 1a05 143c 1487 013e
00000200: 2a8c e2bd 7309 9d3d 6b33 c33d 7fce a93d
00000210: 7982 1a3e cddf 0f3e 4a7c 12be 068f 0d3e
00000220: 2377 e3bd c6af 17be 2e16 1c3e 1adb 0a3e
00000230: 0177 a4bd 6010 863b 0cde 10be 36c5 b13d
00000240: 6be3 463d 6a50 073e ecc8 d2bd e6a8 043e
00000250: 12cc 25be 6be4 963d 2b2f d83c c12d 21bd
00000260: 63cb 21be 12fe 43bd 2ce7 d83d 9e60 a33d
00000270: ff80 e9bc 351a 803d e90d 94bd 41d3 4bbd
00000280: d4f2 fcbd e63f 893e d00c fc3c 2e4e 453c
00000290: 2301 8c3d e730 fdbd 0441 c0bd b268 d2bc
000002a0: b64b 483e 787a 973d d3a6 0dbe 823e f93d
000002b0: be90 e1bd cf6e d63d 868c 93bc d3b0 043e
000002c0: 92b0 193e f790 853d d01a 69be 2745 513d
000002d0: d3b6 0f3e 2053 293e a494 90ba 1dfb ecbd
000002e0: 2874 173e 4d81 633e bf4c 043e 86d5 a0bc
000002f0: e778 0cbc d315 903c 2302 01bd 0039 eabc
00000300: 1b83 963e 6f2b b1bc f0d1 5abd ab45 89bd
00000310: 5ab2 133e 9497 8a3c 3a38 e13d d9de d03d
00000320: cb2c 58be 4ce0 c03d a06b ee3d 84e3 dcbd
00000330: 61b4 233e 0ab5 1fbe 0794 ecbc cae3 f7bd
00000340: 3fd2 803d d5e7 08be edd8 f03d ad5d 38bd
00000350: e52e 8f3d 0c9e 893d 4888 ea3b 225e a83c
00000360: 63f7 4abe 0519 103e eae1 1bbe 61b8 6ebe
00000370: bf3c 81bc b758 17be bd92 5ebd 4fca 2e3d
00000380: 37d7 b43c 7247 db3d 7654 5a3d 5d28 07bd
00000390: 932b 2ebd b1f1 9d3d b804 113d 4289 13be
000003a0: e8bd 9fbd a0ec d6bb 03a1 8bbd fc15 d5bc
000003b0: 9251 863d 4e51 c3bc ddcd cdbd 056d 8e3d
000003c0: bd11 08bb 5f34 043e 064d 073d 9b8f 39bd
000003d0: ac9d 9dbd 28f8 b63d 9c05 ef3d a4e7 a6bd
000003e0: d1c0 bd3d 7399 823d 383a 0a3e 0083 5abd
000003f0: f0bf acbd 3697 b53b 2734 103e 90bd c43d

linear_relu_stack.4.bias f4 [30]
-0.025254413 -0.20138025 0.21571068 -0.14323401 0.1317312 0.1254135 -0.047696225 0.010546466
0.24739568 0.0008982191 0.24487874 0.18161336 0.049630135 -0.077358775 0.21800497 0.031274315
0.17111915 0.09863968 -0.0016449942 -0.15148738 0.15365645 0.08658611 0.19109248 0.026871812
-0.12863547 -0.09627703 0.18893047 0.09765854 -0.069892816 0.028721586
00000000: 58e2 cebc a036 4ebe 43e3 5c3e f0ab 12be
00000010: 8be4 063e 666c 003e 1e5d 43bd 16cb 2c3c
00000020: 4b55 7d3e 7776 6b3a 7ec1 7a3e daf8 393e
00000030: f848 4b3d 476e 9ebd b23c 5f3e 7f19 003d
00000040: dc39 2f3e 9a03 ca3d d99c d7ba 821f 1bbe
00000050: 1e58 1d3e 0f54 b13d bfad 433e 4622 dc3c
00000060: 04b9 03be e42c c5bd fd76 413e 3301 c83d
00000070: f723 8fbd 8849 eb3c

linear_relu_stack.6.weight f4 [40, 30]
-0.06294034 -0.041188717 -0.11259863 -0.018203894 0.08593686 -0.1383967 0.14558513 0.15281044
0.14630474 0.10958499 0.091390066 -0.15262105 -0.00027887896 0.0034132898 -0.06325011 -0.19651997
-0.09596711 -0.06529637 0.16729763 -0.08521982 -0.16704299 -0.10001306 -0.18639475 -0.11857672
-0.17777523 -0.04778195 -0.051313646 -0.02951662 -0.116737 -0.132587 0.11409427 -0.07525775
-0.019248905 -0.13813877 -0.019913053 0.16587713 0.10269077 0.095953315 -0.18319444 -0.16027522
-0.05513353 0.12654167 -0.03689242 0.09770983 0.10261654 -0.017236069 -0.1230656 -0.024471005
0.12248211 0.059482437 0.120997526 -0.13564266 -0.059640072 -0.11113811 -0.13827157 -0.026610598
0.035316277 0.09345606 -0.18168388 0.14756474 -0.056751028 -0.18068883 0.08636132 0.15818977
-0.11111648 -0.017717987 0.015577599 -0.11392293 -0.099531084 0.07562542 -0.16743435 0.11317298
-0.082760006 0.06300299 -0.039373577 0.04426858 -0.03105639 -0.09876863 0.031815156 0.022139952
0.018078968 -0.13826624 -0.122957826 0.115063906 0.04971896 -0.102424026 -0.13710818 -0.11331448
-0.13694187 -0.049279958 -0.100521915 -0.17620888 -0.039534017 -0.039934687 -0.044875436 0.102545254
-0.06985481 0.16360275 -0.09181764 -0.08265951 0.044603284 0.05955556 0.228699 0.1727421
0.114391476 0.029474812 0.13946854 0.012972179 0.03993458 0.07081912 0.24468552 0.1517063
-0.005180527 0.034143243 -0.08800069 -0.11827574 -0.00747173 0.060997415 0.02877665 0.018658131
-0.12258106 0.11332348 -0.103497736 -0.0058315396 -0.093235694 -0.09009805 0.06873712 -0.09661235
0.04776804 -0.011493653 -0.10383678 -0.123052046 -0.045138612 0.060848117 -0.10147364 0.0789817
-0.050193176 0.045221448 0.105082124 -0.15088624 0.14467114 -0.08371599 -0.060973115 0.07753965
0.0029924214 0.15510169 0.006860316 -0.1817583 0.11837736 -0.1551365 -0.13492127 -0.14482951
-0.23920806 0.11999453 0.17965876 0.11724123 0.13438703 -0.0009427555 0.026243413 -0.0886735
0.24898368 -0.19251446 -0.0756069 0.12956543 0.018803267 0.26254207 0.16939361 -0.0477625
-0.09874713 -0.17709227 -0.028423313 0.197932 0.24964732 0.008657436 -0.04245992 0.12362098
0.16574551 -0.054798886 0.15170889 -0.11622487 0.033097908 -0.12551454 0.14967863 -0.026665336
0.0047092102 -0.1678836 -0.05561689 -0.17157184 -0.026496079 -0.17137207 0.12655385 -0.04815477
-0.17952296 -0.13025807 0.22267027 -0.018587505 0.08873216 0.06353448 -0.042885493 -0.011874509
0.12490569 0.046710595 0.17949767 -0.04541005 -0.059230186 0.04906778 -0.009547873 -0.08836707
-0.16797751 -0.009123192 -0.19437559 0.04093913 -0.099280596 0.09390729 -0.23398687 -0.040679142
0.10718565 -0.122485295 -0.14863534 -0.10029847 0.11352661 0.11467531 0.15161316 -0.099219896
0.1299169 0.11412078 0.049745537 0.055976506 -0.02074839 0.035750497 -0.032978706 -0.17066671
0.03526145 -0.25356683 0.18215829 -0.04519966 0.08278584 -0.033670533 0.0773482 -0.05491622
0.0055049458 -0.084428795 0.1031894 -0.1001421 -0.016649917 0.04624122 0.03898126 -0.083115794
-0.22627945 -0.07479374 0.20174576 0.1286402 0.15756324 -0.027200395 0.2073536 0.075467035
00000000: dde6 80bd 80b5 28bd 1c9a e6bd 5520 95bc
00000010: aaff af3d ddb7 0dbe 4514 153e 577a 1c3e
00000020: e9d0 153e 186e e03d b72a bb3d b148 1cbe
00000030: 8036 92b9 80b1 5f3b 4689 81bd 883c 49be
00000040: 678a c4bd 1aba 85bd 1250 2b3e bb87 aebd
00000050: 510d 2bbe a6d3 ccbd 44de 3ebe 5ad8 f2bd
00000060: b60a 36be 02b7 43bd 422e 52bd d7cc f1bc
00000070: cf13 efbd e3c4 07be 42aa e93d bc20 9abd
00000080: e1af 9dbc 4074 0dbe b320 a3bc b2db 293e
00000090: 8a4f d23d 2c83 c43d 5397 3bbe 301f 24be
000000a0: b2d3 61bd 2494 013e 821c 17bd 171c c83d
000000b0: 9f28 d23d a832 8dbc d109 fcbd 6b77 c8bc
000000c0: e7d7 fa3d dba3 733d 8dcd f73d e9e5 0abe
000000d0: 2649 74bd 619c e3bd 1097 0dbe 78fe d9bc
000000e0: cda7 103d e465 bf3d 570b 3abe 361b 173e
000000f0: c473 68bd 7e06 39be 34de b03d 80fc 213e
00000100: 0991 e3bd 5025 91bc 3039 7f3c 6d50 e9bd
00000110: f4d6 cbbd 80e1 9a3d e973 2bbe 3cc7 e73d
00000120: 147e a9bd b607 813d 3046 21bd f852 353d
00000130: f869 febc 3547 cabd 9c50 023d d85e b53c
00000140: 581a 943c aa95 0dbe 50d1 fbbd a0a6 eb3d
00000150: 1ca6 4b3d b0c3 d1bd 1666 0cbe 6c11 e8bd
00000160: 7d3a 0cbe c8d9 49bd 6fde cdbd 1a70 34be
00000170: 6cee 21bd 8e92 23bd 4ecf 37bd 3f03 d23d
00000180: 0a10 8fbd 7b87 273e e30a bcbd 6449 a9bd
00000190: efb1 363d 88f0 733d 1230 6a3e 4ee3 303e
000001a0: 1446 ea3d 2975 f13c d7d0 0e3e 4389 543c
000001b0: 7192 233d 9d09 913d d78e 7a3e e558 1b3e
000001c0: 69c1 a9bb c9d9 0b3d b539 b4bd 8d3a f2bd
000001d0: 6ad5 f4bb 6dd8 793d 02bd eb3c f0d8 983c
000001e0: c70b fbbd 2416 e83d 9ff6 d3bd 8016 bfbb
000001f0: 5bf2 bebd 5485 b8bd 0cc6 8c3d b2dc c5bd
00000200: 6ca8 433d e04f 3cbc 61a8 d4bd b602 fcbd
00000210: 44e3 38bd e03b 793d 69d1 cfbd 28c1 a13d
00000220: 5c97 4dbd 203a 393d 4c35 d73d ec81 1abe
00000230: ac24 143e 4a73 abbd f2be 79bd 1ccd 9e3d
00000240: 801c 443b fad2 1e3e 80cc e03b d91e 3abe
00000250: d46f f23d 1adc 1ebe cd28 0abe 304e 14be
00000260: f5f2 74be b1bf f53d 77f8 373e 2c1c f03d
00000270: c19c 093e 4023 77ba 6dfc d63c 749a b5bd
00000280: 94f5 7e3e 8322 45be cad7 9abd cdac 043e
00000290: 4f09 9a3c ea6b 863e 8575 2d3e 9ca2 43bd
000002a0: ef3b cabd ad57 35be 02d8 e8bc b0ae 4a3e
000002b0: 8ca3 7f3e ebd7 0d3c 74ea 2dbd ff2c fd3d
000002c0: 31b9 293e cc74 60bd 9359 1b3e 4e07 eebd
000002d0: ac91 073d e286 00be 5b45 193e 4371 dabc
000002e0: b84f 9a3b aee9 2bbe 89ce 63bd 87b0 2fbe
000002f0: 4e0e d9bc 297c 2fbe 5597 013e f03d 45bd
00000300: ded4 37be 5f62 05be ad03 643e d344 98bc
00000310: 35b9 b53d 5e1e 823d b3a8 2fbd 4d8d 42bc
00000320: 8ece ff3d 9c53 3f3d 3dce 373e e3ff 39bd
00000330: 5a9b 72bd 4cfb 483d af6e 1cbc cbf9 b4bd
00000340: 4c02 2cbe 7179 15bc 650a 47be caaf 273d
00000350: a053 cbbd 7752 c03d 419a 6fbe 2c9f 26bd
00000360: 2684 db3d 92d9 fabd dd33 18be 4969 cdbd
00000370: a480 e83d e4da ea3d 7b40 1b3e cd33 cbbd
00000380: f008 053e 28b8 e93d fac1 4b3d 9f47 653d
00000390: 87f8 a9bc 1d6f 123d ae14 07bd 41c3 2ebe
000003a0: 4f6e 103d 83d3 81be b487 3a3e 4723 39bd
000003b0: 9f8b a93d 1dea 09bd bc68 9e3d d5ef 60bd
000003c0: d562 b43b 01e9 acbd f754 d33d 4d17 cdbd
000003d0: 6865 88bc 6f67 3d3d d0aa 1f3d 9d38 aabd
000003e0: cdb5 67be 762d 99bd 7196 4e3e 42ba 033e
000003f0: 4258 213e 5dd3 debc 8154 543e 768e 9a3d

linear_relu_stack.6.bias f4 [40]
0.05163123 -0.23044053 -0.16681159 -1.988866e-05 -0.11439875 0.20019366 0.09320459 0.2443529
0.043146353 0.22577904 0.037804957 -0.07887638 0.15195145 0.22228403 0.15825205 -0.12510476
0.027031353 -0.039948102 0.26631218 -0.010363618 0.2810937 0.08947919 -0.11201499 -0.11312667
0.010723679 -0.015677372 0.19848312 -0.19464786 -0.16774938 -0.17415161 0.049253035 -0.042223077
0.096766636 -0.088818125 0.080238834 0.12516476 -0.08126713 0.15214218 0.20772195 -0.0058367946
00000000: 457b 533d 9af8 6bbe a8d0 2abe 92d6 a6b7
00000010: e449 eabd 91ff 4c3e 0ce2 be3d a637 7a3e
00000020: 3bba 303d 9f32 673e 5fd9 1a3d f189 a1bd
00000030: 2999 1b3e 6d9e 633e d30c 223e 761b 00be
00000040: db70 dd3c 9fa0 23bd 125a 883e 2acc 29bc
00000050: 83eb 8f3e de40 b73d 1d68 e5bd f5ae e7bd
00000060: 5fb2 2f3c d56d 80bc 293f 4b3e c551 47be
00000070: 7ec6 2bbe cd54 32be 8dbd 493d 1bf2 2cbd
00000080: 962d c63d 47e6 b5bd 4254 a43d 312b 003e
00000090: 626f a6bd 29cb 1b3e 10b5 543e 9542 bfbb

linear_relu_stack.8.weight f4 [50, 40]
-0.13820647 0.120859824 -0.12059558 0.051420927 -0.05020474 -0.12609349 0.046368394 0.12516196
0.08365548 0.05532205 0.0036863605 -0.006177023 -0.0048483955 0.105075024 0.17145194 0.08316415
-0.10950005 0.032123238 0.14359194 -0.08861198 -0.01793283 0.12722205 0.059801728 -0.05798363
-0.11310521 -0.011742931 -0.12250256 -0.15072566 0.08066596 0.15761484 0.11658728 0.038399536
-0.063434355 -0.10367273 0.07294809 -0.06662274 -0.12829702 0.10647388 -0.0055220257 0.10690467
0.039095856 0.021894766 0.078843385 0.15978642 -0.030387625 -0.011636069 0.027902093 0.3024296
0.14356253 0.17378145 0.045711875 0.052083075 -0.13649902 -0.19101503 0.12197732 -0.04313983
-0.06613294 -0.10412277 -0.2619673 0.22284213 -0.0047783363 -0.030845826 -0.091189615 -0.028141841
-0.08556477 -0.050164357 0.0731412 0.057881415 0.011723817 -0.069485575 -0.11956586 0.24355695
-0.15687005 -0.053762987 0.014746311 -0.05877421 0.001308241 0.2376929 -0.013485962 -0.11452855
-0.1449696 0.10870831 -0.14472562 0.11943583 0.13655932 -0.07197601 0.06674248 0.018163532
-0.13354997 -0.05176375 -0.02696088 0.1245967 0.13218744 -0.113998875 0.06277643 -0.060202383
0.009876475 0.05776666 0.09000027 -0.13986486 0.082228154 0.019364 0.090170875 -0.15634997
-0.08493721 0.014494434 0.12412472 -0.043661013 0.10970004 -0.051281504 0.0075507164 -0.15683468
0.04243602 0.12350215 -0.0597416 -0.031744137 -0.105514616 0.085983306 -0.095137134 -0.09641828
-0.097699344 -0.029761836 -0.14604138 -0.05455722 -0.027997047 -0.0152483 0.1001282 0.09081198
-0.0054517803 -0.0046986965 -0.11642938 -0.0137131065 0.08976418 -0.051863927 -0.14423065 0.08884068
-0.10918373 0.13842274 -0.15240908 0.07322343 0.14090906 0.08165741 -0.06395865 0.13393329
0.07559946 -0.1152646 0.03689249 -0.042276304 -0.10552059 0.057984687 -0.108586974 -0.059778206
-0.026989462 0.09053433 -0.07712353 -0.037113585 0.15182482 -0.06374584 -0.15684798 0.060236663
-0.0579492 -0.049786694 -0.10883079 -0.14512388 0.04905291 0.055430748 -0.011645267 -0.058776237
0.02101687 -0.3143924 -0.20464991 0.112653956 -0.08350877 0.035124257 -0.1006287 -0.030988155
-0.03134296 0.03526009 -0.0071079773 -0.10964299 0.038520366 0.080871046 -0.09272801 -0.047619402
0.038979866 0.0847789 -0.10349689 0.11392563 0.16826873 0.1419306 -0.10526787 -0.103677444
-0.11133581 -0.032601535 -0.19478585 0.1191282 -0.18283604 -0.27753478 -0.086711384 0.07052896
0.09892559 0.12330044 -0.15384308 0.16474897 0.073489726 0.03659027 0.13691543 0.03683287
-0.014363591 0.18959528 0.022141801 -0.089637436 0.05141483 -0.14561182 -0.084021054 -0.17504324
0.124720454 -0.057759613 -0.17345075 0.21691416 0.14752144 -0.08296173 -0.12298962 -0.07330279
-0.15964575 -0.11444407 -0.098449185 -0.13701573 0.056228925 -0.0821403 -0.05238488 0.120106064
0.037009403 0.13386594 -0.12408466 0.26199502 -0.05019978 0.09588343 -0.1353774 -0.06608763
0.059596956 0.06096679 -0.10090518 0.021527292 0.039008647 0.20313543 0.07345283 -0.043373488
-0.17367269 -0.06665885 -0.07877165 0.15444688 -0.01230008 -0.09713504 0.1618629 0.018518554
00000000: ff85 0dbe 5b85 f73d d1fa f6bd c09e 523d
00000010: 7ca3 4dbd a71e 01be c9ec 3d3d 752a 003e
00000020: 9053 ab3d 6099 623d de96 713b a068 cabb
00000030: 4adf 9ebb 9331 d73d 1991 2f3e f751 aa3d
00000040: 9041 e0bd a893 033d c409 133e 337a b5bd
00000050: dfe7 92bc 7f46 023e a8f2 743d 3e80 6dbd
00000060: b4a3 e7bd 6c65 40bc 9fe2 fabd d457 1abe
00000070: 3234 a53d c965 213e 50c5 ee3d d548 1d3d
00000080: dfe9 81bd 5e52 d4bd cf65 953d 8171 88bd
00000090: 4b60 03be fa0e da3d 1cf2 b4bb d6f0 da3d
000000a0: fa22 203d a75c b33c a478 a13d 0d9f 233e
000000b0: 78ef f8bc 36a5 3ebc ee92 e43c 0dd8 9a3e
000000c0: 0e02 133e c4f3 313e 603c 3b3d 1055 553d
000000d0: 66c6 0bbe 7299 43be 3fcf f93d 64b3 30bd
000000e0: b570 87bd 523e d5bd 9420 86be ba30 643e
000000f0: 9793 9cbb 63b0 fcbc 9fc1 babd b889 e6bc
00000100: 953c afbd 2479 4dbd 0ecb 953d 1015 6d3d
00000110: 4115 403c 744e 8ebd f2de f4bd fe66 793e
00000120: 8ba2 20be 9436 5cbd 839a 713c 3abd 70bd
00000130: 4979 ab3a c465 733e 39f4 5cbc f28d eabd
00000140: e972 14be 76a2 de3d f432 14be c69a f43d
00000150: 35d6 0b3e 2968 93bd 48b0 883d b0cb 943c
00000160: 53c1 08be 3a06 54bd 10dd dcbc 8e2c ff3d
00000170: 255c 073e 3e78 e9bd ee90 803d c696 76bd
00000180: f0d0 213c bc9c 6c3d 1052 b83d bc38 0fbe
00000190: 3c67 a83d 40a1 9e3c 82ab b83d 351a 20be
000001a0: 8ff3 adbd 107a 6d3c 1a35 fe3d e4d5 32bd
000001b0: 6aaa e03d 8e0c 52bd 006c f73b 4599 20be
000001c0: 64d1 2d3d b2ee fc3d 9cb3 74bd 2406 02bd
000001d0: 0c18 d8bd 0418 b03d 42d7 c2bd f276 c5bd
000001e0: 9816 c8bd 18cf f3bc df8b 15be 6477 5fbd
000001f0: 105a e5bc 01d4 79bc 0410 cd3d a2fb b93d
00000200: d9a4 b2bb 86f7 99bb 8772 eebd f0ac 60bc
00000210: 48d6 b73d 456f 54bd 33b1 13be 1af2 b53d
00000220: b89b dfbd b1be 0d3e 2011 1cbe 2af6 953d
00000230: 774a 103e 003c a73d c1fc 82bd cf25 093e
00000240: e4d3 9a3d d90f ecbd 941c 173d eb29 2dbd
00000250: 2e1b d8bd 5a81 6d3d d962 debd fed9 74bd
00000260: 0119 ddbc 106a b93d f1f2 9dbd 6a04 18bd
00000270: f777 1b3e 2e8d 82bd c29c 20be b8ba 763d
00000280: 245c 6dbd 22ed 4bbd ade2 debd 5b9b 14be
00000290: b4eb 483d 5a0b 633d cacb 3ebc 5abf 70bd
000002a0: 922b ac3c 0af8 a0be bf8f 51be 1eb7 e63d
000002b0: a506 abbd 74de 0f3d 6b16 cebd dfda fdbc
000002c0: 7a61 00bd e26c 103d 09ea e8bb 818c e0bd
000002d0: 88c7 1d3d b89f a53d 2fe8 bdbd 900c 43bd
000002e0: 5aa9 1f3d 8fa0 ad3d 2df6 d3bd d751 e93d
000002f0: a34e 2c3e 4156 113e ae96 d7bd d754 d4bd
00000300: 0704 e4bd 3089 05bd f175 47be 7cf9 f33d
00000310: 5f39 3bbe 0a19 8ebe bd95 b1bd 7d71 903d
00000320: 8099 ca3d f184 fc3d 0a89 1dbe f4b3 283e
00000330: c881 963d aedf 153d 8f33 0c3e 10de 163d
00000340: 4455 6bbc 4425 423e b962 b53c d593 b7bd
00000350: 5b98 523d 441b 15be 3b13 acbd 893e 33be
00000360: 706d ff3d 5895 6cbd 139d 31be bf1e 5e3e
00000370: dc0f 173e d7e7 a9bd fbe1 fbbd c61f 96bd
00000380: 2d7a 23be a761 eabd ba9f c9bd da4d 0cbe
00000390: 4d50 663d 2c39 a8bd 8791 56bd 2bfa f53d
000003a0: 2c97 173d 2714 093e 1920 febd 3624 863e
000003b0: 499e 4dbd 885e c43d 60a0 0abe f458 87bd
000003c0: f01b 743d 50b8 793d 60a7 cebd 015a b03c
000003d0: 88c7 1f3d bc02 503e 706e 963d 66a8 31bd
000003e0: 41d7 31be 6f84 88bd 0853 a1bd 5327 1e3e
000003f0: 4686 49bc bcee c6bd 63bf 253e 39b4 973c

linear_relu_stack.8.bias f4 [50]
0.3212812 0.15312427 -0.1176489 -0.1449713 0.41939962 0.20000394 0.3886935 -0.106225565
0.13673574 -0.017090471 0.15935656 0.25290632 0.27832806 0.29439935 -0.13817146 -0.08767357
-0.11928356 0.11305216 0.153623 0.1620532 0.31490302 0.07668314 0.055054326 0.29018602
0.19716719 0.13326219 0.27050543 0.040431123 -0.14036962 0.21793324 0.54887384 0.15764363
0.02542166 0.0831212 0.037134156 0.122612 0.0038625041 -0.07993886 -0.08495657 -0.0793525
-0.123066716 -0.1598569 -0.098334044 0.06272991 -0.099773996 0.012905701 -0.06254475 -0.091938905
-0.15232375 -0.0999224
00000000: f87e a43e 9ccc 1c3e e8f1 f0bd 5b73 14be
00000010: 8cbb d63e d5cd 4c3e d602 c73e ca8c d9bd
00000020: 7404 0c3e 5101 8cbc 5e2e 233e f07c 813e
00000030: 0481 8e3e 83bb 963e d27c 0dbe 338e b3bd
00000040: f04a f4bd e487 e73d 594f 1d3e 46f1 253e
00000050: f83a a13e 0d0c 9d3d a580 613d 4393 943e
00000060: 32e6 493e e275 083e b07f 8a3e 1b9b 253d
00000070: 0ebd 0fbe e429 5f3e ff82 0c3f 556d 213e
00000080: 1641 d03c 733b aa3d fc19 183d 001c fb3d
00000090: 1122 7d3b fcb6 a3bd b6fd adbd 9083 a2bd
000000a0: 670a fcbd 87b1 23be 5c63 c9bd 8a78 803d
000000b0: 4f56 ccbd 6f72 533c 7617 80bd 774a bcbd
000000c0: c2fa 1bbe 1ea4 ccbd

linear_relu_stack.10.weight f4 [180, 50]
-0.010683621 0.10324813 -0.084481455 0.07150574 0.05253345 -0.07202866 -0.14717495 -0.07110489
0.010727334 -0.04037667 0.06477105 -0.063692346 0.04254089 0.07605517 -0.047811873 0.09582957
-0.13611169 0.09748331 0.00081386877 0.07735011 0.04982218 0.012631313 -0.14018436 0.039704703
-0.11803209 0.1440631 -0.075953685 0.05866102 0.078976154 -0.033623952 0.048537474 0.016766086
0.06620952 -0.11639702 0.024099052 0.11633913 0.06569461 -0.04681253 0.031903043 0.094035946
-0.050908566 0.04555925 -0.11472114 0.055619005 -0.12351686 -0.15820047 0.05077746 -0.11707218
-0.08933048 0.1109802 0.00050172146 0.07327793 -0.060168274 -0.031099068 -0.12794892 -0.057565376
0.020828655 0.022877757 -0.020796955 0.060111362 0.04995036 0.08239141 -0.0077309394 -0.06442225
0.0072788 -0.1285561 0.018968472 -0.12871471 -0.014905303 0.030751226 -0.010139862 -0.053115807
0.020100825 0.009183908 0.044453356 -0.0020501865 -0.024433758 0.10340539 -0.039973475 0.10129066
-0.12311136 -0.05982106 0.11629485 -0.12079674 0.13625884 -0.01644016 -0.119461305 0.06766313
-0.07768199 -0.09807888 -0.041136496 0.056965508 0.006833768 0.11448844 -0.012679115 0.095901325
0.07027963 -0.110374 -0.00058000546 -0.10562147 0.12318853 0.063935764 -0.10227409 0.067077816
-0.11084015 0.04192499 -0.098567195 0.086449265 0.13191567 -0.07491092 -0.062816225 0.025086373
0.09587324 0.13473573 -0.02865716 -0.022063505 -0.040525325 -0.03451188 0.049767822 0.009361015
-0.08854308 0.098417714 -0.066656075 -0.018967109 0.044025082 -0.048728682 -0.03698872 0.11268573
0.012739882 0.075011715 0.09532168 0.093589455 0.12813967 -0.015397185 -0.056115773 -0.050507527
0.035774086 -0.0352705 -0.034734003 0.0888589 -0.09347232 -0.11776794 0.03181148 0.017358804
0.034047037 0.00079823745 -0.08717769 -0.012659999 0.13325003 0.1226321 -0.016505696 -0.11342501
-0.09568809 0.11566675 -0.070458084 -0.2747957 -0.09893911 -0.12730151 0.06612892 0.014716436
-0.058827005 -0.16213647 0.13262099 0.03620622 -0.08861266 0.13718213 -0.11829291 0.014310377
0.027144222 -0.1414265 0.10517714 -0.20341359 -0.09826453 0.1481275 0.099924594 0.016859818
0.035993632 0.08591516 0.061520234 0.107999586 0.052364726 -0.11012495 -0.10874166 0.08777138
-0.10331742 -0.06666023 -0.0040263147 -0.020466957 0.103673786 -0.017971857 0.117683485 0.0013838843
0.052158486 0.0504923 -0.015613526 0.12953255 -0.040221576 -0.12084923 0.12574643 0.13178532
-0.00089758006 -0.07731828 0.008180261 0.004387158 -0.029833488 0.036717888 -0.14080927 -0.10244621
-0.07222228 0.0029293553 0.15788211 0.011421626 0.16537857 0.044430606 0.1004629 0.13920222
0.004851402 0.16336757 -0.097076304 -0.010607965 -0.070446454 0.006184221 0.11516171 -0.043403868
0.15366983 -0.15710734 0.228156 -0.06088201 0.031223476 0.041546043 -0.22965276 -0.2207309
0.092482634 0.10835885 0.081885055 0.039311666 0.06434331 0.09473798 0.14476234 0.16717194
-0.080361955 -0.117110685 -0.035723783 0.013663076 -0.10091089 -0.064942755 -0.060605492 0.003282067
0.10775616 0.0059066564 0.0139362 -0.04520305 -0.13086368 -0.03285973 -0.095876694 0.011833737
00000000: 5b0a 2fbc c173 d33d 9d04 adbd 9a71 923d
00000010: 512d 573d c383 93bd 08b5 16be 719f 91bd
00000020: b3c1 2f3c 0262 25bd afa6 843d 2271 82bd
00000030: 5b3f 2e3d d0c2 9b3d 62d6 43bd 4b42 c43d
00000040: dd60 0bbe 54a5 c73d cf59 553a bc69 9e3d
00000050: 5812 4c3d 91f3 4e3c 7d8c 0fbe 66a1 223d
00000060: cfba f1bd 4785 133e 9b8d 9bbd 8a46 703d
00000070: 40be a13d 45b9 09bd 3bcf 463d 0859 893c
00000080: db98 873d 9061 eebd 606b c53c 3643 ee3d
00000090: e58a 863d 7fbe 3fbd c4ac 023d eb95 c03d
000000a0: 8085 50bd 569c 3a3d ebf2 eabd c1d0 633d
000000b0: 68f6 fcbd 4eff 21be 07fc 4f3d 8ac3 efbd
000000c0: e6f2 b6bd 9649 e33d f585 033a bd12 963d
000000d0: 0273 76bd 79c3 febc 0b05 03be acc9 6bbd
000000e0: dba0 aa3c 226a bb3c 605e aabc 5537 763d
000000f0: c098 4c3d d4bc a83d d253 fdbb d0ef 83bd
00000100: 0083 ee3b 36a4 03be c563 9b3c cacd 03be
00000110: 5f35 74bc ffe9 fb3c aa21 26bc f68f 59bd
00000120: 7caa a43c 1a78 163c b914 363d 6c5c 06bb
00000130: 4e29 c8bc 35c6 d33d 3abb 23bd 7a71 cf3d
00000140: cf21 fcbd ee06 75bd ff2b ee3d 4864 f7bd
00000150: 7087 0b3e 84ad 86bc 21a8 f4bd f892 8a3d
00000160: bc17 9fbd 94dd c8bd be7e 28bd aa54 693d
00000170: cded df3b ea78 ea3d 10bc 4fbc ea67 c43d
00000180: c4ee 8f3d c40b e2bd 820b 18ba 1250 d8bd
00000190: 454a fc3d c1f0 823d 1475 d1bd 1860 893d
000001a0: 2900 e3bd 8ab9 2b3d 99dd c9bd 500c b13d
000001b0: e714 073e e56a 99bd cba5 80bd f081 cd3c
000001c0: 3059 c43d 2af8 093e 6cc2 eabc 86be b4bc
000001d0: e2fd 25bd 545c 0dbd 58d9 4b3d f15e 193c
000001e0: 1356 b5bd 3a8f c93d fb82 88bd e960 9bbc
000001f0: a553 343d ba97 47bd 7c81 17bd c7c7 e63d
00000200: f0ba 503c be9f 993d 0338 c33d d4ab bf3d
00000210: 0c37 033e 7a44 7cbc a7d9 65bd fbe0 4ebd
00000220: d987 123d cd77 10bd 3e45 0ebd a8fb b53d
00000230: 6a6e bfbd 5130 f1bd c14c 023d 0d34 8e3c
00000240: e874 0b3d cf40 513a 378a b2bd e26b 4fbc
00000250: b272 083e 8a26 fb3d f436 87bc 5f4b e8bd
00000260: 1ef8 c3bd b0e2 ec3d 544c 90bd 06b2 8cbe
00000270: 97a0 cabd 545b 02be 996e 873d 351d 713c
00000280: 96f4 70bd 1a07 26be cccd 073e f94c 143d
00000290: 8e7a b5bd 7979 0c3e 8e43 f2bd 1276 6a3c
000002a0: 8f5d de3c 1cd2 10be 1d67 d73d a74b 50be
000002b0: ea3e c9bd bcae 173e 44a5 cc3d 9a1d 8a3c
000002c0: 0f6e 133d 4af4 af3d a4fc 7b3d e32e dd3d
000002d0: 657c 563d 3189 e1bd f3b3 debd 7bc1 b33d
000002e0: 1598 d3bd 2985 88bd 2def 83bb 52aa a7bc
000002f0: ec52 d43d b739 93bc 0a04 f13d 7463 b53a
00000300: 23a4 553d 04d1 4e3d e0cf 7fbc 2ea4 043e
00000310: 61bf 24bd cd7f f7bd acc3 003e bbf2 063e
00000320: 944b 6bba 0c59 9ebd 8006 063c 26c2 8f3b
00000330: 5c65 f4bc 7f65 163d 4e30 10be 52cf d1bd
00000340: 46e9 93bd 6dfa 3f3b d9ab 213e c621 3b3c
00000350: 0059 293e defc 353d 7ebf cd3d 078b 0e3e
00000360: 82f8 9e3b d449 273e f1cf c6bd 08cd 2dbc
00000370: 3b46 90bd 01a5 ca3b e7d9 eb3d 41c8 31bd
00000380: a05b 1d3e bfe0 20be baa1 693e 6a5f 79bd
00000390: 60c8 ff3c 2f2c 2a3d 182a 6bbe 4807 62be
000003a0: 8967 bd3d 3feb dd3d 5ab3 a73d 4505 213d
000003b0: 6dc6 833d fc05 c23d 943c 143e 1f2f 2b3e
000003c0: cf94 a4bd bad7 efbd 1a53 12bd 18db 5f3c
000003d0: 5eaa cebd b500 85bd 773d 78bd f217 573b
000003e0: 43af dc3d a08c c13b a954 643c d526 39bd
000003f0: 2101 06be ed97 06bd 005b c4bd 4ae2 413c

linear_relu_stack.10.bias f4 [180]
-0.027504966 0.0030703289 0.117038034 0.15756898 -0.12410326 -0.0048117875 -0.13409783 -0.04040943
-0.12889317 -0.03843457 -0.080607235 0.24425869 -0.07629122 -0.027440041 0.11295284 0.08150964
-0.09783154 0.033640556 0.0050562806 -0.11048768 -0.10404311 0.12236227 -0.18312664 0.19133954
-0.030242454 -0.059044812 0.12231472 0.043197744 -0.12959091 -0.021316443 -0.061154608 -0.07227143
-0.030684618 0.032106705 -0.07113901 0.21422355 -0.01424716 0.019110095 0.11264206 0.1436306
-0.0030801336 -0.03454865 -0.05134799 -0.101317495 -0.08433584 -0.028267333 -0.0772546 0.17458181
0.066446446 -0.011754943 0.10722563 0.123912856 -0.17023799 -0.052115664 0.043927003 -0.16146044
-0.067895986 0.057739258 -0.17815286 0.15001951 0.07523461 -0.08017661 0.17144518 -0.024323566
-0.048157755 -0.14243254 0.09505603 -0.22851804 -0.041364003 0.07215842 -0.20759048 0.16272457
0.01810221 -0.08733961 0.24053918 0.08773316 -0.06584645 -0.11984629 -0.0035157069 -0.09555124
0.03184844 -0.021703107 -0.0944005 0.3417285 0.0004587267 -0.033835515 0.10764873 -0.04403312
-0.035410367 -0.19313422 -0.01026332 0.015188254 -0.06331837 -0.019579368 -0.055257477 0.1986636
-0.0116018895 -0.096242815 0.11619058 0.11439391 -0.040720005 0.00080193125 -0.017635938 -0.15281345
-0.071881175 0.063344285 -0.107969984 0.23729688 0.038408633 -0.09519756 0.18615673 0.111645974
-0.0030362904 -0.09179591 -0.007238298 -0.17469364 -0.1549492 -0.017617922 -0.096325 0.2368196
0.037275072 -0.099348396 0.07990382 0.11979484 -0.0064678364 -0.08096266 -0.022914512 -0.13466665
-0.16847928 0.03177602 -0.06913818 0.32339144 0.053390916 0.049160782 0.12950645 -0.032421652
-0.08216252 -0.022394877 0.032264497 -0.10320837 -0.10013367 0.050217737 -0.15179662 0.29752076
-0.06920172 0.073212534 0.0995681 0.11703811 -0.0011637247 0.013187598 -0.057859857 -0.07066136
-0.11714115 -0.06658706 -0.027984124 0.2354166 0.08700641 -0.018819885 0.19927597 -0.07302639
-0.0023771045 -0.023710877 -0.08130711 -0.02043659 -0.012232559 -0.041494787 -0.0007917915 0.28613523
-0.03532166 -0.008588441 0.13678451 0.117207356 -0.02500753 -0.08798699 0.04143007 -0.037063014
-0.036735415 0.038379025 -0.048478093 0.30214313
00000000: 1852 e1bc 9237 493b a3b1 ef3d c359 213e
00000010: da29 febd 33ac 9dbb f150 09be 5c84 25bd
00000020: 92fc 03be 916d 1dbd 6815 a5bd f31e 7a3e
00000030: 923e 9cbd f0c9 e0bc d253 e73d 87ee a63d
00000040: e75b c8bd aeca 093d 28af a53b 5d47 e2bd
00000050: 8e14 d5bd 1299 fa3d 8d85 3bbe 83ee 433e
00000060: 06bf f7bc f9d8 71bd 2480 fa3d 1ef0 303d
00000070: 7bb3 04be d29f aebc 417d 7abd 0b03 94bd
00000080: 4f5e fbbc 5282 033d 54b1 91bd 6b5d 5b3e
00000090: ec6c 69bc c68c 9c3c e1b0 e63d e613 133e
000000a0: 11dc 49bb e382 0dbd 4552 52bd 8c7f cfbd
000000b0: 45b8 acbd e590 e7bc a937 9ebd 93c5 323e
000000c0: 1315 883d ce97 40bc 1c99 db3d 06c6 fd3d
000000d0: de52 2ebe 3c77 55bd cdec 333d e355 25be
000000e0: 0d0d 8bbd 0080 6c3d b46d 36be b79e 193e
000000f0: 9a14 9a3d a233 a4bd 538f 2f3e 3742 c7bc
00000100: 1141 45bd d6d9 11be bcac c23d a200 6abe
00000110: 4d6d 29bd cbc7 933d 9992 54be 45a1 263e
00000120: 164b 943c 1cdf b2bd e74f 763e 71ad b33d
00000130: 81da 86bd f971 f5bd c667 66bb 5eb0 c3bd
00000140: 8373 023d b7ca b1bc 0d55 c1bd 0af7 ae3e
00000150: 4181 f039 1c97 0abd f076 dc3d 135c 34bd
00000160: 760a 11bd fac4 45be 7c27 28bc 28d8 783c
00000170: 10ad 81bd e964 a0bc aa55 62bd 796e 4b3e
00000180: da15 3ebc f41a c5bd 54f5 ed3d 5b47 ea3d
00000190: 05ca 26bd b238 523a 3e79 90bc 217b 1cbe
000001a0: 7036 93bd a6ba 813d 5e1f ddbd f4fd 723e
000001b0: 5f52 1d3d f0f6 c2bd df9f 3e3e a5a6 e43d
000001c0: 80fc 46bb 7eff bbbd 3f2f edbb e4e2 32be
000001d0: 01ab 1ebe 7653 90bc 0b46 c5bd d680 723e
000001e0: bfad 183d 2c77 cbbd 9da4 a33d ff56 f53d
000001f0: 25f0 d3bb c0cf a5bd 37b7 bbbc 0ee6 09be
00000200: d585 2cbe 9227 023d 5198 8dbd 9093 a53e
00000210: 6fb0 5a3d d15c 493d 579d 043e 91cc 04bd
00000220: d344 a8bd 7675 b7bc c727 043d e95e d3bd
00000230: e212 cdbd 1db1 4d3d 9370 1bbe a454 983e
00000240: a2b9 8dbd 74f0 953d 5cea cb3d adb1 ef3d
00000250: 1f88 98ba cc10 583c 75fe 6cbd e7b6 90bd
00000260: b3e7 efbd cc5e 88bd f63e e5bc 0d11 713e
00000270: 6b30 b23d 292c 9abc 000f 4c3e dc8e 95bd
00000280: 32c9 1bbb 503d c2bc 5884 a6bd a36a a7bc
00000290: 126b 48bc 70f6 29bd 3a90 4fba 5180 923e
000002a0: 72ad 10bd 88b6 0cbc 3d11 0c3e 690a f03d
000002b0: 97dc ccbc 8632 b4bd 94b2 293d 63cf 17bd
000002c0: e077 16bd 5333 1d3d f790 46bd 81b2 9a3e
