baselines/autoenc_basic/Weights/model_weights.pth (torch, 103762 bytes, 12 tensors)

linear_relu_stack.0.weight f4 [50, 180]
-0.008074234 0.032896787 -0.013219773 0.0076273256 0.06820961 0.008491753 0.016915709 0.014627873
0.040555052 -0.009553534 0.038539782 -0.02725493 -0.06633582 -0.047319975 0.012196376 -0.025271371
-0.02824393 -0.045464516 0.039795376 -0.010232721 -0.0004740126 0.0014261216 -0.07290833 -0.017572587
-0.015843691 0.00018322194 -0.05326448 -0.03000972 -0.064588375 -0.047529493 -0.055074364 0.032854654
0.047066398 0.0012240694 -0.002595053 -0.052394327 0.022985062 0.023452573 0.005744154 -0.04808068
0.03101513 0.010963192 -0.005205056 0.019102052 0.0037092743 -0.04919648 -0.03513569 0.011109097
-0.016813574 0.0106726205 -0.0133021 -0.026627135 0.07096638 0.030073995 0.06456382 0.009271891
0.00024336358 0.032374043 0.06822539 -0.06960932 0.030262517 -0.025578478 0.024686087 -0.06839549
-0.06910433 0.07101342 -0.046297204 0.026233194 0.027500859 -0.07204795 0.053175855 -0.03447578
0.007978034 0.06223779 -0.012498657 -0.036790352 -0.010598172 0.0024000441 -0.0491247 0.062355846
-0.026189392 -0.06113495 0.042410143 0.022203926 -0.028319214 0.06481037 0.030186696 0.029619895
0.04871903 -0.036667615 -0.01237792 0.03901002 0.03248968 -0.0365459 0.070416115 0.05814557
-0.07234414 0.0151300635 -0.036509667 0.0158232 0.020175071 -0.008631002 0.020587403 0.020984652
0.03714693 0.030426187 0.059111502 0.07496337 0.000546172 0.020939756 0.021469288 0.065543376
0.017578136 0.00061248796 -0.053941134 -0.06269674 -0.058179133 0.06312454 -0.05733506 -0.03653653
0.013690445 -0.012010337 -0.061297152 -0.031328283 -0.012366181 0.051990062 0.048569378 0.06816759
0.026747473 -0.07177811 -0.06900711 0.015216382 0.051792845 0.02720821 -0.027175333 0.051091887
0.0014302419 -0.061479945 -0.050847966 0.03205252 0.0035278553 0.046413615 0.009601509 0.026638824
-0.028554332 -0.055811927 0.0079464475 -0.0683947 0.07238814 -0.034708943 -0.046187036 0.020824108
-0.040693693 -0.030270273 -0.037146978 -0.036987673 -0.073818214 0.07182321 0.043722846 0.0246188
-0.054870624 -0.07027781 0.06801761 -0.0629717 -0.020882579 -0.036208313 0.059929006 0.068402
-0.013204911 0.06289635 0.017033545 0.020041376 -0.07282896 0.018834548 0.005339606 0.0042381315
-0.008684417 0.058893654 0.030932318 0.0028361082 -0.053349778 0.056303002 -0.015570112 0.025222935
0.059587322 -0.06277485 -0.02017979 -0.017654631 -0.0074081197 0.03515356 0.060030602 -0.047167797
-0.06502759 0.006084934 0.06096434 0.015850939 0.02507326 -0.0055804774 -0.07378804 -0.07360695
-0.026272252 0.01335901 -0.015008416 -0.06504221 0.016385436 -0.06384032 -0.03698097 0.0394011
-0.036595713 -0.004471384 0.007536389 0.06883822 0.039917678 0.07076723 -0.00720042 0.041842297
-0.01773578 -0.032065846 0.0018282533 0.053544097 -0.04003888 -0.011733964 -0.06631817 0.0661825
0.042913683 0.04422003 0.031725466 0.06633205 -0.06704212 -0.05693439 -0.052209042 -0.025161974
-0.008884855 0.049892932 0.028555915 0.04101588 -0.059510365 -0.025359247 -0.06776346 0.020007357
-0.026511427 -0.036948808 0.0073902383 -0.01889098 0.015170291 0.017635643 0.023799025 -0.026196904
-0.017262679 -0.068730384 -0.068373635 -0.007012315 -0.005975537 -0.011614911 -0.0068182796 -0.07407372
00000000: cb49 04bc c8be 063d bf97 58bc a5ee f93b
00000010: 7bb1 8b3d fe20 0b3c d092 8a3c bfa9 6f3c
00000020: 0e1d 263d 6d86 1cbc e4db 1d3d bb45 dfbc
00000030: 13db 87bd 97d2 41bd 4fd3 473c e805 cfbc
00000040: d05f e7bc 0039 3abd 7a00 233d 25a7 27bc
00000050: e584 f8b9 b3ec ba3a f650 95bd 63f4 8fbc
00000060: a1ca 81bc 441f 4039 db2b 5abd f2d6 f5bc
00000070: e946 84bd 49ae 42bd a895 61bd 9a92 063d
00000080: b2c8 403d f470 a03a c411 2abb 6f9b 56bd
00000090: 2b4b bc3c 9c1f c03c 7539 bc3b 3ff0 44bd
000000a0: 7113 fe3c f69e 333c 2d8f aabb e87b 9c3c
000000b0: 4c17 733b 4082 49bd 71ea 0fbd ee02 363c
000000c0: 9fbc 89bc 37dc 2e3c 0df1 59bc 2621 dabc
000000d0: d256 913d bd5d f63c 093a 843d 21e9 173c
000000e0: 6a2f 7f39 a59a 043d c1b9 8b3d 558f 8ebd
000000f0: 19e9 f73c f589 d1bc 7a3a ca3c ef12 8cbd
00000100: 9286 8dbd 7c6f 913d 23a2 3dbd ffe6 d63c
00000110: 7b49 e13c e08d 93bd edce 593d 7a36 0dbd
00000120: 4db6 023c 0eed 7e3d 2bc7 4cbc 7bb1 16bd
00000130: f5a3 2dbc 0f4a 1d3b fb36 49bd d868 7f3d
00000140: 238b d6bc a468 7abd 42b6 2d3d 02e5 b53c
00000150: b2fd e7bc 4dbb 843d 174a f73c 6ca5 f23c
00000160: 9b8d 473d c830 16bd c2cc 4abc f9c8 1f3d
00000170: e613 053d 27b1 15bd 5336 903d 0d2a 6e3d
00000180: 2a29 94bd 16e4 773c 298b 15bd a89f 813c
00000190: 3146 a53c 0c69 0dbc eaa6 a83c 01e8 ab3c
000001a0: 6127 183d 5740 f93c e71e 723d 6586 993d
000001b0: fc2c 0f3a da89 ab3c 5ce0 af3c 9b3b 863d
000001c0: 0600 903c 5f8f 203a 61f1 5cbd 2667 80bd
000001d0: 3e4d 6ebd 7047 813d 2bd8 6abd 54a7 15bd
000001e0: e34d 603c 01c7 44bc b912 7bbd 1652 00bd
000001f0: 869b 4abc 88f3 543d aff0 463d 739b 8b3d
00000200: 841d db3c 6700 93bd 9a53 8dbd 224e 793c
00000210: bc24 543d c1e3 de3c ce9e debc ba45 513d
00000220: f476 bb3a 65d2 7bbd f545 50bd 8149 033d
00000230: 9733 673b 341c 3e3d a64f 1d3c aa39 da3c
00000240: c6ea e9bc 0c9b 64bd d131 023c 8512 8cbd
00000250: 3c40 943d f72a 0ebd 9e2e 3dbd 5297 aa3c
00000260: 6eae 26bd 5df9 f7bc 6e27 18bd 6380 17bd
00000270: 012e 97bd 0c18 933d ba16 333d 5ead c93c
00000280: 05c0 60bd d0ed 8fbd d14c 8b3d 4ff7 80bd
00000290: f111 abbc 2b4f 14bd 1e78 753d 5916 8c3d
000002a0: 6959 58bc cdcf 803d ef89 8b3c d02d a43c
000002b0: 5a27 95bd e94a 9a3c ddf7 ae3b 06e0 8a3b
000002c0: 1649 0ebc 793a 713d c665 fd3c 00de 393b
000002d0: 4c85 5abd fa9d 663d c819 7fbc 54a0 ce3c
000002e0: d611 743d 1a90 80bd 1650 a5bc 72a0 90bc
000002f0: d0bf f2bb 2efd 0f3d a6e2 753d 0533 41bd
00000300: 2f2d 85bd 2064 c73b beb5 793d d4d9 813c
00000310: 7066 cd3c 70dc b6bb 2f1e 97bd 3ebf 96bd
00000320: e838 d7bc c0df 5a3c dce5 75bc da34 85bd
00000330: c03a 863c b7be 82bd 5c79 17bd 0c63 213d
00000340: 63e5 15bd b084 92bb d0f3 f63b 0dfb 8c3d
00000350: b880 233d 69ee 903d 80f1 ebbb d462 2b3d
00000360: a04a 91bc 7a57 03bd 00a2 ef3a 0e51 5b3d
00000370: cfff 23bd d03f 40bc d2d1 87bd b18a 873d
00000380: 42c6 2f3d 1020 353d 90f2 013d 19d9 873d
00000390: 614d 89bd 0934 69bd 26d9 55bd 7c20 cebc
000003a0: c891 11bc 885c 4c3d 18ee e93c 4400 283d
000003b0: 24c1 73bd 32be cfbc 92c7 8abd 78e6 a33c
000003c0: 7e2e d9bc a257 17bd d029 f23b 42c1 9abc
000003d0: d08c 783c a078 903c 2cf6 c23c e49a d6bc
000003e0: 766a 8dbc 84c2 8cbd 7a07 8cbd 90c7 e5bb
000003f0: 70ce c3bb 784c 3ebc e06b dfbb f6b3 97bd

linear_relu_stack.0.bias f4 [50]
0.002498465 0.013648808 0.008703155 -0.042912345 0.032964822 0.05889753 -0.06719354 -0.0025407786
-0.04159056 -0.020354064 0.019695293 -0.01281188 0.07371906 -0.060199246 -0.030638557 0.05857186
-0.0067004487 -0.028702004 0.027132504 0.057495415 0.016465351 -0.045004096 0.053282775 0.06941422
-0.02495937 -0.021262486 0.05350294 0.04081865 0.049947977 0.043115117 0.053280886 0.007279288
0.024172504 0.019254826 0.043421872 -0.015100967 0.045870222 -0.003637619 0.030875584 0.00066349295
0.06617784 -0.0067230025 -0.023879927 0.026231982 0.04803536 -0.01483737 -0.031825304 -0.07036036
-0.054064453 0.074158154
00000000: 49bd 233b 409f 5f3c ae97 0e3c dbc4 2fbd
00000010: 1f06 073d 893e 713d c49c 89bd 3183 26bb
00000020: dd5a 2abd 91bd a6bc 0658 a13c ebe8 51bc
00000030: 05fa 963d 7c93 76bd b6fd fabc 0ce9 6f3d
00000040: 708f dbbb 7720 ebbc fc44 de3c 5080 6b3d
00000050: 58e2 863c 3756 38bd 0a3f 5a3d 0b29 8e3d
00000060: 9877 ccbc aa2e aebc e625 5b3d 7531 273d
00000070: 4096 4c3d 7a99 303d 0f3d 5a3d 1887 ee3b
00000080: 6a05 c63c 4cbc 9d3c 22db 313d 0c6a 77bc
00000090: 6ae2 3b3d 1f65 6ebb cbee fc3c 42ee 2d3a
000000a0: 3f88 873d a24c dcbb d69f c3bc 74e4 d63c
000000b0: bac0 443d 7118 73bc 405b 02bd 1819 90bd
000000c0: b072 5dbd 3be0 973d

linear_relu_stack.2.weight f4 [40, 50]
-0.054576572 0.12759139 0.05953813 -0.120435685 0.044209998 0.0008306217 -0.101911575 -0.103271075
0.104326144 0.064123 0.09231277 -0.033674315 -0.09977316 0.025004288 0.05024257 -0.089169815
0.036884442 0.08187566 0.13961793 -0.025009526 -0.104672156 0.0097081885 0.10357304 0.07179143
-0.1227203 0.12684262 -0.008407161 -0.091934554 -0.106843926 -0.036351692 0.037819177 -0.058735866
-0.06681226 -0.0361736 0.072551385 0.11412172 -0.07725753 0.01459852 -0.06362248 -0.13153039
-0.1330313 -0.039631546 0.13127191 0.059569493 0.08297692 -0.074754685 0.10583056 0.01202202
0.08310757 0.095951356 0.06428292 0.09100129 0.07749024 0.04637398 -0.008460892 0.11187641
0.0074154884 0.10547895 0.026334122 0.07938997 0.059910953 0.010589398 -0.12064489 0.037103627
0.051435508 -0.12736863 -0.01859273 -0.0493879 0.096938744 0.059696905 0.031305682 -0.05484238
0.027287377 0.047708847 -0.0882042 0.03996331 -0.105028614 -0.083060116 -0.06127527 0.050993953
0.017651858 -0.120007284 0.07322091 -0.02605544 0.08012675 0.077128336 -0.08171827 0.1275439
-0.12447577 0.15661004 0.011722326 0.080209255 0.07228047 -0.010414436 -0.08109975 -0.016101513
-0.12717317 0.14530998 0.10467466 -0.11984045 -0.04281533 -0.12938589 0.085036725 -0.120120205
-0.13087188 0.11603399 0.117180094 0.14470235 0.11103739 0.049389903 0.06887575 -0.13849016
-0.11232556 -0.03008437 0.12506852 0.111567006 0.11109589 0.080016576 0.08010943 -0.014613596
0.11519507 0.022957545 0.030244885 -0.045920387 0.068427816 0.091453195 -0.022365041 0.02333639
-0.07318315 0.032593288 -0.071147464 0.024272377 0.04003815 0.013082773 0.028679416 0.004013747
-0.043317568 -0.05623994 0.048340004 0.04481735 -0.11281933 -0.07420536 -0.03977496 0.044329733
0.13515837 0.07526923 -0.028635148 -0.02469022 -0.013598457 -0.02031712 -0.1357069 -0.1341319
0.099327244 -0.014186911 -0.09290454 0.067968175 -0.08331093 -0.012602366 -0.1329985 -0.011446871
-0.13916323 -0.08689679 -0.1392926 -0.08129783 -0.058837123 0.09810957 0.10598235 0.098628856
0.009650484 0.07925196 -0.07696259 0.09039278 -0.058258828 0.058185797 -0.048482113 0.0597305
0.034124658 0.121686995 0.04261081 0.077485785 0.0197251 0.03688549 0.0015563142 -0.06571238
0.1056378 0.02612795 -0.06987509 0.06959355 -0.061592117 0.07241798 0.11968009 0.13538854
0.06806052 0.1381117 0.0037832707 -0.07589543 -0.07851396 -0.0328709 -0.012122635 -0.10725302
0.10006309 0.07986429 -0.051797237 -0.09162042 0.082588196 -0.06695302 0.12922294 0.08838054
0.1314898 0.10807304 -0.079944536 0.13743053 -0.11338563 -0.012078775 -0.09924808 -0.12202678
-0.015475139 0.1318256 -0.06503918 0.055172637 0.06959376 -0.11856134 0.006208425 -0.10411443
-0.07056699 0.051623058 -0.13571005 0.008502762 0.12518485 -0.043476854 -0.12961112 0.1391047
0.05534515 -0.038983397 0.0021777153 0.04144174 -0.058391448 -0.02948284 0.06916812 -0.10114071
0.13125996 0.06988017 -0.11967185 0.13914667 -0.11714911 -0.066939466 0.02520406 0.13532452
-0.05410649 0.09107019 0.12828167 0.000764966 -0.123246476 0.090795845 0.015365586 0.035692394
00000000: af8b 5fbd 51a7 023e 41de 733d fca6 f6bd
00000010: 8b15 353d 14be 593a 04b7 d0bd c97f d3bd
00000020: f2a8 d53d eb52 833d 7a0e bd3d 14ee 09bd
00000030: df55 ccbd cbd5 cc3c 27cb 4d3d aa9e b6bd
00000040: 2414 173d 6dae a73d 01f8 0e3e c7e0 ccbc
00000050: 5b5e d6bd 180f 1f3c 1a1e d43d 6307 933d
00000060: c854 fbbd 08e3 013e 30be 09bc 2f48 bcbd
00000070: fdd0 dabd 83e5 14bd 48e8 1a3d 0595 70bd
00000080: ded4 88bd c52a 14bd d295 943d a6b8 e93d
00000090: 3239 9ebd a12e 6f3c 814c 82bd e7af 06be
000000a0: 5b39 08be b054 22bd 256c 063e 24ff 733d
000000b0: ceef a93d fc18 99bd b1bd d83d 02f8 443c
000000c0: 4d34 aa3d 2582 c43d c3a6 833d e25e ba3d
000000d0: 34b3 9e3d a4f2 3d3d 8e9f 0abc 761f e53d
000000e0: a0fd f23b 5905 d83d a8ba d73c 3597 a23d
000000f0: 3065 753d 287f 2d3c ab14 f7bd f9f9 173d
00000100: 0aae 523d ec6c 02be c84f 98bc f74a 4abd
00000110: d287 c63d be84 743d 633a 003d 67a2 60bd
00000120: c789 df3c 5a6a 433d 67a4 b4bd 91b0 233d
00000130: 3e19 d7bd 6c1b aabd c7fb 7abd 09df 503d
00000140: a19a 903c 61c6 f5bd d8f4 953d 3872 d5bc
00000150: 7e19 a43d 76f5 9d3d e95b a7bd de9a 023e
00000160: 27ed febd 625e 203e 000f 403c c044 a43d
00000170: c807 943d 50a1 2abc a017 a6bd 52e7 83bc
00000180: af39 02be 24cc 143e ab5f d63d e96e f5bd
00000190: 215f 2fbd bc7d 04be bc27 ae3d 9501 f6bd
000001a0: 4703 06be 3ba3 ed3d 1efc ef3d da2c 143e
000001b0: 9267 e33d 114d 4a3d bb0e 8d3d 5dd0 0dbe
000001c0: f10a e6bd 7f73 f6bc f611 003e 3e7d e43d
000001d0: 3e86 e33d bbdf a33d 6a10 a43d dd6d 6fbc
000001e0: 65eb eb3d 7611 bc3c 1fc4 f73c 0417 3cbd
000001f0: e223 8c3d d04b bb3d e436 b7bc f52b bf3c
00000200: 0ce1 95bd 8a80 053d c3b5 91bd ddd6 c63c
00000210: 0bff 233d 2159 563c 18f1 ea3c c085 833b
00000220: c36d 31bd da5b 66bd 2b00 463d 6692 373d
00000230: d20d e7bd fbf8 97bd 12eb 22bd 1893 353d
00000240: f566 0a3e c126 9a3d 4294 eabc 2543 cabc
00000250: 10cc 5ebc 1770 a6bc c0f6 0abe df59 09be
00000260: 156c cb3d 3870 68bc bc44 bebd e632 8b3d
00000270: ec9e aabd 277a 4ebc c230 08be a88b 3bbc
00000280: ce80 0ebe f2f6 b1bd b8a2 0ebe 7a7f a6bd
00000290: 32ff 70bd aced c83d 460d d93d edfd c93d
000002a0: 101d 1e3c da4e a23d 909e 9dbd da1f b93d
000002b0: cfa0 6ebd 3b54 6e3d 2e95 46bd f8a7 743d
000002c0: 4cc6 0b3d 0837 f93d ac88 2e3d deb0 9e3d
000002d0: 8896 a13c 3d15 173d 3dfd cb3a 3694 86bd
000002e0: a258 d83d 480a d63c ac1a 8fbd 1087 8e3d
000002f0: 0448 7cbd e14f 943d d61a f53d 4ba3 0a3e
00000300: 5063 8b3d 276d 0d3e c0f0 773b 106f 9bbd
00000310: edcb a0bd a3a3 06bd 049e 46bc 79a7 dbbd
00000320: e1ed cc3d e48f a33d 5729 54bd 7da3 bbbd
00000330: 0024 a93d aa1e 89bd 0553 043e db00 b53d
00000340: 43a5 063e 6655 dd3d f6b9 a3bd 97ba 0c3e
00000350: ba36 e8bd 0ee6 45bc 9442 cbbd 2de9 f9bd
00000360: 708b 7dbc 4afd 063e 4333 85bd b4fc 613d
00000370: 2c87 8e3d 4ad0 f2bd 0b70 cb3b f239 d5bd
00000380: 6d85 90bd b372 533d 93f7 0abe 2b4f 0b3c
00000390: 7530 003e c914 32bd c7b8 04be 7671 0e3e
000003a0: 99b1 623d 0ead 1fbd 00b8 0e3b d0be 293d
000003b0: df2b 6fbd ff85 f1bc 04a8 8d3d dc22 cfbd
000003c0: 0369 063e 561d 8f3d 8416 f5bd 777c 0e3e
000003d0: dfeb efbd 8f17 89bd bf78 ce3c 8392 0a3e
000003e0: c49e 5dbd 0283 ba3d 455c 033e 0088 483a
000003f0: a668 fcbd 2cf3 b93d f0bf 7b3c 3032 123d

linear_relu_stack.2.bias f4 [40]
-0.038621496 -0.044933643 0.06585247 0.104368396 0.048617743 0.027716994 -0.016969346 0.0038105235
0.061374232 -0.016553087 0.0812997 -0.07894905 -0.06685116 0.030452 0.039207343 -0.0031809008
-0.099931344 0.010637231 -0.0029570013 0.16992486 0.11065199 -0.023371732 -0.093254685 -0.07029034
0.15803257 0.038837865 0.06786806 -0.0068495674 0.13547704 0.039112836 -0.09572737 0.121820256
0.06970555 0.0406546 0.04479473 0.054584056 -0.09775964 -0.10165903 -0.10580513 0.049157657
00000000: 9331 1ebd 570c 38bd a9dd 863d 19bf d53d
00000010: 6623 473d c00e e33c 4c03 8bbc fab9 793b
00000020: 8c63 7b3d 579a 87bc 7580 a63d 0ab0 a1bd
00000030: 43e9 88bd 7976 f93c e197 203d a976 50bb
00000040: cea8 ccbd c847 2e3c 40ca 41bb c800 2e3e
00000050: 839d e23d 1376 bfbc 50fc bebd 62f4 8fbd
00000060: 4ad3 213e 7414 1f3d 69fe 8a3d 5672 e0bb
00000070: 7eba 0a3e c834 203d b60c c4bd e67c f93d
00000080: c9c1 8e3d 7085 263d ae7a 373d 8893 5f3d
00000090: 3536 c8bd 9c32 d0bd 5cb0 d8bd 8a59 493d

linear_relu_stack.4.weight f4 [30, 40]
-0.14667463 -0.12492657 0.106261894 -0.096356645 0.12814508 -0.08392935 0.019319013 -0.14601958
0.15744011 -0.056601837 -0.07511733 -0.10244617 -0.008372173 -0.014488488 0.14388631 -0.10120645
0.057492986 0.115058854 -0.103821345 -0.114904724 -0.091674 0.034460694 -0.0045380145 0.011570051
-0.1114037 -0.020587042 -0.09143696 -0.07307455 0.019410893 0.010935947 -0.10395553 0.114164546
0.15518452 -0.020140797 0.010487914 -0.052158497 -0.066780835 -0.04710996 -0.08602932 -0.07604583
-0.08891583 -0.037330434 -0.10729124 -0.095984355 0.060055804 0.062312186 0.12029134 -0.13433596
0.13531049 -0.115684874 0.09086699 -0.07312898 -0.07053142 -0.09765423 -0.060480833 0.13179368
-0.011151679 0.10139131 -0.04109794 -0.056136005 -0.035636734 -0.016101656 0.15264377 0.058227837
0.0754286 0.026235485 -0.12757033 -0.08106697 -0.14384416 0.02851741 -0.09971345 0.11304365
0.124533914 0.131379 -0.10896392 -0.09773084 -0.035036333 0.13917077 -0.04082641 -0.1309806
-0.11674729 0.095135346 -0.121572584 -0.0062766373 -0.025129214 -0.15054727 0.07093553 -0.012614757
0.0039780885 -0.048846938 0.10542019 0.006843716 -0.12213491 -0.07859809 0.056442812 0.025208473
-0.14523591 0.15234564 -0.12622656 -0.120807946 0.14798473 -0.101418726 0.10567902 -0.13096279
-0.078739814 -0.05072464 0.061806113 -0.1016216 -0.010832906 0.14667173 -0.13028203 0.098063484
-0.087706074 0.02730009 0.11237009 0.02536419 -0.04516653 0.01688239 -0.017949268 0.06032327
0.02936773 0.14504178 -0.14836249 -0.08574747 0.123422906 -0.09110158 0.14618452 0.103244916
-0.14078526 0.004691243 0.087472335 -0.06220311 -0.03704247 -0.06401899 0.11891107 -0.09096917
-0.10850817 -0.026814252 0.13827543 -0.09487651 -0.058670513 -0.046835206 0.10947506 -0.11445641
0.055408403 -0.028322712 0.11283149 0.019623697 -0.1531172 0.024592593 0.026448146 0.074927524
-0.10427776 -0.14935403 0.09969367 -0.031903252 0.00693278 0.021003246 -0.07473091 0.050506696
-0.00565369 -0.11844475 0.059623025 -0.029391676 -0.03791298 0.08454262 0.026117682 0.0729094
-0.0772087 0.020064455 -0.06000635 -0.11538278 0.13490918 -0.039655887 -0.11385883 0.0018128067
0.038357753 -0.020275488 -0.08584675 -0.1233692 0.03840195 -0.06613539 -0.094859615 0.093408
-0.023938857 0.0031440863 -0.08851348 -0.052206364 -0.044868886 0.14106743 0.08001362 -0.07214186
0.06205471 0.13651626 -0.15276429 -0.099952735 -0.030206025 -0.15623514 0.10085066 0.017949361
0.12109925 -0.08235234 0.019109964 -0.13533513 -0.12581241 0.1235971 -0.01883237 -0.09839812
-0.11001323 0.059552923 -0.004823461 -0.13259508 -0.040023454 0.013018057 -0.032524034 -0.014178604
-0.1459805 0.08168277 0.1343775 -0.02364035 -0.024338275 -0.15114836 0.08988348 -0.050203547
-0.14590567 -0.1579082 -0.14848655 0.04578978 0.013416246 0.1499251 0.0384413 0.13372116
-0.076551564 -0.06479234 -0.09598866 -0.022506014 0.12596895 0.09794392 0.0359876 0.018695712
0.11566807 0.014177948 -0.06800977 0.15520878 0.07298118 -0.11953518 0.00600338 0.06530838
-0.035591327 0.06982699 -0.13313964 0.07337554 0.075635046 -0.075936966 0.094227955 0.074323386
00000000: e031 16be 80d9 ffbd d69f d93d a256 c5bd
00000010: 7738 033e 27e3 abbd e842 9e3c 2886 15be
00000020: fb37 213e 54d7 67bd 1dd7 99bd 4ccf d1bd
00000030: 702b 09bc 2061 6dbc ef56 133e 5445 cfbd
00000040: c47d 6b3d faa3 eb3d 49a0 d4bd 2b53 ebbd
00000050: 94bf bbbd a826 0d3d a0b3 94bb 5090 3d3c
00000060: a027 e4bd 28a6 a8bc 4d43 bbbd 1ca8 95bd
00000070: 9803 9f3c b02c 333c a3e6 d4bd 1acf e93d
00000080: b1e8 1e3e 50fe a4bc 80d5 2b3c 26a4 55bd
00000090: 64c4 88bd 60f6 40bd 2430 b0bd ebbd 9bbd
000000a0: 8119 b6bd cce7 18bd 82bb dbbd 7293 c4bd
000000b0: 13fd 753d 103b 7f3d 4e5b f63d 5e8f 09be
000000c0: d58e 0a3e 31ec ecbd 7918 ba3d a6c4 95bd
000000d0: c772 90bd f1fe c7bd c0ba 77bd ecf4 063e
000000e0: 88b5 36bc 3fa6 cf3d 5056 28bd deee 65bd
000000f0: d3f7 11bd 9fe7 83bc a64e 1c3e 5080 6e3d
00000100: 4f7a 9a3d cdeb d63c cca1 02be 7106 a6bd
00000110: e24b 13be 589d e93c 9136 ccbd 6e83 e73d
00000120: a30b ff3d 3788 063e 7a28 dfbd 1b27 c8bd
00000130: 4282 0fbd c882 0e3e 9839 27bd c71f 06be
00000140: 3419 efbd 52d6 c23d 0cfb f8bd 40ac cdbb
00000150: c8db cdbc 1029 1abe a646 913d 20ae 4ebc
00000160: a05a 823b ba13 48bd 8ae6 d73d 4041 e03b
00000170: de21 fabd 09f8 a0bd 9430 673d 0082 ce3c
00000180: b9b8 14be 7f00 1c3e 8941 01be 286a f7bd
00000190: 4f89 173e 9fb4 cfbd 3e6e d83d 1c1b 06be
000001a0: 5742 a1bd a4c4 4fbd 6828 7d3d fc1e d0bd
000001b0: 807c 31bc 1d31 163e a768 05be 82d5 c83d
000001c0: 3e9f b3bd 70a4 df3c 4a22 e63d 90c8 cf3c
000001d0: 8a00 39bd f04c 8a3c 580a 93bc 8815 773d
000001e0: 9894 f03c d585 143e 56ec 17be 5f9c afbd
000001f0: 26c5 fc3d 7793 babd 65b1 153e 1272 d33d
00000200: 032a 10be 00b9 993b b224 b33d b0c8 7ebd
00000210: d8b9 17bd 631c 83bd a687 f33d 0b4e babd
00000220: 8839 debd 90a9 dbbc 1398 0d3e 9e4e c2bd
00000230: 7e50 70bd 46d6 3fbd 7634 e03d 1f68 eabd
00000240: ecf3 623d 0805 e8bc 3214 e73d e0c1 a03c
00000250: c1ca 1cbe 6876 c93c c8a9 d83c 9a73 993d
00000260: 948f d5bd 43f0 18be 322c cc3d fcac 02bd
00000270: 602c e33b 000f ac3c 850c 99bd 1ce0 4e3d
00000280: 9742 b9bb 2993 f2bd 4637 743d d0c6 f0bc
00000290: a44a 1bbd ae24 ad3d c0f4 d53c 8651 953d
000002a0: 981f 9ebd 365e a43c 38c9 75bd cf4d ecbd
000002b0: a225 0a3e 366e 22bd d12e e9bd b39b ed3a
000002c0: 051d 1d3d c818 a6bc 6cd0 afbd fea8 fcbd
000002d0: 5d4b 1d3d fe71 87bd c245 c2bd b24c bf3d
000002e0: 6c1b c4bc 040d 4e3b 8e46 b5bd 57d6 55bd
000002f0: 70c8 37bd fb73 103e 2ede a33d 1dbf 93bd
00000300: 142d 7e3d ebca 0b3e 3e6e 1cbe 05b4 ccbd
00000310: a072 f7bc 1bfc 1fbe ca8a ce3d 8a0a 933c
00000320: e202 f83d 58a8 a8bd 808c 9c3c 4b95 0abe
00000330: f8d4 00be 7a20 fd3d 5846 9abc f484 c9bd
00000340: 9e4e e1bd c4ed 733d 200e 9ebb 01c7 07be
00000350: a2ef 23bd b049 553c ec37 05bd 604d 68bc
00000360: ea7b 15be 4c49 a73d 419a 093e 68a9 c1bc
00000370: 1061 c7bc a3c6 1abe d414 b83d 3ca2 4dbd
00000380: 4c68 15be b0b2 21be dc0c 18be 108e 3b3d
00000390: d0cf 5b3c f785 193e a074 1d3d 33ee 083e
000003a0: 11c7 9cbd d9b1 84bd b495 c4bd 885e b8bc
000003b0: 01fe 003e d296 c83d bc67 133d c027 993c
000003c0: 62e3 ec3d a04a 683c b548 8bbd 0def 1e3e
000003d0: 2877 953d dcce f4bd 00b8 c43b 66c0 853d
000003e0: 36c8 11bd 7401 8f3d c255 08be ea45 963d
000003f0: 8ce6 9a3d d784 9bbd 96fa c03d dc36 983d

linear_relu_stack.4.bias f4 [30]
0.001080215 0.023947332 0.029915944 -0.08613197 0.1376215 -0.10959744 -0.047766417 -0.039780293
-0.143453 -0.04468158 0.055720624 0.31827962 -0.017361503 0.06437952 0.119458854 0.16858025
0.21338354 -0.1279082 -0.0939152 0.020920549 0.12637228 0.031088078 0.07539792 0.02555181
0.03727405 0.013413075 0.08148358 0.12730889 -0.0532491 0.03923115
00000000: 0096 8d3a 322d c43c 4812 f53c f565 b0bd
00000010: a7ec 0c3e 9f74 e0bd b8a6 43bd a9f0 22bd
00000020: 58e5 12be 0804 37bd 4f3b 643d 8cf5 a23e
00000030: b639 8ebc 69d9 833d d8a6 f43d 4da0 2c3e
00000040: 3781 5a3e 5efa 02be 9d56 c0bd 9261 ab3c
00000050: bc67 013e 6dac fe3c 3a6a 9a3d 0852 d13c
00000060: adac 183d 84c2 5b3c dde0 a63d 435d 023e
00000070: ba1b 5abd d8b0 203d

linear_relu_stack.6.weight f4 [40, 30]
0.019853786 -0.05181059 -0.07890485 -0.07910435 -0.12895228 -0.05447042 -0.02574566 -0.051962025
-0.006501904 0.143873 -0.017822603 -0.021996018 0.14130081 0.09895294 -0.016327756 -0.078166306
0.070767485 0.10009673 -0.1587963 0.15095827 -0.13401426 -0.042474765 0.04232903 0.16070434
0.049454007 0.16407394 -0.05971062 0.14630508 0.17292064 0.09364305 -0.027311608 -0.046134252
-0.012223244 0.17221558 -0.16147679 -0.06716604 0.09674922 -0.1631179 0.013684383 0.11289117
0.18937266 0.21446948 0.053774092 -0.14923014 -0.07827647 0.21431042 0.16959746 0.13167876
0.1676636 0.14463036 -0.0054686237 -0.119497605 0.077795595 -0.13885081 0.13727142 0.050580293
0.09514121 -0.1459632 0.12815705 -0.063184015 0.17542842 -0.009645731 -0.02919589 -0.0030848384
-0.112567104 0.16436577 0.14440364 -0.11902676 -0.17796077 -0.18196377 0.22486813 0.25319126
-0.014677107 0.07802238 -0.035748992 0.12697835 -0.09771637 -0.10532019 -0.1385857 -0.19063562
0.062751204 -0.10731742 -0.09477453 -0.15966567 0.132119 -0.001935592 0.17965028 0.049658097
-0.13840273 -0.10708339 0.18123093 0.124592364 -0.00015328825 -0.17374822 0.005256504 0.12277049
-0.15854079 0.059227087 0.0948422 0.11455998 -0.015003936 0.12220777 0.1306737 -0.11693538
0.041275427 -0.15429375 -0.16016759 0.13223255 0.010385914 0.090572394 -0.15878162 -0.12301873
0.004526943 0.1318495 0.17622194 0.08158751 0.077903554 0.1696999 -0.1306817 -0.08183049
-0.027844787 0.014259711 -0.12129758 -0.09061311 0.14858958 0.076102465 -0.029811844 0.122745
-0.16865812 0.017567798 0.1533523 0.0934857 0.032739587 0.08667609 0.05951415 0.029347086
-0.17333755 -0.09594505 -0.0012901365 -0.0897289 -0.16740666 -0.109947026 -0.111207455 0.15939617
0.101491906 -0.156161 -0.013647269 -0.069810085 0.1573199 -0.04800102 -0.027327731 0.13224694
-0.119644284 -0.06829462 -0.13212472 0.1162827 -0.13790432 0.11042034 0.1786817 -0.13552463
0.13087448 -0.17971009 -0.03375513 -0.14684807 -0.1762273 -0.082774766 0.16206501 -0.11258439
0.15261185 0.10730995 -0.06696948 0.027888516 0.1657187 -0.08307958 0.015659602 0.11622162
0.15531607 -0.07157715 -0.009530947 0.070177786 0.11242515 0.08333212 0.021638155 -0.13645896
0.044156134 -0.14249718 0.07817164 0.056448627 0.061416265 0.104984134 0.13422804 -0.06386258
0.065401554 0.1346828 -0.0652064 0.11727904 -0.018598892 -0.08800644 -0.044349648 -0.08104777
0.0047498965 0.07058817 0.11657825 0.13155559 0.15801859 0.046085 -0.1681847 0.12092834
0.024401635 -0.052720174 0.17387861 -0.16853778 -0.0033308864 0.033876345 0.13804391 0.031447023
0.04000786 0.010823377 -0.12538321 -0.14296041 0.12654911 0.12730634 0.010634949 0.14818609
-0.027130097 -0.13855909 -0.17317925 -0.044294715 0.08361617 0.0971602 0.038991123 0.10037145
0.15399861 0.04432571 0.14252207 -0.040525574 -0.05611363 0.17117019 0.03001891 -0.1265535
0.06795296 -0.14245161 0.17624882 0.07433462 -0.008171253 0.17898488 0.015237391 0.006000544
0.12186859 0.05870816 0.14995591 0.16743188 0.07182111 0.015687723 0.08472163 -0.008413524
00000000: 68a4 a23c 5737 54bd de98 a1bd 7601 a2bd
00000010: 110c 04be 601c 5fbd 90e8 d2bc 22d6 54bd
00000020: ed0d d5bb 7253 133e b500 92bc fe30 b4bc
00000030: 29b1 103e d7a7 ca3d c9c1 85bc a815 a0bd
00000040: 8bee 903d 84ff cc3d 7f9b 22be ce94 1a3e
00000050: 093b 09be 05fa 2dbd 3461 2d3d ae8f 243e
00000060: 4990 4a3d 0003 283e 2093 74bd 00d1 153e
00000070: 1c12 313e edc7 bf3d 98bc dfbc 45f7 3cbd
00000080: 0044 48bc 4859 303e 2c5a 25be 598e 89bd
00000090: 7424 c63d 6108 27be 7634 603c 7c33 e73d
000000a0: e8ea 413e e39d 5b3e 3942 5c3d c9cf 18be
000000b0: 6a4f a0bd 3174 5b3e f5aa 2d3e ccd6 063e
000000c0: 02b0 2b3e fb19 143e 2432 b3bb 29bb f4bd
000000d0: 4c53 9f3d e82e 0ebe e190 0c3e 482d 4f3d
000000e0: 65d9 c23d 6177 15be 9a3b 033e 9f66 81bd
000000f0: 82a3 333e 2109 1ebc 382c efbc 002b 4abb
00000100: 9589 e6bd 804f 283e 8cde 133e 4dc4 f3bd
00000110: 593b 36be b654 3abe d543 663e 49a2 813e
00000120: 4078 70bc 33ca 9f3d 896d 12bd 9d06 023e
00000130: 851f c8bd 1db2 d7bd 69e9 0dbe fc35 43be
00000140: b483 803d 3cc9 dbbd 2619 c2bd 667f 23be
00000150: 344a 073e b1b3 fdba 3ef6 373e 4a66 4b3d
00000160: 72b9 0dbe 894e dbbd 9a94 393e 482a ff3d
00000170: 00bc 20b9 0eeb 31be c03e ac3b 186f fb3d
00000180: 8458 22be 1a98 723d a13c c23d 6c9e ea3d
00000190: 12d3 75bc 1148 fa3d 54cf 053e d17b efbd
000001a0: 6c10 293d 2eff 1dbe f902 24be f867 073e
000001b0: ae29 2a3c 057e b93d a697 22be 3ef1 fbbd
000001c0: c056 943b 8e03 073e 8673 343e 5a17 a73d
000001d0: e68b 9f3d d0c5 2d3e 6cd1 05be be96 a7bd
000001e0: c01a e4bc 90a1 693c de6a f8bd 5e93 b9bd
000001f0: de27 183e 9cdb 9b3d f837 f4bc bb61 fb3d
00000200: b7b4 2cbe 58ea 8f3c 6308 1d3e 6e75 bf3d
00000210: f219 063d 3c83 b13d 1cc5 733d 4d69 f03c
00000220: 667f 31be d77e c4bd cc19 a9ba c9c3 b7bd
00000230: a76c 2bbe e82b e1bd bcc0 e3bd c038 233e
00000240: fdda cf3d abe8 1fbe cc98 5fbc 97f8 8ebd
00000250: 7818 213e b89c 44bd 68de dfbc be6b 073e
00000260: 1008 f5bd 0dde 8bbd b44b 07be a025 ee3d
00000270: ca36 0dbe 0f24 e23d 56f8 363e f8c6 0abe
00000280: f603 063e ec05 38be d242 0abd 575f 16be
00000290: ee74 34be d185 a9bd 5ff4 253e a592 e6bd
000002a0: 4846 1c3e 52c5 db3d 4b27 89bd 7576 e43c
000002b0: 2ab2 293e a025 aabd 9148 803c 9a05 ee3d
000002c0: 2d0b 1f3e 0a97 92bd b027 1cbc 5fb9 8f3d
000002d0: 283f e63d 08aa aa3d 8042 b13c e6bb 0bbe
000002e0: 10dd 343d c8ea 11be 7418 a03d ad36 673d
000002f0: 9f8f 7b3d ec01 d73d 1373 093e 62ca 82bd
00000300: 40f1 853d 4aea 093e ef8a 85bd fe2f f03d
00000310: b45c 98bc b83c b4bd faa7 35bd 60fc a5bd
00000320: 05a5 9b3b 8890 903d 94c0 ee3d 82b6 063e
00000330: a0cf 213e a0c3 3c3d 9c38 2cbe 47a9 f73d
00000340: f0e5 c73c 1cf1 57bd 3c0d 323e 2b95 2cbe
00000350: 004b 5abb ecc1 0a3d 625b 0d3e 98ce 003d
00000360: 48df 233d 8954 313c 7564 00be 3764 12be
00000370: 1796 013e 985c 023e 363e 2e3c 18be 173e
00000380: f03f debc 6fe2 0dbe e755 31be 606e 35bd
00000390: f43e ab3d edfb c63d 28b5 1f3d 8c8f cd3d
000003a0: d0b1 1d3e e08e 353d 4ef1 113e 25fe 25bd
000003b0: 68d7 65bd 3d47 2f3e 38ea f53c 3e97 01be
000003c0: ec2a 8b3d d6de 11be 927a 343e c03c 983d
000003d0: b8e0 05bc d047 373e 40a6 793c 36a0 c43b
000003e0: 3d96 f93d f877 703d 0b8e 193e 4373 2b3e
000003f0: f216 933d 8a83 803c 8982 ad3d e1d8 09bc

linear_relu_stack.6.bias f4 [40]
-0.034416016 0.32728684 0.29758567 -0.14525609 -0.020990679 -0.0105913505 -0.05979417 -0.13395149
0.10586832 -0.067461126 0.17263822 0.1357375 0.2225549 -0.16607079 0.12771708 -0.08652384
-0.028869594 -0.00860478 -0.04620035 0.014731854 0.3873785 0.049130544 -0.056702003 0.18931592
-0.044993777 -0.06915157 -0.14515637 -0.014546692 0.20860581 0.13120745 -0.054363504 0.061714146
-0.1735525 -0.057952456 -0.07250456 0.34434384 -0.062341608 -0.090981886 -0.061148643 0.0012110266
00000000: cff7 0cbd 2492 a73e 265d 983e 03be 14be
00000010: a5f4 abbc 5887 2dbc bbea 74bd 942a 09be
00000020: 7dd1 d83d 0f29 8abd 13c8 303e c5fe 0a3e
00000030: 6fe5 633e 760e 2abe 44c8 023e 6933 b1bd
00000040: ed7f ecbc 10fb 0cbc 943c 3dbd e05d 713c
00000050: 7a56 c63e 1c3d 493d 5c40 68bd 08dc 413e
00000060: 654b 38bd 579f 8dbd dfa3 14be 4055 6ebc
00000070: c39c 553e 3f5b 063e 44ac 5ebd f9c7 7c3d
00000080: bfb7 31be 8e5f 6dbd 457d 94bd d64d b03e
00000090: ea59 7fbd b654 babd 0077 7abd 4fbb 9e3a

linear_relu_stack.8.weight f4 [50, 40]
-0.094874404 -0.15366256 -0.034123227 -0.05139441 -0.11686538 0.058058932 0.07645771 0.12864004
0.025193185 0.05216211 0.03517975 0.030187309 -0.1422523 -0.10677521 -0.106304444 0.12662153
0.13559078 -0.069084786 0.1483158 -0.09479354 0.010630265 -0.13548993 -0.024904028 -0.087924264
-0.13987365 -0.10815857 0.10106246 0.15332623 -0.14684051 -0.017595798 0.12752907 0.13619731
-0.009497628 0.07437126 0.0086853355 -0.045810364 -0.02672796 -0.047067553 -0.12662262 0.07201959
-0.13103609 0.025043653 0.10258583 0.004505256 -0.022575729 -0.0776352 -0.047350768 0.048706908
-0.15696034 -0.0007535368 0.15040557 -0.10372858 -0.11064797 -0.13478027 -0.11820315 -0.0324326
-0.13065499 0.09584983 0.07426901 -0.07934659 0.0193269 0.02266182 0.063972026 0.04460806
0.006568051 -0.017701184 -0.13817377 -0.014804915 0.11641868 -0.14760464 0.06037064 0.0049248436
0.13703573 -0.02605635 -0.08727382 0.08120431 -0.06281691 -0.116026066 0.12341936 -0.09187136
0.018355295 -0.06926202 -0.020533398 0.10564302 -0.03395515 0.009124294 0.11120047 -0.11754585
-0.013443038 -0.10350714 0.13131382 -0.14260492 -0.12832004 -0.045807198 -0.06242603 0.13437621
0.050329804 0.0051632077 -0.086489074 0.061286837 0.032319933 -0.038417287 -0.14884627 0.009794503
0.085977554 -0.08079967 0.032954052 -0.09883748 0.011654317 0.034379676 -0.08128399 -0.14322457
-0.089998595 0.03260465 -0.14358495 -0.13988575 0.11716525 -0.04355458 0.06850459 -0.056571983
0.0013037301 0.0330075 0.111720316 -0.13509695 0.0067509916 -0.012146249 0.15003991 -0.02104486
0.12596756 -0.044409007 0.102954075 -0.007872262 0.026758967 0.134328 0.008144948 0.0032968968
-0.026754124 0.14565055 -0.036278456 -0.046117388 -0.054034296 0.0006048001 -0.0066958666 0.017187547
0.04105476 -0.09385938 -0.087513916 0.07011159 -0.030902946 -0.026254637 0.13452871 -0.026716862
0.13247153 -0.09546791 0.13284545 -0.08628501 0.15198727 -0.066943675 0.055276945 0.1292981
0.1325384 -0.15473747 0.005453795 -0.026930079 -0.10428973 0.013447151 -0.110174105 -0.015578911
0.027960166 0.07490969 0.06897837 -0.06813472 -0.10774185 -0.10280891 -0.13823019 -0.072128974
-0.031942055 -0.07557296 -0.10515898 0.024941951 0.009809345 -0.09725545 -0.029403925 -0.13903388
-0.06481627 -0.11377066 -0.04710968 -0.12821202 -0.01416792 -0.03592193 0.14700384 -0.05816727
-0.011087194 0.009445861 0.05860105 0.0051230043 -0.10171296 -0.034354463 -0.05201157 -0.0444163
-0.016003316 -0.034161974 -0.06643503 0.11003183 -0.02561514 -0.0491546 0.12000298 -0.041639403
-0.11942397 0.12661766 0.1261904 -0.028800577 0.105657145 -0.15351878 -0.06741283 -0.11250085
-0.07325346 0.05076453 0.105072096 0.099557295 0.024256192 0.050976142 0.03854537 -0.041258592
0.07773439 -0.031841733 0.10673435 0.031670153 -0.035431724 0.0026868188 0.10699327 -0.0014787167
0.10561307 0.042737037 0.004100159 0.07003818 0.07730867 0.05561441 -0.13926688 -0.13350238
0.07275005 0.13822463 0.19621612 -0.15483257 0.003787743 0.016291386 0.15113968 -0.15458834
-0.085859984 0.056376055 -0.09841522 0.01928448 -0.045398787 0.000694362 -0.07570345 -0.052203238
00000000: 834d c2bd b859 1dbe ccc4 0bbd f282 52bd
00000010: 1e57 efbd 34cf 6d3d dc95 9c3d 37ba 033e
00000020: f061 ce3c f0a7 553d a418 103d 604b f73c
00000030: 96aa 11be f6ac dabd 25b6 d9bd 13a9 013e
00000040: 4fd8 0a3e 537c 8dbd 19e0 173e 1e23 c2bd
00000050: 902a 2e3c dfbd 0abe 8803 ccbc a311 b4bd
00000060: 0a3b 0fbe 3e82 ddbd d6f9 ce3d 8d01 1d3e
00000070: 5c5d 16be 1025 90bc fb96 023e 4f77 0b3e
00000080: f09b 1bbc f64f 983d f04c 0e3c a6a3 3bbd
00000090: 98f4 dabc e8c9 40bd 5ca9 01be 027f 933d
000000a0: 532e 06be 5928 cd3c 8518 d23d d4a0 933b
000000b0: bcf0 b8bc 34ff 9ebd e1f2 41bd e580 473d
000000c0: 36ba 20be 0089 45ba eb03 1a3e a66f d4bd
000000d0: 679b e2bd d703 0abe 7e14 f2bd 0cd8 04bd
000000e0: 6cca 05be ea4c c43d 5a1a 983d 7780 a2bd
000000f0: 7253 9e3c 48a5 b93c c403 833d f1b6 363d
00000100: ce38 d73b 1302 91bc 6d7d 0dbe 5090 72bc
00000110: eb6c ee3d ac25 17be 3447 773d 9560 a13b
00000120: 1853 0c3e 2074 d5bc 9ebc b2bd 724e a63d
00000130: 27a6 80bd 139f edbd 4ac3 fc3d 0d27 bcbd
00000140: d85d 963c 3fd9 8dbd a835 a8bc 5e5b d83d
00000150: 8e14 0bbd 107e 153c 12bd e33d e1bb f0bd
00000160: 3040 5cbc 8dfb d3bd 2177 063e 0607 12be
00000170: 5466 03be 54a0 3bbd 70b2 7fbd eb99 093e
00000180: a026 4e3d 2030 a93b 2f21 b1bd e807 7b3d
00000190: e861 043d 725b 1dbd 286b 18be 2079 203c
000001a0: 0015 b03d 4c7a a5bd d4fa 063d 4e6b cabd
000001b0: c0f1 3e3c b4d1 0c3d 3878 a6bd 76a9 12be
000001c0: 2f51 b8bd 748c 053d ef07 13be 363e 0fbe
000001d0: 56f4 ef3d 4a66 32bd 224c 8c3d 06b8 67bd
000001e0: ece1 aa3a df32 073d 9fcd e43d db56 0abe
000001f0: 6c37 dd3b 1001 47bc 10a4 193e 4566 acbc
00000200: a4fd 003e 38e6 35bd 96d9 d23d a9fa 00bc
00000210: 9f35 db3c 478d 093e 6372 053c c010 583b
00000220: 772b dbbc 6b25 153e b898 14bd 96e5 3cbd
00000230: 1153 5dbd 738b 1e3a 0069 dbbb e6cc 8c3c
00000240: 0929 283d 5939 c0bd 7f3a b3bd aa96 8f3d
00000250: 2d28 fdbc f713 d7bc e5c1 093e 52dd dabc
00000260: 9ea6 073e ae84 c3bd a308 083e 32b6 b0bd
00000270: 8da2 1b3e c419 89bd 146a 623d b966 043e
00000280: 25b8 073e 8073 1ebe c0b5 b23b 789c dcbc
00000290: db95 d5bd 7051 5c3c f6a2 e1bd b03e 7fbc
000002a0: b80c e53c 406a 993d 8844 8d3d 378a 8bbd
000002b0: c2a7 dcbd 7a8d d2bd 378c 0dbe 5bb8 93bd
000002c0: acd5 02bd ffc5 9abd 975d d7bd 1053 cc3c
000002d0: 60b7 203c de2d c7bd 80e0 f0bc e65e 0ebe
000002e0: 64be 84bd 9700 e9bd 14f6 40bd 034a 03be
000002f0: 9020 68bc e022 13bd 2d88 163e ce40 6ebd
00000300: 10a7 35bc d0c2 1a3c a807 703d e0de a73b
00000310: e24e d0bd 44b7 0cbd 160a 55bd deed 35bd
00000320: 6319 83bc 6ded 0bbd 170f 88bd 5e58 e13d
00000330: d8d6 d1bc 5556 49bd 1fc4 f53d 148e 2abd
00000340: 8e94 f4bd 0fa8 013e 0e38 013e 30ef ebbc
00000350: c662 d83d 0734 1dbe bd0f 8abd d866 e6bd
00000360: e905 96bd 78ee 4f3d 0a30 d73d b2e4 cb3d
00000370: ecb4 c63c 5ccc 503d c0e1 1d3d c5fe 28bd
00000380: 3533 9f3d 7a6c 02bd 8a97 da3d 90b8 013d
00000390: db20 11bd 5715 303b 4a1f db3d 80d1 c1ba
000003a0: aa4b d83d 080d 2f3d a05a 863b 2d70 8f3d
000003b0: 0254 9e3d f0cb 633d fa9b 0ebe d9b4 08be
000003c0: fafd 943d c28a 0d3e e1ec 483e 6e8c 1ebe
000003d0: c83b 783b 8375 853c 5cc4 1a3e 684c 1ebe
000003e0: 5cd7 afbd 94ea 663d eb8d c9bd 7cfa 9d3c
000003f0: 14f4 39bd d805 363a 690a 9bbd 10d3 55bd

linear_relu_stack.8.bias f4 [50]
-0.12425795 -0.19109775 -0.10718638 0.034060683 -0.14671025 -0.09503494 0.3224662 -0.094964005
0.020832147 -0.06694697 0.04327425 -0.123012334 -0.118238576 0.5417147 -0.012086973 0.016930774
0.33323267 -0.08528638 0.006779687 -0.110484526 0.029019373 -0.04545197 0.33620188 -0.0064793597
-0.11532829 -0.11317082 0.046101496 0.23623246 0.010038826 0.12035938 0.00046935678 -0.016015613
-0.16442579 -0.04513432 0.33380097 0.5918393 0.4777578 -0.05011107 -0.091800705 -0.13706318
-0.0495778 0.054320045 -0.06527464 0.005325306 -0.13458948 -0.040929884 -0.0060169 0.045357354
-0.077004716 0.16522497
00000000: f47a febd 21af 43be 8884 dbbd 3783 0b3d
00000010: 363b 16be aea1 c2bd 4a1a a53e 7d7c c2bd
00000020: 2ea8 aa3c 7e1b 89bd 5740 313d e4ed fbbd
00000030: 1127 f2bd d1ad 0a3f 7008 46bc 68b2 8a3c
00000040: 799d aa3e a0aa aebd 2328 de3b b645 e2bd
00000050: 09ba ed3c d82b 3abd a722 ac3e cf50 d4bb
00000060: 3d31 ecbd 1ac6 e7bd ecd4 3c3d ece6 713e
00000070: e379 243c fb7e f63d 0014 f639 2d33 83bc
00000080: 3c5f 28be c4de 38bd f6e7 aa3e c882 173f
00000090: ac9c f43e 4441 4dbd 0202 bcbd 4a5a 0cbe
000000a0: 1712 4bbd b27e 5e3d b6ae 85bd e87f ae3b
000000b0: d3d1 09be 18a6 27bd 6a29 c5bb a2c8 393d
000000c0: a6b4 9dbd bc30 293e

linear_relu_stack.10.weight f4 [180, 50]
0.10402335 0.09978865 0.03985843 0.09595322 0.09251431 -0.062043134 -0.0719613 -0.046272047
0.12916729 -0.11349841 -0.014522169 -0.07499851 0.064885244 0.07411956 0.07537682 -0.09184708
-0.042574592 0.033245288 0.1364555 -0.055753723 0.08851179 -0.09732066 -0.05875935 0.025395757
0.13023938 -0.048039466 -0.096027836 0.031482127 -0.012368936 0.00025338246 0.098682255 0.01374034
-0.021623781 -0.102319315 -0.09155859 0.025252003 0.017029531 0.057832714 0.044719394 -0.13682324
0.12720552 -0.028760798 0.10224156 -0.0064792666 0.12366785 -0.041324668 0.07794709 0.02486362
0.06482946 -0.029386211 0.0864142 -0.045333922 -0.04122304 -0.11724644 0.084468946 -0.047199797
0.009171264 -0.043625027 -0.11761786 0.013347864 -0.008751422 0.03277421 -0.11052157 -0.040964346
-0.0772136 -0.028430209 0.13325627 0.074067645 -0.060144182 0.12411852 -0.0013490173 0.08940517
0.029670347 0.046043996 0.09444775 0.02666314 0.10070069 -0.12587263 0.022707779 -0.0015772984
-0.079205155 -0.058527596 -0.13364509 -0.0032241642 -0.0068578846 0.08842729 0.06497669 0.008336733
-0.10432047 0.025043637 -0.076199785 -0.091284476 0.069074005 0.07765327 0.09620668 0.059933007
-0.13660909 -0.05766675 0.12463234 0.018841492 0.082059324 -0.05703436 -0.052215397 0.07671652
0.14076175 0.07477888 -0.16932847 -0.09990634 -0.015401445 -0.093356214 0.05371558 0.0645923
-0.042663686 -0.035935383 -0.08566584 -0.057579175 -0.098702416 -0.12840489 0.030978205 0.024272084
-0.15527679 -0.06665183 -0.010596461 0.08133457 0.085779324 0.015582129 0.091225654 -0.09860913
0.026568633 0.05807954 -0.03440041 -0.07533114 0.029185189 -0.047670074 -0.029865244 -0.2189463
-0.15828733 -0.14313287 0.040084753 -0.13315198 0.0014221494 0.12338047 -0.09478928 0.0007014294
-0.099252276 -0.08296169 -0.025830712 -0.13763951 0.024689674 0.036045317 -0.06351767 0.040910065
0.03141126 0.05944125 -0.12502083 0.06830888 0.0015814278 -0.08649744 0.10685161 0.020770459
-0.12567204 -0.11175792 0.023353934 0.13953376 -0.119124174 0.092430174 0.024114551 0.047245435
-0.09291772 -0.009195462 -0.10060303 0.07293371 -0.036021397 0.0047149495 -0.046767563 3.5002828e-05
0.12260966 -0.031372946 -0.016382322 -0.03243448 -0.13290522 -0.03977698 -0.022848716 -0.030263998
-0.07959977 -0.051364884 0.107413866 0.078542896 0.054470282 0.08675781 -0.0829538 0.061118737
-0.1357661 0.12520543 -0.093814336 0.13947745 0.077108406 -0.029330965 -0.036265317 0.14543876
0.03815843 0.0729776 0.083149195 -0.13125053 0.065325424 0.09187197 0.0807749 -0.09643095
0.054659303 -0.061011046 0.13636799 0.023550749 0.022772416 -0.11805924 0.06775363 0.13078521
-0.1079695 0.040630743 -0.11775624 -0.043122597 0.06492121 0.08699597 0.122256875 -0.08021864
-0.09271267 0.07008462 -0.06936654 -0.12042681 -0.03375113 -0.013903222 0.04497519 -0.12899114
-0.00023945434 -0.08588308 -0.001017896 -0.020658318 0.055658437 -0.07795669 0.08309183 -0.090569064
-0.1306525 -0.019691132 -0.093573645 -0.12111975 0.030079737 -0.058016777 -0.06904517 0.1294037
-0.06560647 -0.008112228 -0.058713563 0.011204575 0.035469428 0.07321667 0.05902043 -0.0012886933
00000000: 320a d53d fe5d cc3d 9842 233d 1f83 c43d
00000010: 2478 bd3d f120 7ebd 7260 93bd c287 3dbd
00000020: 6e44 043e db71 e8bd 64ee 6dbc d298 99bd
00000030: 8ee2 843d ffcb 973d 2a5f 9a3d 521a bcbd
00000040: b262 2ebd 362c 083d feba 0b3e 045e 64bd
00000050: ab45 b53d 0e50 c7bd a5ad 70bd c30a d03c
00000060: 795d 053e 08c5 44bd 3eaa c4bd 67f3 003d
00000070: 14a7 4abc 6bd8 8439 ec19 ca3d 2a1f 613c
00000080: 5b24 b1bc ca8c d1bd 1283 bbbd 4add ce3c
00000090: 8481 8b3c ffe1 6c3d af2b 373d 641b 0cbe
000000a0: 2a42 023e c49b ebbc 0664 d13d 0750 d4bb
000000b0: 9245 fd3d 0e44 29bd b9a2 9f3d caae cb3c
000000c0: 4fc5 843d 5abb f0bc eef9 b03d 10b0 39bd
000000d0: 7ed9 28bd e71e f0bd 0efe ac3d 9354 41bd
000000e0: 1243 163c 28b0 32bd a2e1 f0bd 00b1 5a3c
000000f0: 2062 0fbc 403e 063d 2259 e2bd 3bca 27bd
00000100: 2a22 9ebd 78e6 e8bc 5574 083e c7b0 973d
00000110: bf59 76bd da31 fe3d 82d1 b0ba 0f1a b73d
00000120: 3a0f f33c a198 3c3d d26d c13d a86c da3c
00000130: 2a3c ce3d c1e4 00be aa05 ba3c 5abd ceba
00000140: 5036 a2bd a2ba 6fbd 42da 08be 804c 53bb
00000150: 1bb8 e0bb 5e19 b53d 8012 853d cb96 083c
00000160: f8a5 d5bd 5028 cd3c a20e 9cbd 5bf3 babd
00000170: ac76 8d3d ad08 9f3d 0208 c53d 507c 753d
00000180: 41e3 0bbe f833 6cbd 3e3f ff3d 7959 9a3c
00000190: b80e a83d dc9c 69bd d0df 55bd 8d1d 9d3d
000001a0: d923 103e ab25 993d 7164 2dbe b29b ccbd
000001b0: 5856 7cbc 8b31 bfbd de04 5c3d f848 843d
000001c0: 1ec0 2ebd fb30 13bd 9271 afbd 24d8 6bbd
000001d0: 7e24 cabd 927c 03be 01c6 fd3c 40d6 c63c
000001e0: e100 1fbe c180 88bd c79c 2dbc bd92 a63d
000001f0: 12ad af3d 304c 7f3c 84d4 ba3d 95f3 c9bd
00000200: 76a6 d93c d0e4 6d3d 72e7 0cbd 3647 9abd
00000210: c715 ef3c b241 43bd f5a7 f4bc 7533 60be
00000220: 1316 22be 6c91 12be e92f 243d fe58 08be
00000230: 6a67 ba3a e6ae fc3d e220 c2bd 21e0 373a
00000240: c744 cbbd d2e7 a9bd ee9a d3bc 5ff1 0cbe
00000250: 0042 ca3c 41a4 133d 8d15 82bd 5091 273d
00000260: 18a9 003d ab78 733d 7605 00be 87e5 8b3d
00000270: e947 cf3a 9225 b1bd 04d5 da3d cf26 aa3c
00000280: 2cb0 00be 56e1 e4bd c050 bf3c f0e1 0e3e
00000290: 60f7 f3bd 084c bd3d e18b c53c 6e84 413d
000002a0: a54b bebd 90a8 16bc f608 cebd 455e 953d
000002b0: 2c8b 13bd dd7f 9a3b 588f 3fbd 00d0 1238
000002c0: c61a fb3d eb80 00bd 3834 86bc 04da 04bd
000002d0: 4e18 08be 30ed 22bd 3b2d bbbc 34ec f7bc
000002e0: 3405 a3bd fc63 52bd cdfb db3d 19db a03d
000002f0: 3b1c 5f3d 14ae b13d afe3 a9bd a457 7a3d
00000300: 4506 0bbe da35 003e bb21 c0bd 2dd3 0e3e
00000310: 03eb 9d3d 7e47 f0bc f18a 14bd e6ed 143e
00000320: 044c 1c3d 4875 953d 204a aa3d 8a66 06be
00000330: 56c9 853d 5f27 bc3d 506d a53d 977d c5bd
00000340: 6fe2 5f3d b8e6 79bd 0da4 0b3e 80ed c03c
00000350: 388d ba3c 0bc9 f1bd 6ac2 8a3d 8fec 053e
00000360: 1d1f ddbd 6c6c 263d 2f2a f1bd 52a1 30bd
00000370: 69f5 843d f12a b23d d061 fa3d ac49 a4bd
00000380: 24e0 bdbd 8688 8f3d 0b10 8ebd 55a2 f6bd
00000390: a03e 0abd 57ca 63bc e837 383d 4116 04be
000003a0: 0916 7bb9 78e3 afbd ec6a 85ba a23b a9bc
000003b0: 1afa 633d c2a7 9fbd 0d2c aa3d 467c b9bd
000003c0: c5c9 05be 4c4f a1bc 8aa3 bfbd a20d f8bd
000003d0: c869 f63c 00a3 6dbd 8e67 8dbd 6782 043e
000003e0: af5c 86bd 26e9 04bc a27d 70bd 6593 373c
000003f0: 6448 113d 9ff2 953d 68bf 713d 5fe9 a8ba

linear_relu_stack.10.bias f4 [180]
-0.01184255 0.0024398235 -0.2937235 -0.021068012 -0.036488224 -0.2581853 -0.03686272 -0.06251071
-0.26068366 -0.042988077 0.0696783 -0.3608136 0.1277732 0.13594145 -0.15003744 0.0385259
-0.003718123 -0.22540228 -0.007328585 -0.035882525 -0.22071514 0.06467703 0.12019196 -0.28011453
0.026817292 -0.02221669 -0.35356832 0.098312676 -0.034381025 -0.3172724 -0.16473472 -0.1254917
-0.19328335 -0.10413402 0.034997836 -0.1623056 0.0003262338 0.15867157 -0.30605435 0.09419533
-0.03938234 -0.22867082 -0.03083266 0.027994405 -0.17884095 -0.07317568 0.070517115 -0.24026637
-0.05135298 -0.025567884 -0.30271316 0.102261685 -0.046895985 -0.11909461 -0.06509983 0.010936592
-0.10978481 -0.08170297 0.19760405 -0.116781846 0.022574969 0.012763621 -0.2636412 0.034873147
-0.108089894 -0.19116788 -0.03181598 0.04775037 -0.13065681 0.060212687 0.2369477 -0.18209456
0.06500848 0.11384541 -0.1830525 -0.010371052 0.027116688 -0.17714581 -0.076899394 0.009690707
-0.15208846 0.026031638 0.23783632 -0.30437577 -0.057231497 0.029413978 -0.29161492 0.17216767
-0.030258808 -0.08892221 -0.05923882 -0.039094537 -0.18410198 0.12787728 0.19958846 -0.3165168
-0.06395842 0.13872775 -0.31833187 -0.033733323 -0.06189245 -0.23540144 -0.17599496 0.027113648
-0.12443573 0.044315465 0.10759399 -0.15859883 -0.08645748 0.14982198 -0.2776138 0.11503216
-0.12188738 -0.29111907 0.04172462 -0.11431829 -0.17630102 -0.017355641 0.057836983 -0.29326078
0.118948504 0.13310768 -0.3198659 0.15499678 -0.16219442 -0.31652272 -0.046386782 -0.13363694
-0.33651826 0.014193501 0.17305224 -0.24470463 -0.15521304 -0.053961985 -0.1996423 0.1186884
-0.20115866 -0.3356946 -0.1411681 -0.06369771 -0.06697674 0.0064945635 0.10784787 -0.28315833
0.104679525 0.095860645 -0.11295196 0.036040764 -0.053647637 -0.2767291 -0.13201213 -0.035462193
-0.25599363 0.09249227 0.10821549 -0.20769739 0.051150013 0.25188434 -0.2970041 0.17024367
-0.113974966 -0.08272998 -0.15658702 -0.009269196 -0.06651911 -0.116155386 0.17617561 -0.34285298
0.022404525 0.013511922 -0.12214418 0.24598248 -0.20082316 -0.1895873 -0.14859472 -0.13150896
-0.3284117 0.046093427 0.18394588 -0.29292905
00000000: 4107 42bc 72e5 1f3b ed62 96be d396 acbc
00000010: ad74 15bd dd30 84be 5dfd 16bd 9d05 80bd
00000020: 5478 85be 4414 30bd 7fb3 8e3d 8fbc b8be
00000030: fad6 023e 3c34 0b3e 6aa3 19be 56cd 1d3d
00000040: c1ab 73bb dbcf 66be a024 f0bb 8ef9 12bd
00000050: 2603 62be 6475 843d 3427 f63d 2c6b 8fbe
00000060: f0af db3c c7ff b5bc e806 b5be 2858 c93d
00000070: 1ed3 0cbd 8771 a2be 38b0 28be e580 00be
00000080: 12ec 45be 3844 d5bd e459 0f3d 7033 26be
00000090: 5c0a ab39 cd7a 223e 28b3 9cbe 7be9 c03d
000000a0: 604f 21bd af28 6abe c694 fcbc 8654 e53c
000000b0: 1522 37be 22dd 95bd 476b 903d 6308 76be
000000c0: 8157 52bd bd73 d1bc 38fd 9abe 936e d13d
000000d0: 0116 40bd e0e7 f3bd 0f53 85bd 642f 333c
000000e0: dcd6 e0bd e353 a7bd b758 4a3e 522b efbd
000000f0: 24ef b83c 821e 513c fbfb 86be 25d7 0e3d
00000100: 3c5e ddbd 83c1 43be 7951 02bd e495 433d
00000110: e6ca 05be 94a1 763d 6ba2 723e ff76 3abe
00000120: 2a23 853d c827 e93d 1d72 3bbe 58eb 29bc
00000130: d123 de3c b665 35be 6e7d 9dbd c5c5 1e3c
00000140: 14bd 1bbe 4d40 d53c 5d8b 733e 24d7 9bbe
00000150: 936b 6abd 95f5 f03c 8d4e 95be b94c 303e
00000160: 52e1 f7bc d91c b6bd 68a4 72bd 9821 20bd
00000170: 3b85 3cbe 43f2 023e eb60 4c3e 7d0e a2be
00000180: a2fc 82bd a60e 0e3e 65fc a2be f42b 0abd
00000190: f082 7dbd 130d 71be 0638 34be 711d de3c
000001a0: 29d8 febd 2284 353d 3d5a dc3d bb67 22be
000001b0: 9f10 b1bd ef6a 193e 6523 8ebe fb95 eb3d
000001c0: 17a0 f9bd 8f0d 95be 6fe7 2a3d b51f eabd
000001d0: 4188 34be 6b2d 8ebc 79e6 6c3d 4726 96be
000001e0: 469b f33d 614d 083e 77c5 a3be 7ab7 1e3e
000001f0: 4b16 26be 440f a2be 1100 3ebd 1fd8 08be
00000200: 1f4c acbe dc8b 683c 9b34 313e da93 7abe
00000210: 2bf0 1ebe 3e07 5dbd 086f 4cbe e712 f33d
00000220: 89fc 4dbe 2ae0 abbe 5f8e 10be f273 82bd
00000230: 1a2b 89bd 59d0 d43b 58df dc3d 21fa 90be
00000240: 3862 d63d 9652 c43d 5b53 e7bd 7b9f 133d
00000250: a0bd 5bbd 70af 8dbe 302e 07be ce40 11bd
00000260: 9911 83be 966c bd3d 15a0 dd3d a0ae 54be
00000270: ad82 513d fcf6 803e ec10 98be 5b54 2e3e
00000280: b56b e9bd 566e a9bd 5958 20be d3dd 17bc
00000290: 2c3b 88bd e0e2 edbd 6167 343e 6d8a afbe
000002a0: b289 b73c 1c61 5d3c ba26 fabd d5e2 7b3e
000002b0: 96a4 4dbe 2c23 42be 3729 18be 49aa 06be
000002c0: 9425 a8be 76cc 3c3d 4f5c 3c3e ccfa 95be
