baselines/autoenc_basic/Weights/model_weights.pth (torch, 103762 bytes, 12 tensors)

linear_relu_stack.0.weight f4 [50, 180]
-0.041108117 -0.06692982 0.059672106 -0.023440842 -0.04082224 -0.03298607 0.054874744 0.05272852
-0.078621596 -0.046382744 -0.061117657 -0.05494046 0.03623915 0.0058992654 0.020364314 -0.024782034
-0.003302268 0.054095216 -0.08928536 -0.0036139768 -0.040519703 0.05979334 -0.017331095 -0.009459555
0.027319089 0.0153800445 -0.026631592 -0.026999062 0.0065857787 0.015615802 -0.07991536 0.053975206
-0.020298405 -0.07021224 0.050287254 0.01263346 0.037422292 0.038323317 -0.025283098 -0.03690932
0.07409101 0.014525845 0.051722776 -0.018165302 -0.004111643 -0.039426252 -0.010107221 -0.006060488
0.015277648 0.044710893 -0.04401536 0.041500397 0.047206987 0.004477725 0.031580687 0.032637022
-0.055270392 -0.030374514 0.07003602 -0.07381337 -0.0012581737 0.01725432 -0.033190385 0.041226994
-0.051395077 0.06133945 -0.08133774 0.012549047 0.0030724136 -0.0817418 0.010725432 0.05156082
-0.07178727 0.033243213 -0.0068317805 0.06539691 0.04844213 -0.013705604 -0.0020943736 -0.06375441
-0.0137727475 0.020516455 -0.014755954 -0.044675555 0.026720164 -0.035889883 0.019714644 -0.0031979466
0.061641727 0.02149893 -0.033039697 -0.028045198 0.06869378 0.038865402 0.055517428 -0.05856408
-0.022915397 -0.010168808 -0.024130028 -0.054291893 0.013460281 0.02631927 -0.0626781 0.0185182
-0.03523094 -0.06248082 0.0017316048 0.040401787 -0.056160316 -0.017243128 0.048865065 0.03973307
-0.07170983 0.029679794 -0.006019617 -0.011365992 -0.048857987 -0.068793796 -0.06691842 0.07066625
-0.027694015 -0.048242684 -0.06680156 -0.0104820635 -0.02366042 0.002711546 0.059255574 -0.011656403
0.05976419 -0.031964604 -0.057806578 0.049484488 -0.0051885205 -0.020315962 -0.0739513 0.04163951
0.015304136 -0.032678515 -0.010294341 -0.06498224 0.046552412 0.053104814 0.03098577 -0.016264666
-0.05367091 -0.05044908 -0.020494258 0.055442147 -0.05847013 0.05124161 -0.05414495 0.03665083
0.07339687 0.014919707 -0.005901307 -0.015212404 -0.01524763 -0.07339586 0.0008011438 -0.05061149
-0.012206594 -0.016246982 -0.050348688 -0.0027546051 -0.006412241 0.023578802 0.04265318 0.06793526
0.039019067 -0.072504215 0.04454474 -0.0047959313 -0.054947067 -0.022788163 -0.039568353 0.036155354
-0.013864574 -0.047592722 0.031058764 -0.05398896 -0.06818889 -0.020394228 -0.020557504 -0.004306644
0.016242154 -0.04528351 -0.025626607 0.021069676 0.04372885 0.058056198 -0.018523537 0.013990022
-0.012037117 -0.0046446547 -0.011344679 0.035806358 0.022024684 -0.03831364 0.029390082 -0.03642383
-0.010482259 0.05757218 -0.062246747 0.014398389 -0.042985052 -7.665157e-05 0.046457514 -0.046807073
-0.06192839 0.052313663 -0.03186366 -0.010490544 0.027174242 0.010336444 -0.010718502 0.0061152354
-0.027423125 -0.017785005 -0.031662006 0.046795107 -0.016093813 0.009530179 0.03380342 -0.003512688
-0.02258512 0.046657868 -0.068331726 0.02663567 0.06778479 -0.026784997 -0.07394827 -0.00018107146
0.069047265 0.03304278 0.04840175 -0.008150332 0.03262014 -0.013473775 0.039362393 -0.018851377
-0.005860634 0.054725863 -0.0018067583 0.016677737 0.03169725 0.033822536 0.0059109405 0.0064492
0.016539626 -0.058512703 -0.04108919 -0.03751024 0.03343708 -0.026464563 -0.028719336 -0.013814397
00000000: fc60 28bd 8012 89bd bd6a 743d 0207 c0bc
00000010: 3935 27bd 671c 07bd 57c4 603d dcf9 573d
00000020: 5c04 a1bd d5fb 3dbd 8256 7abd 3f09 61bd
00000030: 816f 143d a04e c13b 10d3 a63c b103 cbbc
00000040: dd6a 58bb f292 5d3d 3edb b6bd 78d8 6cbb
00000050: fdf7 25bd dce9 743d f1f9 8dbc 40fc 1abc
00000060: 48cc df3c 95fc 7b3c 7f2a dabc 232d ddbc
00000070: 84cd d73b 6cd9 7f3c aaaa a3bd 1b15 5d3d
00000080: d748 a6bc 6fcb 8fbd 02fa 4d3d 92fc 4e3c
00000090: 1e48 193d e9f8 1c3d 801e cfbc 3a2e 17bd
000000a0: 07bd 973d cffd 6d3c 43db 533d 66cf 94bc
000000b0: f6ba 86bb 6c7d 21bd c298 25bc 0f97 c6bb
000000c0: 1a4f 7a3c c522 373d 7349 34bd 52fc 293d
000000d0: 1d5c 413d e1b9 923b c05a 013d 66ae 053d
000000e0: 3563 62bd f9d3 f8bc 0b6f 8f3d 772b 97bd
000000f0: 4ee9 a4ba ef58 8d3c a4f2 07bd a3dd 283d
00000100: a583 52bd 133f 7b3d 6794 a6bd 859a 4d3c
00000110: 8c5a 493b 3f68 a7bd b9b9 2f3c 7031 533d
00000120: 3405 93bd 092a 083d 21dd dfbb d1ee 853d
00000130: 416b 463d 788d 60bc c241 09bb ac91 82bd
00000140: 17a7 61bc 2012 a83c f5c2 71bc b7fd 36bd
00000150: 3fe4 da3c 4501 13bd 9b80 a13c a494 51bb
00000160: 097c 7c3d 861e b03c a254 07bd 0bbf e5bc
00000170: 53af 8c3d 5431 1f3d 3e66 633d e4e0 6fbd
00000180: 12b9 bbbc 129b 26bc 56ac c5bc 2d61 5ebd
00000190: 8388 5c3c 829b d73c 605d 80bd 7bb3 973c
000001a0: 514e 10bd e3eb 7fbd 04f7 e23a 587c 253d
000001b0: 5c08 66bd 7641 8dbc bc26 483d 25bf 223d
000001c0: 9adc 92bd 0a23 f33c 3540 c5bb 6d38 3abc
000001d0: 501f 48bd c3e3 8cbd 860c 89bd 78b9 903d
000001e0: 8fde e2bc 1f9a 45bd 42cf 88bd f6bc 2bbc
000001f0: 7fd3 c1bc 31b4 313b f9b5 723d 7ffa 3ebc
00000200: 4ccb 743d 51ed 02bd 97c6 6cbd 3fb0 4a3d
00000210: 7704 aabb a96d a6bc c773 97bd 318e 2a3d
00000220: 33be 7a3c e8d9 05bd 98a9 28bc 6915 85bd
00000230: bead 3e3d 6f84 593d dfd5 fd3c 7a3d 85bc
00000240: 07d6 5bbd b2a3 4ebd 93e3 a7bc 4e17 633d
00000250: 607e 6fbd b9e2 513d 18c7 5dbd 2e1f 163d
00000260: 1951 963d c971 743c c05f c1bb 723d 79bc
00000270: 32d1 79bc 9250 96bd da03 523a fe4d 4fbd
00000280: 2bfe 47bc 6418 85bc 6d3a 4ebd 9b86 34bb
00000290: c71d d2bb 5528 c13c 1ab5 2e3d a421 8b3d
000002a0: 75d2 1f3d 177d 94bd 8c74 363d 3027 9dbb
000002b0: 2d10 61bd 3eae babc 6d12 22bd a317 143d
000002c0: 3d28 63bc 96f0 42bd f36e fe3c 8723 5dbd
000002d0: 9ea6 8bbd cc11 a7bc 3668 a8bc c01e 8dbb
000002e0: 440e 853c 347b 39bd e4ee d1bc 509a ac3c
000002f0: 061d 333d 56cc 6d3d acbe 97bc 6836 653c
00000300: 5437 45bc 3032 98bb 08df 39bc b0a9 123d
00000310: 1c6d b43c c3ee 1cbd 78c3 f03c 2731 15bd
00000320: c8bd 2bbc ced0 6b3d 72f6 7ebd 38e7 6b3c
00000330: 1811 30bd 00c0 a0b8 3c4a 3e3d c6b8 3fbd
00000340: a0a8 7dbd da46 563d 7883 02bd 88e0 2bbc
00000350: 849c de3c 305a 293c a89c 2fbc 5062 c83b
00000360: 76a6 e0bc dcb1 91bc 05b0 01bd 3aac 3f3d
00000370: 2cd7 83bc 7824 1c3c 7475 0a3d 2035 66bb
00000380: 6e04 b9bc 521c 3f3d 81f1 8bbd 0c33 da3c
00000390: c1d2 8a3d 366c dbbc 3172 97bd 00de 3db9
000003a0: a768 8d3d de57 073d ea40 463d f888 05bc
000003b0: b29c 053d 1cc1 5cbc 763a 213d 346e 9abc
000003c0: 900a c0bb 3a28 603d c0d0 ecba c09f 883c
000003d0: fad4 013d 8089 0a3d 90b0 c13b d053 d33b
000003e0: 1c7e 873c 04ab 6fbd 234d 28bd 56a4 19bd
000003f0: 52f5 083d 36cc d8bc d044 ebbc c855 62bc

linear_relu_stack.0.bias f4 [50]
0.056699138 0.015443362 0.011412129 -0.0635281 0.023483858 0.010262892 -0.049956784 -0.06376783
0.05570049 0.0036029792 -0.046916556 -0.07237128 -0.004677338 0.05727055 -0.016507268 0.065509394
0.003941097 0.015381843 0.03493835 -0.036527198 0.053021125 0.06887239 -0.050149992 0.06416367
-0.05034715 0.046614595 0.05546287 -0.020117944 -0.07038516 -0.026971258 0.06606316 0.06440658
-0.074547134 -0.038912263 0.025439283 -0.01927908 0.040174965 0.04964742 0.0444621 -0.07142846
-0.027558323 0.012707407 0.060553443 -0.06171932 0.018243028 -0.05241636 0.035015855 -0.010222571
0.009770754 0.040959805
00000000: 5b3d 683d 2806 7d3c f0f9 3a3c 051b 82bd
00000010: 3861 c03c b025 283c 7c9f 4cbd b598 82bd
00000020: 3226 643d f61f 6c3b 932b 40bd 6537 94bd
00000030: 5b44 99bb 8694 6a3d 403a 87bc ca29 863d
00000040: 5124 813b 2004 7c3c 841b 0f3d 8b9d 15bd
00000050: ae2c 593d f80c 8d3d 146a 4dbd 3e68 833d
00000060: d038 4ebd f2ee 3e3d 092d 633d 63ce a4bc
00000070: 1826 90bd d4f2 dcbc 1f4c 873d 99e7 833d
00000080: 2bac 98bd 7762 1fbd 0b66 d03c 29ef 9dbc
00000090: 818e 243d 185b 4b3d e41d 363d 1649 92bd
000000a0: fec1 e1bc ba32 503c e306 783d 66cd 7cbd
000000b0: 6772 953c 89b2 56bd c96c 0f3d 927c 27bc
000000c0: 8315 203c 78c5 273d

linear_relu_stack.2.weight f4 [40, 50]
0.03252793 -0.10771607 0.1179349 0.11401953 0.054704305 -0.059915483 -0.13279602 0.061515138
-0.012527734 -0.050187018 -0.13153492 0.12671062 -0.061903626 0.119737804 0.025266593 0.019559031
-0.1033169 0.13200374 -0.07326169 -0.058307573 0.12934054 -0.12883264 0.035223633 0.10656579
-0.063957974 0.100902155 0.093017995 -0.02254971 0.049890816 -0.05029634 0.008298997 -0.117762454
0.042297438 -0.057669804 -0.00027177148 -0.038649954 -0.11924372 -0.104452424 -0.064638905 -0.01050891
-0.0723464 0.08043061 0.017534522 -0.041029252 -0.090241425 0.02176155 0.032306097 -0.086819656
-0.0072830915 0.13100368 0.032978103 -0.040149696 -0.02555751 0.00879626 -0.11550921 0.14134753
0.0029681027 -0.009387641 0.08848342 -0.09742088 -0.10467054 0.109620154 0.074301 -0.11651877
-0.1141623 0.024998777 0.05574783 -0.07267678 -0.056275338 -0.13326207 -0.10812611 -0.120382674
0.07727584 -0.10447855 -0.016499326 -0.12234813 -0.053969182 -0.13163257 0.011172347 -0.111526005
-0.03696177 0.0836907 0.043936215 -0.07957779 0.027424833 0.07953969 0.05940422 0.011739075
-0.078078404 0.09585102 0.08923541 -0.026359126 -0.0685529 0.013886437 0.055188835 0.026762972
-0.05350458 0.07393883 0.06598548 0.12631267 0.028451795 0.09581545 -0.044763885 -0.046864465
0.010758429 -0.00665341 -0.14091447 0.13147596 -0.026748717 -0.033927247 0.03151521 -0.1275508
0.032831024 0.03144522 0.05887646 0.102557674 -0.029588459 0.083598584 -8.292496e-05 0.052038476
0.11926125 0.015594575 -0.012333676 -0.020678066 -0.015380864 -0.01499863 0.1389677 0.05638071
-0.104532726 0.013549597 0.059880916 -0.017082494 -0.059603035 -0.07962024 0.12810993 0.14880681
0.030219318 -0.070062384 -0.055780545 0.07598974 0.092112444 0.01849532 0.12589522 0.10194144
0.023844166 0.10622883 0.03989002 0.057578593 -0.003605454 0.10233852 -0.008310874 0.060834408
-0.11741826 0.015521288 -0.032122027 -0.1035185 -0.079906255 -0.13258918 0.02948314 -0.114279084
0.046482116 -0.103426225 -0.1397718 0.0073682577 -0.05661634 -0.007908509 0.042975128 -0.0804466
-0.013536647 -0.022283964 0.0559379 0.07081894 0.08196175 0.12075372 0.106278315 0.12681119
-0.020038454 0.121393375 0.021580072 -0.10418223 0.012688242 -0.15477988 -0.11955902 -0.017596431
0.11508428 -0.08814323 -0.06401282 -0.043377634 -0.07306521 0.09843451 -0.059599232 0.08220325
0.07068176 -0.049493887 0.09978853 0.105208844 -0.06730982 0.06337909 -0.03745106 0.07738525
0.12872283 0.09139693 -0.04067535 0.016241208 -0.13585171 -0.07119491 0.03341729 0.04512405
-0.049693696 0.08130231 -0.041239463 -0.018009542 0.060274646 0.005981734 0.06250553 -0.07183203
0.08667432 0.026361078 -0.04429105 -0.07744509 -0.1250331 0.029685698 -0.09167162 0.009806852
0.040805224 0.11363621 -0.032341365 -0.04192025 0.08578679 -0.0062922235 0.05544022 -0.10700582
-0.018350147 0.13340743 -0.034700643 -0.015490781 0.08921604 -0.031302482 -0.0077204406 0.004922107
0.03650755 -0.027834008 -0.016241428 0.10022731 0.043545257 0.01603581 -0.08277121 -0.11782112
-0.015546843 -0.0881667 -0.04537318 -0.09685957 0.004270643 0.07513845 0.021905946 0.10081498
00000000: 023c 053d 3e9a dcbd da87 f13d 1283 e93d
00000010: 9f11 603d f069 75bd aefb 07be 4cf7 7b3d
00000020: 2041 4dbc e790 4dbd 17b1 06be 6ec0 013e
00000030: a88e 7dbd 1839 f53d e3fb ce3c 433a a03c
00000040: d097 d3bd fd2b 073e 3a0a 96bd ecd3 6ebd
00000050: d971 043e b4ec 03be a846 103d 2a3f da3d
00000060: 66fc 82bd caa5 ce3d 3880 be3d 2bba b8bc
00000070: 505a 4c3d 8903 4ebd 84f8 073c 712d f1bd
00000080: 1440 2d3d 2c37 6cbd 8d7c 8eb9 6a4f 1ebd
00000090: 0d36 f4bd 27eb d5bd 6761 84bd 902d 2cbc
000000a0: 592a 94bd ceb8 a43d 8fa4 8f3c 4a0e 28bd
000000b0: 7fd0 b8bd 4745 b23c 6653 043d 81ce b1bd
000000c0: 00a7 eebb d425 063e 0c14 073d 0274 24bd
000000d0: fc5d d1bc 301e 103c 1890 ecbd 68bd 103e
000000e0: 8084 423b 9fce 19bc cc36 b53d 9984 c7bd
000000f0: 825d d6bd 8880 e03d 1f2b 983d 65a1 eebd
00000100: edcd e9bd 3cca cc3c d657 643d 90d7 94bd
00000110: f880 66bd da75 08be 3971 ddbd 318b f6bd
00000120: cc42 9e3d daf8 d5bd 9829 87bc a891 fabd
00000130: ca0e 5dbd b0ca 06be 380c 373c bf67 e4bd
00000140: 3a65 17bd 0866 ab3d 76f6 333d aef9 a2bd
00000150: 0baa e03c b4e5 a23d d751 733d 4055 403c
00000160: 92e7 9fbd 8a4d c43d 0ec1 b63d 18ef d7bc
00000170: 7665 8cbd f083 633c b00d 623d 053e db3c
00000180: 9e27 5bbd 3e6d 973d 6523 873d 1c58 013e
00000190: bd13 e93c e43a c43d 565a 37bd f4f4 3fbd
000001a0: 1f44 303c d904 dabb e24b 10be a2a1 063e
000001b0: 2020 dbbc 4cf7 0abd 1816 013d ad9c 02be
000001c0: d379 063d b4cc 003d 7128 713d c209 d23d
000001d0: 7f63 f2bc bc35 ab3d 00e8 adb8 4c26 553d
000001e0: 3e3f f43d 6380 7f3c 3013 4abc 0c65 a9bc
000001f0: 0500 7cbc d0bc 75bc 8c4d 0e3e 76ef 663d
00000200: 4115 d6bd 21ff 5d3c b145 753d 96f0 8bbc
00000210: 5022 74bd f00f a3bd 402f 033e d060 183e
00000220: 818e f73c de7c 8fbd 247a 64bd 82a0 9b3d
00000230: 73a5 bc3d 7f83 973c adea 003e acc6 d03d
00000240: d754 c33c 808e d93d b863 233d 88d7 6b3d
00000250: 7b49 6cbb dc96 d13d 552a 08bc 802d 793d
00000260: fc78 f0bd 004d 7e3c 6392 03bd 8201 d4bd
00000270: e4a5 a3bd 75c5 07be a086 f13c 270b eabd
00000280: 0864 3e3d 21d1 d3bd 5720 0fbe 6d71 f13b
00000290: 89e6 67bd b192 01bc b006 303d 30c1 a4bd
000002a0: d0c8 5dbc dc8c b6bc 241f 653d 8509 913d
000002b0: 90db a73d ba4d f73d 72a8 d93d cbda 013e
000002c0: af27 a4bc 179d f83d b1c8 b03c 7e5d d5bd
000002d0: 58e2 4f3c 9e7e 1ebe 5cdb f4bd 6426 90bc
000002e0: 4fb1 eb3d 7084 b4bd 2719 83bd bfac 31bd
000002f0: 36a3 95bd 0898 c93d 531e 74bd 2d5a a83d
00000300: 99c1 903d 1aba 4abd ee5d cc3d bc77 d73d
00000310: bbd9 89bd e5cc 813d 4866 19bd 287c 9e3d
00000320: ebcf 033e 502e bb3d 329b 26bd 480c 853c
00000330: b61c 0bbe a3ce 91bd 91e0 083d ffd3 383d
00000340: 9e8b 4bbd d381 a63d b6ea 28bd bf88 93bc
00000350: 8ce2 763d 6c02 c43b e602 803d ac1c 93bd
00000360: 4e82 b13d 30f3 d73c 886a 35bd 889b 9ebd
00000370: ad08 00be 6c2f f33c 55be bbbd ebac 203c
00000380: 6123 273d 1aba e83d 6178 04bd 91b4 2bbd
00000390: fcb0 af3d ff2e cebb 4915 633d de25 dbbd
000003a0: 0c53 96bc f59b 083e 4322 0ebd 0bcd 7dbc
000003b0: e6b6 b63d 0837 00bd c0fb fcbb a049 a13b
000003c0: f188 153d 2504 e4bc be0c 85bc fa43 cd3d
000003d0: 835c 323d 885d 833c f483 a9bd 334c f1bd
000003e0: 30b8 7ebc be90 b4bd 3ad9 39bd 4f5e c6bd
000003f0: c0f0 8b3b 30e2 993d 1974 b33c 1678 ce3d

linear_relu_stack.2.bias f4 [40]
-0.13026814 0.013882456 0.040782124 0.10122532 -0.061247334 -0.015815549 0.19683771 -0.029665148
-0.05059539 -0.12585942 -0.10067637 -0.002321422 0.06469725 0.15600747 -0.12211627 0.12306451
0.104458675 -0.09887396 -0.14111996 -0.059495255 0.04949441 -0.016030665 -0.103493735 -0.024102047
0.044298735 0.015420541 -0.022666162 0.041479312 0.13070841 -0.08726507 0.03493506 -0.043876648
0.06297724 0.06675316 -0.1157393 -0.025257614 -0.009323042 0.11035856 -0.02372594 -0.071481995
00000000: 0365 05be 3e73 633c 280b 273d 384f cf3d
00000010: 7cde 7abd 9c8f 81bc d38f 493e 5304 f3bc
00000020: 1d3d 4fbd 4be1 00be 6a2f cebd 0023 18bb
00000030: fe7f 843d 6cc0 1f3e 1818 fabd 3f09 fc3d
00000040: 6eee d53d 6e7e cabd c081 10be 4cb1 73bd
00000050: a7ba 4a3d be52 83bc 86f4 d3bd a871 c5bc
00000060: 9772 353d 70a6 7c3c 63ae b9bc 36e6 293d
00000070: 6dd8 053e 07b8 b2bd 1118 0f3d 00b8 33bd
00000080: 36fa 803d e1b5 883d ba08 edbd 0ee9 cebc
00000090: acbf 18bc ab03 e23d e75c c2bc 2765 92bd

linear_relu_stack.4.weight f4 [30, 40]
-0.13607346 0.033157256 0.022939576 0.0086646965 0.14189215 0.008913408 -0.008076355 0.015262891
0.08654261 0.12100251 0.09510901 0.03707251 -0.06827106 0.04242175 -0.025389865 -0.116223924
-0.09676006 -0.13577417 -0.14820671 0.07837388 -0.027148105 -0.0057908576 0.1272087 0.08128229
0.04375425 -0.087153524 -0.1573446 0.066401415 -0.10476716 0.1408608 -0.013859059 0.09221691
0.06866084 -0.039862 0.038306996 0.02790346 -0.15983088 0.13337842 -0.07258915 -0.03239575
0.12767677 -0.15356874 -0.07230307 -0.117506035 0.028129712 -0.07371913 0.026620204 -0.12264823
-0.008329634 0.06937548 0.086467944 0.14276479 0.15698196 0.09078234 -0.00850305 -0.094858274
-0.11998702 0.060904026 -0.078166135 0.01100879 0.07024532 -0.12224156 0.15742005 -0.04546611
0.058887996 -0.09769465 -0.0023874957 -0.007301045 0.1214192 0.14886248 0.0394451 -0.055225156
-0.112844266 -0.056939095 0.053271607 0.090109944 0.07531535 -0.056980494 0.0454479 0.044328973
-0.066905655 -0.0870806 0.13479991 0.07455655 -0.10892041 -0.1484131 0.118026294 -0.14592771
0.14169538 -0.12899639 -0.07003591 -0.049441516 0.11460467 0.010862273 -0.004947588 -0.09188267
-0.13700967 -0.11306283 -0.029656827 -0.09878685 0.07421805 0.10645118 0.06598371 -0.030408919
0.02929424 0.0030450374 -0.08868084 0.15370646 -0.030141976 0.13751239 0.05251531 0.13280387
0.01640518 -0.080121934 0.006085232 0.11599644 -0.10254663 -0.09088951 -0.10060226 -0.10805083
0.09553681 0.15354986 -0.10641682 -0.004861325 -0.07784823 -0.016861185 -0.108199544 0.0044551045
-0.07034926 0.13917284 -0.04591149 -0.0127853155 -0.112939 -0.07337138 0.13698612 0.14956708
-0.0626871 0.123489514 0.017257497 0.041174933 -0.0962877 -0.07181424 -0.06636986 -0.067243405
0.027839571 -0.017247945 0.08820194 -0.067037635 -0.1073523 0.08777806 0.025866091 -0.1424508
-0.05223093 -0.06646181 -0.06397011 0.07121578 0.089175045 0.0878409 0.08848347 0.117009565
-0.050902136 0.008779153 0.096617594 0.03182903 0.0062025934 -0.07663467 -0.053035066 -0.01495716
0.013060644 0.07842429 0.014290318 -0.049819827 0.08007114 0.10042168 0.10819538 -0.04144562
-0.067318946 0.0133443475 -0.060925692 -0.10948378 -0.00028590858 -0.12908863 -0.025757074 0.10001157
0.122212425 -0.092372544 0.01217781 0.106010154 0.011574596 0.086333975 0.0055434555 0.08207482
-0.006938964 -0.119872436 0.029118076 0.11333157 0.0394966 0.007868618 0.09633754 -0.096472725
-0.1391015 -0.008465366 0.021772379 0.037710432 -0.024473313 0.047189407 0.14044861 -0.028703032
0.093876235 0.061391212 0.11258859 0.11438544 -0.14695737 -0.061915223 0.08478497 -0.058350105
-0.0073236264 -0.05882773 0.12862636 -0.06149514 0.13810036 0.054192513 0.15673988 0.14202018
-0.13376328 -0.031071663 -0.14079447 0.13880353 -0.10593142 0.14169066 -0.06711734 -0.11869274
0.13204388 0.061823163 0.14369024 -0.09503877 0.030588917 -0.1650589 0.1383837 -0.07839974
-0.12061006 0.13455516 0.10638493 0.15449022 -0.067568794 0.052165903 0.105657086 0.056171026
0.11592805 -0.010596829 -0.033671353 0.086731255 0.0038433666 0.08656378 -0.1051065 0.1041235
00000000: d756 0bbe e7cf 073d c7eb bb3c 5ff6 0d3c
00000010: 2d4c 113e 8b09 123c b052 04bc 3411 7a3c
00000020: 403d b13d 2ad0 f73d 83c8 c23d 58d9 173d
00000030: b3d1 8bbd 6ec2 2d3d 68fe cfbc cf06 eebd
00000040: 232a c6bd 6208 0bbe 80c3 17be 7c82 a03d
00000050: b465 debc 3cc1 bdbb ff42 023e 5477 a63d
00000060: a837 333d 8c7d b2bd f11e 21be 77fd 873d
00000070: 2a90 d6bd d03d 103e 1b11 63bc 38dc bc3d
00000080: 0e9e 8c3d 5646 23bd cce7 1c3d cc95 e43c
00000090: b5aa 23be 5a94 083e 9fa9 94bd 68b1 04bd
000000a0: b3bd 023e 2041 1dbe a213 94bd 01a7 f0bd
000000b0: 4870 e63c 0efa 96bd 9d12 da3c ff2e fbbd
000000c0: 0479 08bc bb14 8e3d 1b16 b13d ef30 123e
000000d0: e1bf 203e 17ec b93d 6050 0bbc 0e45 c2bd
000000e0: c1bb f5bd 8076 793d 9115 a0bd 365e 343c
000000f0: c7dc 8f3d c859 fabd b932 213e ac3a 3abd
00000100: 8a34 713d 2214 c8bd 8877 1cbb 9b3d efbb
00000110: a1aa f83d 686f 183e 2f91 213d c633 62bd
00000120: e51a e7bd f838 69bd 5433 5a3d 908b b83d
00000130: ef3e 9a3d 6164 69bd 9427 3a3d 4c92 353d
00000140: d505 89bd 5057 b2bd fd08 0a3e 1bb1 983d
00000150: aa11 dfbd 9bf9 17be c5b7 f13d 136e 15be
00000160: 9818 113e a117 04be fd6e 8fbd 3083 4abd
00000170: dab5 ea3d adf7 313c 601f a2bb fb2c bcbd
00000180: 434c 0cbe 7c8d e7bd e0f2 f2bc c350 cabd
00000190: a2ff 973d 1403 da3d 7822 873d 201c f9bc
000001a0: 79fa ef3c 408f 473b 4d9e b5bd 3a65 1d3e
000001b0: 4eec f6bc 0cd0 0c3e 4b1a 573d bdfd 073e
000001c0: 2864 863c f816 a4bd a066 c73b 8b8f ed3d
000001d0: f803 d2bd 4824 babd 8f08 cebd c149 ddbd
000001e0: cea8 c33d 2d3c 1d3e 10f1 d9bd c04b 9fbb
000001f0: e56e 9fbd 7820 8abc b997 ddbd 20fc 913b
00000200: 4613 90bd 5383 0e3e b00d 3cbd 8079 51bc
00000210: 904c e7bd bc43 96bd 1746 0c3e 1d28 193e
00000220: 1862 80bd 12e8 fc3d 985f 8d3c 0ca7 283d
00000230: 7c32 c5bd 5813 93bd ecec 87bd e9b6 89bd
00000240: d00f e43c 904b 8dbc 38a3 b43d 074b 89bd
00000250: 86db dbbd fcc4 b33d 20e5 d33c 9fde 11be
00000260: 1af0 55bd 211d 88bd c302 83bd 94d9 913d
00000270: 68a1 b63d eee5 b33d d236 b53d b6a2 ef3d
00000280: c27e 50bd 70d6 0f3c 72df c53d 285f 023d
00000290: 203f cb3b a3f2 9cbd 4c3b 59bd e00e 75bc
000002a0: 50fc 553c ea9c a03d f021 6a3c e00f 4cbd
000002b0: 56fc a33d e2a9 cd3d 8a95 dd3d e2c2 29bd
000002c0: 84de 89bd 40a2 5a3c 388d 79bd 0839 e0bd
000002d0: 00e6 95b9 cf2f 04be 8000 d3bc ded2 cc3d
000002e0: 824a fa3d d12d bdbd 7085 473c da1b d93d
000002f0: 60a3 3d3c decf b03d e0a5 b53b d816 a83d
00000300: 4060 e3bb ae7f f5bd 0889 ee3c 621a e83d
00000310: 30c7 213d 60eb 003c 9e4c c53d 7e93 c5bd
00000320: a070 0ebe 52b2 0abc fd5b b23c 4176 1a3d
00000330: 427c c8bc ae49 413d c3d1 0f3e 9f22 ebbc
00000340: 2f42 c03d 5a75 7b3d d994 e63d ea42 ea3d
00000350: fe7b 16be d19a 7dbd bea3 ad3d 8500 6fbd
00000360: 08fb efbb 59f5 70bd a1b6 033e 54e2 7bbd
00000370: 2e6a 0d3e f8f8 5d3d 6b80 203e bd6d 113e
00000380: 3ef9 08be 008a febc 6d2c 10be 8322 0e3e
00000390: 93f2 d8bd 5b17 113e d174 89bd 2e15 f3bd
000003a0: 8336 073e 493a 7d3d 8923 133e b0a3 c2bd
000003b0: 9c95 fa3c 3305 29be 75b4 0d3e 0b90 a0bd
000003c0: 6802 f7bd d4c8 093e 58e0 d93d af32 1e3e
000003d0: 8261 8abd eaab 553d be62 d83d 9713 663d
000003e0: af6b ed3d 529e 2dbc f9ea 09bd 28a0 b13d
000003f0: fee0 7b3b 5a48 b13d 1442 d7bd b43e d53d

linear_relu_stack.4.bias f4 [30]
0.100100614 0.07206684 -0.07472683 -0.10186289 -0.10924435 0.14701182 -0.14246236 -0.062676564
-0.09539468 0.3185967 0.24464935 0.09667389 -0.12665787 -0.062305115 -0.12048891 -0.11673206
-0.023940343 -0.022121778 0.2847195 0.018757688 0.14842884 0.108300894 0.1400427 0.00069740415
-0.098691955 0.16415292 -0.12592062 0.1366198 0.051752687 0.064276025
00000000: 8d01 cd3d c897 933d 610a 99bd 7e9d d0bd
00000010: 80bb dfbd 448a 163e a7e1 11be 925c 80bd
00000020: 495e c3bd 1b1f a33e 5c85 7a3e f6fc c53d
00000030: 9ab2 01be a633 7fbd e4c2 f6bd 3811 efbd
00000040: 8a1e c4bc bb38 b5bc c1c6 913e b9a9 993c
00000050: bbfd 173e dccc dd3d 5b67 0f3e 00d2 363a
00000060: 021f cabd b417 283e 56f1 00be 10e6 0b3e
00000070: a0fa 533d 26a3 833d

linear_relu_stack.6.weight f4 [40, 30]
-0.17098802 0.14201882 0.008459464 -0.11010097 -0.045392126 0.009008214 0.106369555 -0.11412575
0.14843279 0.120452344 -0.05512914 0.17094812 -0.15632655 -0.087835714 0.12411037 -0.019383132
-0.114074044 -0.066191666 0.017026156 0.15124094 -0.11440173 0.02617538 0.034221232 -0.10451612
0.1737361 -0.04746689 0.1695297 -0.11415616 -0.10572166 -0.12648925 -0.005808051 0.10391486
-0.050557528 0.08570981 -0.08861695 0.105526865 0.024922866 -0.07157534 -0.029511228 0.14369184
0.07063157 0.18320884 0.058041498 -0.15258728 -0.15659931 -0.078485966 -0.12996256 -0.123030104
0.16236705 0.09889299 -0.085285015 -0.011847823 -0.14143683 0.1809167 0.1362096 0.026457436
0.025654316 -0.020692809 0.007148718 -0.07242412 -0.1578109 -0.00042320866 -0.15314189 0.012650773
0.05602473 -0.010158252 0.037242457 0.04805647 0.1757732 -0.081003025 0.10389665 0.028528282
0.112508506 -0.10128087 -0.024098605 -0.15580678 0.022464402 -0.030524207 0.14343108 0.16087683
-0.04134146 -0.063371845 -0.034223873 0.070562035 -0.16149224 0.17168865 -0.014585555 0.19383223
-0.12025442 0.15969568 0.15880835 -0.10680611 0.10230784 -0.083720215 0.021339193 0.062515385
-0.14649849 -0.16843396 -0.12080309 0.10498566 0.07664715 -0.16864549 -0.082806624 -0.18188614
-0.028005853 0.15226324 0.019983524 0.021660713 -0.011667854 -0.15146047 0.13401496 -0.060163338
0.122660995 0.09361923 0.1501989 0.17258863 -0.09342108 -0.11758078 0.022157269 -0.12559623
-0.016192555 0.0038129985 -0.1457361 -0.15063392 -0.020982563 0.056452334 -0.13101096 0.088357925
0.14783022 -0.04036784 -0.15716507 -0.032232612 -0.12318502 0.053126797 0.14198622 -0.16930872
-0.15758821 0.12661248 -0.009528413 -0.06250617 0.0658441 0.16594952 -0.05202031 -0.027301997
0.18149069 -0.13358276 -0.06463193 -0.003573984 0.1411224 -0.14340767 0.10444047 -0.16502807
-0.15081719 -0.15568306 -0.12048274 -0.049119793 -0.10294505 0.11307308 0.14327154 0.23097941
0.140573 -0.051726904 -0.060705975 0.07728672 -0.17275721 -0.1396968 0.19019552 -0.030567031
0.109428935 -0.1610391 0.03395317 0.0004780748 0.20360793 -0.1419157 -0.00012394786 0.15019074
0.0966095 0.16576168 -0.085766636 0.014920166 -0.07589043 -0.13449997 -0.05672983 0.113238424
0.17127976 0.023659894 -0.0069578285 0.08030447 -0.011450827 -0.011697832 0.18005063 0.10618385
0.16466004 0.027772829 0.067393854 0.035558436 -0.022212848 0.004317545 0.2477834 0.17513326
0.056028225 -0.15434706 -0.13434188 0.039175257 -0.05406727 -0.058621764 -0.103361905 0.0936096
-0.13640232 -0.1225999 -0.109052904 -0.14795698 0.1380167 0.16723746 -0.092649445 -0.13280013
-0.13372289 -0.03741744 -0.01932776 0.18510282 0.067753926 -0.03373471 -0.12468852 -0.0632316
-0.07042552 -0.13113575 -0.10235511 -0.17406093 0.04568141 -0.030705882 0.13624673 0.10894698
0.14501135 -0.13914226 -0.083820306 0.11863796 0.015503138 -0.018242976 0.123265 -0.1346637
-0.015423772 0.079312794 0.03947211 -0.08427624 -0.02613701 -0.118412815 0.13801797 0.04380122
-0.1360411 -0.06564373 0.12739244 -0.0059286393 0.12717119 0.14790949 -0.0239757 -0.049317844
00000000: 7c17 2fbe 626d 113e 9099 0a3c 9e7c e1bd
00000010: 18ed 39bd 3097 133c 48d8 d93d c3ba e9bd
00000020: c4fe 173e b8af f63d 18cf 61bd 060d 2f3e
00000030: 1114 20be 36e3 b3bd 942d fe3d 60c9 9ebc
00000040: a79f e9bd 7f8f 87bd 707a 8b3c e8de 1a3e
00000050: 744b eabd c06d d63c 902b 0c3d 8c0c d6bd
00000060: e0e7 313e a46c 42bd 3299 2d3e b4ca e9bd
00000070: 9984 d8bd 6686 01be 7751 bebb 50d1 d43d
00000080: 6915 4fbd a088 af3d ce7c b5bd 781e d83d
00000090: 0a2b cc3c 1896 92bd 88c1 f1bc f423 133e
000000a0: 49a7 903d 199b 3b3e ecbc 6d3d d73f 1cbe
000000b0: 925b 20be 40bd a0bd e814 05be 35f7 fbbd
000000c0: 8c43 263e 6888 ca3d e9a9 aebd 5f1d 42bc
000000d0: d1d4 10be 3a42 393e 887a 0b3e 44bd d83c
000000e0: 0029 d23c f783 a9bc cb3f ea3b 1953 94bd
000000f0: 2e99 21be 1be2 ddb9 3ad1 1cbe 3045 4f3c
00000100: 307a 653d cc6e 26bc 8c8b 183d dcd6 443d
00000110: e4fd 333e eae4 a5bd c4c7 d43d 25b4 e93c
00000120: dc6a e63d 586c cfbd 706a c5bc d08b 1fbe
00000130: 4407 b83c e70d fabc 99df 123e e5bc 243e
00000140: aa55 29bd 19c9 81bd 552e 0cbd d482 903d
00000150: 395e 25be 26cf 2f3e 40f8 6ebc f57b 463e
00000160: f347 f6bd 4487 233e a89e 223e 29bd dabd
00000170: c686 d13d 8175 abbd 88cf ae3c 1108 803d
00000180: b303 16be f479 2cbe 9c67 f7bd b902 d73d
00000190: 2ef9 9c3d 67b1 2cbe 8596 a9bd 5c40 3abe
000001a0: 886c e5bc e5ea 1b3e 7db4 a33c cf71 b13c
000001b0: 872a 3fbc 7418 1bbe 383b 093e d56d 76bd
000001c0: b035 fb3d 70bb bf3d becd 193e 13bb 303e
000001d0: 8d53 bfbd 31ce f0bd 2983 b53c 4c9c 00be
000001e0: 40a6 84bc 80e3 793b d83b 15be c73f 1abe
000001f0: a0e3 abbc 903a 673d bd27 06be 00f5 b43d
00000200: ce60 173e c058 25bd e1ef 20be 5806 04bd
00000210: 6e48 fcbd 7c9b 593d d664 113e 445f 2dbe
00000220: ce5e 21be b4a6 013e 101d 1cbc 3c03 80bd
00000230: 46d9 863d acee 293e 4013 55bd 70a8 dfbc
00000240: b2d8 393e ebc9 08be bf5d 84bd 8039 6abb
00000250: 6482 103e 76d9 12be e3e4 d53d 1efd 28be
00000260: d26f 1abe 616b 1fbe a8bf f6bd d631 49bd
00000270: dbd4 d2bd dc92 e73d c6b5 123e de85 6c3e
00000280: 5ef2 0f3e 97df 53bd d4a6 78bd 8048 9e3d
00000290: 44e7 30be ae0c 0fbe 9dc2 423e b667 fabc
000002a0: 471c e03d 6fe7 24be 7b12 0b3d 1da6 fa39
000002b0: 997e 503e 5952 11be 00f8 01b9 9acb 193e
000002c0: 34db c53d 6ebd 293e 6ba6 afbd b673 743c
000002d0: 716c 9bbd 5cba 09be 8a5d 68bd 8ce9 e73d
000002e0: f663 2f3e 65d2 c13c 7ffe e3bb ac76 a43d
000002f0: 409c 3bbc 43a8 3fbc 315f 383e eb76 d93d
00000300: a49c 283e d883 e33c ca05 8a3d b9a5 113d
00000310: b8f7 b5bc 317a 8d3b eeba 7d3e 2256 333e
00000320: da7d 653d 280d 1ebe eb90 09be 3c76 203d
00000330: a475 5dbd 601d 70bd 68af d3bd 64b6 bf3d
00000340: 0dad 0bbe a815 fbbd 2157 dfbd 0982 17be
00000350: 4054 0d3e 4c40 2b3e febe bdbd c2fc 07be
00000360: a7ee 08be 0843 19bd 4055 9ebc 988b 3d3e
00000370: 92c2 8a3d 682d 0abd b25c ffbd 927f 81bd
00000380: 413b 90bd 7348 06be 8e9f d1bd 073d 32be
00000390: 6e1c 3b3d e78a fbbc 4384 0b3e 981f df3d
000003a0: db7d 143e 4f7b 0ebe fba9 abbd 75f8 f23d
000003b0: e000 7e3c 4b72 95bc 5c72 fc3d 48e5 09be
000003c0: fdb3 7cbc bf6e a23d 82ad 213d 0599 acbd
000003d0: 481d d6bc 6b82 f2bd 9554 0d3e e868 333d
000003e0: 5c4e 0bbe 3870 86bd 2a73 023e 0845 c2bb
000003f0: 2a39 023e 9675 173e b068 c4bc 8201 4abd

linear_relu_stack.6.bias f4 [40]
-0.17962728 0.3407408 0.2243214 0.27277452 -0.091418944 0.44309607 0.23584822 -0.020103218
0.05622288 -0.074763 -0.03944239 -0.109928355 -0.13626546 -0.049158864 0.011912169 0.39843747
-0.13011685 0.097729385 0.15255024 -0.1662259 0.19044054 -0.019264363 0.16403109 0.22461016
-0.09541648 0.092357986 0.21306607 -0.108127385 0.09529548 -0.03189005 0.28576264 0.01796156
-0.10926593 -0.06732607 0.2248968 -0.17107713 -0.07942289 0.07773646 -0.12584445 0.24169575
00000000: 37f0 37be 9475 ae3e 82b4 653e 1aa9 8b3e
00000010: db39 bbbd 7ddd e23e 3282 713e 81af a4bc
00000020: f649 663d 581d 99bd 588e 21bd 1e22 e1bd
00000030: 2c89 0bbe ce5a 49bd 422b 433c ffff cb3e
00000040: 5a3d 05be 5826 c83d 2136 1c3e 1f37 2abe
00000050: d802 433e 4cd0 9dbc c4f7 273e 3500 663e
00000060: b769 c3bd 2f26 bd3d fe2d 5a3e e471 ddbd
00000070: 472a c33d 249f 02bd 7b4f 923e 1f24 933c
00000080: d1c6 dfbd 40e2 89bd 594b 663e d82e 2fbe
00000090: 78a8 a2bd 4b34 9f3d 5edd 00be 177f 773e

linear_relu_stack.8.weight f4 [50, 40]
-0.09564341 -0.06528314 0.054455206 -0.14132747 -0.077839635 -0.10402194 -0.10959078 0.066537395
0.08091664 0.107790545 -0.058468282 -0.01229772 -0.13983554 -0.041841634 -0.11101489 0.015146598
-0.052193306 0.090531066 0.10688858 -0.096313894 -0.104201935 0.06856066 -0.06474385 0.15291794
0.107695356 -0.021763071 -0.07863658 0.059724525 0.14923711 0.10337947 -0.010725543 -0.11101131
0.022781506 0.11266293 -0.014903069 -0.047046512 0.070729405 -0.0033076853 -0.0052716434 0.12876816
0.15010811 0.1648837 0.15773356 -0.01652114 0.0996467 0.22945417 0.16705056 0.14113083
-0.0458195 -0.11692916 0.15758534 -0.0040997267 -0.055678874 -0.020156147 -0.05701007 0.22479284
-0.007765755 0.016898729 0.015048353 -0.0017960333 0.21610951 -0.04506973 0.081201695 -0.009507716
0.019006401 0.042667307 -0.046366114 0.112737566 0.17829497 0.024377778 0.10756989 0.037325155
0.09766783 -0.05677378 0.061359152 -0.06284391 -0.043468043 0.035853572 -0.063550636 0.19989872
0.12332471 -0.07386797 -0.15508112 0.029620752 -0.080083854 0.055527136 -0.041666567 -0.118245006
0.06664114 0.14646725 0.07642919 -0.043474376 0.040307388 -0.11049646 -0.14798094 0.15090372
0.047395274 0.12762429 -0.10233415 -0.07571994 -0.14997734 0.12693419 -0.13660116 0.14590557
-0.14095919 0.088070005 -0.0015632808 0.05909902 -0.03130041 -0.081124164 -0.011454448 0.020986304
0.07095198 0.03118302 -0.0149253905 -0.11156625 0.045999676 0.121323094 0.081988305 0.013686314
0.026640803 0.0003334664 -0.045643814 -0.022587465 0.09001757 0.09446077 0.1489136 -0.14908113
-0.10845845 -0.0011712164 -0.038468346 -0.079681 -0.045880433 0.028455397 0.07331011 -0.114669524
-0.12516749 -0.12578869 0.017956624 -0.1269096 0.09614877 -0.15708894 0.141685 0.07539431
0.040648952 0.122025505 0.097513355 -0.12114306 -0.018245697 0.026684284 -0.1461984 -0.11124461
0.112643495 0.045189444 0.07364733 -0.14680538 0.10053836 -0.13965744 -0.14095607 -0.035669092
0.017357528 0.05302535 0.007861227 -0.051799297 0.099956885 0.009285346 -0.019887492 -0.12847628
-0.018419832 0.117351696 0.017468587 0.1095518 0.14084117 0.010273591 0.102964714 0.061891392
0.08155851 0.043099627 0.12600832 -0.022093818 -0.06269728 0.02854076 0.07215677 0.12755202
-0.12856999 -0.11525731 -0.065750964 0.025044888 -0.12352489 -0.012276843 0.053085133 -0.024796441
-0.039449535 -0.016998082 0.036731675 0.052360237 -0.07240442 0.113618866 -0.11686404 -0.12214901
0.13943456 -0.039382882 -0.034178153 -0.07991267 -0.06773605 -0.14349748 -0.08571172 0.12175529
0.07929827 0.09037858 -0.08278194 0.025949284 -0.030816048 0.051344886 0.09472461 -0.092174105
-0.02324894 0.11756037 -0.10998511 -0.024475232 -0.03764677 0.10902561 -0.023525432 -0.111319505
0.043423012 0.109772846 -0.07443049 0.09910588 -0.02517052 0.13374911 -0.094449475 -0.041542448
-0.014396802 0.0034566522 0.063578546 -0.02637212 -0.1404722 0.13074966 0.013429299 -0.14212334
0.10842715 -0.029868642 -0.13564417 0.013635275 -0.10673535 0.0037167508 0.0915462 -0.012206213
-0.0030812419 0.09203847 -0.065187074 0.018576086 0.10358551 -0.02791827 0.0839414 -0.05285984
00000000: b1e0 c3bd 2bb3 85bd 6c0c 5f3d 26b8 10be
00000010: 636a 9fbd 7409 d5bd 2271 e0bd c244 883d
00000020: a0b7 a53d 4ac1 dc3d 707c 6fbd 607c 49bc
00000030: 0c31 0fbe 2262 2bbd c65b e3bd 7029 783c
00000040: a6c8 55bd 5a68 b93d 66e8 da3d 3840 c5bd
00000050: d367 d5bd 8869 8c3d 6c98 84bd 8596 1c3e
00000060: 628f dc3d 7848 b2bc 370c a1bd b4a1 743d
00000070: 9dd1 183e 9eb8 d33d 30ba 2fbc e659 e3bd
00000080: 48a0 ba3c d2bb e63d 002c 74bc d8b3 40bd
00000090: 94da 903d c0c5 58bb c0bd acbb cddb 033e
000000a0: f1b5 193e 46d7 283e e884 213e 5757 87bc
000000b0: 9213 cc3d 09f6 6a3e 4d0f 2b3e 9a84 103e
000000c0: 3aad 3bbd 8e78 efbd 0d5e 213e 0057 86bb
000000d0: 880f 64bd 811e a5bc 6483 69bd 1830 663e
000000e0: e077 febb 346f 8a3c 5e8d 763c e168 ebba
000000f0: d04b 5d3e 0a9b 38bd 134d a63d 40c6 1bbc
00000100: 50b3 9b3c eac3 2e3d 65ea 3dbd f4e2 e63d
00000110: f592 363e e8b3 c73c 9a4d dc3d 43e2 183d
00000120: 1206 c83d a08b 68bd bc53 7b3d 4fb4 80bd
00000130: 8c0b 32bd 32db 123d d626 82bd 40b2 4c3e
00000140: aa91 fc3d 1748 97bd 96cd 1ebe 38a7 f23c
00000150: 0103 a4bd 6c70 633d 90aa 2abd 702a f2bd
00000160: 267b 883d 83fb 153e e886 9c3d 3012 32bd
00000170: 5c19 253d f84b e2bd 5188 17be 8186 1a3e
00000180: 8c21 423d f1af 023e 9194 d1bd 0e13 9bbd
00000190: a993 19be 09fb 013e 2de1 0bbe 4568 153e
000001a0: 9b57 10be 0c5e b43d 00e7 ccba d011 723d
000001b0: dc34 00bd 6d24 a6bd 70ab 3bbc 78eb ab3c
000001c0: 464f 913d 8873 ff3c a089 74bc d97c e4bd
000001d0: 286a 3c3d 3e78 f83d 7ce9 a73d 903c 603c
000001e0: d03d da3c 1ad5 ae39 02f5 3abd 5909 b9bc
000001f0: 225b b83d a674 c13d cf7c 183e b9a8 18be
00000200: 771f debd 8083 99ba fc90 1dbd cb2f a3bd
00000210: 1fed 3bbd 4b1b e93c 9c23 963d dbd7 eabd
00000220: e82b 00be c0ce 00be c519 933c 97f4 01be
00000230: a5e9 c43d ecdb 20be df15 113e 5568 9a3d
00000240: 847f 263d 82e8 f93d 15b5 c73d da19 f8bd
00000250: 0078 95bc 0099 da3c 09b5 15be 37d4 e3bd
00000260: a2b1 e63d 9118 393d 69d4 963d 2654 16be
00000270: 0ee7 cd3d 5c02 0fbe ca56 10be c119 12bd
00000280: 6031 8e3c 1c31 593d 60cc 003c 802b 54bd
00000290: 32b6 cc3d 9021 183c 18eb a2bc 498f 03be
000002a0: 30e5 96bc 1656 f03d 481a 8f3c b25c e03d
000002b0: ab38 103e 9052 283c 2adf d23d d481 7d3d
000002c0: 2608 a73d 3c89 303d 5308 013e 18fe b4bc
000002d0: 6e67 80bd 50ce e93c eec6 933d ff9c 023e
000002e0: daa7 03be 060c ecbd 71a8 86bd f02a cd3c
000002f0: 9efa fcbd d024 49bc cc6f 593d e821 cbbc
00000300: d695 21bd 903f 8bbc f473 163d b077 563d
00000310: c548 94bd 02b1 e83d 6a56 efbd 4329 fabd
00000320: efc7 0e3e f24f 21bd 64fe 0bbd 41a9 a3bd
00000330: 33b9 8abd 01f1 12be a089 afbd d65a f93d
00000340: 2267 a23d 6818 b93d 9489 a9bd 9893 d43c
00000350: f071 fcbc 044f 523d fafe c13d c7c5 bcbd
00000360: 9074 bebc 7ec3 f03d e03f e1bd 4880 c8bc
00000370: 8033 1abd d248 df3d 68b8 c0bc 7bfb e3bd
00000380: 54dc 313d 96d0 e03d 036f 98bd 06f8 ca3d
00000390: 6832 cebc 87f5 083e ba6e c1bd 6a28 2abd
000003a0: 90e0 6bbc 0089 623b 7835 823d 580a d8bc
000003b0: f2d7 0fbe 3de3 053e 9006 5c3c c888 11be
000003c0: 0e0f de3d 15af f4bc 4ee6 0abe 7d66 5f3c
000003d0: 1098 dabd bb94 733b 937c bb3d 91fc 47bc
000003e0: a9ee 49bb aa7e bc3d cd80 85bd e02c 983c
000003f0: a424 d43d dbb4 e4bc 78e9 ab3d 8f83 58bd

linear_relu_stack.8.bias f4 [50]
-0.00064677 0.325379 -0.14189531 0.07921107 -0.07616997 -0.12054083 -0.11712168 -0.08540826
-0.17433175 -0.11138357 -0.13089105 -0.1352635 -0.07753325 -0.08971179 0.30432013 0.05911745
0.016313583 0.49724403 0.37790057 0.13065873 -0.034687392 -0.14654051 -0.1095591 0.46756056
0.09382365 0.36970475 0.12566598 -0.06734238 -0.14438146 -0.061252058 0.17213027 -0.032859355
-0.012356032 -0.13888532 -0.02482451 -0.04956641 0.088071354 0.010790675 0.18040623 0.19967975
0.27082086 -0.11644796 -0.07666143 0.2930391 0.06483984 -0.01067467 0.28282875 0.098294444
0.13414225 -0.106826864
00000000: 008c 29ba 1498 a63e 014d 11be 6a39 a23d
00000010: 00ff 9bbd 1cde f6bd 7edd efbd 87ea aebd
00000020: 0684 32be 121d e4bd 4e08 06be 8482 0abe
00000030: c1c9 9ebd d1ba b7bd d9cf 9b3e 2425 723d
00000040: 10a4 853c c596 fe3e 2f7c c13e 67cb 053e
00000050: 5e14 0ebd b70e 16be 8560 e0bd 1964 ef3e
00000060: 9d26 c03d f149 bd3e 95ae 003e cdea 89bd
00000070: bcd8 13be 70e3 7abd eb42 303e 8897 06bd
00000080: f470 4abc f437 0ebe c55c cbbc 2606 4bbd
00000090: c15e b43d 5fcb 303c 69bc 383e d978 4c3e
000000a0: 08a9 8a3e 457c eebd ab00 9dbd 3909 963e
000000b0: c0ca 843d d0e4 2ebc eece 903e 994e c93d
000000c0: 965c 093e 0bc8 dabd

linear_relu_stack.10.weight f4 [180, 50]
-0.11869502 0.015295792 -0.11681919 -0.093225434 -0.13338976 -0.08113346 -0.07638185 -0.04984398
0.013192778 0.11351128 0.101633415 -0.02719102 0.025481313 -0.05352977 -0.10377588 -0.03952074
0.101345494 0.051042303 0.0061034136 0.05901898 0.0059744953 -0.007497713 0.05166267 0.09820589
-0.14353491 -0.0796602 -0.021845978 -0.12655585 0.12165053 -0.100416936 -0.044589683 0.018252969
-0.08978227 0.044019267 -0.0411664 0.06440164 0.04754784 -0.11657905 0.07800641 0.025457105
0.08709105 -0.08684327 0.13867235 -0.063442886 0.017126065 0.040446684 -0.06763632 -0.11938126
-0.05369267 -0.050035626 0.023450136 -0.13206564 -0.0758909 0.036117446 -0.06490117 -0.010997787
0.0066177906 -0.024346257 -0.03776425 -0.03135992 -0.033574164 0.11599146 0.13266678 -0.12717335
-0.056713328 -0.11779738 -0.07175567 -0.09734818 0.10504605 -0.016364124 0.009446342 -0.091421396
-0.09024559 0.08854956 -0.084879786 0.10618191 -0.047646113 -0.023772188 -0.12131686 -0.087564
0.04814648 0.035818502 -0.07158172 -0.037255928 -0.08751638 0.07450119 0.04184974 0.1247556
0.08537052 -0.075931 -0.033934116 -0.06440276 0.07523617 0.100433975 -0.015382395 -0.014561564
0.053080466 -0.018784823 -0.12238909 0.07218207 -0.02129738 -0.16946444 -0.090085976 -0.0026490234
-0.09847917 0.035861075 0.0010549709 -0.007755376 0.09651267 0.10772498 -0.103795774 0.040083274
-0.030274183 -0.12787719 -0.056375924 -0.078151785 0.020201057 -0.014066585 -0.16273558 -0.082029276
0.1280574 0.0739793 -0.13620181 -0.051779572 -0.053151168 -0.21191151 -0.110369384 -0.030334912
0.020146966 0.14072731 -0.0051739914 0.03587933 -0.082395755 0.026380867 0.09992969 -0.06383545
0.09793243 -0.046161674 -0.06405328 -0.18010716 0.03318569 0.022470472 -0.135411 0.04199798
0.13303944 0.10028042 0.02781402 -0.039649658 -0.08978584 0.017380295 0.09892835 -0.12392219
0.053623453 -0.12048041 0.025141954 -0.0074367374 0.09552554 0.09104657 -0.02384255 -0.0856934
-0.0014809221 -0.050477445 0.0707124 -0.08236769 -0.05598395 0.024101153 0.118814126 0.04808727
0.09599593 0.1193718 -0.05375688 0.073526055 0.13772206 -0.0060871704 0.10016363 0.09961148
0.04053944 -0.09296472 0.089549094 -0.061918847 0.09414155 -0.0327582 0.12758005 -0.0053052604
-0.103003085 -0.08029927 0.1353551 0.13826415 0.09105184 0.043814633 -0.11648295 0.106646985
0.036416225 -0.012051909 -0.08528832 0.0726413 -0.061849512 0.111317955 -0.10241078 -0.08783073
-0.019360274 -0.11719146 -0.13086346 0.022086123 0.12797473 0.11154665 -0.080622524 0.08553897
-0.057277776 -0.1220618 -0.04565338 -0.033252098 -0.049127445 -0.046736747 0.11234494 0.035080202
0.06935613 -0.014842237 -0.05711296 -0.010939447 -0.13427123 -0.070607975 -0.016004845 0.05456728
0.1369116 -0.11545662 0.06360778 -0.034305632 -0.05994656 0.09039182 0.08310778 0.08536735
0.06970664 0.051653355 -0.016240131 -0.005152777 0.12264441 0.092656456 0.089517124 0.08454222
0.1158224 0.056038007 -0.029306764 -0.053820435 0.0881144 0.0075284094 -0.096309654 -0.047746945
-0.10250798 0.055395454 0.14118315 -0.14764285 0.12769048 -0.018154085 0.060335577 0.040357277
00000000: 6016 f3bd 349b 7a3c e63e efbd faec bebd
00000010: 5397 08be 4d29 a6bd 166e 9cbd 3429 4cbd
00000020: 8626 583c 9a78 e83d 2e25 d03d b4bf debc
00000030: 30be d03c 0842 5bbd 7388 d4bd 80e0 21bd
00000040: 3a8e cf3d bc11 513d 25ff c73b e3bd 713d
00000050: b3c5 c33b 60af f5bb 3c9c 533d 2b20 c93d
00000060: d1fa 12be e324 a3bd 56f6 b2bc db97 01be
00000070: ea23 f93d 65a7 cdbd aca3 36bd 4087 953c
00000080: c4df b7bd 8c4d 343d 199e 28bd 02e5 833d
00000090: 86c1 423d ffc0 eebd d3c1 9f3d 6b8b d03c
000000a0: cb5c b23d e2da b1bd 2000 0e3e 58ee 81bd
000000b0: f64b 8c3c 6cab 253d e984 8abd 297e f4bd
000000c0: d8ec 5bbd 28f2 4cbd 801a c03c 373c 07be
000000d0: b06c 9bbd e3ef 133d e8ea 84bd 1030 34bc
000000e0: 0dda d83b cd71 c7bc b0ae 1abd 4273 00bd
000000f0: 1085 09bd ee8c ed3d cdd9 073e bb39 02be
00000100: 3c4c 68bd c13f f1bd a3f4 92bd 7c5e c7bd
00000110: 6222 d73d 0e0e 86bc d4c4 1a3c 243b bbbd
00000120: aed2 b8bd 7959 b53d 74d5 adbd e775 d93d
00000130: 9228 43bd e4bd c2bc f974 f8bd c154 b3bd
00000140: 3e35 453d 6cb6 123d 7099 92bd ac99 18bd
00000150: ca3b b3bd 1494 983d a26a 2b3d dd7f ff3d
00000160: bdd6 ae3d b681 9bbd 80fe 0abd 98e5 83bd
00000170: 6c15 9a3d 54b0 cd3d 7106 7cbc a093 6ebc
00000180: e76a 593d a1e2 99bc 22a7 fabd 31d4 933d
00000190: d877 aebc 1688 2dbe ff7e b8bd 3d9b 2dbb
000001a0: 72af c9bd 10e3 123d f346 8a3a cf20 febb
000001b0: 6fa8 c53d ea9e dc3d e192 d4bd 5c2e 243d
000001c0: 9001 f8bc 3df2 02be 71ea 66bd 0b0e a0bd
000001d0: b07c a53c 8977 66bc 28a4 26be f7fe a7bd
000001e0: 7b21 033e 7682 973d 7d78 0bbe d116 54bd
000001f0: 0ab5 59bd 55ff 58be 5809 e2bd ec80 f8bc
00000200: 400b a53c d21a 103e 968a a9bb 34f6 123d
00000210: 1bbf a8bd b01c d83c f0a7 cc3d 29bc 82bd
00000220: cc90 c83d 0614 3dbd 5e2e 83bd 036e 38be
00000230: b8ed 073d ff13 b83c 2ea9 0abe 1306 2c3d
00000240: 7e3b 083e d25f cd3d 3ada e33c ae67 22bd
00000250: a3e1 b7bd 1f61 8e3c f29a ca3d ebca fdbd
00000260: 44a4 5b3d 6fbe f6bd 80f6 cd3c e0af f3bb
00000270: e5a2 c33d a076 ba3d 7451 c3bc 0580 afbd
00000280: 801b c2ba 70c1 4ebd aad1 903d 64b0 a8bd
00000290: 6d4f 65bd c86f c53c d254 f33d 28f7 443d
000002a0: 8499 c43d 3479 f43d 2d30 5cbd d494 963d
000002b0: 0307 0d3e e376 c7bb 9722 cd3d 1b01 cc3d
000002c0: af0c 263d 4a64 bebd 8465 b73d 9e9e 7dbd
000002d0: 49cd c03d 762d 06bd 58a4 023e c0d7 adbb
000002e0: 48f3 d2bd f273 a4bd 879a 0a3e 1e95 0d3e
000002f0: 6379 ba3d f976 333d 9d8e eebd bc69 da3d
00000300: 2e29 153d 5f75 45bc a5ab aebd f6c4 943d
00000310: ea55 7dbd abfa e33d bebc d1bd 99e0 b3bd
00000320: 7099 9ebc 1402 f0bd 1201 06be f5ed b43c
00000330: cf0b 033e 9272 e43d 6c1d a5bd 0e2f af3d
00000340: 1a9c 6abd 89fb f9bd 0aff 3abd 5a33 08bd
00000350: dc39 49bd 086f 3fbd 1b15 e63d 42b0 0f3d
00000360: 960a 8e3d db2c 73bc 47ef 69bd 5e3b 33bc
00000370: 667e 09be ea9a 90bd 981c 83bc f181 5f3d
00000380: 8e32 0c3e 8574 ecbd cc44 823d 1084 0cbd
00000390: 868a 75bd 591f b93d 6934 aa3d 14d5 ae3d
000003a0: 5bc2 8e3d 7892 533d 060a 85bc a0d8 a8bb
000003b0: fe2c fb3d abc2 bd3d c154 b73d 7924 ad3d
000003c0: 4b34 ed3d 1c88 653d bd14 f0bc d172 5cbd
000003d0: 5375 b43d e0b0 f63b ff3d c5bd 4d92 43bd
000003e0: b4ef d1bd 58e6 623d 5192 103e b02f 17be
000003f0: 4bc1 023e e0b7 94bc 7022 773d ac4d 253d

linear_relu_stack.10.bias f4 [180]
0.050690513 0.09573709 -0.28162065 -0.0016727163 -0.113641 -0.25862637 -0.21160203 -0.019890482
-0.22463237 -0.03775155 0.0047975387 -0.1944035 -0.05869256 -0.047485996 -0.13507433 -0.02683388
-0.09414955 -0.1673683 -0.01513627 -0.042162064 -0.20255478 0.13113113 0.05890718 -0.20631753
0.05591242 -0.010820389 -0.15112133 -0.072491325 -0.07886279 -0.030100832 0.00044628957 -0.014007701
-0.24772397 -0.03732159 0.18423586 -0.27576077 -0.10893469 -0.06163875 -0.076763764 0.07961799
-0.004410409 -0.045969695 -0.10252158 -0.12100268 -0.06805741 0.11277444 0.17782481 -0.22975421
0.025655095 0.10426071 -0.24014904 -0.0371536 -0.04243657 -0.073829204 -0.10114233 -0.105457
-0.08067474 0.010827336 0.10475807 -0.11435802 0.030274786 -0.03247903 -0.24142532 0.1037551
-0.058657356 -0.12834822 0.022584707 -0.076739416 -0.111593425 0.0017455363 0.026002632 -0.13859881
-0.017402243 -0.0031655913 -0.20622009 0.0018233099 -0.05989637 -0.21714567 0.00898425 -0.03567151
-0.07551997 -0.09036836 0.115855895 -0.08807899 -0.07627817 -0.028482117 -0.24624196 0.11846773
-0.14404407 -0.091335736 -0.013624154 -0.062268022 -0.0156291 -0.015886784 0.07408427 -0.13495815
0.032754254 0.04758525 -0.050016794 0.022868719 -0.030974517 -0.2131651 -0.08850242 -0.07184855
-0.17019604 0.028482992 0.084844545 -0.2235056 -0.099289834 -0.08986763 -0.0921763 -0.068032384
-0.15036212 -0.09261038 -0.13889349 -0.130642 -0.14186375 0.02189466 0.014717948 -0.001649905
-0.05886831 0.03237139 -0.039995767 -0.044129666 -0.1162017 -0.006495169 0.07248403 -0.12158041
-0.027725233 -0.11195404 0.1044246 -0.1274891 0.030586535 -0.026643222 -0.10310234 0.12581438
0.03163816 -0.24645111 0.017161563 -0.112280786 -0.06768349 0.044793528 0.041012794 -0.23655653
-0.09159211 0.20695917 -0.047019154 -0.027905615 -0.06454957 -0.13335349 0.07381113 -0.054300547
-0.16539457 0.013016261 0.11671987 -0.08982174 -0.12613857 0.019076698 -0.08156504 0.18114264
-0.029032387 -0.05120163 0.08010697 0.07145346 -0.17401767 0.12237665 0.062073156 -0.11815072
0.066251636 -0.07369996 -0.041740727 0.041428927 -0.14526556 -0.0808549 -0.09143792 -0.043381356
-0.09034824 -0.07261334 0.10720529 -0.019096548
00000000: dba0 4f3d cf11 c43d 9530 90be 0c3f dbba
00000010: 9dbc e8bd ad6a 84be 34ae 58be 5df1 a2bc
00000020: 0706 66be 5fa1 1abd ac34 9d3b b611 47be
00000030: 9c67 70bd ad80 42bd ed50 0abe bad2 dbbc
00000040: 7bd1 c0bd 9862 2bbe 1efe 77bc 21b2 2cbd
00000050: 856a 4fbe 3d47 063e a848 713d e744 53be
00000060: 6c04 653d 0048 31bc 8dbf 1abe 5576 94bd
00000070: d082 a1bd 0596 f6bc f9fb e939 8e80 65bc
00000080: 5aab 7dbe 86de 18bd 53a8 3c3e 8430 8dbe
00000090: 2719 dfbd ea78 7cbd 5236 9dbd c20e a33d
000000a0: 3185 90bb b84a 3cbd d6f6 d1bd 41d0 f7bd
000000b0: af61 8bbd 49f6 e63d b517 363e b044 6bbe
000000c0: a22a d23c a486 d53d a1e9 75be 602e 18bd
000000d0: f8d1 2dbd c433 97bd b623 cfbd d7f9 d7bd
000000e0: cc38 a5bd 2465 313c 668b d63d 8a34 eabd
000000f0: d402 f83c bb08 05bd 3338 77be 8e7d d43d
00000100: b242 70bd b76d 03be 9003 b93c 8e29 9dbd
00000110: 188b e4bd 7bca e43a 7903 d53c d9ec 0dbe
00000120: 268f 8ebc cf75 4fbb 5c2b 53be 21fc ee3a
00000130: e555 75bd 6f5b 5ebe ad32 133c 4a1c 12bd
00000140: 37aa 9abd 0c13 b9bd db45 ed3d c262 b4bd
00000150: bb37 9cbd 5453 e9bc da26 7cbe 369f f23d
00000160: 4a80 13be 3b0e bbbd d837 5fbc c10c 7fbd
00000170: 9908 80bc 0025 82bc 7eb9 973d 7832 0abe
00000180: 5329 063d c0e8 423d 69de 4cbd 2e57 bb3c
00000190: 45be fdbc f447 5abe c240 b5bd 5525 93bd
000001a0: df47 2ebe 2a55 e93c fac2 ad3d a7de 64be
000001b0: 7858 cbbd 850c b8bd eec6 bcbd 9054 8bbd
000001c0: 87f8 19be 83aa bdbd 183a 0ebe 04c7 05be
000001d0: bb44 11be 6e5c b33c 8c23 713c a041 d8ba
000001e0: e61f 71bd dd97 043d 9ad2 23bd 4fc1 34bd
000001f0: 28fb edbd 6dd5 d4bb 8272 943d 26ff f8bd
00000200: 0720 e3bc 2948 e5bd 91dc d53d 818c 02be
00000210: 9d90 fa3c e342 dabc 5227 d3bd 7cd5 003e
00000220: 0497 013d ae5d 7cbe 6896 8c3c 78f3 e5bd
00000230: a49d 8abd 6b79 373d 08fd 273d e03b 72be
00000240: a594 bbbd 1bed 533e 2897 40bd 519a e4bc
00000250: 9132 84bd d18d 08be 4a2a 973d 406a 5ebd
00000260: 325d 29be 2842 553c d40a ef3d 76f4 b7bd
00000270: 782a 01be bc46 9c3c 920b a7bd 757d 393e
00000280: 54d5 edbc cdb8 51bd 200f a43d 3156 923d
00000290: b031 32be 9ca0 fa3d 6c40 7e3d 01f9 f1bd
000002a0: f0ae 873d 01f0 96bd 53f8 2abd 61b1 293d
000002b0: 7fc0 14be 4197 a5bd ce43 bbbd a6b0 31bd
000002c0: 8008 b9bd 4eb6 94bd 728e db3d 5d70 9cbc
