baselines/autoenc_basic/Weights/model_weights.pth (torch, 103762 bytes, 12 tensors)

linear_relu_stack.0.weight f4 [50, 180]
000000 a1 e9 31 3d b7 72 ce bc cf 5b 35 3d f7 17 83 bc
       0.043435697 -0.025201185 0.04427701 -0.016002638
000010 46 8f 0d bd 50 8f af bc 06 8c 85 bd 29 39 c0 bc
       -0.034560464 -0.021430641 -0.06520848 -0.023464756
000020 95 47 11 3d ad 24 6f 3d d5 e1 30 3b 81 c2 8b 3b
       0.035468657 0.058384586 0.0026990075 0.00426513
000030 5a a5 94 3d 02 73 89 3d 38 26 7d 3c ba fd 96 3d
       0.07258101 0.06711389 0.015451007 0.07372613
000040 29 d2 89 3d d0 70 83 3d 4a f5 28 3d e0 a5 b3 38
       0.06729538 0.06418002 0.04124955 8.566282e-05
000050 49 6e c7 3c 66 30 66 3c 3d 68 0f 3d c6 c1 31 bd
       0.02434458 0.014049625 0.03501152 -0.043397687
000060 cb 86 8a 3d 29 44 0d bd e0 61 97 3b 2c 86 ec 3c
       0.06763991 -0.03448883 0.004619822 0.028872572
000070 60 45 3d bd d4 85 28 3d 53 47 73 3d 0e 29 aa bb
       -0.04620874 0.041143253 0.059394192 -0.0051928824
000080 2c 6a dd 3c be 2d 2e 3d 20 20 5e 3c 3c df 6e 39
       0.027028166 0.042524092 0.013557464 0.0002278061
000090 3b d5 8f 3d 2a 6c b2 3a 0f 78 6f 3d 73 68 6b bd
       0.07023092 0.0013612558 0.058464106 -0.057472657
0000a0 a3 86 7c bd f5 7c 91 bd c3 f8 86 bd b0 4a 80 3c
       -0.061651837 -0.07103912 -0.06590416 0.015660614
0000b0 af d9 2d 3d c9 50 1d 3d 25 e5 26 3c 00 f7 8b 3d
       0.042443927 0.03840712 0.010186468 0.06834221
0000c0 b8 08 e7 bc 90 50 60 bd 1b a7 8f 3d 5b a9 82 3d
       -0.0282024 -0.05476433 0.07014295 0.06379958
0000d0 70 98 02 3d 24 0c 3c bb b0 de 81 3d 90 c9 61 3c
       0.031883657 -0.002869376 0.063413024 0.013780966
0000e0 9c f3 92 3c c4 34 e0 bc 32 96 29 3d 60 0f 30 3b
       0.017938428 -0.02736891 0.041403003 0.0026864633
0000f0 b1 35 8b 3d 8d 5d 27 bd b5 0c c2 3c 62 b6 30 3d
       0.0679735 -0.0408607 0.0236877 0.043142684
000100 9a 16 97 3d 9e 50 8f 3c b3 0b f0 bc 06 65 8a 39
       0.07377358 0.017494496 -0.029302454 0.0002639668
000110 7b 93 81 bd a5 28 68 bd ce af 26 bd c8 60 34 bc
       -0.06326958 -0.056679387 -0.040695004 -0.011009403
000120 8a 62 33 bc b4 95 22 3d 01 78 1b 3d 7b 97 81 bc
       -0.0109487865 0.03969355 0.03795624 -0.015819302
000130 79 e8 f7 bc 21 ee 81 3d 75 c5 98 bd 84 3c 88 3c
       -0.030262219 0.063442476 -0.07459537 0.016630419
000140 ee 20 1d bd b8 1c 57 bd 37 45 88 bd 40 14 4f 3d
       -0.038361482 -0.052517623 -0.06653827 0.05055642
000150 4e 91 96 3d 3c 33 e6 bc b1 b4 05 bd f3 99 a2 bc
       0.073519334 -0.028100602 -0.032643024 -0.0198488
000160 c2 b0 06 3d c9 42 31 bc 05 96 85 bd 9e bd 93 bd
       0.032883413 -0.0108191455 -0.065227546 -0.07213901
000170 45 a3 46 3d 32 71 7d bb df df 87 bd ae 72 42 3d
       0.04849555 -0.0038672206 -0.06634497 0.04747265
000180 28 98 29 bd 35 06 1e bd 63 46 95 bd 11 3c 8e 3d
       -0.041404873 -0.03858014 -0.07288816 0.069450505
000190 fc d7 39 3c ed 14 75 bc fb ce c1 bc 4a 5f 95 bd
       0.011342999 -0.014958602 -0.023658266 -0.072935656
0001a0 fb 19 6a 3d 20 d6 71 bd 23 7f 91 3d 24 ee 0d bc
       0.057153683 -0.059042096 0.071043275 -0.008662734
0001b0 80 c5 38 3d 67 cb 85 3d 0b cb 92 3c 5e 1f dc bb
       0.045110226 0.065329365 0.017919084 -0.0067176064
0001c0 3e 2b 28 bd 09 aa 43 3d 4f cd 16 bd a5 47 8e 3d
       -0.041056864 0.04776958 -0.03681689 0.06947259
0001d0 d8 7d 3f 3b a9 f7 1e 3d 5f 55 c4 3c c4 c4 11 bd
       0.0029219296 0.038810406 0.02396649 -0.03558804
0001e0 72 f9 74 bc be 93 2c bc 02 f5 7c bd 7c 7b 4f bd
       -0.0149520505 -0.010533271 -0.061757095 -0.050654873
0001f0 a7 a2 a9 3c 17 ed 83 bd be b9 41 bd c7 fd 41 3c
       0.020707441 -0.06441706 -0.04729628 0.01184029
000200 86 bc 3b bd c5 35 e9 bb 03 2c 16 3d 68 c1 5e bc
       -0.045834087 -0.0071170055 0.036663067 -0.013595916
000210 d2 28 c3 bb bd de 5a 3d 84 f3 43 bd 5a d1 27 bd
       -0.005955794 0.053435076 -0.047839656 -0.040971138
000220 8e 1a f8 bb 3f 55 91 bd b0 20 97 3d 3a fc 7f bc
       -0.007571525 -0.070963375 0.073792815 -0.0156241
000230 cf f7 8b 3d 7c 35 de bc a6 e0 48 bd 82 f2 10 3d
       0.06834375 -0.027125113 -0.049042366 0.035387523
000240 2d 80 7e 3d 20 7e 0d bc 48 d8 1c 3d 71 39 1f bd
       0.062133957 -0.008636028 0.0382922 -0.03887314
000250 4a 05 2a bd d0 54 4d bc b4 8b 0b 3c e5 44 95 bd
       -0.04150895 -0.012532428 0.008517195 -0.07288531
000260 f0 bf 39 bd 51 f2 82 bd 2f 5b a9 3c 46 d7 85 3d
       -0.04534906 -0.063938744 0.020673363 0.06535201
000270 88 11 71 bd 3b 9f 86 bd ce a6 36 bd 10 ff 2c bd
       -0.05885461 -0.065733396 -0.04459267 -0.042235434
000280 bb 91 1e bc d2 cd 91 3d 92 6a 5e 3d af 2e 5c bc
       -0.0096783 0.07119335 0.054300852 -0.013438865
000290 7b f4 49 bc a0 f2 3f 3d 14 ff 28 bd e9 2a 52 bd
       -0.012326355 0.046862245 -0.041258886 -0.051310454
0002a0 ec bd 86 bd 93 2b fb bc fb 80 42 3d 1b c6 56 3b
       -0.065791935 -0.030660426 0.047486287 0.0032771889
0002b0 e3 58 05 bc 78 b4 59 bc 62 8a 90 3d 92 a9 48 3d
       -0.008138868 -0.013287656 0.070576444 0.04898984
0002c0 83 25 81 b9 6e 71 61 3d 6a ff 71 bd d9 b5 02 bd
       -0.00024632746 0.055039816 -0.059081472 -0.031911705
0002d0 c0 ce 9a 3c 22 0e 22 3d 9c 9d 3c 3d 06 e3 5c 3d
       0.018897414 0.03956426 0.046048746 0.053927444
0002e0 40 86 76 3c 10 2e 37 3d 50 36 3d 3d 1e 15 54 3d
       0.015046656 0.044721663 0.046194375 0.05177795
0002f0 b0 f2 46 3c a4 da 13 3d f6 1c 29 3d c0 58 85 bc
       0.012142822 0.036097184 0.041287385 -0.01627767
000300 f7 db 37 bd 93 65 0a bd ac 42 f4 bc 8c d1 d8 bc
       -0.04488751 -0.033788275 -0.029816948 -0.026467107
000310 46 1d 0d bd 53 8a 81 3d 6e c8 81 bd 40 c7 7b 3c
       -0.034451745 0.063252114 -0.06337057 0.015367329
000320 10 a4 d2 bc 11 fc 82 3d 80 98 ab 3b 21 c7 02 bd
       -0.025712997 0.06395734 0.0052366853 -0.031928185
000330 6c ef d9 3c 86 45 7a 3d 18 9f 96 3c 1c 12 8b bd
       0.026603423 0.06110146 0.018386409 -0.067905635
000340 b4 28 81 bc aa ee 52 bd a0 81 9e bc a0 a8 9c 3b
       -0.01576648 -0.05149714 -0.01934892 0.004780844
000350 aa ef 86 bd 8a b2 f8 bc 36 0d 0c 3d f2 35 65 3d
       -0.06588681 -0.030358572 0.034192286 0.05595965
000360 fe a4 5c 3d a1 50 8b 3d 84 3d 2f 3d da 33 1a bd
       0.053868286 0.06802488 0.042783275 -0.037647106
000370 32 65 e8 bc 50 15 44 bd c2 c8 10 bd e6 3f 0f 3d
       -0.028368566 -0.047871888 -0.035347708 0.034973048
000380 68 54 e1 3c 40 d0 ac 3c 54 29 df 3c 12 2b 20 3d
       0.027506068 0.021095395 0.027241386 0.039103575
000390 7c bf 6f bc f8 7d 2e 3c d0 7c 3d 3d 0e d1 5c 3d
       -0.014633056 0.0106501505 0.04626161 0.053910308
0003a0 56 b3 1d 3d 50 24 94 3c d0 93 e0 3c 20 d3 8a bb
       0.038501106 0.018083721 0.027414232 -0.004236594
0003b0 37 9f 96 3d f0 60 ce bb d6 dc f8 bc 80 77 87 bd
       0.073545866 -0.006298177 -0.03037874 -0.0661459
0003c0 c0 61 45 bb ba 65 49 3d e6 b5 fa bc 3f 35 83 3d
       -0.0030118078 0.04916928 -0.030604314 0.0640664
0003d0 32 9d 50 bd 32 81 7c 3d 56 60 72 bd 91 f3 94 3d
       -0.050931163 0.061646648 -0.059173904 0.07273019
0003e0 9f 6c 4d bd 16 90 57 3d 02 28 77 3d e4 16 0e bd
       -0.050152417 0.052627645 0.06034089 -0.0346898
0003f0 e0 8c 5b bc 17 37 83 bd 1a 93 79 3d d0 52 a2 3c
       -0.013400286 -0.06406992 0.060931303 0.019814879

linear_relu_stack.0.bias f4 [50]
000000 8a 57 3b bd e0 07 a8 bc cc 60 8c bd 01 ff 8c 3d
       -0.04573778 -0.020511568 -0.068544 0.06884576
000010 14 4a 44 bd 02 29 93 3d 8c 51 0b bd 73 eb 52 3c
       -0.04792221 0.07185556 -0.034013316 0.012873518
000020 55 e0 85 bb 91 30 97 3d 6a e6 47 3c c2 59 8b 3d
       -0.0040855804 0.0738231 0.012200931 0.06804229
000030 cb 61 64 bd a6 8f 07 3d 00 66 5b 3c eb af f5 bb
       -0.055757325 0.03309598 0.013391018 -0.0074977777
000040 46 14 36 bb 8e 79 8f bd d4 d2 85 bb 5e cb 5c 3d
       -0.002778308 -0.070056066 -0.0040839706 0.053904884
000050 ac fc 5c 3d 19 53 1a 3d de 16 59 3d f0 63 78 bd
       0.053951904 0.037676904 0.053000323 -0.060642183
000060 67 4d e9 3c b3 e8 75 bd 0e cc 37 bc 14 96 00 3d
       0.028479291 -0.060036372 -0.011218084 0.031393126
000070 9c 50 e1 3c e5 6d 84 bc 5d 9a ba bc 78 9c 60 3d
       0.027504258 -0.016165683 -0.022778684 0.05483672
000080 b4 a9 bf 3c 72 74 8c bd f0 60 97 bc bd 5f 8a 3d
       0.02339635 -0.06858148 -0.01847884 0.06756542
000090 13 7d d6 3b 24 56 15 3d e8 ea b4 bc 4a a4 c6 bb
       0.0065456717 0.036459103 -0.022084668 -0.0060620653
0000a0 b5 74 4d 3d 0a cd 7c 3d a0 78 85 bb 10 f7 3b bb
       0.05016013 0.061718978 -0.0040732175 -0.0028681196
0000b0 62 5a 50 3d 66 46 3b bd 55 0c 93 3d 59 8a 50 3d
       0.050867446 -0.045721434 0.071800865 0.05091319
0000c0 41 fc 3b bd 12 b2 5f 3d
       -0.045894865 0.05461318

linear_relu_stack.2.weight f4 [40, 50]
000000 23 b6 55 bd 30 2b d7 3c ee 7f 18 bd 98 28 b1 bc
       -0.052175652 0.02626571 -0.03723138 -0.021625802
000010 9c c6 d7 bd 7c 81 02 bd cc a5 c0 3d 52 8d 3a bd
       -0.105359286 -0.031861767 0.09406623 -0.04554493
000020 bd f4 c9 3b f1 4e e1 bd 4f c6 a5 bd 4a bd eb 3d
       0.0061632083 -0.11001385 -0.08094465 0.115107134
000030 3f d3 f0 3c be 3b ef bd b0 1a 48 3d f0 a6 92 bd
       0.029397605 -0.11681317 0.048853576 -0.07160747
000040 05 64 ec 3d e0 2d 0c 3e c5 27 8b bc 9e aa ca 3d
       0.11542515 0.13689375 -0.016986737 0.09895824
000050 6e 95 c7 3c 19 24 53 3d bb 95 a6 bd 19 71 3d bd
       0.024363246 0.051548097 -0.081340276 -0.046250436
000060 5e 16 8b bd 26 fe 14 be a7 9d 9b 3c a5 f9 07 be
       -0.067913756 -0.14550075 0.018996073 -0.13278826
000070 b9 91 0a 3e b5 7d c8 3d 54 66 ce 3d fb 1b 4c 3c
       0.13532151 0.09789602 0.10078111 0.012457843
000080 c8 3e ac bd ba c1 14 3e 23 16 f4 bd 2a 73 31 bd
       -0.08410412 0.14527026 -0.11918285 -0.04332272
000090 81 1e ef bd b5 da d0 bc 18 14 22 bd 07 c3 e8 3c
       -0.1167574 -0.025494913 -0.039569944 0.028413309
0000a0 cc b7 e3 bc 57 a4 ae 3c b6 0f db bd e7 d4 96 3c
       -0.027797602 0.021318598 -0.10696356 0.018412067
0000b0 be 32 e5 bd 79 53 b9 bd 96 4c 1d be 18 69 a1 3d
       -0.11191319 -0.09049124 -0.15361246 0.07881373
0000c0 14 7f e0 3d 38 41 f5 bc 25 46 8e 3c 74 48 d6 3d
       0.10961738 -0.029938325 0.017367432 0.10463038
0000d0 c0 d7 d1 bb 14 e2 dd bd b6 ae 8b bd 9d 7e 94 bd
       -0.006403893 -0.108341366 -0.06820433 -0.07250712
0000e0 d0 4b 5f 3c d5 14 a1 bd 84 4e 0d be 8a 72 a6 bd
       0.013628915 -0.078653015 -0.13799483 -0.08127315
0000f0 6b 39 d1 3d 04 24 fe 3d bf b8 84 3d 68 22 ff 3c
       0.1021603 0.12409213 0.0648055 0.031144336
000100 68 0b f7 3c 9b d5 e1 bd ad cb 0a be e6 6b 62 3d
       0.030156806 -0.1102707 -0.13554259 0.05527868
000110 f4 69 c7 3d 82 6a 28 3e 36 a8 e0 3b 68 f5 23 3e
       0.09737006 0.1644688 0.00685599 0.16011584
000120 67 14 02 be 93 13 3f 3d 81 06 1c 3e 2c ae 36 bd
       -0.12703095 0.046649527 0.15236856 -0.044599697
000130 67 f0 c4 3c c2 37 cc 3d d4 2f e4 bd 25 f9 bf 3d
       0.024040414 0.099715725 -0.11141935 0.093736924
000140 e0 b2 88 bd b8 45 d4 bd 20 23 7b 3c ab 21 00 3e
       -0.06674743 -0.1036486 0.015328199 0.12512843
000150 ea 5f a8 bd 72 3a c3 bd e0 c7 0c 3e a4 3b d8 bd
       -0.08221419 -0.09532632 0.13748121 -0.105582505
000160 69 0c 09 be 5f 8f 5d bd 47 16 d2 3d 30 de bc 3d
       -0.1338364 -0.054091807 0.10258155 0.092220664
000170 ac f4 34 3d 8e 79 cf 3a 68 80 23 3d be 25 b8 bd
       0.04417865 0.0015829073 0.03991738 -0.08991574
000180 8a 09 31 3d 8d 22 b4 bd ab 2d f0 bc e0 b3 f6 bc
       0.043221988 -0.087956525 -0.029318651 -0.030115068
000190 a1 5b f1 3d d7 c7 ec bd c0 f3 07 bb ae ee d7 3d
       0.11785055 -0.11561554 -0.0020744652 0.105435714
0001a0 00 a4 cf bb ce fa 0d be bc 35 d3 3a d0 17 c0 3c
       -0.006336689 -0.13865206 0.0016114037 0.023448855
0001b0 e7 13 fb bc bb da 07 be 5b 4b 49 3d 35 27 6b 3d
       -0.030649139 -0.13267033 0.04914413 0.057410438
0001c0 61 4a 84 3d 4c 9e be bd c0 a4 67 3b ab a0 71 3d
       0.06459499 -0.093075365 0.0035346001 0.058991116
0001d0 ea 91 b3 3c 37 b0 11 bd ad d6 53 3d a0 04 33 3d
       0.021920163 -0.035568442 0.051718403 0.043705583
0001e0 20 fe a1 3d 1a 97 1e 3d d1 d1 93 bd 98 2b 56 bd
       0.079097986 0.03871832 -0.07217754 -0.052287668
0001f0 1d 24 cd 3d fa fc e1 3d d7 92 ce bd 9f 27 fc bd
       0.10016654 0.110345796 -0.10086601 -0.123122446
000200 c0 ba f7 3b 58 1c 08 be 2a 8e 9d 3d 02 25 b9 bd
       0.007560104 -0.13292062 0.07693131 -0.09040262
000210 bc a7 57 bd f9 c7 0a be 48 95 0a be c5 0a 23 3d
       -0.0526502 -0.13552846 -0.13533509 0.039805193
000220 b3 31 46 bd 4d 8a 85 3d 98 7b ad 3d d4 eb c6 bd
       -0.04838724 0.065205194 0.08470839 -0.097129494
000230 08 ce 01 3e 18 fa 41 bd b8 04 85 3c 47 30 65 bd
       0.12676251 -0.04735765 0.016237602 -0.055954244
000240 aa 1d a3 3d 12 b6 df 3d b1 47 07 3d 26 40 aa bc
       0.07964642 0.10923399 0.033027355 -0.020782541
000250 a1 21 e9 3c 08 68 b5 3c e8 97 8b bd 00 2e 6f ba
       0.028458418 0.022144333 -0.06816083 -0.0009123981
000260 50 e6 53 3d 00 25 ec bd fe 03 32 bd 8b 96 45 bd
       0.051733315 -0.11530495 -0.04346084 -0.048239272
000270 b4 a5 19 3d bc cf 03 3e 3f 93 8e bd 8a 88 53 bd
       0.037511542 0.12872213 -0.06961679 -0.051643886
000280 80 f3 f5 3d fd 72 1f 3c 4e 83 fd bd 00 a0 86 b8
       0.120093346 0.009732005 -0.1237856 -6.41942e-05
000290 86 39 e1 bd 7d 3c e3 bc 50 4f 0d be fa 4d 0c be
       -0.109973 -0.027738804 -0.13799787 -0.1370162
0002a0 2c 7f 73 3c 38 c5 81 bc 8c c2 7c bd 84 c0 0c be
       0.014861863 -0.015841112 -0.06170897 -0.13745314
0002b0 c8 19 f2 bd 1f 9f 6c 3d 50 d2 10 be 2f 6c a0 3d
       -0.11821324 0.057768937 -0.14142728 0.078331344
0002c0 bb ac 0b 3e 22 32 c0 3d 88 05 9b bd aa e7 a0 3d
       0.1364011 0.09384562 -0.075694144 0.078566864
0002d0 a1 5e 34 bc 81 61 d9 3c b3 67 0e 3e c2 18 84 3d
       -0.011008889 0.026535751 0.13906746 0.06450035
0002e0 d3 87 bb bd 91 a7 e3 3d e9 19 6e 3d 6f ca 22 3d
       -0.09156766 0.11115945 0.05813018 0.039743837
0002f0 17 aa ae bd 12 88 7e bd 09 84 5f bd dd 29 e2 3d
       -0.08528536 -0.062141486 -0.054569278 0.11043141
000300 48 ee ed 3c e5 e9 e7 bd 2c 4c 48 bd 07 28 02 3e
       0.029044285 -0.11323909 -0.04890077 0.12710582
000310 08 4e ab 3c a3 13 ea bc cf 78 db 3d 28 03 41 bd
       0.020911232 -0.028573817 0.10716402 -0.04712215
000320 3a d8 45 3d c4 2b 9a 3d 00 8a 7d bb 3c 8f 71 bd
       0.048301913 0.07527879 -0.003868699 -0.05897449
000330 10 76 7f 3d 92 d5 d5 3d 55 81 56 3d 54 f5 d0 bd
       0.062368453 0.10441126 0.052369434 -0.102030426
000340 78 5f 35 3d fc 66 08 3d 44 ad 93 3c 8c 19 a6 3c
       0.0442805 0.03330134 0.018026955 0.020275854
000350 e9 1b ec 3b 70 21 59 bd 36 c4 fe 3d f2 d0 15 3c
       0.0072054756 -0.053010404 0.12439768 0.009144055
000360 e5 2e be 3d 95 8a 9e 3d 14 c1 b2 3d db 8c 2e be
       0.09286288 0.07741276 0.08728233 -0.1704592
000370 fb d6 cf bd 69 cb d8 3d 00 c3 37 be 88 0d 86 3d
       -0.10148426 0.105856724 -0.1794548 0.0654555
000380 10 36 cc 3d 68 f1 f7 3d bd eb 4b 3d e1 f8 07 3e
       0.09971249 0.121065915 0.049785364 0.13278534
000390 64 0c 07 3d 17 b6 f0 3d 43 88 de bd cc 41 15 be
       0.0329708 0.11753481 -0.108658336 -0.14575881
0003a0 c2 13 d7 3d 9d 12 8c 3d aa d4 9e 3d cb 20 ee 3d
       0.105018154 0.06839488 0.07755406 0.116273485
0003b0 d5 76 69 bd 14 01 08 be c2 4a 3b 3d 20 b0 da 3d
       -0.056998093 -0.13281661 0.04572559 0.106781244
0003c0 00 41 8b 3d d3 9b c8 bd 4c 36 22 bd 12 1e 0d be
       0.06799507 -0.09795346 -0.039602563 -0.13781002
0003d0 55 ea 0b 3e 1a 2b df 3d bd da a2 3d 77 77 07 3e
       0.1366361 0.10896893 0.07951877 0.13229166
0003e0 8d f1 11 3d 66 3b 73 bd c8 a6 ae bc 98 6e 63 bd
       0.03563075 -0.05938282 -0.021319762 -0.055525392
0003f0 d8 a8 b8 bc f8 1f e0 3c 6c 0b 14 bd da b2 b3 bd
       -0.022541448 0.027358994 -0.036143705 -0.087743476

linear_relu_stack.2.bias f4 [40]
000000 6d 90 f5 39 32 30 20 3e cb d1 ef bd 70 b9 a6 bd
       0.00046837647 0.15643385 -0.11709937 -0.08140838
000010 2d d5 9c 3c ac 52 86 3d ee 40 cc bd 1c f4 5c 3d
       0.019144619 0.06558737 -0.09973322 0.05394374
000020 9b e8 e5 3d 98 53 83 3d 13 e1 11 3c f2 06 db 3d
       0.112260066 0.064124286 0.0089037595 0.10694684
000030 54 ef c3 3d a4 99 ea 3d ed ce 4c bb 80 c8 f4 3a
       0.095671326 0.11455086 -0.0031251267 0.0018675476
000040 64 ca 07 3d 23 e7 e4 3c d1 e6 12 bd f4 c0 91 bd
       0.033152 0.027942246 -0.035864655 -0.07116881
000050 6c b6 f6 3d 10 1e 83 3b e9 b5 01 bd 5d ac 16 3d
       0.12046513 0.0040013865 -0.031667624 0.036785472
000060 28 b5 33 3d 6e be 89 bd 8a a7 d0 3d 27 61 b5 3c
       0.043873936 -0.06725775 0.101882055 0.022141052
000070 6b 64 93 3d 48 8d d1 3d d1 e0 8b bd 43 09 8d bd
       0.071968876 0.102320254 -0.0682999 -0.06886532
000080 7a 23 44 bd 68 12 b0 3c 9f 1c cc 3d a2 d1 c3 3d
       -0.047885396 0.021493152 0.099663965 0.09561469
000090 4b 37 88 bd a0 7f 99 bc 85 15 e2 bc 38 c2 e4 bc
       -0.06651171 -0.018737614 -0.027598152 -0.027924642

linear_relu_stack.4.weight f4 [30, 40]
000000 6e 47 35 bd 1e 04 26 3e 5e 9a 12 3e 1a ba ea bd
       -0.044257574 0.16212508 0.14316699 -0.11461277
000010 da 0c 30 3d 9e d6 e7 3d 3d c2 05 3e 07 34 ee 39
       0.042981006 0.11320232 0.13062377 0.0004543366
000020 e5 0b bf 3d 68 d3 86 3d ea de 17 be 9a 07 a4 bd
       0.093284406 0.06583291 -0.14831129 -0.080092624
000030 00 cb db 3b 3a 26 29 3e 2e 36 9f bd 0c 74 94 3d
       0.006707549 0.16518489 -0.07774006 0.07248697
000040 74 df 09 3d 30 ab f0 bd ef 06 04 bc 8f 2a 08 3e
       0.033660367 -0.117514014 -0.008058294 0.13297485
000050 c4 ae a2 3d 55 43 a9 3a e8 d7 ee bd ab f3 29 3e
       0.0794349 0.0012913743 -0.116622746 0.16596858
000060 4e bc 0c be fb 0e 05 bd 59 a5 e0 3d 37 b6 10 3d
       -0.13743708 -0.03248499 0.109690376 0.035330024
000070 f9 aa ea bb 3e c0 26 3e c4 d1 20 be c2 b1 c4 3d
       -0.007161495 0.16284272 -0.15705019 0.09604217
000080 e1 00 eb bd d2 8c ee 3d 39 95 11 3c 1d 5c 8c 3d
       -0.11474777 0.11647953 0.008885675 0.06853507
000090 bb 5e 0c be 94 f5 10 3d 70 05 32 3d c4 a2 d8 3d
       -0.13708012 0.03539045 0.043462217 0.1057792
0000a0 52 51 11 3e 92 23 f7 3d 0d bc bc bd ec c2 02 bd
       0.14191177 0.120673314 -0.09215555 -0.031924173
0000b0 18 61 23 bd f6 49 d5 bd 60 41 1a bd b3 41 b1 bd
       -0.039887518 -0.104144976 -0.037660003 -0.08655109
0000c0 c7 66 0b be 4f f0 2d 3d 30 83 01 bd 43 de 28 3e
       -0.13613425 0.042465504 -0.03161925 0.16491036
0000d0 8d f0 0b 3e 55 4b 24 3e 67 0e d0 3d 8f 9e 09 3e
       0.13665982 0.16044362 0.10158997 0.13439392
0000e0 b8 ad b2 3c 11 74 b8 bc 29 79 46 bd f3 62 b9 3d
       0.021811351 -0.022516282 -0.04845539 0.09052076
0000f0 48 91 0a 3e f1 76 6c bb ee 96 97 3d bb 69 00 3d
       0.13531983 -0.0036081637 0.074018344 0.031350832
000100 cd 52 25 3e f8 be fa bd 72 d3 82 bd fa f2 82 bd
       0.16144867 -0.12243456 -0.06387986 -0.06394
000110 21 28 32 3c 3b 33 14 3e 28 41 a4 bc 06 27 15 be
       0.010873825 0.14472668 -0.0200506 -0.14565668
000120 c2 91 a3 3d 87 11 f9 bd a3 a1 fd 3d 3c 77 33 3d
       0.079867855 -0.12161546 0.123843454 0.043814883
000130 91 fe 0a b8 b5 c5 0e 3e 7e a1 2a 3d e3 ba 93 3d
       -3.3138847e-05 0.13942607 0.041657917 0.0721338
000140 d6 98 6e bd e4 8e 10 3d f8 1e 1a bd 16 c0 4d bd
       -0.058251224 0.03529252 -0.03762719 -0.050232016
000150 90 0b 25 3d f0 ee 22 3c 5e 44 94 3d 0a 31 a7 3d
       0.04029423 0.009944662 0.072396025 0.0816365
000160 79 66 0a 3e 00 20 ae 3a 00 40 ab ba 88 b5 5e bd
       0.13515653 0.0013284683 -0.0013065338 -0.05437234
000170 90 9a b7 3c e0 0a 7b bc aa 38 f5 bd fe 2b 74 bd
       0.022412568 -0.015322417 -0.119736984 -0.059612267
000180 19 9d 1f 3e db f1 20 be 39 08 09 be 0a 6d d4 3d
       0.15587272 -0.1571726 -0.13382043 0.1037236
000190 f8 2c ba bd 00 0d a0 3c de 82 e1 3d 96 73 0c be
       -0.09090608 0.019537449 0.11011289 -0.13715968
0001a0 b0 25 27 3d 0e 6e 19 bd 18 eb aa 3c 38 59 e6 bc
       0.040807426 -0.037458472 0.020864055 -0.028118715
0001b0 38 7a b4 bd 4b 0e 08 be 50 41 66 3d a3 27 1c be
       -0.08812374 -0.13286702 0.05621463 -0.15249495
0001c0 70 01 a1 3c 82 a7 a8 3d 20 ba 16 3c 03 6a 0c 3e
       0.019654006 0.082350746 0.009199649 0.13712315
0001d0 95 59 cb bd ae d2 f1 3d 0d ed 0a 3e 48 a0 9a 3c
       -0.09929196 0.11807762 0.1356699 0.018875256
0001e0 7c f6 27 be 68 89 a7 3d 29 84 b5 3d 47 5f bb bd
       -0.1640262 0.08180505 0.08863098 -0.09149032
0001f0 7b 36 05 be c9 9e 0b 3e 62 d0 d0 3d 4c 0a a6 3d
       -0.13009064 0.1363479 0.10195996 0.08107433
000200 f3 49 85 3c 18 14 13 3e 5b c1 6d 3d fe eb a4 39
       0.016270613 0.14363134 0.058045726 0.00031456345
000210 84 2e 1a 3d d9 80 18 be 02 10 a9 3c a4 e4 0d 3d
       0.037642017 -0.14892901 0.020637516 0.034641877
000220 6e fc c3 3d 48 ed 18 3e 0c 1e 11 3e cd ca f0 3d
       0.095696315 0.14934266 0.14171618 0.11757431
000230 42 a6 ed 3d 12 72 2b bc ae 4b 0e be 2f c3 b3 bd
       0.11603977 -0.010464208 -0.13896057 -0.08777463
000240 01 51 c7 bd 3e 0c bd 3d df 33 d6 bc 6f ac 89 3d
       -0.09732247 0.09230851 -0.026147781 0.06722342
000250 f6 07 0f 3e 34 29 fd bd 98 d0 d4 bc 88 83 68 3d
       0.1396788 -0.123613745 -0.025978372 0.056766063
000260 b5 08 c1 bd 6f b0 e1 bd 46 f5 8b bd cd a7 b3 bd
       -0.09425489 -0.1101998 -0.068338916 -0.0877224
000270 f0 93 28 bd f2 7a da bd 52 42 01 be 14 da e7 bd
       -0.04115671 -0.10667981 -0.12622955 -0.11320892
000280 f2 29 ec bc c8 61 a9 bd ac 6b 90 bd 6c e3 9b 3c
       -0.028828595 -0.082706034 -0.07051787 0.019029342
000290 6c 72 bf bd f0 d1 02 3c 78 26 43 bd 49 5b 14 be
       -0.09347996 0.007984623 -0.04764411 -0.14487948
0002a0 c0 0b dd bc 7d 9d 14 3b a4 c1 1f bd a5 fa 26 3c
       -0.026983142 0.0022676878 -0.03900303 0.010191594
0002b0 02 e2 08 be b0 2a 3f 3b 3f 3c d9 3a c8 1c ed bc
       -0.13367465 0.002916973 0.0016573741 -0.028944388
0002c0 28 14 39 3d da 56 05 3e 81 a4 5b 3d aa 8a 71 bd
       0.045185238 0.13021412 0.05362368 -0.05897013
0002d0 5e 16 01 be ce de 22 bd f2 bc 04 bd 4f 40 d8 3d
       -0.12606189 -0.039763264 -0.032406755 0.10559141
0002e0 18 82 86 3d 89 d7 0a 3e 28 6e e8 bd 1b 3a 9c bd
       0.06567782 0.13558783 -0.11349136 -0.0762827
0002f0 d1 53 0d be b7 d2 9a bd c2 49 b1 3d 8c f0 14 be
       -0.13801505 -0.07559722 0.08656646 -0.14544886
000300 50 b6 9a bc fa 76 18 be 93 37 77 3d e4 61 68 3d
       -0.018885761 -0.14889136 0.060355734 0.05673398
000310 90 95 1f 3e 9d 9a 00 3e 0b 15 d7 3c 07 2c 17 be
       0.15584397 0.1255898 0.026255151 -0.14762889
000320 05 4d 38 3c 6c 02 3b 3e 81 46 c4 bd 0d 76 e2 bd
       0.011248832 0.18262643 -0.0958376 -0.11057673
000330 fb de 88 bd 8c a7 aa bd f4 ad e9 bd c0 8b 36 bd
       -0.06683155 -0.08332738 -0.11410132 -0.04456687
000340 e1 3c 31 3e cb 4c 00 bd fc 75 98 3c 91 ea bd bc
       0.1730838 -0.031323235 0.018610947 -0.023183139
000350 05 60 14 3e b2 cb 1f 3e 04 a2 33 3d 40 c2 44 bb
       0.14489754 0.15605047 0.043855682 -0.0030023009
000360 fa f7 1c be d2 df c6 3d 79 01 01 be f3 fc ce bd
       -0.1532897 0.09710659 -0.12598218 -0.1010684
000370 32 ac 2a 3e 30 29 eb bd 32 34 2a 3e 4e 45 39 3e
       0.1666725 -0.11482465 0.16621473 0.18092844
000380 b0 86 11 3b 35 1f 82 3d ee f7 84 bb e0 22 7f bd
       0.0022205524 0.063536085 -0.004057876 -0.06228912
000390 1d 71 16 bd b9 64 87 3d 53 ac 1e be 0e 29 2b bd
       -0.036728967 0.06611008 -0.15495424 -0.0417872
0003a0 3e db 14 bd c8 6b 29 bd 89 5c 6d bb 89 84 41 3c
       -0.0363419 -0.041362554 -0.0036218485 0.011811384
0003b0 46 7f 5f bd 32 8a db 3d bb 63 c4 3d 2e b6 1c 3c
       -0.054564737 0.10719718 0.095893346 0.009564919
0003c0 b0 f6 ec bc 20 74 f6 bd 9f a6 07 be 32 e9 c4 bd
       -0.028926224 -0.12033868 -0.13247155 -0.09614791
0003d0 ca 77 88 3d f8 77 11 be 93 6b 8f bd 26 c0 f0 3d
       0.06663473 -0.1420592 -0.0700294 0.117553994
0003e0 0c 05 1b be c0 18 20 bb 52 61 ee 3d 7e 12 3d bd
       -0.15138644 -0.0024428815 0.11639656 -0.046160214
0003f0 e8 b2 b3 3c fe ce 84 bd b8 d9 44 bd ae e2 bc 3d
       0.021935895 -0.06484793 -0.048059195 0.09222923

linear_relu_stack.4.bias f4 [30]
000000 c3 d9 f8 3d 70 39 87 3e d8 0f 09 3d 42 54 fa 3d
       0.1215091 0.2641101 0.033462375 0.12223102
000010 55 04 21 be 5e d6 93 3e 81 34 09 be 07 e9 b2 bd
       -0.15724309 0.28874487 -0.13398935 -0.08735853
000020 64 51 1c 3e 81 66 92 bd 9e 75 56 3d a5 29 1d be
       0.15265423 -0.07148457 0.052358262 -0.15347917
000030 a9 e8 83 bd 26 dd e8 3d a2 28 1b be 10 60 a7 3c
       -0.06440861 0.11370306 -0.15152219 0.020431548
000040 1e bb 32 bd 08 1c e3 3d 2b 63 c1 3d 2d b3 0f 3e
       -0.04363548 0.11089331 0.09442743 0.14033194
000050 df 13 04 3d 19 95 a9 3d c4 9c 0c 3d 4e e2 80 3e
       0.032245513 0.08280391 0.03432919 0.25172657
000060 63 35 30 3e b0 f7 1a 3e e6 ab 3b 3c 48 d1 f8 bd
       0.17207865 0.15133548 0.011454558 -0.12149292
000070 8c 50 9e 3d ea da dc bd
       0.07730207 -0.10783942

linear_relu_stack.6.weight f4 [40, 30]
000000 31 e4 08 be 50 3d 11 be f0 8d ab 3c 40 f7 22 3d
       -0.13368298 -0.14183545 0.020941705 0.039786577
000010 5c 7b 40 3d 08 37 5b 3d f8 05 ff 3d 94 0e f9 bd
       0.046992645 0.05351928 0.1245231 -0.12160984
000020 14 d1 d4 3d 31 80 32 be ec 2e 24 be 58 b8 ce 3c
       0.10391441 -0.17431714 -0.16033524 0.025234386
000030 00 3e b3 bc 28 19 bf bc ce dd fe bd 45 3b 2d be
       -0.02188015 -0.023327425 -0.1244465 -0.16917141
000040 8c bf 1b be 02 47 82 3d 60 fa 22 3e b1 be 22 be
       -0.15209788 0.063612 0.15915823 -0.15893055
000050 58 04 23 bd 8c e3 d7 3d 5c 0a 2a 3e bc 7d e8 3d
       -0.039799064 0.10541448 0.16605514 0.11352107
000060 26 45 73 bd 70 8a 95 bc b8 e7 91 3d 78 da 37 3e
       -0.059392117 -0.018254489 0.07124275 0.17954433
000070 b4 c2 d0 bd e8 bf fd bc 8d 00 35 be 33 13 da 3d
       -0.10193387 -0.030975297 -0.17675991 0.10648193
000080 02 1c 0f be e3 d5 b7 3d d0 c7 d2 bd 01 0a 07 3e
       -0.13975528 0.089763425 -0.102920175 0.1318741
000090 e0 04 03 3e cf 6c a2 bd 26 eb 30 3c b4 92 5b bc
       0.12794828 -0.0793091 0.010798251 -0.013401676
0000a0 d9 45 ad bd c8 2d e7 3d 90 55 68 bd 69 a6 5b bd
       -0.08460588 0.11288029 -0.056722224 -0.053625498
0000b0 c0 18 90 bd 6a a2 17 be 88 da 15 3d ec 6e e9 3d
       -0.07035971 -0.1480805 0.03658536 0.1139811
0000c0 79 18 1a be 01 8c 05 3e 81 a5 e0 bc 5d d5 bb 3c
       -0.15048398 0.13041689 -0.027422668 0.022928888
0000d0 6a ab 89 bd f6 9d 5d 3d 64 95 45 bd 1d d8 c8 3d
       -0.06722148 0.05410572 -0.048238173 0.09806845
0000e0 6f 1f 32 be 90 f3 a3 3c db 8c f2 3b 77 6b 1e 3d
       -0.17394803 0.0200136 0.007402045 0.038676705
0000f0 20 82 bd bc 9c 57 9f 3d a6 2b 2e 3e 82 bb 31 3e
       -0.023133337 0.07780382 0.17008838 0.17356685
000100 60 99 7c bc 3c ea a1 3d 04 ca 19 be 8c 1e a8 3d
       -0.015417427 0.07906005 -0.15018469 0.08208951
000110 b8 22 e8 bc 2b 1c d5 bd 34 9f b2 3d 58 27 36 3d
       -0.028336868 -0.10405763 0.08721772 0.044471115
000120 44 13 c5 3d e5 69 86 bd f0 7a ce 3d 8a dd 35 be
       0.09622815 -0.065631665 0.10082042 -0.17760292
000130 68 cc 21 3e 00 42 60 3c 24 0c e8 3d a0 31 02 be
       0.15800631 0.013687611 0.11330441 -0.12714243
000140 0e 8c 1d 3e c0 f7 7c bd ec 93 59 3d e0 f0 e5 3d
       0.15385458 -0.06175971 0.053119585 0.11227584
000150 20 7e 40 3c f8 d8 03 be 10 fd 2c bd 60 79 5c 3c
       0.011748821 -0.12875736 -0.042233527 0.013456672
000160 c0 3e 4d 3c 28 1a 2a be 68 5e 97 3d 18 f9 15 3e
       0.012527168 -0.1661154 0.073910534 0.14645803
000170 a1 09 0c be 00 73 f2 3d 38 30 1b be 03 83 ed 3d
       -0.13675548 0.11838341 -0.15155113 0.11597254
000180 10 d6 90 3d c1 b9 ff 3c 97 0f af bd 03 8a 13 3c
       0.07072079 0.031216504 -0.085478954 0.0090050725
000190 1d ee c4 bd 38 79 3f bd fc ff 18 3e 7b a9 f1 3d
       -0.09615729 -0.046746463 0.149414 0.11799904
0001a0 6c a5 99 3d 8e 70 14 3e e0 09 e2 3d 27 06 a4 bd
       0.07502255 0.14496061 0.1103704 -0.08008986
0001b0 3d 10 cb 3d aa 5b 0a 3e f2 95 88 bd 7d 88 85 3d
       0.099152066 0.1351153 -0.06669225 0.06520174
0001c0 df d2 29 bb f5 fc 0f bd 04 c0 3f 3e 1c b3 5c 3e
       -0.0025913042 -0.035153348 0.18725592 0.215527
0001d0 8e 1f 22 3e c0 74 86 3b 4b 7b f8 3a f9 be 29 be
       0.1583235 0.004103273 0.0018957643 -0.16576757
0001e0 99 2f f7 3d 63 41 1a 3e cc b7 66 3d 53 cc a6 bc
       0.120696254 0.15064006 0.056327626 -0.020361101
0001f0 25 fa 80 3c 17 97 10 3e f5 31 90 bd 0c d2 78 bd
       0.015744278 0.14120136 -0.070407785 -0.06074719
000200 4c f4 00 3e 86 88 c3 bd f9 1d 88 bb 10 8f 8b 3c
       0.12593192 -0.09547524 -0.0041539636 0.017035991
000210 83 fd 1a be 18 01 4a bd ba a7 24 3e b0 9d 20 3d
       -0.1513577 -0.04931745 0.16079608 0.039212883
000220 1e 18 96 bd 79 80 9c 3d 8a a9 d6 bc ec 87 d0 3d
       -0.07328819 0.07641692 -0.02620389 0.10182175
000230 e0 48 b3 3c 20 a5 30 be a2 77 11 be 29 95 94 3d
       0.021885335 -0.1725049 -0.14205793 0.072550125
000240 1c 70 b7 3d 24 b7 68 bd 2a 52 17 be 38 61 ed 3d
       0.0895693 -0.05681528 -0.14777437 0.11590809
000250 cf 9d c1 3d 2b 01 24 3e 4b 4d 25 3e 2f 17 c6 bd
       0.09453928 0.1601607 0.16142766 -0.09672391
000260 01 b2 1d be 14 70 c1 bc 56 d9 2d bc c3 bf 11 3e
       -0.15399934 -0.023613013 -0.010610899 0.14233308
000270 d8 d5 64 bd 72 71 97 bb 80 3e 27 3e da 26 16 3e
       -0.055868 -0.004621678 0.16332436 0.14663258
000280 2f f9 58 3d da bc 1a 3e 54 fa 15 3d 06 be fe bc
       0.052972015 0.15111104 0.036615685 -0.03109647
000290 bc 22 d1 3d 83 09 2b be 7a 26 22 3e 31 79 03 3d
       0.10211703 -0.16702847 0.1583499 0.032098
0002a0 aa e7 b1 bc 70 b4 21 3e 45 2c a3 3d e9 09 a9 bd
       -0.021716911 0.15791488 0.07967428 -0.08253843
0002b0 80 62 08 be 32 5f aa 3d 53 bb d2 3d 73 24 84 3d
       -0.13318825 0.08318938 0.102896355 0.06452265
0002c0 a1 bc a7 3d a4 66 4d bd 43 6d 34 3e c5 f9 d1 3d
       0.08190275 -0.050146714 0.17619805 0.10252718
0002d0 fa 5f d3 bd a1 d8 27 bd b8 29 32 3d b0 91 2a be
       -0.103210405 -0.040978078 0.043496817 -0.16657138
0002e0 c4 a2 d4 bd d7 e5 b6 bd a0 02 a4 bc f3 fd 50 bd
       -0.103826076 -0.08930557 -0.020020783 -0.051023435
0002f0 98 ef b8 3c fa 0a ae bd f9 5f 30 be 36 5f 39 be
       0.022575185 -0.08498187 -0.1722411 -0.18102726
000300 64 8f 2c 3e ff 71 36 3e 94 02 da bd b7 22 21 be
       0.16851574 0.17816924 -0.10645023 -0.15735899
000310 a0 9f 51 bd 7a 21 23 3e 24 e0 d0 bd 13 99 e7 bc
       -0.05117762 0.15930739 -0.101990014 -0.028271234
000320 82 da c5 bc 33 17 2b bd dc dd 00 3e 4e f5 21 3e
       -0.024152044 -0.04177017 0.12584633 0.15816233
000330 a9 c0 b8 3d 7c 5d c6 3d 0c 28 96 bd 88 60 f5 bc
       0.09021122 0.096857995 -0.07331857 -0.029953256
000340 05 7b a8 bd 04 c0 3f 3d a4 1a 6a bd 1d 1a ae bd
       -0.08226589 0.04681398 -0.057154313 -0.085010745
000350 02 6c 08 3e cc 06 c0 ba 84 5d 22 3e f3 ab a2 3d
       0.13322452 -0.0014650463 0.15855986 0.07942953
000360 c2 de 0a be 1c 70 2e be a0 ac 14 3e 68 a5 f7 bc
       -0.13561538 -0.17034954 0.14518976 -0.030230239
000370 61 75 a5 3d 14 b5 e8 bd b7 3f 0c be 25 99 ed bd
       0.08079029 -0.11362663 -0.1369618 -0.116014756
000380 44 18 a1 3d 7e 6b 21 be ea 95 7e bd dc e3 25 bd
       0.078659564 -0.15763661 -0.062154688 -0.040500507
000390 df 0c 01 bd e0 86 8f 3c 8b 79 bb 3d 64 bc 1a 3e
       -0.031506415 0.017520368 0.09154042 0.15110928
0003a0 d0 96 05 be 45 fa 18 3e d5 87 82 3d 1b dd 53 bd
       -0.13045812 0.1493922 0.06373564 -0.051724534
0003b0 18 9c e5 3c b0 20 be 3d 79 18 6c 3d c8 38 cd bd
       0.028028533 0.092835784 0.057640526 -0.10020596
0003c0 ed 2a c5 3d b3 d8 11 be dd fd 29 be 71 b2 0d be
       0.09627328 -0.1424282 -0.16600747 -0.13837601
0003d0 64 c6 a1 3d 02 71 a8 bb f0 78 37 3c 5f 6b 09 3e
       0.07899168 -0.0051404247 0.011198267 0.13419865
0003e0 94 68 83 3c 4a e6 7f bd 1d e5 65 bc b0 59 31 bd
       0.016041078 -0.06247548 -0.014031676 -0.043298423
0003f0 9c ea 98 bd f6 f9 3f 3e 60 07 f9 3c 1e 90 38 3e
       -0.07466623 0.18747696 0.030399024 0.18023726

linear_relu_stack.6.bias f4 [40]
000000 10 d7 3d bd 89 4b 3c be 62 ea 35 be 38 ba d3 3e
       -0.046347678 -0.1838819 -0.17765191 0.4135301
000010 4e 6d 80 3e 83 32 94 3e df 60 af 3c 86 1c 63 3e
       0.25083393 0.28944787 0.021408496 0.2217885
000020 43 bb 1f 3e c9 5b 3c 3d 7e e8 13 be 6d 1b a7 3e
       0.15598778 0.04598597 -0.14444157 0.32638112
000030 41 f9 09 bd e7 52 98 3d e5 84 31 ba 42 b6 fe 3d
       -0.033684973 0.07437687 -0.0006771817 0.12437107
000040 c0 87 4d 3d da 3b bf 3e 05 0a 01 3e 54 fb 0c bd
       0.05017829 0.3735035 0.12601478 -0.034419373
000050 47 88 2e bc 4b 36 0b be de 79 c4 3d 93 5e 6f bb
       -0.010652608 -0.1359493 0.09593557 -0.0036524876
000060 5c 2f 1c bd 1a ce e1 bd c3 94 98 3d 88 a0 30 3e
       -0.038131103 -0.11025639 0.07450249 0.17248738
000070 04 b1 45 bd 88 fb 06 be af 49 21 3d 64 f8 ad 3d
       -0.04826452 -0.13181889 0.03937691 0.084946424
000080 68 95 4c 3e 99 58 31 be 79 07 51 3e 7f 74 1c 3e
       0.19978869 -0.17318954 0.20413007 0.15278815
000090 53 f5 02 3e ec 73 8b 3d 29 ba 8e 3d a2 9c f3 3d
       0.12788896 0.0680922 0.06969101 0.1189511

linear_relu_stack.8.weight f4 [50, 40]
000000 1c 6f 1a 3d b6 2d ab 3d 5e 2c d2 3d 55 42 44 3e
       0.03770362 0.08358328 0.102623686 0.19165929
000010 d8 15 0f 3d fb 34 0a 3e 70 9b b4 bd 25 d2 88 3d
       0.03493294 0.13496773 -0.0881871 0.06680707
000020 37 07 c6 ba 13 a0 92 3d 79 c2 b3 bd f9 f9 57 3e
       -0.0015108351 0.07159438 -0.08777327 0.21091451
000030 a4 6a 2c 3e 6c 80 1f 3e 68 c7 12 bc ed 09 0b 3e
       0.16837555 0.15576333 -0.008958675 0.13578005
000040 54 0d a4 3d 97 e7 99 3d 45 2c 92 3d 60 68 dc 3c
       0.08010355 0.075148754 0.0713735 0.026905239
000050 c1 31 a3 bb a4 57 aa bd 62 2f 5f bd 73 0a 08 be
       -0.0049802964 -0.083174974 -0.054488547 -0.13285236
000060 40 6a d2 bd 51 3c ec 3d a3 df 61 bd f5 7c e8 bc
       -0.10274172 0.11534942 -0.055144917 -0.028379897
000070 a0 60 df 3d 25 cc 16 be 63 ee 21 3e fa b8 d2 3d
       0.10907102 -0.14726312 0.15813594 0.10289188
000080 27 3a 4a 3e 40 38 1f bb 9e 20 1f 3d 54 5f 16 3e
       0.19748746 -0.0024295002 0.038849466 0.14684802
000090 6c 66 95 bd 84 69 0f 3e 57 85 37 3e 7a 98 06 3e
       -0.07294926 0.14005095 0.17921959 0.13144103
0000a0 a4 51 01 3d 94 f7 21 3d f6 1e c4 bd 54 42 f2 3d
       0.031572 0.03954275 -0.09576218 0.11829057
0000b0 82 6c e1 3d 68 28 e7 3d 11 87 b7 bd e7 39 03 3e
       0.11007024 0.11287004 -0.08961309 0.12815057
0000c0 93 ea e9 bd f9 1b a9 bd b8 31 c1 3c 63 2f 83 bd
       -0.114216946 -0.082572885 0.023583278 -0.06405523
0000d0 0d ec 03 3d 68 6a a2 bd 94 5e 1c be 0d 07 be 3d
       0.032207537 -0.07930452 -0.15270454 0.092786886
0000e0 56 74 cb 3d 55 b6 9f 3c 07 fc 13 3e 0a 7a 1a be
       0.09934299 0.019496122 0.1445161 -0.15085617
0000f0 be 41 19 be 78 d3 46 3d f3 ce 7f 3d 3a 3c 0a 3e
       -0.14966485 0.048541516 0.06245322 0.13499537
000100 6a 0b a1 bd b0 49 0f 3e 73 89 15 be 5a c0 c8 3c
       -0.07863505 0.13992953 -0.14603214 0.024505783
000110 54 92 00 bc 9e 2a 75 3d 1a 73 f6 3d b9 e2 a9 3d
       -0.007847387 0.059855096 0.12033673 0.08295197
000120 9f c8 22 3e a4 dc 7d bd 7f 54 ca 3d 72 e1 9d bd
       0.15896843 -0.061977997 0.098793976 -0.07709016
000130 24 c5 9e bd a2 0e 44 3d 25 44 d7 3d 0c 51 89 3d
       -0.07752445 0.047865517 0.105110444 0.067049116
000140 c0 a2 6f 3c 6e f1 d5 3d 02 5e cf 3d 0a 33 21 3e
       0.014626205 0.1044644 0.101253524 0.15742126
000150 b1 56 3c 3e a9 68 11 3e 74 0a 18 be 20 d8 63 bd
       0.18392445 0.14200081 -0.14847738 -0.055626035
000160 7a 48 d7 3d 33 01 74 3d 68 8f 5e 3d 79 44 05 bd
       0.10511871 0.059571456 0.05433598 -0.032536004
000170 b8 98 14 bd 11 c2 d7 3d 6e ed ec 3d 9a fc 9a bd
       -0.036278456 0.10535062 0.115687236 -0.07567711
000180 e0 97 0f 3d 3b f7 9a 3d 90 f4 a6 bd 8e 42 b3 3d
       0.03505695 0.07566687 -0.08152115 0.08752929
000190 d5 63 00 bc ea 0a ef 3d 5e 0d ad bc e8 89 94 bc
       -0.007836302 0.116720036 -0.021124538 -0.018132165
0001a0 2f de 08 be 03 be c3 3d ff 33 1f 3e 72 65 f3 3c
       -0.13366006 0.09557726 0.15547179 0.029711459
0001b0 30 5f ce bd 72 bb 08 3d ff 08 cb 3d 62 12 8d bb
       -0.10076749 0.033381887 0.09913825 -0.00430517
0001c0 4c f5 f2 bd 20 49 ec bd 8d 2c cd 3d cf 69 52 3e
       -0.11863193 -0.11537385 0.10018263 0.20548175
0001d0 f7 00 2c 3e c8 67 fb 3d 78 95 9f bc cb 49 c3 3a
       0.16797243 0.12275654 -0.019480452 0.0014899311
0001e0 67 06 11 3e 66 c6 d0 3d 10 9f d4 3c dc f9 5e bd
       0.14162599 0.101940915 0.025954753 -0.054437503
0001f0 d2 38 16 be fc 21 91 3d ca a2 ad 3d af 1c 04 3e
       -0.14670113 0.0708656 0.08478315 0.12901567
000200 11 6a 84 bd 7a 33 cd 3d 50 0e 1c be 01 71 0d be
       -0.06465543 0.10019584 -0.15239835 -0.13812639
000210 5c 6b 81 3d ec a4 62 3d 46 09 00 be 44 41 78 3d
       0.06319305 0.055333063 -0.12503538 0.060609117
000220 36 3f e8 3d 3c 29 0e be c2 a4 aa 3d 08 51 b4 bd
       0.113401815 -0.13882917 0.08332206 -0.08804518
000230 f4 88 62 3d 6d 2f f0 bd 6a f2 ca bd dc f0 86 3d
       0.05530639 -0.11727796 -0.09909518 0.06588909
000240 69 5e 80 bd c8 ac c4 bc 73 98 00 3e d0 fb 98 bc
       -0.06268007 -0.02400817 0.12558155 -0.018674761
000250 e5 7a 96 bd 1a 65 d6 3d 0a eb fd 3d dc 20 11 be
       -0.07347659 0.10468502 0.12398346 -0.14172691
000260 ea 37 f9 3d 90 c3 cf bc f2 df f1 3d 24 2a 1a 3d
       0.12168868 -0.025361806 0.11810292 0.037637845
000270 be c7 18 bd 46 6d ba 3d b0 35 04 3c 71 f7 ad bd
       -0.037299864 0.091028735 0.008069441 -0.08494461
000280 32 ce 2a bd e0 03 b6 3c 2c ab 4c 3d 31 77 f2 bb
       -0.04170055 0.022218645 0.04996793 -0.0073994626
000290 4f 4e 99 3d 42 4d 08 be 25 d8 c6 3d 64 4c e8 bd
       0.07485639 -0.13310722 0.09709195 -0.11342695
0002a0 c0 e0 53 bd 5d d0 12 3e e2 84 fc bd aa b1 e1 bd
       -0.05172801 0.14337297 -0.12330033 -0.11020215
0002b0 38 0f 2a 3d b5 63 b9 3d ef 17 a0 3d c8 f7 26 3d
       0.04151842 0.09052221 0.07817065 0.040763646
0002c0 de 1f 1c bd ac 1c 25 be 55 3e cc bd e0 a0 e1 3b
       -0.03811633 -0.16124219 -0.099728264 0.006885633
0002d0 a3 b5 aa bd 03 7c 09 3e ba 78 61 3c 7b 03 08 be
       -0.08335426 0.13426213 0.013761694 -0.13282578
0002e0 8d b3 1e 3e c8 a4 f9 bd a6 f3 c8 b8 00 60 02 3e
       0.1549818 -0.12189633 -9.582126e-05 0.12731934
0002f0 47 16 af bd 94 06 7a 3d 2b 75 87 3d ae 2f 91 3d
       -0.08549171 0.06104143 0.06614145 0.07089172
000300 75 f0 73 3d 17 4f 12 be a7 36 0f be f4 53 d8 3d
       0.05955549 -0.14287983 -0.13985692 0.10562888
000310 a3 7c 8b 3d 7b e1 b3 3d 00 1c 16 bb 04 e4 ed bd
       0.06810882 0.08783241 -0.0022904873 -0.11615756
000320 ea 84 b1 bd 74 45 e8 bc 8a 60 1a be fe 21 32 3d
       -0.086679295 -0.02835343 -0.15075889 0.04348945
000330 a5 bd 8d 3d b2 9a 54 3d b3 e9 9c 3c 6c 92 de 3d
       0.069209374 0.05190534 0.019154405 0.108677715
000340 3d a7 c7 bd 32 01 c7 bd 30 cc 3b bc 67 d1 b4 bc
       -0.09748695 -0.09717025 -0.011462256 -0.022072507
000350 bd f3 15 be 43 a2 91 3d 21 f8 0e bd ed 40 fe bd
       -0.1464376 0.07111027 -0.034904603 -0.12414727
000360 a0 9f 69 3d 3b d1 11 3d d9 9a 06 3e b4 ea 05 be
       0.057036996 0.03559993 0.13145007 -0.13077813
000370 32 9a e9 bd d0 94 9e 3c 64 37 d2 3d ce 10 f5 bd
       -0.114063635 0.019358069 0.10264471 -0.11966096
000380 0a 82 93 3d 89 d8 ff 3d 2b 22 79 bb da 54 5e 3c
       0.07202537 0.12492473 -0.003801475 0.013570035
000390 cb 56 d2 bd 78 6e f9 3d 04 e8 0c 3e a4 fa a7 3c
       -0.10270461 0.12179273 0.13760382 0.020505257
0003a0 c3 8c 4c 3c e9 5b 09 3e 18 d6 1b be dd c6 04 3e
       0.012484732 0.13413967 -0.15218389 0.12966485
0003b0 21 0a d5 3d 56 be 94 3d 79 9d d1 3d 76 9c df bd
       0.104023226 0.07262866 0.10235114 -0.109185144
0003c0 c0 38 33 3d 4b dd ed bd c0 7c a1 3d 18 d4 23 be
       0.043755293 -0.11614474 0.07885122 -0.15998876
0003d0 9b f8 fc 3d 93 08 b7 bd 50 3e f5 3b 68 e7 92 3d
       0.12352105 -0.08937182 0.007484235 0.071730435
0003e0 3d 64 13 3e 75 7f d7 3d 50 d3 26 bd 39 d1 fa 3d
       0.14393707 0.105223574 -0.040728867 0.12246937
0003f0 30 3f 54 bd 86 3b 6e bd 99 18 8a 3d eb 5a f5 3a
       -0.051818073 -0.058162235 0.06742973 0.0018719112

linear_relu_stack.8.bias f4 [50]
000000 93 d2 e3 3e 79 f7 28 bd f9 60 4f 3e fe 78 c4 bd
       0.44496593 -0.041251633 0.20251836 -0.0959339
000010 cb 00 da 3d 05 6a b0 bd ca 17 a9 3d 40 cb 2a 3e
       0.106446825 -0.086139716 0.082564905 0.16679096
000020 80 96 a3 3d 90 11 17 be 4d 29 1c be 8c d3 9e bd
       0.0798769 -0.14752793 -0.1525013 -0.07755193
000030 68 18 95 bc f4 62 40 bd 07 eb ce 3e 08 c5 11 be
       -0.018200114 -0.04696937 0.40413687 -0.14235318
000040 ad 5c 11 bd 61 6d ec 3b ea 06 20 bd 23 c5 1c be
       -0.035488773 0.0072151874 -0.039069094 -0.15309577
000050 ef 52 56 3e ea 38 a0 3d 1d aa 48 3d 71 07 45 3e
       0.20930074 0.078233555 0.048990358 0.1924112
000060 0c 75 1a be c5 06 7e 3d 56 fc 14 3e e1 97 d4 3d
       -0.15083712 0.062018175 0.14549384 0.10380531
000070 40 89 ac bb 66 4f cc 3d 93 cf e7 3e 71 6a 8a 3d
       -0.005265385 0.099760816 0.45275554 0.06758583
000080 c1 d9 ed bd be 24 8b 3e 3f de dc 3c e2 d0 db 3d
       -0.11613799 0.2717647 0.026961444 0.107332006
000090 69 ae b7 3d 9b d1 ab 3e 65 83 71 bd 3d de bf 3d
       0.08968813 0.33558354 -0.0589632 0.093685605
0000a0 a1 cd 02 bd 3d 24 9f bd 55 c2 d3 3d 36 71 a6 bd
       -0.031934384 -0.07770584 0.103398 -0.08127062
0000b0 27 a2 00 be fc d0 ce 3e f2 c5 32 bd 62 e3 95 bd
       -0.12561856 0.40393817 -0.043645807 -0.073187605
0000c0 d9 d2 21 3e 1e 1c b5 3e
       0.15803088 0.35373014

linear_relu_stack.10.weight f4 [180, 50]
000000 1f 58 eb 3d 2a 24 03 be 37 45 f3 bd 82 85 9d bd
       0.11491417 -0.12806764 -0.11878436 -0.0769148
000010 94 d7 8c 3d ec cd 10 bd 93 6f 95 bc 84 3a 95 bc
       0.06877056 -0.035352632 -0.01824168 -0.018216379
000020 2a 3e fd 3b e6 59 0c be 70 83 25 bc c2 f2 c3 bd
       0.007728358 -0.13706169 -0.010102138 -0.09567787
000030 af da e0 bd d2 ca 04 be 78 8d d3 3d d1 13 09 be
       -0.109792106 -0.12967995 0.103297174 -0.13386466
000040 88 7b 46 3d fd d7 bd 3d 4c e4 0e bd f1 5c 06 bd
       0.048457652 0.09269712 -0.03488569 -0.03280348
000050 6c de 41 bc 22 66 91 bd 10 29 d4 3d ea 07 da 3d
       -0.011832815 -0.070995584 0.103593946 0.10646041
000060 94 f6 b4 3d 57 91 09 3d a3 ce 8d bd 8e b3 86 3d
       0.088360935 0.033585873 -0.069241785 0.06577216
000070 b0 cc 61 3c 55 4c be bd f6 02 ed bd ec ed 1c bd
       0.013781711 -0.09291903 -0.115728304 -0.038312837
000080 fc db fc bc ee 7a 92 3d ad 6d 89 3d 57 ca 0a be
       -0.030866615 0.07152353 0.06710372 -0.13553749
000090 6c 90 0a 3e b0 f1 a7 bd d6 8e f6 3d 02 3d 1e 3d
       0.13531655 -0.08200395 0.120389625 0.0386324
0000a0 27 25 ba 3d 08 68 56 3d bc 20 a7 3d 00 de 93 39
       0.090891175 0.052345306 0.081605405 0.00028203428
0000b0 51 72 b4 3d 40 77 99 bb 80 08 5d bb da ef a9 bd
       0.088108666 -0.004683405 -0.003372699 -0.08297701
0000c0 34 2b 03 be e0 60 a7 3d 1d 4a f9 3c 61 ea 0c 3e
       -0.1280945 0.08172774 0.030430848 0.13761283
0000d0 9e f6 94 bd 5e bd 8e 3d 3c 1c 06 be e3 78 e0 bd
       -0.07273601 0.06969713 -0.13096708 -0.10960557
0000e0 58 00 a8 3d 2c be b0 bc 6c ac f6 3d 7f 47 e4 bd
       0.082031906 -0.021575056 0.120446056 -0.11146449
0000f0 40 9a a9 3b 82 a4 b6 3d d1 8f 04 3e ea 76 ca bd
       0.0051758587 0.08918096 0.12945487 -0.09885962
000100 05 32 8e bd 80 10 f7 bb 6e 22 10 3d 61 a5 f0 bd
       -0.06943134 -0.0075398088 0.035189085 -0.117502935
000110 39 98 0e 3b 80 3d d5 bd ee f2 fc bc 94 7a 99 bd
       0.0021758212 -0.10412121 -0.030877557 -0.07494083
000120 9a 5f ff 3d 65 1e d4 bd 67 ae 00 3e ff 11 77 bd
       0.124694064 -0.1035736 0.12566529 -0.060319897
000130 69 62 14 3e 12 a7 dc 3d 80 7d ba 3a 15 59 d5 b9
       0.14490665 0.10774054 0.0014228076 -0.00040692897
000140 7a 14 fc bb 35 8c b0 3d c8 06 41 3d b7 2c df bd
       -0.0076928707 0.08620492 0.047125608 -0.108972006
000150 d2 35 ce 3c 20 00 0e bc 7b 70 f7 3d 99 cb 3f 3d
       0.025172148 -0.008667022 0.12082001 0.046825025
000160 7e 6e d1 bd f6 38 d7 3d fa dd 5a 3d 40 5c 70 bd
       -0.10226153 0.10508911 0.05343435 -0.058681726
000170 dc 80 aa bd 2c 28 ea bc d7 ed fa bd 40 05 d6 3c
       -0.08325359 -0.028583609 -0.122523956 0.02612555
000180 d8 61 09 3d 78 d3 a9 bc 23 97 07 3c fa 76 c8 3d
       0.033540577 -0.020730719 0.00827578 0.09788318
000190 de c6 11 be 25 9c 02 be 0a a6 8f bd e0 08 e6 3b
       -0.14236018 -0.12754877 -0.07014091 0.007020101
0001a0 a0 d1 d9 bd 06 a1 d5 3c 4f 0b 01 3e eb fe 31 3d
       -0.10635686 0.026077759 0.1260197 0.043456
0001b0 2b 0b 16 3d f2 7e 4d bd 40 37 23 3b 16 98 b0 bd
       0.036631744 -0.050169893 0.0024904758 -0.08622758
0001c0 4f ce 01 3e 8c 62 08 be b3 71 96 bd 50 52 ec 3c
       0.12676357 -0.13318843 -0.07345905 0.028847843
0001d0 90 4a b2 3d 22 13 c3 bd 19 39 00 be c0 58 d7 3d
       0.08705628 -0.09525134 -0.12521781 0.105149746
0001e0 5d 85 2c be ed ff fc bc 40 6b 85 3d 13 96 29 bd
       -0.16847749 -0.030883754 0.06514597 -0.041402888
0001f0 38 4a 8b 3c 29 49 06 3e 40 a5 6e bc 9d c3 6d 3c
       0.017003164 0.13113846 -0.014565766 0.01451197
000200 b4 96 81 bd 00 c6 6d 3d c6 2c 71 be 6d ce ab bb
       -0.063275725 0.058050156 -0.23552236 -0.0052431137
000210 60 15 b0 3c 49 01 d7 3c 20 78 ae 3d 83 d3 a7 ba
       0.021494567 0.02624573 0.08519006 -0.0012804124
000220 3d f7 6b bd 86 bf fb bd 7c b4 25 3b 22 05 cc bd
       -0.05760883 -0.122923896 0.002528458 -0.099619165
000230 cd 96 ac bc e0 88 6b bd a8 33 c6 3d be 09 39 bd
       -0.021068001 -0.05750358 0.096778214 -0.045175306
000240 b5 86 83 3d 98 ff f6 bd 0e fb 20 bd ea ad 5f bd
       0.06422178 -0.120604694 -0.039301924 -0.054609217
000250 6d a8 cd bc d5 42 6a 3c fe 52 10 be 56 14 f6 3d
       -0.025104726 0.014298161 -0.14094159 0.120155975
000260 65 42 07 3d a2 80 9f bd 4a 2c b8 3d 0a 59 80 3c
       0.033022303 -0.07788207 0.089928225 0.015667457
000270 03 ab 9c bd 5b 0f 35 bd c6 f9 ac 3d 90 f5 0f be
       -0.076498054 -0.044204097 0.08446078 -0.14058518
000280 aa c0 0b be 5b d1 04 3e 7c b7 62 bd be 07 e6 3d
       -0.13647714 0.12970488 -0.055350766 0.112319455
000290 d4 86 ae 3d be 40 08 be e9 c1 e9 3c 87 87 04 be
       0.0852181 -0.13305947 0.028534846 -0.12942325
0002a0 e0 ea e0 3d 16 31 dc 3c de c1 cf 3d b4 02 9b 3d
       0.10982299 0.026878875 0.10144399 0.07568875
0002b0 0c 8c db 3d 60 4a ef bd 88 98 6f 3d d2 43 6c bc
       0.10720071 -0.11684108 0.058495075 -0.0144204665
0002c0 50 d2 07 be 62 f8 e9 3d b8 7a 0e 3d 81 69 c7 bd
       -0.13263822 0.114243284 0.034785002 -0.0973692
0002d0 5e 17 00 bd 03 2d f4 3d e6 e2 1d bd 7e 69 3e 3d
       -0.031272285 0.11922648 -0.038546465 0.046487324
0002e0 18 01 31 bc be 06 d7 3c e9 90 56 bd 8b 98 53 3d
       -0.010803483 0.026248332 -0.05238429 0.05165915
0002f0 96 49 92 3d 7f b8 fe 3d 65 1b f0 3d 86 33 3d 3d
       0.07142942 0.124375336 0.11723975 0.046191715
000300 4e 6f 95 3d 4e a0 bd 3d 4f 28 e3 3d 11 21 1a be
       0.0729662 0.09259091 0.11091673 -0.15051676
000310 60 9c 51 bc c8 3e 26 bd e8 d0 e5 3d 95 a6 95 3d
       -0.01279363 -0.040587217 0.11221486 0.073071636
000320 58 97 6d 3d 78 84 4b 3c 1c 95 a4 3b e9 b9 0d be
       0.05800566 0.01242172 0.005022658 -0.1384045
000330 d2 da b9 bd b8 20 8d 3d 65 c3 fb bd e7 10 41 bd
       -0.0907494 0.06891006 -0.12293128 -0.04713526
000340 6c c3 8c bd 40 64 56 3d f0 4b 2d bd bc 4e b9 bd
       -0.06873211 0.0523417 -0.042308748 -0.090482205
000350 e6 95 aa bd fc 23 8c bc 9a 9b d2 bd 40 ef 9e 3b
       -0.08329372 -0.017107002 -0.10283585 0.004850298
000360 56 39 08 3e db 49 55 bd d2 7f 55 3d fe 2e 96 bc
       0.13303122 -0.052072387 0.052123852 -0.018332954
000370 82 24 a3 3c 44 84 d7 bd 8a 41 e3 3d 0f 34 7e bc
       0.01991487 -0.105232745 0.11096485 -0.015515341
000380 1c 37 68 3d 34 27 9e bd c7 0c 00 be 26 dc 3c 3c
       0.05669318 -0.07722321 -0.12504874 0.011527097
000390 1c da 00 be 4d cb 0c 3e 18 37 9f 3d 38 90 77 3d
       -0.12583202 0.13749428 0.0777418 0.060440272
0003a0 20 f7 0c be 33 67 9f 3c e2 0f a9 bc 68 9a 10 bc
       -0.13766146 0.019458389 -0.020637456 -0.008825876
0003b0 3f 80 03 3d c6 8f f5 bd 70 87 af 3d 14 ea 54 3d
       0.032104727 -0.11990313 0.085707545 0.051981047
0003c0 53 09 a1 3d cd 6a a1 bd ff 48 6c bd 70 c2 fb 3c
       0.078631066 -0.07881699 -0.057686802 0.030732363
0003d0 a2 fb 06 be 06 4d c5 bd a8 7c 37 3d 50 f8 36 3c
       -0.13181928 -0.09633832 0.044796616 0.011167601
0003e0 ce bf 08 3e 60 8b f2 3d 03 9e 6a be 48 04 67 3d
       0.13354418 0.1184299 -0.22911839 0.056400567
0003f0 4d cb d7 bd f4 f4 d6 3d dd 6f 79 3d 0b 85 96 bc
       -0.105368234 0.1049594 0.060897697 -0.018373987
