baselines/autoenc_basic/Weights/model_weights_AMASS1o2_i1o6.pth (torch, 104114 bytes, 12 tensors)

linear_relu_stack.0.weight f4 [50, 180]
0.03809928 0.023688896 0.09229933 0.02809633 -0.003981337 -0.1911958 -0.034092464 -0.041720506
0.021828413 -0.01844452 0.03586688 0.08814481 0.038530506 0.008551036 0.0034234931 0.0046543893
-0.0018112721 -0.053304534 -0.06254364 -0.015948474 -0.014986699 0.044810243 0.07389074 0.04046421
0.028444543 0.08336867 0.06486095 0.020791853 -0.06332492 -0.048439503 -0.040964615 0.043701187
-0.030145276 -0.017145477 0.06272046 0.0704564 0.0001672425 -0.014662074 0.03951204 0.07613683
-0.10525429 -0.06451803 0.025343658 0.0006128446 0.067384444 -0.054658152 0.005124228 0.01219008
-0.01614431 -0.030439964 0.09207809 0.08449337 -0.013130216 -0.02543557 0.020621398 0.059256572
-0.04647371 0.023423493 -0.050887465 0.034287896 0.032549232 0.048548378 0.010708855 0.03224009
-0.12401851 0.007360087 -0.059619803 -0.009366996 -0.021781469 0.05405186 0.025810624 0.0018244165
0.052842464 -0.0423299 -0.030733943 0.05991236 -0.05220035 -0.03236158 -0.028082054 0.002321301
0.03827776 -0.04794005 -0.002421111 -0.0061638895 0.09753344 -0.011027608 -0.003379929 0.040792912
-0.003023456 -0.078350194 0.09019964 -0.03371141 -0.050383072 -0.098359585 -0.0709284 0.053821933
-0.0064207446 0.034978095 0.038367573 -0.05831376 -0.1172751 -0.0049260394 0.08362856 -0.07975148
-0.027285177 -0.116217 -0.032909106 -0.018853579 -0.059954662 0.098586254 -0.0074161855 -0.057470974
-0.047938064 -0.037031926 0.0903737 -0.12552428 0.06080859 -0.0738252 0.025574133 0.044435766
-0.055169217 0.0409755 -0.00045543807 -0.02456565 -0.036178853 -0.024396017 0.071235284 -0.061815552
0.051104933 -0.13107413 0.110647984 -0.022474326 -0.067379504 0.080824554 -0.055783663 0.045625404
0.11697118 0.0005358175 -0.038989935 -0.0050037266 0.019964816 -0.16990325 0.11583513 -0.09152677
0.021518694 0.119225234 -0.042370923 -0.008026251 0.075968295 0.028052943 -0.009764603 -0.0019059257
0.10825843 -0.23790324 0.13681555 -0.0820395 -0.04318383 0.10939021 -0.052819423 0.006674318
0.12202711 0.13810554 -0.2298975 0.09206345 0.10867693 -0.1811343 0.25659078 -0.01234373
-0.15476593 0.2175948 -0.037467744 0.03485759 0.124190636 0.30509496 -0.32329515 0.3890945
0.16126846 -0.24209821 0.32801858 -0.029751224 0.1352873 -0.07786892 0.048104655 0.016925493
0.01356579 -0.11616416 0.096461825 -0.16519262 0.12780821 0.14133514 -0.041744534 0.036465503
0.13628344 0.05358937 0.026937988 -0.122623794 0.009382465 -0.13715965 0.1291088 -0.099688895
-0.032560993 0.12837592 -0.07193652 0.06414688 0.04747475 -0.008067738 -0.04548952 -0.13515659
0.027516216 -0.065715104 0.11799846 -0.058384124 0.012509247 0.1427595 0.005127887 -0.0070827752
0.07125362 -0.070457704 -0.07411538 -0.06921819 0.044644836 -0.10103178 0.033861917 0.08835963
0.07993295 0.03661974 0.048214335 -0.03246796 0.1440361 0.052100487 0.03538685 -0.03546753
0.041830882 -0.15412873 0.06476643 0.11593184 0.06918201 0.113969706 -0.013754209 0.001442457
0.037126068 0.012106074 -0.017100535 -0.08336297 -0.023555227 -0.06514108 0.019969562 0.082722224
0.018541422 0.14757098 -0.023442661 0.014066933 0.033125553 -0.0099299215 -0.060709804 -0.026255973
00000000: fe0d 1c3d 370f c23c 6e07 bd3d 462a e63c
00000010: e075 82bb d5c8 43be 8aa4 0bbd 1fe3 2abd
00000020: 80d1 b23c f618 97bc 26e9 123d 4485 b43d
00000030: 2ad2 1d3d a519 0c3c af5c 603b d983 983b
00000040: 3568 edba db55 5abd e116 80bd 60a6 82bc
00000050: c68a 75bc f28a 373d 0754 973d cdbd 253d
00000060: 8804 e93c 31bd aa3d d1d5 843d ad53 aa3c
00000070: 7fb0 81bd 8068 46bd 83ca 27bd 0400 333d
00000080: 3af3 f6bc ac74 8cbc 9673 803d 724b 903d
00000090: d15d 2f39 3239 70bc 60d7 213d a0ed 9b3d
000000a0: 908f d7bd 0722 84bd 819d cf3c 4ea7 203a
000000b0: db00 8a3d 3ae1 5fbd 24e9 a73b e7b8 473c
000000c0: 1241 84bc 3b5d f9bc 7093 bc3d dc0a ad3d
000000d0: 1e20 57bc 425e d0bc 35ee a83c 05b7 723d
000000e0: 385b 3ebd a0e2 bf3c 606f 50bd 7771 0c3d
000000f0: 5852 053d aada 463d 3274 2f3c 2f0e 043d
00000100: 6bfd fdbd e22c f13b e533 74bd 0778 19bc
00000110: 0d6f b2bc 7c65 5d3d cd70 d33c 4221 ef3a
00000120: 5771 583d 1e62 2dbd c0c5 fbbc aa66 753d
00000130: 09d0 55bd 938d 04bd 560c e6bc f820 183b
00000140: 24c9 1c3d c95c 44bd 81ab 1ebb 74fa c9bb
00000150: 9dbf c73d 24ad 34bc cd81 5dbb 7816 273d
00000160: 2d25 46bb 1176 a0bd 97ba b83d fa14 0abd
00000170: 7b5e 4ebd c070 c9bd e942 91bd 6374 5c3d
00000180: 1c65 d2bb 3145 0f3d 5127 1d3d 69da 6ebd
00000190: ed2d f0bd 9d6a a1bb 7345 ab3d be54 a3bd
000001a0: 2a85 dfbc 2e03 eebd b3cb 06bd d272 9abc
000001b0: 0593 75bd 97e7 c93d 7903 f3bb af66 6bbd
000001c0: b45a 44bd caae 17bd d915 b93d 7089 00be
000001d0: 6e12 793d ab31 97bd d880 d13c 4702 363d
000001e0: 1ef9 61bd edd5 273d ddc7 eeb9 e73d c9bc
000001f0: 4730 14bd 28da c7bc cee3 913d 4e32 7dbd
00000200: 6853 513d 4c38 06be 699b e23d 141c b8bc
00000210: 44fe 89bd 5887 a53d 697d 64bd b4e1 3a3d
00000220: 968e ef3d 1b76 0c3a e9b3 1fbd 4df6 a3bb
00000230: 418d a33c 1efb 2dbe f83a ed3d 6372 bbbd
00000240: f947 b03c 5c2c f43d 228d 2dbd 8980 03bc
00000250: 4495 9b3d 49cf e53c b7fb 1fbc 41d0 f9ba
00000260: 99b6 dd3d e89c 73be 6019 0c3e 5304 a8bd
00000270: 87e1 30bd f907 e03d 2e59 58bd 3db4 da3b
00000280: 59e9 f93d 8a6b 0d3e 406a 6bbe c38b bc3d
00000290: 0392 de3d 457b 39be de5f 833e 5b3d 4abc
000002a0: f67a 1ebe 2cd1 5e3e c777 19bd d5c6 0e3d
000002b0: a957 fe3d 6835 9c3e f186 a5be 6537 c73e
000002c0: 8f23 253e 98e8 77be 0df2 a73e d7b8 f3bc
000002d0: c188 0a3e be79 9fbd 6309 453d 55a7 8a3c
000002e0: 0c43 5e3c 7ae7 edbd c78d c53d 4128 29be
000002f0: 28e0 023e 29ba 103e 51fc 2abd da5c 153d
00000300: e38d 0b3e 8780 5b3d 0ead dc3c 2f22 fbbd
00000310: e9b8 193c 9473 0cbe 1935 043e b129 ccbd
00000320: ad5e 05bd fa74 033e 7453 93bd 705f 833d
00000330: e274 423d 8c2e 04bc 3853 3abd 7d66 0abe
00000340: b069 e13c a495 86bd 2da9 f13d 3124 6fbd
00000350: 96f3 4c3c 8c2f 123e d507 a83b a016 e8bb
00000360: 6bed 913d 214c 90bd cec9 97bd 44c2 8dbd
00000370: 81dd 363d c0e9 cebd cbb2 0a3d e5f5 b43d
00000380: e3b3 a33d 95fe 153d 657c 453d 20fd 04bd
00000390: 337e 133e 5267 553d cdf1 103d 6746 11bd
000003a0: dc56 2b3d ecd3 1dbe 43a4 843d ac6d ed3d
000003b0: 4caf 8d3d f368 e93d 5559 61bc d310 bd3a
000003c0: 8111 183d 8e58 463c 6c16 8cbc 34ba aabd
000003d0: e4f6 c0bc b068 85bd 3597 a33c 456a a93d
000003e0: 2ee4 973c d91c 173e d30a c0bc fe78 663c
000003f0: a9ae 073d 1cb1 22bc d8aa 78bd c416 d7bc

linear_relu_stack.0.bias f4 [50]
-0.15275928 0.044669345 0.06708295 0.21739997 0.21147788 -0.11217231 0.28589296 0.07392015
0.08086452 0.34312758 0.059194896 -0.14246382 0.06292539 -0.12096016 -0.15235697 0.37750134
0.1123096 -0.10980125 -0.08432277 -0.13938762 0.24497187 -0.089096 -0.761303 0.014823949
0.015001478 -0.056604717 0.18658555 -0.09932474 0.37678188 -0.150932 -0.13084373 0.18934387
-0.10174068 0.10914018 -0.060250897 -0.16814724 -0.019591874 -0.104999594 0.035860218 0.04162517
0.1723523 0.14206621 0.020714337 0.26435035 0.10610391 0.33300942 0.08260606 -0.105916664
0.32572573 0.021004822
00000000: ee6c 1cbe 34f7 363d c962 893d 199e 5e3e
00000010: a88d 583e 99ba e5bd 9060 923e 7363 973d
00000020: 4c9c a53d 6bae af3e 5976 723d 09e2 11be
00000030: 07df 803d f6b9 f7bd 7703 1cbe db47 c13e
00000040: 9302 e63d 7adf e0bd 6bb1 acbd a1bb 0ebe
00000050: e8d9 7a3e f777 b6bd c1e4 42bf 26e0 723c
00000060: c2c8 753c 59da 67bd 4810 3f3e c56a cbbd
00000070: 8ee9 c03e eb8d 1abe e6fb 05be 5ce3 413e
00000080: 6b5d d0bd e384 df3d a5c9 76bd ca2e 2cbe
00000090: 237f a0bc 070a d7bd 2ae2 123d 277f 2a3d
000000a0: 1f7d 303e ce79 113e 1db1 a93c ee58 873e
000000b0: 024d d93d 3680 aa3e 5e2d a93d d6ea d8bd
000000c0: 86c5 a63e 4e12 ac3c

linear_relu_stack.2.weight f4 [40, 50]
-0.12556449 0.20891862 -0.087548755 0.047002416 0.07157473 0.03489822 0.20384713 -0.15174527
0.010888393 0.23860314 0.009391583 -0.058904726 0.024493942 0.06383523 -0.11359309 -0.23015851
-0.17637248 0.025636382 0.17698994 -0.06919636 -0.08882788 0.05608559 -0.26888087 0.04985225
0.0628804 0.07353235 -0.1379463 0.12970608 0.062846795 0.09378255 -0.0021059865 -0.31965017
0.0763408 0.09098002 -0.11938016 0.046443827 -0.004066358 0.15162247 -0.112481736 -0.21568798
0.038590312 0.18287985 0.03817709 0.06447638 -0.19817156 0.53001213 0.16315089 -0.09809016
0.12813564 0.08775234 0.06011622 0.14586267 0.1437317 0.017289605 -0.15724939 0.08008015
-0.049378157 -0.0017599975 -0.108751014 -0.14461236 0.09973585 -0.044373065 -0.17824587 -0.09344765
0.06281749 -0.027014444 0.29636553 0.0053984025 0.11916254 0.14619821 0.2959179 -0.09902392
-0.123898976 -0.052459903 0.23257467 0.061378907 -0.13154674 0.039783936 -0.0121184075 0.056751493
-0.058640055 0.17967725 -0.09825754 0.004072603 -0.019258918 0.07366148 0.21497472 0.09595982
-0.036372725 0.3150987 0.059632514 0.0029356128 0.16041411 -0.091666505 0.0006293207 0.0062604803
0.20097741 -0.08997279 -0.14406751 -0.066189475 -0.09555426 0.10930817 0.050391823 0.06321806
-0.12762904 -0.036585826 0.14187838 0.05117206 -0.14485231 -0.07290039 -0.07827743 -0.08042074
0.12876283 0.06328269 0.03576305 -0.0043864963 0.05566971 0.1262502 -0.088547 0.06073866
0.10362663 0.1254627 -0.08698182 -0.11543823 0.03691828 -0.01857148 -0.11295017 -0.07942946
-0.1281473 -0.09124568 -0.10143902 0.062013276 0.1308823 -0.01639357 -0.046894316 0.070240706
-0.06509627 -0.14966924 -0.047574624 -0.13984857 -0.02893933 -0.080319345 -0.060837604 -0.09445186
0.0032121274 0.10982094 -0.07983753 -0.09263146 -0.039074436 0.09611568 0.05160284 0.06928594
0.10198178 -0.018465467 -0.048131008 -0.004767873 0.3050888 -0.0341907 0.06216475 0.024253277
0.18047431 0.11455618 -0.043001834 -0.030266443 0.24757843 -0.39270186 0.032883767 -0.09539736
-0.106786385 -0.20988597 -0.056935716 0.08112336 0.2283431 0.107691474 0.059677936 -0.12397006
0.28432375 -0.016128713 -0.13584866 -0.03655632 -0.22184062 -0.20622143 0.009160238 0.15561157
0.012239125 0.20755048 0.21883094 -0.040015135 0.07584587 0.0514952 0.005490649 0.037696887
0.077444054 -0.20884386 -0.2469515 0.16474769 0.16580415 -0.29692984 -0.12369825 0.03595178
-0.1900944 -0.024925036 -0.14029895 0.03258492 0.16857694 0.06269915 -0.10272721 0.21452905
0.07902805 0.026344689 -0.17679088 0.057532545 -0.07882628 -0.045706984 0.112487085 0.14180776
-0.15128759 -0.04489592 0.044238612 0.124914855 0.18111438 0.012529981 -0.12820184 -0.17580023
-0.044985358 -0.011122291 -0.29253003 0.12419691 -0.15104546 -0.07647636 -0.08750671 -0.16854611
-0.0898403 -0.035875235 -0.16551739 -0.1394603 -0.08226975 -0.09977137 0.11155512 0.13922025
0.029262615 -0.08518119 -0.03234895 -0.042608906 0.11741476 -0.00041417673 0.05993515 0.12626651
-0.13291831 -0.05019183 -0.20527244 -0.2957491 0.23583452 -0.10543039 -0.0758317 -0.04452806
00000000: fa93 00be c3ee 553e c34c b3bd 9b85 403d
00000010: c695 923d 70f1 0e3d 4dbd 503e 1d63 1bbe
00000020: 3b65 323c 6254 743e 27df 193c 1546 71bd
00000030: 85a7 c83c 0cbc 823d 7ea3 e8bd acae 6bbe
00000040: fd9a 34be 6403 d23c da3c 353e d2b6 8dbd
00000050: 64eb b5bd 01ba 653d c1aa 89be df31 4c3d
00000060: 70c7 803d 2198 963d cb41 0dbe acd1 043e
00000070: d2b5 803d 1111 c03d 9704 0abb 30a9 a3be
00000080: 9158 9c3d bc53 ba3d 967d f4bd e23b 3e3d
00000090: 153f 85bb ec42 1b3e d35c e6bd 4fdd 5cbe
000000a0: e010 1e3d db44 3b3e 955f 1c3d 310c 843d
000000b0: 7ced 4abe e0ae 073f 0711 273e 7ee3 c8bd
000000c0: fd35 033e 80b7 b33d 6d3c 763d 065d 153e
000000d0: 672e 133e eea2 8d3c fc05 21be 1001 a43d
000000e0: c040 4abd b7af e6ba dab8 debd 4315 14be
000000f0: 4f42 cc3d 88c0 35bd 1686 36be 7b61 bfbd
00000100: 75a6 803d 654d ddbc 39bd 973e 15e5 b03b
00000110: 7d0b f43d fcb4 153e 8d82 973e 0ecd cabd
00000120: bfbe fdbd 32e0 56bd 0e28 6e3e 7368 7b3d
00000130: 30b4 06be 7bf4 223d 498c 46bc 4174 683d
00000140: 8e30 70bd 50fd 373e 403b c9bd 7873 853b
00000150: e1c4 9dbc d4db 963d 5522 5c3e 9586 c43d
00000160: 91fb 14bd 9e54 a13e 3941 743d 6963 403b
00000170: 9943 243e a6bb bbbd fff8 243a b724 cd3b
00000180: 06cd 4d3e a743 b8bd 6f86 13be 598e 87bd
00000190: f4b1 c3bd f6dc df3d a867 4e3d 7878 813d
000001a0: 30b1 02be 05db 15bd 9148 113e cb99 513d
000001b0: 2a54 14be cd4c 95bd eb4f a0bd a1b3 a4bd
000001c0: 67da 033e 5b9a 813d 477c 123d 99bc 8fbb
000001d0: ec05 643d bc47 013e 2158 b5bd 1ac9 783d
000001e0: 333a d43d 4b79 003e 8623 b2bd e16a ecbd
000001f0: 9f37 173d 3723 98bc 6b52 e7bd eaab a2bd
00000200: 0c39 03be 04df babd 43bf cfbd a201 7e3d
00000210: 0206 063e cf4b 86bc 4114 40bd 5cda 8f3d
00000220: 3151 85bd e542 19be 9cdd 42bd 7734 0fbe
00000230: 2c12 edbc 787e a4bd da30 79bd fa6f c1bd
00000240: 8e82 523b cde9 e03d dc81 a3bd 90b5 bdbd
00000250: 840c 20bd 4cd8 c43d 805d 533d c9e5 8d3d
00000260: d3db d03d e444 97bc 0525 45bd d13b 9cbb
00000270: 9934 9c3e 8c0b 0cbd 77a0 7e3d cfae c63c
00000280: 42ce 383e 6e9c ea3d b122 30bd 55f1 f7bc
00000290: 3385 7d3e 3810 c9be 21b1 063d b15f c3bd
000002a0: d2b2 dabd 59ec 56be 6d35 69bd 0124 a63d
000002b0: c6d2 693e 598d dc3d da70 743d 04e4 fdbd
000002c0: e292 913e 5d20 84bc e91b 0bbe 14bc 15bd
000002d0: 302a 63be b62b 53be d314 163c a458 1f3e
000002e0: 9c86 483c 1d88 543e 3815 603e e9e6 23bd
000002f0: 1455 9b3d a1ec 523d e7ea b33b 0d68 1a3d
00000300: fd9a 9e3d 2adb 55be dbe0 7cbe 9eb3 283e
00000310: 90c8 293e 3007 98be 8255 fdbd 2c42 133d
00000320: 1ba8 42be 972f ccbc 87aa 0fbe c477 053d
00000330: 6f9f 2c3e 6968 803d a562 d2bd 81ad 5b3e
00000340: 75d9 a13d d1d0 d73c ab08 35be 3fa7 6b3d
00000350: ac6f a1bd 3f37 3bbd a15f e63d 0e36 113e
00000360: 22eb 1abe c9e4 37bd 8c33 353d 5cd3 ff3d
00000370: 0c76 393e 8d4a 4d3c 5847 03be fa04 34be
00000380: 9142 38bd 453a 36bc 7fc6 95be f35a fe3d
00000390: a9ab 1abe a39f 9cbd b836 b3bd 5a97 2cbe
000003a0: 31fe b7bd e9f1 12bd 647d 29be aece 0ebe
000003b0: 0b7d a8bd ef54 ccbd 0377 e43d c18f 0e3e
000003c0: 27b8 ef3c 7a73 aebd 5580 04bd ad86 2ebd
000003d0: 2677 f03d dc25 d9b9 8f7e 753d 024c 013e
000003e0: bd1b 08be f395 4dbd f032 52be 6d6c 97be
000003f0: 9b7e 713e e3eb d7bd a64d 9bbd 0e63 36bd

linear_relu_stack.2.bias f4 [40]
0.24841611 0.06570797 -0.086645216 0.052962527 0.031976767 0.12409284 0.44009912 -0.11579358
-0.02164525 0.44880515 0.17118138 0.1942584 -0.06871163 0.039193306 -0.06256686 -0.086876035
-0.022496525 -0.01074116 -0.09111212 0.06471789 0.08236881 0.071805686 -0.015824068 -0.120056026
-0.08234466 0.09006034 -0.03740258 -0.16113791 -0.1471923 0.12067856 0.09088179 0.10848656
0.22407001 0.110363685 -0.15270197 -0.058948282 -0.1617131 0.22800384 -0.08937905 -0.13971126
00000000: cb60 7e3e e691 863d 0c73 b1bd 3cef 583d
00000010: 12fa 023d 6324 fe3d ac54 e13e 2f25 edbd
00000020: 6151 b1bc cac9 e53e 2c4a 2f3e adeb 463e
00000030: afb8 8cbd 2989 203d 0e23 80bd 10ec b1bd
00000040: a24a b8bc b1fb 2fbc fe98 babd d08a 843d
00000050: fbb0 a83d dc0e 933d 7aa1 81bc efdf f5bd
00000060: 51a4 a8bd 8e71 b83d 7333 19bd 5601 25be
00000070: 94b9 16be 5226 f73d 3b20 ba3d 342e de3d
00000080: 9c72 653e 5b06 e23d e85d 1cbe c173 71bd
00000090: 1e98 25be d779 693e 5d0c b7bd 7810 0fbe

linear_relu_stack.4.weight f4 [30, 40]
0.106554195 -0.018088618 -0.019146357 -0.26607192 0.14536735 0.07438977 0.17388247 0.1359709
0.057493366 0.10536975 -0.18395291 -0.004356532 -0.0125512425 -0.090612605 -0.0958381 -0.08784835
-0.13308239 0.14062704 0.31384468 0.031169895 0.10306349 0.09464259 -0.088854425 -0.11605269
-0.025216278 -0.02961196 -0.0891456 -0.15645993 -0.051034126 0.050507538 -0.24998768 -0.017053641
-0.0080286795 0.07357276 0.019607153 0.03571925 -0.15048298 0.014584438 0.0770567 -0.12787952
0.031102307 0.006210812 -0.10859559 0.066131316 0.056421176 -0.020907385 -0.049641237 0.11934425
-0.06861961 -0.084591635 0.04947856 0.083229914 -0.14116514 0.07354128 0.12570107 -0.09619141
-0.12535751 0.04407817 -0.08253139 0.09394989 -0.096909724 -0.092398226 -0.086861946 -0.109297305
-0.13955067 0.041256104 0.011598351 -0.022853473 -0.031319216 -0.12391252 -0.02057745 0.15596107
0.13832405 -0.06137164 -0.09616896 -0.13131431 0.06450149 0.10614326 0.119498774 -0.022889923
0.103289455 -0.10430861 -0.09308285 0.048388027 0.07011394 0.107710294 0.19126414 0.026902806
-0.042488325 -0.18058573 -0.07616793 -0.27069423 -0.16368048 -0.032296114 -0.113288864 0.12597388
0.017998429 0.09437821 -0.21555027 -2.114106e-05 0.05391983 -0.22246242 0.037560314 0.0654464
0.05426434 0.08075113 -0.026223484 0.009820601 0.028792739 -0.11643137 0.33333722 0.15162489
0.09736592 -0.13464676 -0.0035351494 0.0974386 0.061588973 0.14888452 -0.14482918 0.027930323
0.08474059 -0.15721534 -0.006241687 -0.1400034 0.12821768 0.115888044 0.52176756 0.12793764
0.045296364 0.2235355 0.10139847 0.05032624 -0.119205154 -0.08044504 -0.082650535 -0.08196664
0.0688731 0.107152276 -0.025321253 -0.14480482 0.15060164 -0.034514114 -0.07941538 0.047869813
-0.11039184 -0.28888077 -0.2844319 -0.092800215 -0.27606344 -0.10584528 0.041325197 -0.14358886
-0.106639236 0.003005193 0.072863065 -0.18852125 -0.20849355 -0.1750282 -0.08626727 0.043778084
0.41077507 -0.3583213 0.11214533 0.030270634 0.08618398 0.11776941 -0.0768514 0.023986163
-0.048621185 0.16100948 0.16159394 -0.23688774 0.052643806 0.23592141 -0.07662164 -0.12744011
0.11596623 -0.08313255 -0.22382677 -0.06669225 -0.048779555 -0.06569178 0.13814294 0.09184364
-0.04218256 -0.051376477 -0.18166927 -0.15565719 0.075847544 0.23106964 -0.1342333 0.042680886
0.25510192 -0.024052152 -0.07402262 -0.015691912 -0.077344865 0.12618609 -0.24750768 -0.23765239
-0.12597948 0.07833435 -0.045315653 -0.29913127 0.16018073 0.1322061 0.17346294 -0.1505809
0.030349007 0.28644186 -0.0017250113 -0.045030005 -0.1816604 -0.2202215 0.07286073 0.0011815449
0.17185242 0.0043669133 -0.058618855 -0.017771333 0.33288953 -0.19265679 -0.005250223 -0.13461626
-0.053408194 -0.08273195 -0.1894781 0.12902047 -0.16857511 0.108253226 -0.16744284 -0.14227311
-0.1875264 0.16926928 -0.30499902 -0.16600975 -0.0918126 0.17899725 -0.050590858 -0.04452231
-0.053218264 -0.04759689 -0.020813096 -0.00021364346 -0.1793785 -0.19958201 0.0069699627 -0.08164766
-0.03354556 -0.052481227 0.10207796 -0.11536046 -0.16128354 -0.08346629 0.03840406 -0.13374034
00000000: 1639 da3d 952e 94bc d2d8 9cbc 943a 88be
00000010: 2edb 143e aa59 983d 3f0e 323e f53b 0b3e
00000020: 2a7e 6b3d 18cc d73d 275e 3cbe 3dc1 8ebb
00000030: baa3 4dbc 1a93 b9bd c446 c4bd d6e9 b3bd
00000040: c046 08be 8900 103e 40b0 a03e 0258 ff3c
00000050: f312 d33d f9d3 c13d 4ff9 b5bd 08ad edbd
00000060: 5e92 cebc c894 f2bc f891 b6bd 0837 20be
00000070: 2909 51bd fee0 4e3d c5fc 7fbe 14b4 8bbc
00000080: b98a 03bc 51ad 963d 2e9f a03c 594e 123d
00000090: 3618 1abe 91f3 6e3c e7cf 9d3d d9f2 02be
000000a0: 44ca fe3c 1184 cb3b 5d67 debd db6f 873d
000000b0: e419 673d f745 abbc 9c54 4bbd c26a f43d
000000c0: 7088 8cbd 613e adbd 08aa 4a3d 7274 aa3d
000000d0: 988d 10be d09c 963d c8b7 003e 0100 c5bd
000000e0: b85d 00be 508b 343d 3806 a9bd cd68 c03d
000000f0: 9b78 c6bd 483b bdbd ade4 b1bd 44d7 dfbd
00000100: 5fe6 0ebe 29fc 283d 0307 3e3c 3537 bbbc
00000110: 9448 00bd d9c5 fdbd 0a92 a8bc 42b4 1f3e
00000120: d2a4 0d3e d460 7bbd 3bf4 c4bd 4277 06be
00000130: 5b19 843d a361 d93d c6bb f43d a683 bbbc
00000140: 6c89 d33d c19f d5bd 39a2 bebd 8632 463d
00000150: e697 8f3d 3797 dc3d bfda 433e 4663 dc3c
00000160: 3d08 2ebd 77eb 38be effd 9bbd 6f98 8abe
00000170: db9b 27be ee48 04bd fe03 e8bd 4cff 003e
00000180: 7171 933c 5d49 c13d 36b9 5cbe 1558 b1b7
00000190: 0adb 5c3d 30cd 63be d8d8 193d c308 863d
000001a0: 4944 5e3d d960 a53d a2d2 d6bc 96e6 203c
000001b0: c0de eb3c 9273 eebd 2dab aa3e 8e43 1b3e
000001c0: c967 c73d d7e0 09be f7ad 67bb e48d c73d
000001d0: b844 7c3d 2f75 183e 1a4e 14be 22ce e43c
000001e0: 798c ad3d 0ffd 20be 1187 ccbb 0d5d 0fbe
000001f0: 7f4b 033e b656 ed3d 8f92 053f 1602 033e
00000200: ae88 393d 7de6 643e 00aa cf3d e322 4e3d
00000210: d521 f4bd 5ec0 a4bd af44 a9bd 20de a7bd
00000220: 570d 8d3d a772 db3d 846e cfbc b747 14be
00000230: 5137 1a3e ac5e 0dbd 88a4 a2bd 2313 443d
00000240: 1e15 e2bd 2ee8 93be 0fa1 91be 0a0e bebd
00000250: 3058 8dbe 69c5 d8bd 9c44 293d f508 13be
00000260: ac65 dabd c6f2 443b 3b39 953d b70b 41be
00000270: 557f 55be 983a 33be e5ac b0bd a650 333d
00000280: 1c51 d23e e475 b7be 73ac e53d 1ffa f73c
00000290: 3a81 b03d 1731 f13d 4464 9dbd a17e c43c
000002a0: 0227 47bd abdf 243e e278 253e b392 72be
000002b0: 08a1 573d 6295 713e ceeb 9cbd a97f 02be
000002c0: b47f ed3d 6641 aabd d832 65be f295 88bd
000002d0: 12cd 47bd 6989 86bd 5875 0d3e 8518 bc3d
000002e0: 9fc7 2cbd 2470 52bd 8207 3abe 9964 1fbe
000002f0: f555 9b3d 859d 6c3e 7474 09be 27d2 2e3d
00000300: b89c 823e 0509 c5bc 2c99 97bd 538c 80bc
00000310: fc66 9ebd ed36 013e a772 7dbe 265b 73be
00000320: c400 01be c26d a03d e89c 39bd bc27 99be
00000330: 6b06 243e 0961 073e 45a0 313e e131 1abe
00000340: 7b9e f83c 82a8 923e c619 e2ba 6271 38bd
00000350: 2f05 3abe bf81 61be 0238 953d 11de 9a3a
00000360: 15fa 2f3e 5318 8f3b 531a 70bd 3095 91bc
00000370: 7f70 aa3e d247 45be 100a acbb d8d8 09be
00000380: 8dc2 5abd 5e6f a9bd 8c06 42be f11d 043e
00000390: f49e 2cbe deb3 dd3d 2376 2bbe 0bb0 11be
000003a0: ec06 40be ed54 2d3e d528 9cbe 76fe 29be
000003b0: 3f08 bcbd 0e4b 373e 5c38 4fbd 075d 36bd
000003c0: 65fb 59bd f5f4 42bd 3a80 aabc 7b05 60b9
000003d0: ffae 37be 3a5f 4cbe 4964 e43b e336 a7bd
000003e0: 1267 09bd 8ef6 56bd 400e d13d 1b42 ecbd
000003f0: 8327 25be 60f0 aabd 934d 1d3d 3af3 08be

linear_relu_stack.4.bias f4 [30]
-0.03875366 -0.16639526 0.3901456 0.04969548 0.20917803 0.2769286 -0.07210053 -0.069008045
0.19825312 -0.06899035 0.07191188 0.22722012 0.061802037 -0.08695122 0.28875154 0.23523913
0.094558604 0.037939608 0.15999025 -0.1518781 0.15287216 0.0956247 -0.21262908 0.14378057
0.14666311 0.14218591 -0.10241204 -0.06281564 -0.05317925 0.14238606
00000000: 28bc 1ebd 8563 2abe 2ac1 c73e 7d8d 4b3d
00000010: c432 563e 96c9 8d3e 71a9 93bd 1754 8dbd
00000020: de02 4b3e d04a 8dbd 8946 933d 64ac 683e
00000030: 2224 7d3d 7b13 b2bd 3ed7 933e 87e2 703e
00000040: f1a7 c13d 9066 1b3d 7cd4 233e ef85 1bbe
00000050: 858a 1c3e e2d6 c33d 70bb 59be 373b 133e
00000060: db2e 163e 2f99 113e 67bd d1bd 7ca5 80bd
00000070: 7cd2 59bd a7cd 113e

linear_relu_stack.6.weight f4 [40, 30]
0.07672036 -0.046875793 -0.17999116 -0.18200861 -0.017612478 -0.16439326 -0.025098287 -0.07494935
-0.15503213 0.096002094 -0.12916522 0.020523872 0.04772881 0.13746536 0.18291843 0.4832492
-0.13925129 -0.2890008 -0.09911693 0.0014300747 0.101168826 -0.16585334 0.20132262 0.10884327
0.0627028 0.18469271 -0.13649087 0.14686154 -0.02281289 -0.090504855 -0.09438914 0.041213617
-0.05149768 -0.03762923 0.08964462 -0.111617915 0.06391763 -0.14021708 0.010100586 0.06940262
-0.12917839 0.10259041 0.057147298 0.39767888 -0.12780654 0.21204992 -0.1060204 0.07758296
0.12184649 0.11869589 -0.11017445 -0.16464153 0.14871359 -0.0588641 0.3709059 0.020690449
0.056510925 -0.101988845 -0.032279212 0.06435429 0.13341767 -0.10916638 0.10143995 0.1816381
0.124629095 -0.09153886 -0.105890796 -0.018958565 -0.36339054 0.1432094 0.02826195 0.02693212
0.22187598 -0.016478203 0.083492324 -0.05849861 0.2799826 -0.033963326 0.010593106 0.17936827
-0.11509231 -0.097077504 -0.04382095 0.20993347 -0.13966182 0.30221722 -0.026236286 -0.070885606
0.2500832 0.02807627 0.11898207 -0.13795577 -0.072054744 -0.101089954 0.08938895 0.19719024
-0.019255914 0.13942155 0.003313809 0.085308895 0.25457615 0.05886103 -0.14318994 -0.12586196
-0.3955016 0.09205711 -0.20585953 -0.26391634 0.106356844 0.1161381 0.080830604 -0.0112189585
0.15161988 -0.16621974 -0.228266 0.16814582 -0.14135467 -0.14291412 -0.25552917 0.24093288
0.10633534 -0.14528358 0.096791014 0.28764132 0.1027872 0.0068325684 0.21090256 0.13536225
0.062616415 -0.17161407 0.32760173 0.124895304 0.06567381 -0.2000824 -0.286663 0.11584532
-0.06620949 -0.026476592 0.05363617 -0.11867076 0.27522454 0.1572379 -0.21191359 -0.41508475
0.1805051 0.29120833 0.050786864 -0.47764868 -0.2556093 -0.051485468 0.04244 -0.14500067
0.1113583 0.057805024 0.10251707 -0.111925825 -0.124354824 0.18369089 0.06525897 -0.038385317
0.08868564 -0.018948637 0.08820628 -0.05855777 0.052324016 -0.22603437 -0.041474573 -0.072176024
0.061566915 -0.013963022 0.046744104 -0.092774026 -0.07753838 0.027382923 -0.033561774 0.2354267
-0.15339983 -0.10044023 -0.09247238 0.17436847 0.078264 0.15804583 0.008889777 -0.07623897
0.039851345 0.30962875 -0.14840491 -0.1222435 -0.23007527 0.097523466 0.01864732 0.035475627
-0.16013545 -0.14852655 0.0039122794 0.24646808 -0.34839502 0.24131005 0.031886037 0.17072695
-0.09337339 0.16712895 -0.10921466 0.24099097 0.23947829 0.15028651 -0.12405399 0.18993215
0.2025059 -0.11853903 0.19983968 -0.018334733 -0.03782082 0.20095946 0.114031784 -0.18922032
-0.029887253 -0.012666271 0.37071663 -0.08148903 -0.03057046 -0.13310596 0.14328024 -0.094398424
-0.114789754 -0.067265555 0.15227816 -0.03763125 0.014393509 -0.03982714 -0.10991923 -0.11159155
-0.31371528 -0.118624136 -0.0064076073 0.0041135657 -0.110470735 0.34222758 0.18261278 0.22159746
0.118146546 0.12227802 0.38116357 -0.007854337 0.3703091 -0.16302681 -0.069289334 0.055963803
0.12406733 0.08493311 -0.13936505 -0.011208051 -0.045984395 0.10112138 0.12689312 -0.06685127
00000000: 901f 9d3d d500 40bd 9a4f 38be 7760 3abe
00000010: 0b48 90bc b556 28be ec9a cdbc 0b7f 99bd
00000020: bec0 1ebe bf9c c43d e343 04be ae21 a83c
00000030: 497f 433d b8c3 0c3e f84e 3b3e 706c f73e
00000040: e497 0ebe eaf7 93be d1fd cabd 5871 bb3a
00000050: 9a31 cf3d 75d5 29be 8427 4e3e 38e9 de3d
00000060: 536a 803d 1620 3d3e 43c4 0bbe df62 163e
00000070: 19e2 babc 9c5a b9bd 184f c1bd 9ccf 283d
00000080: 3bef 52bd 1c21 1abd 9997 b73d ef97 e4bd
00000090: 3fe7 823d 1195 0fbe ee7c 253c f622 8e3d
000000a0: 5747 04be ec1a d23d 4913 6a3d 919c cb3e
000000b0: b8df 02be 9d23 593e 3921 d9bd d1e3 9e3d
000000c0: a78a f93d d516 f33d 24a3 e1bd ca97 28be
000000d0: 6048 183e 7c1b 71bd 61e7 bd3e 047f a93c
000000e0: 0078 673d 87df d0bd 3537 04bd 2fcc 833d
000000f0: a49e 083e 9f92 dfbd c0bf cf3d 57ff 393e
00000100: 8a3d ff3d ba78 bbbd 46dd d8bd fe4e 9bbc
00000110: 530e babe 7ca5 123e 9b85 e73c c0a0 dc3c
00000120: 7533 633e 4cfd 86bc 06fe aa3d 3d9c 6fbd
00000130: e159 8f3e 211d 0bbd b58e 2d3c 51ac 373e
00000140: 84b5 ebbd 92d0 c6bd 997d 33bd cdf8 563e
00000150: 8203 0fbe 37bc 9a3e 7bed d6bc 792c 91bd
00000160: e80a 803e 3500 e63c dfac f33d 4744 0dbe
00000170: 7091 93bd 4008 cfbd 8e11 b73d 3dec 493e
00000180: 94be 9dbc 86c4 0e3e 7d2c 593b 6eb6 ae3d
00000190: ce57 823e 4318 713d 62a0 12be f5e1 00be
000001a0: 307f cabe 7088 bc3d d7cc 52be 0b20 87be
000001b0: 9ed1 d93d d0d9 ed3d 848a a53d b9cf 37bc
000001c0: 3e42 1b3e 8235 2abe 90be 69be 6b2e 2c3e
000001d0: 47bf 10be 1458 12be b8d4 82be 1cb7 763e
000001e0: 58c6 d93d 38c5 14be 5e3a c63d b945 933e
000001f0: 1882 d23d bde3 df3b d7f6 573e 679c 0a3e
00000200: 093d 803d 99bb 2fbe 6abb a73e 1cc9 ff3d
00000210: fe7f 863d 67e2 4cbe 7ec5 92be 5040 ed3d
00000220: d798 87bd 70e5 d8bc 9ab1 5b3d a809 f3bd
00000230: 3bea 8c3e f902 213e e0ff 58be fd85 d4be
00000240: 54d6 383e 4219 953e e305 503d 5e8e f4be
00000250: 39df 82be 6de2 52bd 91d5 2d3d 0e7b 14be
00000260: d20f e43d f6c4 6c3d 78f4 d13d 5e39 e5bd
00000270: bead febd 7719 3c3e 7fa6 853d ec39 1dbd
00000280: d1a0 b53d 2c3a 9bbc 7ea5 b43d 46da 6fbd
00000290: b551 563d 8e75 67be 3ee1 29bd 06d1 93bd
000002a0: 972d 7c3d 29c5 64bc bf76 3f3d 4f00 bebd
000002b0: 71cc 9ebd 2752 e03c 1278 09bd b213 713e
000002c0: d814 1dbe 9bb3 cdbd 2962 bdbd a68d 323e
000002d0: e048 a03d c4d6 213e 6da6 113c 2d23 9cbd
000002e0: 2a3b 233d a987 9e3e 75f7 17be cd5a fabd
000002f0: da98 6bbe 62ba c73d 44c2 983c e44e 113d
00000300: 8cfa 23be 5817 18be 9432 803b 2162 7c3e
00000310: d560 b2be fb19 773e ef9a 023d 0cd3 2e3e
00000320: 8c3a bfbd da23 2b3e f0ab dfbd 56c6 763e
00000330: cc39 753e b5e4 193e 0510 febd 937d 423e
00000340: b55d 4f3e 97c4 f2bd c6a2 4c3e b932 96bc
00000350: 01ea 1abd 51c8 4d3e 7f89 e93d f9c2 41be
00000360: 1dd6 f4bc 3186 4fbc 92ce bd3e b8e3 a6bd
00000370: e76e fabc ee4c 08be 0eb8 123e f653 c1bd
00000380: e416 ebbd 86c2 89bd ceee 1b3e 3a23 1abd
00000390: c1d2 6b3c c821 23bd 551d e1bd 1c8a e4bd
000003a0: 4a9f a0be 36f1 f2bd e8f6 d1bb 17cb 863b
000003b0: 7b3e e2bd 7438 af3e d8fe 3a3e 72ea 623e
000003c0: d1f6 f13d e66c fa3d df27 c33e 7aaf 00bc
000003d0: 2899 bd3e 80f0 26be 91e7 8dbd 4d3a 653d
000003e0: 0317 fe3d 69f1 ad3d b6b5 0ebe f9a1 37bc
000003f0: 225a 3cbd ba18 cf3d 45f0 013e 52e9 88bd

linear_relu_stack.6.bias f4 [40]
-0.2971133 -0.21922353 0.1356865 0.3516106 0.16159886 -0.28070238 0.019558001 0.035681576
0.2162038 0.31862763 -0.161644 -0.12037948 0.15928774 0.31500825 0.0014561523 0.26142585
0.04498338 0.15892757 -0.3399915 0.05536118 -0.0492915 -0.022453658 -0.029235603 -0.065925814
-0.18182611 -0.079124846 -0.15599534 0.14122753 -0.12626795 0.36452335 -0.2779516 0.046977792
0.28189293 0.1490691 0.2918406 0.27146748 0.2277088 0.22985263 0.086872466 0.08407574
00000000: 3c1f 98be 227c 60be 67f1 0a3e 4e06 b43e
00000010: 2c7a 253e 39b8 8fbe 1a38 a03c d826 123d
00000020: 8764 5d3e 2923 a33e 0186 25be 8489 f6bd
00000030: 531c 233e c348 a13e 5ddc be3a 9cd9 853e
00000040: 7e40 383d e9bd 223e 5e13 aebe 68c2 623d
00000050: e2e5 49bd bcf0 b7bc 817f efbc 1d04 87bd
00000060: a030 3abe 350c a2bd 3ebd 1fbe f39d 103e
00000070: 634c 01be cea2 ba3e ac4f 8ebe c96b 403d
00000080: 4554 903e 92a5 183e 226c 953e c9fd 8a3e
00000090: 7f2c 693e 7d5e 6b3e 31ea b13d e72f ac3d

linear_relu_stack.8.weight f4 [50, 40]
0.14703003 -0.026835345 0.05790982 -0.123789765 0.039391186 -0.014949547 0.10199688 -0.12115935
0.07325403 -0.15751028 -0.089976944 0.13789336 0.009715585 -0.050399285 -0.032020487 -0.02275276
0.05826305 -0.10960601 0.14086232 -0.06345021 -0.13918084 -0.1004665 0.12569085 0.15172882
0.14779091 -0.01029443 -0.14350912 -0.042529855 -0.08603036 0.07221044 -0.15970798 0.051849306
0.0688988 -0.009845655 -0.026531579 -0.15688042 -0.008675115 -0.014282626 0.06943906 -0.061806172
0.4694568 0.07013153 0.100138836 0.08696545 0.014843325 0.16283074 0.29455975 -0.23336853
0.050054554 0.09055554 -0.07575037 0.009938071 0.08435631 -0.27615675 0.33811152 -0.0063199904
0.34207943 0.018439436 -0.171302 0.14131361 0.050890937 0.2531682 0.07316092 0.2503938
-0.08360355 -0.09374414 0.094695345 0.00846433 -0.14458208 -0.09475776 0.13449797 0.09612704
0.008526505 0.23815562 0.11902153 -0.030513609 0.10774777 0.042762727 -0.028575532 -0.04921849
-0.025642954 -0.03109311 0.10061702 -0.17042683 0.12194987 0.088573195 -0.11209711 0.08028789
0.014818162 -0.15538472 -0.07649005 0.06209995 0.014192077 0.08030348 0.11547156 0.13161789
0.093645 0.019994043 -0.052923575 0.054885253 -0.09761495 0.13034125 -0.120788366 -0.015628353
0.12606195 0.041320823 -0.059130214 -9.592652e-05 -0.002998218 -0.12691212 -0.15151036 0.0009804938
-0.11441424 -0.04943218 -0.15267618 0.045426503 -0.15031746 0.0049730022 0.10579278 -0.14330429
-0.1345932 -0.077490486 -0.048326425 -0.0732801 -0.01827574 -0.13952221 -0.061946843 -0.13415371
0.0721407 -0.04651714 0.1292736 0.029002994 -0.061852504 0.006697418 0.1846719 -0.03403598
-0.024717113 0.030894108 0.11219202 -0.074910514 0.029335838 0.08324689 -0.12092005 0.028087458
0.0638523 0.021357134 -0.025207654 -0.015647843 -0.11619384 0.08524319 -0.14085916 -0.10347848
-0.15269804 0.015198162 0.094262116 -0.17442843 -0.046628937 0.11494604 0.059186034 0.11906758
0.004823 -0.015731603 -0.035533756 0.07591715 0.023159795 0.06878325 0.120590135 0.40395024
0.21396305 0.04588772 -0.01341558 0.07828223 0.025901016 0.04345991 0.015986344 -0.18884753
0.16042812 -0.0460853 -0.1970488 -0.03141567 -0.16761811 0.09560131 -0.035831008 0.08154715
-0.04127666 -0.120993935 -0.02514666 -0.27775225 -0.07999174 0.21168889 0.03256889 -0.27467355
0.011612219 0.17123161 0.17370126 0.1936176 0.15676549 -0.048834935 0.3012699 -0.084369324
-0.07044405 -0.20811406 -0.13351214 -0.08242689 -0.02885969 -0.062190082 -0.11034501 -0.16564752
-0.012244859 -0.054567646 -0.05858032 -0.12068914 -0.11592818 -0.07591182 0.14185627 0.034354202
-0.059153426 0.031195393 -0.15630946 -0.026361646 0.040455624 0.14420398 0.3109927 0.22106294
0.18327792 0.051695455 -0.1316847 0.058436837 0.07666984 0.0808928 0.15049167 -0.18967941
0.18000636 0.030635478 0.16483338 0.09060596 0.08545264 -0.03351137 -0.15279141 -0.18984114
0.042816225 0.04076532 -0.16988017 -0.023688097 -0.0534985 0.103994966 -0.05544808 -0.033002116
-0.14438285 -0.018130725 0.06463769 0.11902763 -0.05489272 -0.026077176 0.12760107 0.14804298
00000000: 0a8f 163e ccd5 dbbc d932 6d3d 7d85 fdbd
00000010: a758 213d f2ee 74bc bde3 d03d 6522 f8bd
00000020: 3506 963d 604a 21be d545 b8bd eb33 0d3e
00000030: 1e2e 1f3c 7b6f 4ebd ea27 03bd ff63 babc
00000040: 3ca5 6e3d 1e79 e0bd 363e 103e 2ff2 81bd
00000050: 6c85 0ebe 61c1 cdbd 1ab5 003e cd5e 1b3e
00000060: 8056 173e f8a9 28bc 0ef4 12be c933 2ebd
00000070: af30 b0bd 11e3 933d 7d8a 23be f05f 543d
00000080: d01a 8d3d ac4f 21bc c158 d9bc 43a5 20be
00000090: 1222 0ebc ad01 6abc 1136 8e3d 7828 7dbd
000000a0: a45c f03e 1fa1 8f3d 9715 cd3d f11a b23d
000000b0: 6b31 733c 1abd 263e 89d0 963e 29f8 6ebe
000000c0: 0106 4d3d 2f75 b93d 0323 9bbd 4ad3 223c
000000d0: 00c3 ac3d 6b64 8dbe f41c ad3e ec17 cfbb
000000e0: 0925 af3e 4d0e 973c cb69 2fbe 84b4 103e
000000f0: 0473 503d 439f 813e 64d5 953d 9e33 803e
00000100: 5738 abbd edfc bfbd a2ef c13d f9ad 0a3c
00000110: 530d 14be 5b10 c2bd d6b9 093e 41de c43d
00000120: c1b2 0b3c 11df 733e 8fc1 f33d adf7 f9bc
00000130: ddaa dc3d f827 2f3d 3c17 eabc 5499 49bd
00000140: 2c11 d2bc fab6 febc 4c10 ce3d 5f84 2ebe
00000150: dac0 f93d dd65 b53d 2b93 e5bd fa6d a43d
00000160: e0c7 723c 2c1d 1fbe d1a6 9cbd 845c 7e3d
00000170: e385 683c 2776 a43d 5a7c ec3d d7c6 063e
00000180: f3c8 bf3d 8cca a33c 64c6 58bd 5ccf 603d
00000190: 59ea c7bd 2d78 053e e45f f7bd 0807 80bc
000001a0: 6216 013e 0640 293d 8632 72bd 292c c9b8
000001b0: c07d 44bb 40f5 01be 8825 1bbe ea83 803a
000001c0: 0352 eabd 6679 4abd 2557 1cbe 2411 3a3d
000001d0: d2ec 19be 91f4 a23b e3a9 d83d 5cbe 12be
000001e0: cdd2 09be 55b3 9ebd eef1 45bd e113 96bd
000001f0: 01b7 95bc e9de 0ebe f9bb 7dbd 975f 09be
00000200: 81be 933d c288 3ebd 4c60 043e b097 ed3c
00000210: 0d59 7dbd 0476 db3b a11a 3d3e 5069 0bbd
00000220: 8b7b cabc a415 fd3c eec4 e53d af6a 99bd
00000230: b651 f03c 587d aa3d eea4 f7bd ab17 e63c
00000240: ffc4 823d 28f5 ae3c 4880 cebc e82f 80bc
00000250: 09f7 edbd fb93 ae3d 623d 10be 86ec d3bd
00000260: e05c 1cbe b601 793c 7f0c c13d 5e9d 32be
00000270: fcfd 3ebd d468 eb3d 0e6d 723d b4d9 f33d
00000280: 420a 9e3b 90df 80bc d88b 11bd 737a 9b3d
00000290: 9cb9 bd3c 3cde 8c3d f6f7 f63d 91d2 ce3e
000002a0: 2119 5b3e c3f4 3b3d 05cd 5bbc 6f52 a03d
000002b0: 5e2e d43c 0503 323d cbf5 823c 3f61 41be
000002c0: 4547 243e f1c3 3cbd 29c7 49be b8ad 00bd
000002d0: 15a4 2bbe 9fca c33d 89c3 12bd 3102 a73d
000002e0: b711 29bd abcb f7bd 5e00 cebc 8b35 8ebe
000002f0: b6d2 a3bd f9c4 583e f566 053d 03a2 8cbe
00000300: 2d41 3e3c 5757 2f3e bede 313e b143 463e
00000310: 2287 203e 2407 48bd 0c40 9a3e d3c9 acbd
00000320: f844 90bd da1b 55be 68b7 08be 6ecf a8bd
00000330: 286b ecbc 07bb 7ebd 91fc e1bd 819f 29be
00000340: a99e 48bc 5382 5fbd ebf1 6fbd de2b f7bd
00000350: c16b edbd a877 9bbd c542 113e feb6 0c3d
00000360: dd4a 72bd 7b8d ff3c 960f 20be 61f4 d7bc
00000370: ccb4 253d 35aa 133e 6f3a 9f3e 535e 623e
00000380: 35ad 3b3e 9dbe 533d 5bd8 06be 775b 6f3d
00000390: 1405 9d3d 20ab a53d 7d1a 1a3e 523b 42be
000003a0: 9653 383e 41f7 fa3c 15ca 283e 9e8f b93d
000003b0: cb01 af3d 3843 09bd 5a75 1cbe b765 42be
000003c0: 1160 2f3d 89f9 263d 11f5 2dbe 8a0d c2bc
000003d0: 3e21 5bbd 50fb d43d 871d 63bd 3a2d 07bd
000003e0: 19d9 13be e386 94bc c460 843d c2c4 f33d
000003f0: 30d7 60bd cd9f d5bc dba9 023e 9498 173e

linear_relu_stack.8.bias f4 [50]
-0.16055328 0.0039004672 -0.18932183 -0.065461844 0.06890429 0.3399277 -0.1236133 -0.19924049
0.09005049 0.10700008 0.10478718 0.36527592 -0.11557127 -0.11676984 -0.07469869 -0.066775985
-0.17568338 0.3107779 -0.13937637 0.18029739 -0.12847395 -0.08116639 0.36107177 0.3439369
-0.12675865 0.36266527 -0.13048397 -0.17709972 -0.09016162 0.3080429 0.014960754 0.27956596
0.13463712 -0.14821818 -0.17901103 -0.16385262 -0.06157468 -0.11554426 0.016215727 -0.113723874
-0.030047525 -0.15012428 -0.111139014 -0.10913574 0.3921408 -0.16622044 0.14628127 0.0788564
-0.03398546 0.010330315
00000000: 1468 24be fb9e 7f3b 95dd 41be dc10 86bd
00000010: b11d 8d3d 010b ae3e f828 fdbd b305 4cbe
00000020: 646c b83d dc22 db3d a99a d63d 7205 bb3e
00000030: a1b0 ecbd 0725 efbd a0fb 98bd d9c1 88bd
00000040: 58e6 33be 481e 9f3e aeb8 0ebe e19f 383e
00000050: ad8e 03be 903a a6bd 66de b83e 7f18 b03e
00000060: 05cd 01be 43af b93e 979d 05be a159 35be
00000070: a8a6 b8bd cdb7 9d3e f31d 753c 4523 8f3e
00000080: 50de 093e 82c6 17be ab4e 37be fbc8 27be
00000090: bb35 7cbd 78a2 ecbd d8d6 843c 10e8 e8bd
000000a0: 3a26 f6bc 2eba 19be da9c e3bd 8f82 dfbd
000000b0: aec6 c83e b135 2abe c2ca 153e 777f a13d
000000c0: 5634 0bbd 7b40 293c

linear_relu_stack.10.weight f4 [180, 50]
-0.005302026 -0.022964867 -0.03574778 -0.0110224495 -0.0077978284 -0.00062177185 -0.09819053 0.029570224
0.10406008 0.013243008 -0.08420387 -0.013701013 0.025610602 0.006306704 0.05966661 0.08148533
-0.031785503 -0.029269645 -0.11944132 0.016520286 0.09814103 0.00060432026 0.096750475 0.07429252
0.1021069 -0.023192236 0.023962807 -0.13508679 0.020583194 -0.076451324 -0.024522867 -0.0124392435
-0.08779445 0.1284912 0.04024402 0.027798155 -0.06902109 -0.08733243 -0.04382029 -0.12188865
-0.07624712 -0.0069450587 -0.079625554 0.08086282 0.05027638 0.022743767 0.022765808 0.047784083
0.018602535 -0.11561344 -0.10172411 0.043908358 0.0336473 -0.08052277 0.009684449 0.08623475
-0.016263511 -0.1104941 -0.0048277644 0.010343451 -0.012560822 0.07237188 -0.012200294 0.10466717
-0.044680588 -0.09491752 -0.012676207 0.15180829 0.009134222 0.07541054 -0.09742284 -0.12863697
-0.050220743 -0.007360729 -0.11376658 -0.13384229 -0.106321804 -0.08174935 0.0031299319 0.03944416
0.0072599286 -0.11986778 -0.048667897 -0.056008764 -0.0435931 0.06561415 0.011423644 -0.095684044
0.0480383 -0.01759982 -0.092955984 -0.049205236 0.026668314 0.10127172 0.02740341 -0.028766261
0.00046310996 -0.009772013 0.03208474 -0.03723226 -0.0066813175 -0.049850095 -0.11418657 0.112567954
-0.014775405 0.08399621 -0.12658995 0.0831367 -0.009034161 0.028060813 0.019069435 0.06794614
0.03848411 -0.048245084 -0.0440562 0.09765464 0.0015810188 -0.017736554 0.12215434 -0.019469148
0.12695189 0.06886902 0.041950256 -0.04995009 -0.12524615 0.03676351 0.017743677 -0.0013415515
-0.041242447 0.0046103885 0.025719902 -0.08080929 -0.032394186 -0.063594505 0.01321466 0.05151342
-0.009300997 -0.086657934 -0.067535125 0.018846093 0.06321729 -0.082203776 0.08825613 0.029166933
0.03391444 0.07970465 0.0017037218 -0.01787876 -0.14449365 0.004078022 0.035131566 0.10597306
-0.1349661 0.024202632 0.037160024 0.13429004 -0.09604813 0.09015971 -0.026908446 -0.5602612
0.11897825 -0.08720622 -0.16755468 0.11926788 0.070354216 -0.01449147 0.030048825 0.23244555
0.025198173 -0.22590844 0.10616356 0.04492853 0.4675888 0.3808859 0.073454335 0.15058178
0.02283986 0.009974847 -0.0727552 -0.062979765 -0.053439416 -0.21069716 -0.23546743 -0.048030593
0.06969294 -0.00035491463 -0.09004955 -0.14497244 0.16885804 0.02181944 0.043080166 0.099332854
-0.09391553 -0.10352893 0.23528773 -0.1456938 0.18565623 -0.16311832 0.07303434 -0.035161205
-0.021802751 0.24940915 -0.09994148 0.081646495 -0.25211018 0.31799155 -0.01674495 -0.039670695
0.29013374 -0.17852654 -0.13378935 0.033670664 0.07507951 -0.02527186 0.057183392 0.071369976
0.022320412 -0.18252839 0.03265573 0.22719036 0.14578934 0.11976432 0.00584838 0.09649092
-0.13046327 0.056391966 0.035311263 -0.09264706 -0.12293622 0.21772887 -0.0012919885 -0.30666694
-0.41991583 -0.12305145 0.07655618 0.015820833 0.33227235 -0.08122976 -0.1306351 0.014201182
0.023389185 -0.066015795 -0.13094683 0.08429238 -0.6273161 0.010300135 0.13527438 0.31679475
-0.097742416 -0.0046244254 -0.052345052 -0.22169957 -0.12026444 0.040115494 -0.2432244 0.21825254
00000000: 9ebc adbb d120 bcbc 446c 12bd 8197 34bc
00000010: ed84 ffbb 67fe 22ba 1e18 c9bd 413d f23c
00000020: 741d d53d 34f9 583c 1473 acbd 377a 60bc
00000030: 53cd d13c 78a8 ce3b fa64 743d c8e1 a63d
00000040: 8431 02bd e5c6 efbc a79d f4bd 8d55 873c
00000050: 2afe c83d 3f6b 1e3a 1d25 c63d ad26 983d
00000060: 6c1d d13d a5fd bdbc a64d c43c 3154 0abe
00000070: 169e a83c 8392 9cbd 2ee4 c8bc f8cd 4bbc
00000080: 94cd b3bd 3293 033e ead6 243d f5b8 e33c
00000090: ee5a 8dbd 58db b2bd e87c 33bd c2a0 f9bd
000000a0: 7327 9cbd 6093 e3bb b912 a3bd 689b a53d
000000b0: 9bee 4d3d 2351 ba3c 5c7f ba3c 3eb9 433d
000000c0: 5864 983c bdc6 ecbd bb54 d0bd 40d9 333d
000000d0: c0d1 093d 1fe9 a4bd 86ab 1e3c d89b b03d
000000e0: 0e3b 85bc bb4a e2bd 3932 9ebb 9477 293c
000000f0: e8cb 4dbc b537 943d bee3 47bc be5b d63d
00000100: fe02 37bd 1e64 c2bd deaf 4fbc a273 1b3e
00000110: b4a7 153c d770 9a3d a085 c7bd 69b9 03be
00000120: 44b4 4dbd 4532 f1bb 74fe e8bd f40d 09be
00000130: 3fbf d9bd 346c a7bd 8b1f 4d3b 3390 213d
00000140: b2e4 ed3b 3d7d f5bd fd57 47bd 7269 65bd
00000150: ae8e 32bd b660 863d 3c2a 3b3c fff5 c3bd
00000160: cfc3 443d 7f2d 90bc b55f bebd 6e8b 49bd
00000170: 8277 da3c 8c67 cf3d 1e7d e03c 39a7 ebbc
00000180: 91cd f239 cb1a 20bc 4a6b 033d db80 18bd
00000190: f4ee dabb 9d2f 4cbd a6da e9bd 078a e63d
000001a0: 8a14 72bc 3406 ac3d cca0 01be 9343 aa3d
000001b0: 0504 14bc cadf e53c 8137 9c3c 5927 8b3d
000001c0: 84a1 1d3d a39c 45bd 4674 34bd 28ff c73d
000001d0: 303a cf3a 404c 91bc 0e2c fa3d c37d 9fbc
000001e0: adff 013e 330b 8d3d 08d4 2b3d 7798 4cbd
000001f0: 8740 00be 5695 163d 305b 913c 00d7 afba
00000200: d7ed 28bd be12 973b 8bb2 d23c 577f a5bd
00000210: c4af 04bd d63d 82bd 4d82 583c bcff 523d
00000220: 3563 18bc b779 b1bd db4f 8abd 1f63 9a3c
00000230: 1178 813d 745a a8bd a1bf b43d 7eef ee3c
00000240: dee9 0a3d 313c a33d 6b4f df3a 7a76 92bc
00000250: 25f6 13be eea0 853b 1ee6 0f3d 6708 d93d
00000260: 8e34 0abe 9944 c63c 1c35 183d 5483 093e
00000270: e2b4 c4bd a7a5 b83d 1a6f dcbc 476d 0fbf
00000280: deaa f33d 2d99 b2bd 7493 2bbe b842 f43d
00000290: df15 903d a16d 6dbc f428 f63c 3506 6e3e
000002a0: 666c ce3c 8b54 67be 486c d93d fa06 383d
000002b0: cd67 ef3e 7a03 c33e 3a6f 963d 1c32 1a3e
000002c0: a81a bb3c 8a6d 233c ae00 95bd 89fb 80bd
000002d0: 4ae3 5abd ffc0 57be 601e 71be babb 44bd
000002e0: 2cbb 8e3d d613 bab9 e66b b8bd a873 14be
000002f0: 1fe9 2c3e afbe b23c d474 303d 066f cb3d
00000300: c956 c0bd fa06 d4bd 44ef 703e c130 15be
00000310: ab1c 3e3e 7d08 27be 0793 953d 3205 10bd
00000320: af9b b2bc 1d65 7f3e 1eae ccbd 4736 a73d
00000330: 9614 81be cacf a23e b52c 89bc bd7d 22bd
00000340: 698c 943e a9cf 36be 1300 09be 40ea 093d
00000350: 49c3 993d ef06 cfbc 2239 6a3d 6c2a 923d
00000360: 4cd9 b63c b9e8 3abe 04c2 053d 97a4 683e
00000370: cd49 153e ff46 f53d c4a3 bf3b 089d c53d
00000380: 2a98 05be 43fb 663d 8ba2 103d bebd bdbd
00000390: fcc5 fbbd 51f4 5e3e f157 a9ba 7303 9dbe
000003a0: 35ff d6be 6602 fcbd 7dc9 9c3d b19a 813c
000003b0: 9a1f aa3e ca5b a6bd 35c5 05be 13ac 683c
000003c0: ad9a bf3c 4a33 87bd ed16 06be 7ca1 ac3d
000003d0: ca97 20bf e6c1 283c 5e85 0a3e ec32 a23e
000003e0: 2d2d c8bd 7e88 97bb c467 56bd 3605 63be
000003f0: 344d f6bd 2550 243d d10f 79be 987d 5f3e

linear_relu_stack.10.bias f4 [180]
-0.019403638 -0.037226174 0.26618916 -0.051644124 -0.1739486 -0.2376542 -0.12730832 0.12689702
-0.23457786 -0.013724245 -0.1689883 0.43362606 0.01305322 -0.05172282 0.26713994 -0.010473462
-0.19607891 -0.17575836 -0.15685904 0.05319237 -0.18557394 0.043826066 -0.1809436 0.42974362
0.015708353 -0.0582901 0.24882682 -0.0052189426 -0.16672479 -0.19615802 -0.0691922 0.030214135
-0.12727317 0.04845072 -0.16402937 0.40259424 0.009037744 -0.034286898 0.23530209 -0.11092042
-0.18197314 -0.16882113 -0.062086 0.04167073 -0.10048381 0.028538585 -0.14084674 0.39615467
0.025236815 -0.029939516 0.24208073 -0.13253254 -0.15956481 -0.15781717 0.016965881 0.029761057
-0.06209089 0.050452456 -0.116044946 0.39603612 0.033955943 -0.046413496 0.24032216 -0.1566565
-0.124664426 -0.17498033 0.037696205 0.031086465 -0.0349406 0.05770328 -0.12772876 0.3927722
0.015278939 -0.027325792 0.24799553 -0.10253545 -0.10025171 -0.09485994 -0.0038052073 0.010048935
-0.060356013 0.048801526 -0.08680427 0.4080886 0.021870207 -0.028221348 0.2521521 -0.08151669
-0.11171943 -0.10796668 0.011574069 0.013829717 -0.029618654 0.050244357 -0.057641797 0.41827017
0.02174089 -0.028852863 0.2554883 -0.08707475 -0.07731222 -0.08384073 0.03433156 -0.033149734
0.041986033 0.07085876 -0.06459988 0.40880978 0.007659814 -0.016624419 0.26407924 -0.058134668
-0.05223048 -0.07531059 0.024013935 -0.038330033 -0.00881613 0.06881983 -0.08287987 0.42912775
0.03050034 -0.044928476 0.26692432 -0.025794212 0.0114567615 -0.093203165 0.023188349 -0.084315866
0.046164583 0.08458534 -0.076986775 0.43087903 0.0063100467 -0.0468811 0.27589267 -0.0438079
-0.017893733 -0.053668916 0.04942619 -0.11658687 0.018206278 0.07370458 -0.04043165 0.44859862
0.0318566 -0.04801849 0.28372702 -0.033894617 -0.0034567132 -0.042807374 0.035803292 -0.09883684
0.024959372 0.07715595 -0.03983882 0.45257065 -0.017700432 -0.040525615 0.28145435 -0.045041915
0.021252599 -0.02718948 0.0011073125 -0.15497628 0.046758506 0.06866357 -0.039022777 0.4573346
0.033327684 -0.039925285 0.2857236 0.06268025 0.017613854 -0.045046333 0.03445479 -0.0994772
0.04186288 0.04851884 -0.055615272 0.4765574
00000000: 61f4 9ebc 797a 18bd f249 883e ca88 53bd
00000010: 951f 32be 9f5b 73be 1d5d 02be 4bf1 013e
00000020: 2e35 70be a8db 60bc 450b 2dbe 3c04 de3e
00000030: 2cdd 553c 4fdb 53bd 91c6 883e e298 2bbc
00000040: e9c8 48be 00fa 33be a89f 20be 3ee0 593d
00000050: 1807 3ebe f682 333d 4749 39be 5b07 dc3e
00000060: ceae 803c 9ac1 6ebd 75cc 7e3e aa03 abbb
00000070: e7b9 2abe a6dd 48be a4b4 8dbd a283 f73c
00000080: e653 02be 4374 463d 51f7 27be d520 ce3e
00000090: 0c13 143c 6b70 0cbd 08f3 703e 3f2a e3bd
000000a0: 2b57 3abe 72df 2cbe e44d 7ebd edae 2a3d
000000b0: 75ca cdbd c0c9 e93c 213a 10be c9d4 ca3e
000000c0: 70bd ce3c b743 f5bc 03e4 773e 9cb6 07be
000000d0: f564 23be d39a 21be 08fc 8a3c 76cd f33c
000000e0: 0453 7ebd 3ca7 4e3d f9a8 edbd 3fc5 ca3e
000000f0: 6315 0b3d 141c 3ebd 0317 763e 906a 20be
00000100: 1050 ffbd 0b2e 33be 5667 1a3d 0ba9 fe3c
00000110: e01d 0fbd 465a 6c3d 54cb 02be 7019 c93e
00000120: 8454 7a3c 57da dfbc 8af2 7d3e 1bfe d1bd
00000130: c550 cdbd ee45 c2bd c960 79bb 4aa4 243c
00000140: de37 77bd 1ce4 473d 70c6 b1bd fdf0 d03e
00000150: 2629 b33c 7530 e7bc 141a 813e 39f2 a6bd
00000160: 28cd e4bd a21d ddbd 2aa1 3d3c 0a96 623c
00000170: d2a2 f2bc 07cd 4d3d ce19 6cbd 8227 d63e
00000180: f319 b23c d75c ecbc 5dcf 823e 3f54 b2bd
00000190: df55 9ebd b0b4 abbd 409f 0c3d 04c8 07bd
000001a0: 8cf9 2b3d 661e 913d f14c 84bd 844f d13e
000001b0: 2dff fa3b ef2f 88bc 6535 873e 9e1e 6ebd
000001c0: a1ef 55bd 703c 9abd dfb8 c43c f4ff 1cbd
000001d0: 8871 10bc 69f1 8c3d ecbc a9bd a2b6 db3e
000001e0: d9db f93c ec06 38bd 4eaa 883e 624e d3bc
000001f0: 24b5 3b3c 4de1 bebd 7ef5 bd3c ccad acbd
00000200: 1317 3d3d 143b ad3d 3eab 9dbd 2d9c dc3e
00000210: 82c4 ce3b 6506 40bd ce41 8d3e ea6f 33bd
00000220: e195 92bc f0d3 5bbd 1e73 4a3d 19c5 eebd
00000230: 5525 953c 6df2 963d a89b 25bd b8ae e53e
00000240: 117c 023d 09af 44bd ab44 913e 15d5 0abd
00000250: 068a 62bb c956 2fbd 79a6 123d f86a cabd
00000260: 9977 cc3c f003 9e3d 082e 23bd 57b7 e73e
00000270: 7f00 91bc 30fe 25bd c91a 903e df7d 38bd
00000280: ee19 ae3c 79bc debc 3e23 913a 1ab2 1ebe
00000290: d985 3f3d 7c9f 8c3d 59d6 1fbd c327 ea3e
000002a0: 9c82 083d b288 23bd 5d4a 923e 815e 803d
000002b0: ee4a 903c 8182 38bd 7720 0d3d b4ba cbbd
000002c0: 6978 2b3d b1bb 463d d7cc 63bd 55ff f33e
