baselines/autoenc_basic/Weights/model_weights_AMASS1o2_i1o4.pth (torch, 104114 bytes, 12 tensors)

linear_relu_stack.0.weight f4 [50, 180]
000000 35 eb 76 bd 5b e5 95 bd f0 db 1f bd 46 fb 65 bd
       -0.060282905 -0.07319137 -0.039028108 -0.056147836
000010 88 23 20 3e 82 06 13 3e d0 19 3b 3d 74 3c ff 3c
       0.15638554 0.14357951 0.045678914 0.031156756
000020 ca 8e dd 3d 88 07 e1 3c 84 45 5b bc 6d e6 67 3c
       0.108182505 0.027469411 -0.013383273 0.014154059
000030 3a 65 e7 bc fd 76 4f 3b 72 56 06 3d 26 4f 96 bd
       -0.02824651 0.0031656616 0.032797284 -0.07339315
000040 50 01 de bc a6 e2 14 3e e5 75 9b 3d 63 ba 16 3e
       -0.027100235 0.14539585 0.07590846 0.14719538
000050 79 84 f7 3d 95 6b bb 3c bc 3f 7c 3d 31 72 08 bb
       0.12085814 0.022878448 0.06158422 -0.0020820017
000060 59 7e 61 bd 44 e4 3c bd 8c 97 9f bc 7f a6 c1 bd
       -0.055052135 -0.04611613 -0.019481443 -0.09455585
000070 85 1f 8c 3d 1e 7d 1c 3e da 10 ae 3b d9 f3 36 3d
       0.068419494 0.15282103 0.0053120675 0.044666145
000080 63 ef 9d 3c a3 d9 0f bd e5 15 15 bc 75 12 66 3d
       0.019279188 -0.035119664 -0.009099458 0.056169946
000090 63 ed 51 3d 90 bb ce bc 70 4a 00 bd ff fe 06 be
       0.05125178 -0.025235921 -0.03132099 -0.13183211
0000a0 49 a8 36 3d fc 3f f5 3d ae 55 75 bc 27 71 be 3d
       0.044594083 0.11975095 -0.014974041 0.09298926
0000b0 20 42 22 3d 78 90 e2 bc 6f 86 04 bd 0d cf a3 3d
       0.039613843 -0.027656779 -0.03235477 0.07998476
0000c0 0e d6 47 3b c1 55 eb bd af 13 d6 3c 10 25 0c bd
       0.0030492577 -0.11490966 0.026132433 -0.034215033
0000d0 d9 d3 20 bd cd b8 d2 3b 17 8a 75 bc 50 d0 62 3d
       -0.039264534 0.0064307214 -0.014986536 0.055374444
0000e0 2c f5 b3 bc 37 59 4f bd 84 8d 83 bd 82 62 81 3d
       -0.021967493 -0.05062219 -0.06423476 0.06317617
0000f0 61 aa d2 bc 04 55 ca 3b 3b 1e 19 bd 58 6a b6 bd
       -0.025716009 0.0061746854 -0.037382346 -0.08907002
000100 60 6c 89 bc 1b 3d b8 3c 40 02 c1 3c d5 22 bc 3c
       -0.01677531 0.022490075 0.023560643 0.022965828
000110 2c b4 49 bd f2 c0 25 3d d3 54 8d bd 52 11 b4 3c
       -0.04924409 0.04046721 -0.069009446 0.021980915
000120 67 93 42 3c 9f ca 18 bd da cd 77 3d dc 14 9c bd
       0.011875964 -0.03730261 0.06049905 -0.07621166
000130 43 49 b0 bd 02 43 b4 3a 04 c4 4a 3d 5d bc f4 3d
       -0.086077236 0.001375288 0.04950334 0.1194999
000140 fa 81 37 3c fe 05 82 bd 7e b6 b4 bb 2f b1 87 bd
       0.011200422 -0.06348799 -0.005514919 -0.06625592
000150 93 b5 56 bc 72 ae 8a bd 95 6a 4a 3d d9 59 0e 3d
       -0.013104814 -0.06771554 0.04941805 0.034753654
000160 46 0f 02 3c 70 f7 b4 bc ac 28 11 bd c2 9a bf 3b
       0.007938212 -0.022090644 -0.03543918 0.005847306
000170 ce ba be ba 03 00 08 bd 49 38 27 3b 94 60 80 3d
       -0.0014551522 -0.033203136 0.0025515726 0.06268421
000180 21 4b 8d 3c 3e 83 90 bd 2b f5 18 3d 90 59 1d bd
       0.017247738 -0.070562825 0.037343185 -0.03841549
000190 49 3d 0a bc 3f ac 22 3c 53 f6 eb bc e2 17 0d 3c
       -0.008437463 0.009928762 -0.02880398 0.008611651
0001a0 66 f7 73 3d 09 d8 e8 3b 82 07 d7 bd fd e6 58 3d
       0.05956211 0.0071058315 -0.10499479 0.052954663
0001b0 19 f1 1d 3c 88 82 db bd 30 fd 9c 3d 6e 7a 11 bc
       0.009640002 -0.10718256 0.07665479 -0.008879287
0001c0 8b ef 57 bd 30 d7 dc bd e7 00 8b bd 7e 62 82 bb
       -0.05271868 -0.10783231 -0.067872815 -0.0039790263
0001d0 ad 4c 94 3c 1e b3 04 3d c3 fd 35 bd c9 7f 42 bd
       0.018102968 0.032397382 -0.04443146 -0.047485147
0001e0 6e 5a 32 3d 1f 41 bc ba c1 a4 b4 3d 49 ba 3d 3d
       0.04354327 -0.0014362669 0.08820487 0.046320233
0001f0 b6 4b eb 3c 33 5c 0f bd 88 02 f7 bb 3b dd 03 bd
       0.028722625 -0.035000037 -0.0075381435 -0.032193404
000200 31 81 bc bd ad c0 a9 bd 40 88 36 bd ca 5f 3b bd
       -0.09204329 -0.08288703 -0.044563532 -0.04574565
000210 e3 f7 a8 bc 16 55 4f 3c f1 5f 31 3d 35 66 af 3d
       -0.020626014 0.012654563 0.043304387 0.08564416
000220 03 68 a2 3b 33 4a 07 be 35 c9 84 bd 05 5c 6f bd
       0.004956247 -0.13211899 -0.0648369 -0.058437366
000230 55 62 8f bd 11 9a 9a bd b8 1e 8d 3b 00 dc ea 3c
       -0.07001177 -0.07548917 0.0043066405 0.028669357
000240 25 61 e2 3c 6a 5e 50 bd 22 35 f6 bc f1 b0 3e 3d
       0.027634213 -0.05087129 -0.030054633 0.046555463
000250 26 24 3f 3d d7 09 a5 bd 27 43 16 3c c4 5b 9f bc
       0.046665333 -0.080585174 0.009171284 -0.019452937
000260 be eb bd bc 95 37 2a bd 41 fb 83 bd 63 99 0b bd
       -0.0231837 -0.041556913 -0.06444407 -0.034081828
000270 12 83 98 3c 3d 36 2c bd 9a 99 27 3d 3f f5 5b 3c
       0.018617187 -0.042043913 0.04091797 0.01342517
000280 a3 ba b2 3d fb fe de bd 42 1b 76 3d f7 cc cf 3d
       0.087270044 -0.108884774 0.06008459 0.10146516
000290 27 97 2c be ca c2 6e be 26 44 df bd 68 07 98 bd
       -0.16854535 -0.23316494 -0.1090167 -0.07423288
0002a0 01 9f 9f bd 00 6e a0 3d 59 ae 10 bd ed bf cb bd
       -0.077939995 0.07833481 -0.03532252 -0.09948716
0002b0 0d 1d 66 bd 4f 31 be bd 44 c2 53 bc 64 06 c7 3e
       -0.05618005 -0.092867486 -0.0129247345 0.38872063
0002c0 dd 7c 3f be 47 eb aa be 9a b6 9d bd 2b 14 7a 3c
       -0.18699975 -0.33382627 -0.07700844 0.0152635975
0002d0 11 01 95 bd 67 ec c3 bc a0 9e 6e 3b aa 05 21 bd
       -0.07275594 -0.023916436 0.0036410466 -0.039312042
0002e0 a9 32 a4 3d 28 70 cd bd c9 62 e8 3c 30 dd 4f bd
       0.08017475 -0.10031158 0.028367417 -0.05074805
0002f0 81 fb 8a bd 2b eb 0a 3d f0 b3 5d bd 2f 6c 2e bc
       -0.06786252 0.03391568 -0.05412668 -0.01064591
000300 11 9e d0 3c bd 43 31 3c e2 ef 88 bd fd 3b 9c 3c
       0.025465997 0.010819373 -0.06686379 0.019071573
000310 b4 07 6f 3d 04 62 a7 bc ea e1 ae bb 6c f4 3b 3d
       0.058356956 -0.02043248 -0.0053369896 0.045887396
000320 50 3a 9c 3b 22 b8 9a bd a2 d0 8c bd 54 89 86 bb
       0.0047676936 -0.07554652 -0.06875731 -0.0041057263
000330 a9 67 20 3d 86 e6 1c bd cc f8 2d bd 65 98 b1 bc
       0.039161358 -0.03830578 -0.0424736 -0.021679113
000340 e9 67 c7 bd 41 27 8d bd 47 be 01 3d ea a8 21 3d
       -0.09736616 -0.06892253 0.031675603 0.03946773
000350 13 4f d9 bc 4c 48 19 bd 9d d2 4e bd 31 67 2e 3d
       -0.026526963 -0.037422463 -0.050493825 0.04257888
000360 8e 16 9f bd 13 2f 61 bd e0 f9 95 bd bc 3a a5 3d
       -0.07767974 -0.054976534 -0.073230505 0.08067843
000370 9b 3f 59 bd ea ff e9 3c 15 1b 22 bd e8 c2 8b bd
       -0.053039175 0.028564412 -0.03957661 -0.06824285
000380 8c ad 74 bd 40 a3 34 bc d9 2c c1 3d 03 0c 3d 3d
       -0.05973582 -0.01102525 0.09432382 0.046154033
000390 d8 da 33 3d 60 c0 ca bb 82 2c 9f bd 7b 06 e2 3c
       0.043909878 -0.0061874837 -0.07772161 0.02759098
0003a0 5a d9 9a bb a7 5b d6 3c 2e 56 fb bc 29 9c 67 3d
       -0.0047256174 0.02616675 -0.030680742 0.05654541
0003b0 fd 2e 00 bd 34 d7 c0 3c 54 82 96 3d ee 9c 55 bd
       -0.03129481 0.023540117 0.07349077 -0.052151613
0003c0 f7 8f 72 bd df e4 ad 3d b6 90 89 bd 9d 29 71 bd
       -0.059219327 0.08490919 -0.067170545 -0.058877576
0003d0 95 62 88 3c d6 de a7 3c f0 8b cc bc c0 05 85 3d
       0.01664857 0.020491999 -0.024969071 0.06495237
0003e0 56 54 07 bd 84 4e ce bd 73 3d 70 3d 6a 7f 57 bc
       -0.033039413 -0.100735694 0.058652353 -0.0131529365
0003f0 87 ad 16 bb 8b 74 ee 3d 71 b3 9b 3c 07 86 c4 3c
       -0.0022991614 0.116433226 0.019006463 0.02398969

linear_relu_stack.0.bias f4 [50]
000000 64 8a 0a bd fb 2f b8 3e 89 5a 66 3d 0f a6 03 3e
       -0.033823386 0.35974106 0.056238685 0.12856315
000010 e9 a5 85 3e 5f 0c 11 3d 2d aa 82 be da 12 90 bd
       0.26103142 0.03541219 -0.2552046 -0.07034846
000020 da 45 8b 3e 4d 9e ba bc 05 fc 51 3e ac 41 5c 3e
       0.2720173 -0.022780562 0.20506294 0.21509427
000030 46 c8 51 be 2e 5c 37 bc 1c 5f 12 be 99 6c 03 bc
       -0.20486555 -0.011191411 -0.14294094 -0.008021497
000040 a7 c9 3e 3e 86 3e 6c 3e 84 c7 54 ba a4 80 69 bd
       0.18631612 0.23070726 -0.00081168883 -0.057007447
000050 a0 08 d4 3e a3 65 21 3f 73 81 87 3d 11 06 33 3c
       0.4141283 0.6304571 0.06616487 0.010926739
000060 5b 61 b6 bd 0b 60 be 3e 82 e1 44 bd 93 42 e7 bc
       -0.08905288 0.3718265 -0.048066624 -0.028229987
000070 ef e4 a3 3e cd 7f 16 3d 62 34 2a 3e bb fd 86 3e
       0.320106 0.036742974 0.16621545 0.26365456
000080 7b 8b 93 3e 49 c3 50 3b 55 3e 09 3f 5d 84 a6 bd
       0.28817353 0.003185468 0.53610736 -0.08130715
000090 14 57 bc 3d f9 41 5c 3e 0d 85 73 3e 85 f0 2b bd
       0.09196296 0.21509542 0.23781224 -0.041977424
0000a0 c5 f5 3e 3e 0a d1 9e 3d 4b 53 d3 3b c0 9c bf bb
       0.18648441 0.07754715 0.0064491383 -0.0058475435
0000b0 25 a2 ca 3e 18 70 c9 3b a9 dd a8 bd 3e 69 90 bc
       0.3957683 0.006147396 -0.08245403 -0.017628308
0000c0 83 a7 04 3f 90 54 88 be
       0.518181 -0.26627016

linear_relu_stack.2.weight f4 [40, 50]
000000 a8 9d 35 be 4a df 2a 3e 3b a6 e4 3d 87 bc 34 3e
       -0.17735922 0.1668674 0.111645184 0.17650042
000010 d0 34 3d 3d 49 55 12 bd 05 89 a2 3d d7 10 39 be
       0.046192944 -0.035725866 0.07936291 -0.1807283
000020 2e b1 ca 3d b2 93 78 be 4f 92 43 3e 78 2b d6 3a
       0.098970756 -0.24275091 0.19098781 0.0016339859
000030 78 20 0d be b0 b9 01 bd 12 7c 80 be f9 39 df bd
       -0.13781917 -0.031671226 -0.25094658 -0.10899729
000040 a7 b4 42 3e 79 08 24 bd 0b ee c3 bd 12 fb 56 3b
       0.19014226 -0.040047143 -0.095668875 0.0032803458
000050 e9 3c 8c 3e 46 ae de 3e 20 c5 28 3e 8f 22 c5 3d
       0.2739022 0.43492335 0.16481447 0.09625732
000060 75 cc 10 be a2 ee 3d 3b 9e 1b 23 3d 6f 30 4e be
       -0.14140494 0.0028981348 0.03982126 -0.20135663
000070 11 70 a1 bd aa e9 15 bd 2d fd fe 3d 79 99 45 bd
       -0.07882703 -0.036599793 0.12450633 -0.048242066
000080 8a 96 04 3d 5f b3 29 3d da 0c 59 be 6d 21 94 bc
       0.032370128 0.041430827 -0.21196309 -0.018082345
000090 99 fc 17 3e 47 56 f4 3d 4e d2 c6 be 17 52 33 3e
       0.14842452 0.119305186 -0.38832325 0.17511784
0000a0 5f ba 2b 3e 16 f3 a3 3d ec 00 21 be 23 19 89 bc
       0.16770314 0.08005349 -0.15723008 -0.016735619
0000b0 37 23 a1 3d 5f 4b 33 3e ba fa 3d bd 99 ea 1c 3e
       0.07868045 0.1750922 -0.04638169 0.15323867
0000c0 30 27 e1 bc 25 54 62 3c 80 04 89 3b d2 c8 a8 bd
       -0.027484506 0.013814007 0.0041814446 -0.082414284
0000d0 8e 2f 29 3d ad a5 ab bd c3 aa 36 3d 96 61 40 bd
       0.041305117 -0.083812095 0.044596445 -0.046968065
0000e0 d3 a7 17 3e 97 90 d1 bd b6 16 01 be e0 cb 03 3e
       0.14810114 -0.102326564 -0.1260632 0.12870741
0000f0 a8 5d 18 3e d6 96 19 be e6 3d 05 be ee 68 ab bd
       0.14879477 -0.14998946 -0.13011894 -0.08369623
000100 f4 d1 d1 3d 33 14 f9 3c eb 97 ff bc 3d ad 0d be
       0.102451235 0.03040514 -0.03120037 -0.13835616
000110 bc e5 46 bc f8 42 ab bc 70 2f 44 be cd d4 a9 bc
       -0.012139734 -0.020905957 -0.19158721 -0.020731354
000120 0b c5 9d 3d c3 dd d9 bc 94 29 76 bc fb a8 84 bc
       0.077035986 -0.026595002 -0.015024561 -0.016193857
000130 01 fb d7 bd cd eb 27 be 56 b8 6d bd 70 c7 9e bd
       -0.10545922 -0.16398545 -0.058037125 -0.077528834
000140 0f dd 8d 3d 12 1f 37 3d ab be 8c 3c 76 c2 72 3d
       0.06926929 0.044707365 0.017180761 0.059267484
000150 61 21 e0 3d 48 1f ad bd 17 74 a7 3d 81 ad 85 3d
       0.109438665 -0.08453232 0.08176439 0.06527234
000160 74 05 1c be b8 d2 72 3c 2e 9f b5 3d 74 61 11 3e
       -0.15236455 0.014820747 0.08868252 0.14197332
000170 00 02 c7 3b 88 ce 7b bd 37 2e e6 3d 52 b4 33 bc
       0.0060732365 -0.06147626 0.112392835 -0.010968285
000180 32 83 a8 3d 78 2c ac bb b6 06 66 be 51 f5 6d ba
       0.082281485 -0.0052543245 -0.22463498 -0.00090773875
000190 f5 8b df bd fc 27 37 bd a5 80 93 bc 5c af 31 bd
       -0.109153666 -0.044715866 -0.018005678 -0.043380126
0001a0 b4 f4 3d bd 85 ae 59 bc fa c8 39 bd d4 6f 95 3d
       -0.046375945 -0.013286238 -0.04535768 0.0729672
0001b0 75 66 05 3d 7f 72 a8 3d 13 42 32 bc 24 b1 2f 3e
       0.032568414 0.082249634 -0.010880011 0.17157418
0001c0 5c 78 ee bc 1a b9 e1 3d 2f 86 37 3e 8f 1c c8 bc
       -0.029110126 0.110216334 0.1792228 -0.02442768
0001d0 04 59 9c bb 29 bc a5 bc ff 5e 5e be 95 95 60 bd
       -0.0047713537 -0.020231323 -0.21715926 -0.054830153
0001e0 06 20 42 3d f7 24 27 3e bb 62 10 be f9 17 83 bd
       0.04739382 0.16322695 -0.14100163 -0.06401057
0001f0 8b 07 a8 bc 68 4d 6c 3e 99 ff b7 bc 4e dc 00 3e
       -0.02051141 0.23076403 -0.022460746 0.1258404
000200 fc 37 26 3e 10 9a 00 bd 2e cb 6f be 4c 4a 39 3e
       0.16232294 -0.031396925 -0.2341735 0.18094748
000210 04 00 44 bd 22 b3 b6 bd 6a 3d 68 be 9e 78 ae 3c
       -0.047851577 -0.089208856 -0.22679678 0.02129775
000220 55 a1 ca 3d df 76 36 3e 01 86 8d 3d 0e c7 1b be
       0.09894053 0.17818783 0.06910325 -0.15212652
000230 eb 06 9e bb f5 c9 8d bd d5 d7 9b bd ad fd 9b 3c
       -0.004822602 -0.06923286 -0.07609526 0.01904186
000240 b8 08 a3 3e 81 38 85 be fc 2b 00 3b ae b8 14 bc
       0.3184259 -0.26019672 0.0019557467 -0.009077234
000250 b9 ce b6 3e 9e 2d 77 bd 7a 67 31 3e 4f 01 43 3e
       0.35704592 -0.06034624 0.1732463 0.19043468
000260 28 72 0a bc 2d c9 88 bd 69 7c 44 3e 04 c6 44 3e
       -0.0084500685 -0.06678996 0.19188084 0.19216162
000270 56 39 cd bd d8 67 bb bd bc 9b 00 be b3 46 ad bb
       -0.100207016 -0.09150666 -0.12559408 -0.005287969
000280 b9 64 04 3e a2 17 64 3e e0 c0 78 3e 9d 6d 80 3c
       0.12929048 0.2227464 0.24292326 0.015677268
000290 26 17 c6 3d bd b7 6f be 67 e5 d0 3d 81 bd 8e be
       0.09672384 -0.23409934 0.10200005 -0.27878955
0002a0 41 7b c7 3d 0e e6 4c be 7b 47 ea bd 1b 4f 79 bd
       0.09740306 -0.20009634 -0.11439415 -0.060866456
0002b0 63 80 fc bd 42 e4 88 be cf 77 6b be 52 e1 15 bd
       -0.12329175 -0.26736647 -0.22994922 -0.036591835
0002c0 f7 86 c6 3c 2e ac 65 be 70 e0 90 3d dd d4 0a 3e
       0.024234278 -0.22428963 0.07074058 0.13557763
0002d0 77 91 66 3e f6 10 f0 3d 67 ec 45 3e c5 23 04 be
       0.22516428 0.11721985 0.19328462 -0.1290427
0002e0 01 51 ac be 39 10 78 3e 74 a5 14 be 9f 99 3d 3b
       -0.3365555 0.24224938 -0.1451624 0.0028930677
0002f0 3b f6 11 bf fa 05 00 3d 13 75 03 3e d6 a5 1a 3d
       -0.5701634 0.0312557 0.12837629 0.03775581
000300 c0 c7 a1 bd f5 ac d8 3d 6d 23 c6 3d 0a 95 25 3e
       -0.078994274 0.10579864 0.09674726 0.16170135
000310 07 72 b5 3d dd bc b2 3c c3 ea 73 bd 48 da 20 be
       0.088596396 0.021818573 -0.059550058 -0.15708268
000320 bd 36 36 3d d8 0a 8a bd 75 da 38 3e 6d a5 40 bd
       0.044485796 -0.067403495 0.18052085 -0.047032762
000330 65 d8 fc bc 00 8a 7c 3c 50 e8 7d bc 7b c9 ab bd
       -0.030864904 0.015413761 -0.015497282 -0.08388039
000340 0b e0 79 3d f3 4b 8c be 12 46 85 3d ff 2b e9 3d
       0.06100468 -0.27401695 0.065075055 0.11385345
000350 1b 30 91 bc 49 66 83 bd db 99 3e 3e 97 98 57 3d
       -0.017723134 -0.06415994 0.18613379 0.052635755
000360 01 03 19 3e c8 56 1e be 07 9c 4b be b7 31 84 be
       0.14942552 -0.15462792 -0.19883738 -0.2581918
000370 e7 8e aa 3c c4 74 a8 3d 92 40 4e bd 85 04 95 3d
       0.020820094 0.08225396 -0.050354548 0.07276253
000380 ff cb 71 3a 21 ce bb bc 44 73 e9 be 7c 73 9d 3d
       0.0009223818 -0.022925438 -0.45595753 0.076880425
000390 9d c2 26 3e 6d 8f 79 bd 37 0d 6c 3d c0 9a d0 3c
       0.16285177 -0.060927797 0.05762979 0.025464416
0003a0 17 5a 8f bd 78 9c 53 3e 1a c3 a9 bd 4f a5 41 be
       -0.06999605 0.20665157 -0.08289166 -0.18910716
0003b0 ef 81 99 be f4 d6 04 be f5 9f bf be 84 81 d3 bd
       -0.29981944 -0.12972623 -0.37426725 -0.103274375
0003c0 a8 58 83 3d 68 f7 95 bd 36 58 0d be 17 c8 e5 3d
       0.06413394 -0.073225796 -0.13803181 0.11219805
0003d0 47 74 3b 3e 7d 0c 16 bd 3c 5f 25 bd cd dd 26 3e
       0.18306075 -0.036633004 -0.040374026 0.16295548
0003e0 2f ae 6e 3e c3 c1 0d 3d 09 4f 11 3d ec 89 be bc
       0.23308633 0.034608614 0.035475764 -0.023259126
0003f0 55 c8 a7 be b3 31 43 bc da 47 83 bc 6d bf 8f bd
       -0.3277003 -0.011913705 -0.016025472 -0.070189334

linear_relu_stack.2.bias f4 [40]
000000 fe c4 75 bd 86 66 3c be 79 b6 e4 3c 6b ba 8b 3e
       -0.06000232 -0.18398485 0.027919041 0.27290663
000010 6a ce 49 3d 2f a3 06 be a4 5f 72 3e 11 6f 35 3e
       0.049269117 -0.13148187 0.23669297 0.1771815
000020 cf 48 76 bd 92 3e 8a 3e a1 a7 06 be 48 22 ae 3e
       -0.06012803 0.27000862 -0.13149883 0.3401053
000030 25 03 42 bd a1 8c b0 3e 3a 44 a7 3e f8 e1 1d 3e
       -0.04736628 0.3448229 0.3266924 0.15418231
000040 46 03 8b 3e f8 49 93 3c 03 0b 2a 3e b4 22 80 bd
       0.27150935 0.017979607 0.16605763 -0.06256619
000050 4a fb 11 3e 2f 6b 7d be 3e 01 e6 3e ae 90 c6 bd
       0.14256015 -0.24747919 0.44922823 -0.09695564
000060 e6 c9 12 be 39 3e 90 3c 07 f2 a9 3d 54 9a 1a 3e
       -0.1433483 0.017607795 0.08298116 0.15097934
000070 52 f7 d4 bd 38 4d 74 bd 95 88 fc bc 5f 2f 16 bd
       -0.10398735 -0.059643954 -0.030826846 -0.03666627
000080 b0 da 72 3d 67 c8 ff bd 52 e6 22 be 2e d3 e1 3e
       0.059290588 -0.124893956 -0.15908173 0.4410643
000090 7b 80 93 3c 60 ab 8f 3e 3d 74 5e 3d 04 dd 38 3c
       0.0180056 0.28060436 0.054310072 0.011283163

linear_relu_stack.4.weight f4 [30, 40]
000000 1a fe f4 bd ba 62 22 bc fd 0a 85 bd 6a f4 7e 3d
       -0.119625285 -0.009911234 -0.064962365 0.06224481
000010 f7 89 83 bd c1 12 dc 3d 53 66 93 3d 7b b4 1d be
       -0.06422799 0.107457645 0.07197251 -0.15400879
000020 99 65 51 bd e0 cc b0 3b 5f e7 7f 3d 75 7e a5 3d
       -0.05112228 0.0053955168 0.062476512 0.080807604
000030 f7 2d 06 3e 14 7c 7d 3d ff a1 ce bd 80 09 fe bc
       0.13103472 0.06188591 -0.10089492 -0.03101039
000040 0a 7a ea bd fc 4f 10 3d 5c 22 c2 bc 0e 52 c8 bd
       -0.11449058 0.03523253 -0.023698024 -0.09781276
000050 0f a0 cd bd a9 62 81 3d 57 9b 85 3d 4f d7 07 3e
       -0.100402944 0.06317646 0.06523769 0.13265727
000060 34 53 98 bd ed 82 d6 3d a3 6a 31 bd 48 2c 18 be
       -0.07437745 0.10474191 -0.043314587 -0.14860642
000070 04 0e a9 bd a7 1d cf bd 8a 12 45 bd c5 ac 9c bd
       -0.082546264 -0.101130776 -0.048113383 -0.07650141
000080 64 34 80 3d 22 d7 f4 3c a4 6d 8c bd 5e c2 27 bd
       0.06259993 0.02988774 -0.0685685 -0.040956847
000090 b8 b3 2e 3d 04 8d f8 bd 8a 16 ec bd 76 db 7d 3d
       0.042651862 -0.121362716 -0.115277365 0.061976872
0000a0 1d 6d 60 3e dd a2 cb 3d ed 12 e1 3d ac 04 f8 bd
       0.21916623 0.09943173 0.10989938 -0.12110266
0000b0 c8 a9 7b bd 74 f5 f7 bd eb db 1f 3e 8f f7 8f 3e
       -0.061441213 -0.12107363 0.15611236 0.2811856
0000c0 b6 77 3f bc e7 f1 93 be 11 96 11 3e 18 7b bd 3d
       -0.011686256 -0.28895494 0.14217402 0.09251994
0000d0 18 bd f2 3d dc c9 b3 3e b0 e9 c0 be 51 59 86 bd
       0.11852473 0.35114944 -0.3767829 -0.065600045
0000e0 52 06 a9 3d 68 34 c7 3d a8 8c 96 3d 92 f9 4e 3e
       0.08253159 0.097267926 0.07351047 0.20212391
0000f0 ac 8c 81 bd 5b 1e 2f be 0c 18 82 3b 94 f0 62 bd
       -0.06325659 -0.17101423 0.0039701518 -0.055405214
000100 19 89 9f 3e 13 43 9c 3e 84 8c 1f be ae 82 67 3e
       0.31159285 0.30519924 -0.15580946 0.22608444
000110 7d e9 09 be 55 5d d5 bb bf 8b 84 bd f2 c0 0b 3e
       -0.13467975 -0.00651137 -0.06471967 0.13647822
000120 70 f8 45 be 1a 28 00 be 1a 51 2a be 65 86 4f be
       -0.19333053 -0.12515298 -0.166325 -0.20266111
000130 7e b9 72 bd 02 00 e5 3d 1e c5 e8 3d 37 23 5d be
       -0.05925893 0.11181642 0.11365722 -0.21595465
000140 0e f4 2d 3e 0d 25 60 3d 4a 35 67 3d 0c a6 9e bd
       0.1698763 0.054722834 0.056447305 -0.07746515
000150 b0 d8 ee 3c 54 69 05 be 8a 96 ac bc c3 13 17 3d
       0.029156059 -0.1302846 -0.021067876 0.03688408
000160 26 27 ed bd 5a 4c a9 3d f0 ee 68 3d 2b 94 84 bd
       -0.115797326 0.08266516 0.056868494 -0.06473573
000170 5f 85 55 3b cb b9 87 3e ac 2b 3e 3e c5 c8 39 ba
       0.0032580716 0.26508936 0.18571347 -0.0007087107
000180 53 aa 41 3e 86 a6 fe 3d 72 3c 9d be 1b 99 83 bd
       0.1891263 0.124341056 -0.3071018 -0.06425687
000190 52 d6 0c 3e 50 22 24 be 7a 89 17 3e 76 8e f2 3b
       0.13753632 -0.16028714 0.14798537 0.0074022366
0001a0 80 41 98 3d de 15 78 3d 13 16 66 3e 03 e6 4a bd
       0.07434368 0.06056773 0.22469358 -0.049535763
0001b0 6f c9 1f 3d f2 4d fe 3c 4f ca b5 bc 5c 1a 97 bd
       0.03901046 0.031043027 -0.022191195 -0.073780745
0001c0 b6 ec 93 bc eb f5 0a be 29 93 3b be 8c 86 1e bd
       -0.018057209 -0.13570373 -0.18317856 -0.038702533
0001d0 a8 45 26 be fd 8e 90 3d 08 ad f9 3d e1 48 d6 bd
       -0.16237509 0.07058523 0.12191206 -0.10463119
0001e0 ab 60 88 bd c7 24 bf 3d 25 e7 13 3e 74 5d 3e 3c
       -0.06659063 0.093331866 0.14443643 0.011618961
0001f0 ee 62 24 be ce f7 57 be ec b4 4d 3e 51 16 bb 3e
       -0.16053364 -0.21090624 0.20088547 0.36540464
000200 c1 99 c4 bd 02 f7 32 3e 68 7d 73 3d fe c3 08 3e
       -0.09599639 0.17477039 0.05944577 0.13356015
000210 e2 04 f4 3c 03 b6 00 be 12 4f 7d 3d b5 b5 6a be
       0.029787485 -0.12569432 0.061842985 -0.22920878
000220 40 7c 08 be 00 5f 65 3c 8f 8f 36 bd 91 e1 17 be
       -0.13328648 0.013999701 -0.044570502 -0.1483214
000230 a4 fa 07 3e f6 29 8e bd f6 f7 71 be 6c af 40 3c
       0.13279206 -0.06941597 -0.23629746 0.011760574
000240 e2 61 6e be 29 3d 7b be 50 c7 63 3d 1f bb 8c bd
       -0.23279527 -0.2453505 0.05561 -0.06871628
000250 01 4f 54 bd 79 05 bd 3d 55 df c5 3d 76 0c a7 bd
       -0.051833156 0.092295595 0.09661738 -0.081566736
000260 27 24 1f bc 6f 17 8a bd 08 4a 24 be c4 bc c9 3d
       -0.009713209 -0.06742751 -0.16043866 0.09850457
000270 fe ae 0f be 07 fe b5 3d 75 54 04 bd bb 37 96 bd
       -0.14031598 0.088863425 -0.032307107 -0.073348485
000280 03 cb ab 3e 75 0d e1 3d 7e 39 2f be 2b 25 e1 3d
       0.33553323 0.10988895 -0.17111775 0.10993417
000290 09 d6 78 bc 9a 0e ef bd 7e 51 58 bd a2 a8 df 3d
       -0.015187749 -0.11672707 -0.052812092 0.10920836
0002a0 86 82 b7 3c 44 a2 2c be 04 1b bc 3c 97 03 65 be
       0.022401106 -0.16858774 0.0229621 -0.2236465
0002b0 7a 94 51 3d b6 63 aa 3e 18 9a 69 3e 2e 50 d4 3c
       0.05116699 0.33279198 0.22812688 0.025917139
0002c0 c4 04 5a 3c 26 a5 92 be fd 87 15 bc 86 b1 79 be
       0.0133068 -0.28641623 -0.00912666 -0.24384126
0002d0 23 c4 04 3e 09 d2 38 3e 4a d3 11 be 07 e7 13 3e
       0.12965445 0.18048872 -0.14240757 0.14443599
0002e0 45 81 25 3d 7a 24 3a 3d 62 fa 9b be 2e 83 4d 3e
       0.040406484 0.045444943 -0.30464464 0.20069572
0002f0 6e ab cf bc 59 57 cc bc 74 e4 24 bd d2 4a b1 bd
       -0.025350299 -0.024943994 -0.040256932 -0.08656849
000300 6e d1 57 bd 28 1b 0b bd 5c ae f3 3d b4 cc 22 3e
       -0.052689962 -0.033961445 0.11898491 0.158984
000310 70 df 8b 3c 09 70 9d bd 88 86 73 3e 7f 37 90 bd
       0.017074317 -0.07687385 0.23781788 -0.07041835
000320 4e e8 83 bd ec 1d 9f bc d3 d8 1e be 97 99 ba 3e
       -0.06440793 -0.019423448 -0.155124 0.36445305
000330 62 d6 c3 3d 85 bc dc 3d 72 ce 35 3d f4 af 0e 3e
       0.09562375 0.10778145 0.044386335 0.13934308
000340 5e 81 76 3c cd 6e 37 bc da bf 8a 3e d7 46 d8 bd
       0.015045492 -0.011195851 0.27099496 -0.10560387
000350 10 3d 5e 3b 29 69 a2 3d d9 b8 ed bd 22 e4 3b 3e
       0.0033910908 0.07930214 -0.116075225 0.18348745
000360 cb be 9d 3d 53 73 84 bd 4a d9 64 be 15 d0 be 3d
       0.077024065 -0.06467309 -0.22348514 0.09317032
000370 a9 6c 55 bd 1a 1b 0d bc 77 7d ac bd b4 d8 f8 3d
       -0.05210558 -0.008612419 -0.08422368 0.12150708
000380 e8 2a 39 be d2 57 37 3d 1c 01 2d be 5d cd f2 3d
       -0.18082774 0.044761486 -0.16894954 0.11855576
000390 2a 2c 0b 3e c5 1b 0a 3e f6 6b 02 3d b8 ea ea 3d
       0.13591066 0.13487156 0.03184124 0.1147055
0003a0 c3 93 c8 3d 0b fd c4 3d fd 72 a0 bc 8c 12 d6 3d
       0.09793808 0.096185766 -0.01958608 0.10452756
0003b0 65 66 1a 3d e6 d3 64 be 97 6e 30 be 79 46 c0 3d
       0.037695307 -0.22346458 -0.17229687 0.093884416
0003c0 ca 56 99 3e e8 68 40 ba ba 1f ad be 65 c5 82 3c
       0.29949027 -0.0007339851 -0.33813268 0.015963266
0003d0 e3 7c 9c bd c2 30 49 be 83 07 0a 3f b8 89 f9 bd
       -0.07641008 -0.19647506 0.5391771 -0.12184471
0003e0 ed f8 3c 3e 6e 38 8e bd a8 c2 e6 bd 23 22 85 bc
       0.18454333 -0.06944357 -0.112675965 -0.01625163
0003f0 20 5d 04 3e 84 51 6a be 92 8a 28 3d 06 0c e7 3d
       0.1292615 -0.22882658 0.041147776 0.1128159

linear_relu_stack.4.bias f4 [30]
000000 70 60 14 bd 3b b4 86 bd fa 41 d0 3d f5 cc 7a 3b
       -0.036224782 -0.06577345 0.10168834 0.0038269137
000010 13 a0 bc be 1f 2b 6e bc 95 03 ca 3d 39 0d c5 3d
       -0.36840877 -0.014536648 0.098639645 0.09621663
000020 56 50 84 3d bd 3e 80 3e 68 77 0d be 11 70 55 be
       0.06460635 0.25047866 -0.13815081 -0.20843531
000030 aa 20 0e 3d 30 9f 53 3e 3f 7b 6a 3e b6 10 8f bd
       0.03469912 0.20666194 0.22898577 -0.06985609
000040 aa ef 6a be 5b 2a ac 3e 6c ec a5 3d 86 7c 46 be
       -0.22942987 0.33626065 0.081017345 -0.1938344
000050 2b a4 40 be e8 30 7e bd 54 d1 32 bd 19 88 96 bd
       -0.18812625 -0.06205836 -0.043656662 -0.07350177
000060 7e fe 85 be db 31 d5 3d 2c 65 87 3d f5 9a dc 3d
       -0.26170725 0.104099 0.06611094 0.10771743
000070 6d ac 94 3e 26 04 d7 3e
       0.290378 0.41995353

linear_relu_stack.6.weight f4 [40, 30]
000000 51 cd d2 3d 82 04 59 3e 68 72 1c bd 13 d2 0f 3e
       0.10293067 0.21193126 -0.038195044 0.1404498
000010 77 2b 5d be d5 ee 33 bd 7f 2d 2b be 7c 27 03 be
       -0.21598612 -0.04392894 -0.16716574 -0.12808031
000020 d9 e8 0e 3e 0d 29 f0 bd ec 2a 1d 3e fb 71 0d 3d
       0.13956012 -0.1172658 0.15348405 0.03453253
000030 87 48 96 bc df 0c 91 3d fd bb a4 be e2 ce 15 be
       -0.01834513 0.07082533 -0.32174674 -0.14629701
000040 20 8a f6 3d ff 3e 27 3e 35 ca cc bc 0f 65 9f bd
       0.12038064 0.16332625 -0.024998764 -0.07782947
000050 ab f8 6b 3d 43 83 28 bd 46 cb 97 3e d9 2a c6 bd
       0.057610195 -0.041140806 0.29647273 -0.09676141
000060 73 a6 12 be 8c 67 48 3d bc 4c 19 3e 1a 7d 8a bd
       -0.14321308 0.048926875 0.14970678 -0.067621425
000070 b1 a6 36 3e 9b 0d 83 3e 32 72 26 be 54 d4 38 3e
       0.17837025 0.25596318 -0.162545 0.18049747
000080 a3 ad 3b 3a 94 f7 1b be 9e 07 88 3e a3 e4 14 be
       0.0007159358 -0.15231162 0.2656831 -0.14540343
000090 14 75 dd 3e 99 6c 16 be 65 0d 91 bb 64 6f a3 bd
       0.43253386 -0.14689864 -0.0044266456 -0.079802305
0000a0 c0 e9 1b 3c dd 48 ac be 18 b8 3c 3e a5 95 8a 3d
       0.00951618 -0.3364934 0.18429601 0.06766824
0000b0 05 b6 bc bd 64 9a db 3d 2d 4d 36 be f8 fb 9b 3c
       -0.09214405 0.10722807 -0.17802878 0.019041047
0000c0 13 52 a4 3d 08 c0 39 3e 49 26 c6 3d 39 db b3 bd
       0.08023467 0.1813966 0.09675271 -0.08782048
0000d0 84 b8 53 be b2 33 a9 bd 9b c9 c4 be 11 5b 39 3e
       -0.20675856 -0.08261813 -0.38435063 0.18101145
0000e0 8d f8 b2 bd 76 d7 da bd a7 2b 04 3f 1e 9c ea bd
       -0.087388135 -0.10685627 0.5162911 -0.11455558
0000f0 e6 5b 98 bd e4 07 d0 bd e0 e7 31 3e 52 c1 26 be
       -0.07439403 -0.10157755 0.1737361 -0.16284683
000100 61 30 46 3d 77 64 e4 3d 4a dc ea bc 9c b2 00 bc
       0.04838598 0.11151975 -0.028669495 -0.007855084
000110 a9 44 4f bd c7 37 6f 3d 2c 6f ad 3d 3e 71 3a bd
       -0.05060259 0.058402803 0.0846847 -0.045518152
000120 a1 87 25 3e 31 93 3f bd 82 a8 fb 3d 3d 0e 29 3e
       0.1616502 -0.046771232 0.12288 0.16509338
000130 b4 6c e2 3d a4 50 d2 3c ea 7b bc 3d c2 ea 05 3e
       0.1105589 0.025673218 0.09203322 0.13077834
000140 52 4a a9 3c 80 95 cf bd 8b 3e 85 bd 11 94 12 3e
       0.020665321 -0.10135937 -0.0650607 0.14314295
000150 36 dd 42 be 81 17 2b bd 68 91 f0 bd b7 01 5e 3e
       -0.19029698 -0.041770462 -0.11746484 0.21680342
000160 55 f4 ed bd 43 d0 4a bd 41 fa 39 bd 1d 73 e7 bd
       -0.11618868 -0.04951502 -0.045404676 -0.11301253
000170 d7 1a b4 3e 79 28 ac bc ec 01 a1 bc 7e 43 15 be
       0.35176727 -0.021015393 -0.019654237 -0.14576527
000180 f6 ad 2b be de 89 95 3e dd 94 eb 3d 9d ab d1 bd
       -0.1676558 0.29206747 0.11503003 -0.10237811
000190 8c 1c 00 bd 19 b0 b9 bc 18 7e d1 3d 34 c7 a9 3e
       -0.031277224 -0.022666978 0.102291286 0.33159792
0001a0 86 cd 37 3d e5 c3 93 bd 9d 41 fc bd e1 0d f6 bd
       0.044873737 -0.07215098 -0.12317202 -0.12014366
0001b0 5a eb 5e 3d 04 02 fa bd aa 96 b5 bc 1e 19 8a 3d
       0.054423667 -0.12207416 -0.022166569 0.06743072
0001c0 42 28 51 3e d3 c4 9f 3d dd 6f c3 bd c0 23 c9 3a
       0.20425513 0.07801213 -0.095428206 0.0015345737
0001d0 95 a1 0f be 63 ba ad 3e 38 64 a5 3d 2c 45 b7 3d
       -0.14026482 0.33931264 0.08075756 0.0894874
0001e0 72 c1 3b 3e 6d b6 5d bd 2b 2f 9b 3e 9f 68 27 3e
       0.18335512 -0.054129053 0.30309424 0.16348504
0001f0 4e fa 5f bd 57 23 6a be 97 ac db 3c 99 a8 08 bd
       -0.05468207 -0.22865044 0.026815696 -0.033363912
000200 fa ec 9a 3e d7 8a 46 bd 78 eb 57 bd c1 29 63 3d
       0.30258924 -0.04847225 -0.052714795 0.05545974
000210 1f dc 05 3c b9 14 a7 be 21 c7 91 3c 54 44 cf bd
       0.008170157 -0.32632998 0.017795147 -0.101204544
000220 8c f3 05 3c 34 bc 5d 3d 5e 90 8f 3e ab c9 ba bd
       0.008175742 0.054134563 0.2803983 -0.09120496
000230 15 20 a3 bd c7 99 f5 3d e4 cc 3e be 53 e8 06 be
       -0.079651035 0.11992221 -0.18632847 -0.13174562
000240 76 39 81 3e e4 3c f2 3d 5e 69 8c 3e 0d b0 8c bd
       0.25239152 0.1182802 0.2742414 -0.068695165
000250 e5 5b 24 3e 46 66 b3 be e6 20 70 3c 0e 35 d4 bd
       0.1605068 -0.35038966 0.014656281 -0.10361682
000260 48 ea c0 3c bc 5d 18 3d 87 25 af 3d a3 4f 1f be
       0.023549214 0.037198767 0.0855208 -0.15557723
000270 ba 67 bc bd 46 3f 82 be 11 a0 85 be 12 50 c4 3e
       -0.09199472 -0.254389 -0.26098683 0.3834234
000280 07 42 3a be 46 6d a1 bc 70 32 8a 3c 44 d1 2e 3e
       -0.1818925 -0.019705426 0.016869754 0.17072016
000290 a0 5b a2 bd 95 6e 0a be fe 4e 08 be 11 ed a2 3e
       -0.07927632 -0.13518746 -0.13311383 0.31821492
0002a0 63 9a a4 bd a0 92 02 3e 9b c5 91 3d b2 9e 7b 3e
       -0.080372594 0.12751245 0.071177684 0.24572256
0002b0 51 f0 e2 3d 22 b8 13 3e bb cd e4 3d e5 c1 5e bc
       0.11080993 0.1442571 0.111720525 -0.013596033
0002c0 76 d9 5f bd 21 9e 07 be 18 a0 ab 3d 82 0e 3b 3e
       -0.054650746 -0.13243915 0.08380145 0.18267253
0002d0 17 be ca 3d 44 ee b9 3e 7c f4 e0 bc 6c e9 1b be
       0.09899538 0.36314595 -0.02746033 -0.15225762
0002e0 33 ff ea 3d c7 26 ea 3d 6a 9b 5d ba 5b bd e6 3c
       0.11474457 0.114331774 -0.00084536395 0.028166464
0002f0 9b 70 45 3d b6 9c 66 3d b0 4d 2c 3d 9e 71 b5 3d
       0.048203092 0.056301795 0.042066276 0.088595614
000300 fc f4 90 3d d4 2f 7b 3e db e6 d9 3d 71 70 1c be
       0.07077977 0.24529964 0.10639735 -0.15277268
000310 87 f1 d5 bc ba ce 0f be 61 28 77 be 95 f3 a2 bd
       -0.026116146 -0.14043704 -0.24136497 -0.07956616
000320 90 14 1a 3d f7 91 04 3e d6 d6 6a 3d a2 11 da bd
       0.037617266 0.12946306 0.05733379 -0.106478944
000330 20 6b c7 be de fb 61 be ce 1a 7e 3e 33 8e 21 bd
       -0.38948917 -0.22068736 0.24814913 -0.039442252
000340 fe 7b 3d be ec 94 b6 bd 92 e6 8b bd 1d a8 c8 3c
       -0.1850433 -0.08915123 -0.06831087 0.024494225
000350 4b 61 54 3d 70 ad 5e 3b 26 fa ae bd 42 ee 63 3c
       0.0518506 0.0033977889 -0.08543806 0.013911786
000360 31 34 77 bd cd 64 15 3e e3 c9 99 bd 59 6c ec bc
       -0.060352508 0.14589234 -0.0750921 -0.028860258
000370 71 01 22 be c5 79 4a be 7f 91 8b 3e 5f d9 04 3e
       -0.15820862 -0.19773014 0.27259442 0.12973545
000380 46 dc a8 be 2c b9 81 3c 2c b9 58 3d cc 34 3d bd
       -0.32980555 0.015835367 0.05291097 -0.04619293
000390 fc 13 9d 3e 52 c4 b8 3d cb 1b 2d be 2f bc a8 be
       0.3067931 0.0902182 -0.16905133 -0.32956073
0003a0 f1 09 9c be b6 e6 01 3e 88 09 e4 3c 1d 46 ea 3c
       -0.30476335 0.12685665 0.027836576 0.028597886
0003b0 5e 68 46 3e 1d 77 3d 3d 66 fe af 3c 7c 1f ca 3e
       0.1937575 0.046256173 0.021483611 0.39477146
0003c0 10 f9 00 3e b6 eb 76 3e 9b c3 84 3c 9e 8c 62 3e
       0.1259501 0.24113354 0.016206553 0.22123954
0003d0 bf 3c d9 bd 70 a8 6d bd 1b 24 75 bd 6b f2 5e 3e
       -0.106072895 -0.058021963 -0.059848886 0.21772163
0003e0 18 a9 10 3d 05 d0 9f 3e f2 3c 28 3e 0f de e7 bc
       0.03531751 0.31213394 0.16429499 -0.028304128
0003f0 0c 04 43 3e d1 0e b7 bd 4c 6f 84 3e 3f f3 e7 bd
       0.19044513 -0.08938373 0.25866163 -0.113256924

linear_relu_stack.6.bias f4 [40]
000000 62 0e 08 3e 53 99 e0 3d a9 77 85 be 0a a9 fd bd
       0.13286737 0.10966744 -0.26067856 -0.12385757
000010 8f df e3 3d d9 e7 98 bb 45 f9 8d 3e f6 b0 94 3e
       0.11126625 -0.0046663103 0.2772924 0.2904126
000020 24 0b 8a bd 6f 9d 06 3e 8d ac 16 bd 0c aa 25 bd
       -0.06740406 0.13145994 -0.03678565 -0.040445372
000030 de ac 2e be 60 bb 29 be aa b7 e2 bd 9a f7 30 be
       -0.17058131 -0.16575384 -0.110701874 -0.17281953
000040 6c f6 15 bd 22 6a 0d be 0a 4c 03 bf 4c 5f 1b 3e
       -0.03661196 -0.13810018 -0.512879 0.15173072
000050 7e a2 75 be 38 fc 81 be d1 c1 be 3e 6d ee ee 3d
       -0.23987767 -0.2538774 0.37257245 0.1166657
000060 2b 9e 2e be 26 26 d8 3d ae e2 f1 bd 48 fe af 3c
       -0.17052524 0.10554151 -0.11810814 0.021483555
000070 54 36 9e bd eb 50 56 be 50 6a 8a 3e 7d 1e 13 3e
       -0.07725206 -0.20929305 0.27034235 0.14367099
000080 aa 50 ba bd e4 ac 20 bc 23 c4 56 3d 83 21 ed 3d
       -0.09097417 -0.009806845 0.052433144 0.115786575
000090 78 d0 08 3d 6f 2b 53 3e 70 e1 32 be 0f 9c e3 be
       0.033401936 0.20622037 -0.1746881 -0.44455

linear_relu_stack.8.weight f4 [50, 40]
000000 b9 eb a5 bd 9f 98 00 be 40 3d 04 3e 7a 31 ab bd
       -0.08101601 -0.1255822 0.1291399 -0.08359046
000010 a8 d5 31 be 30 11 a5 3d 0e 3a cc 3d 7c 92 f6 bd
       -0.1736666 0.08059919 0.099720106 -0.120396584
000020 d6 f7 5a 3d 19 a8 e0 bd 8c d2 ba bd 02 2a 19 be
       0.05345901 -0.10969562 -0.0912219 -0.14957431
000030 8f 73 d6 bd 91 4b c1 bd f5 77 12 3e fc 4f 04 3d
       -0.1047126 -0.09438241 0.14303572 0.03230284
000040 48 d6 f9 bc e8 c9 d5 bc a8 2d 03 be 50 c5 02 be
       -0.030497685 -0.026097253 -0.12810385 -0.12770581
000050 e3 dd ba 3d 5b 4f 18 be 5a 7b b3 3d 9d 77 be bd
       0.09124353 -0.14874022 0.08763762 -0.09300158
000060 31 47 1d be 26 c6 a7 3d 35 9c 5e bd b6 13 93 3d
       -0.15359189 0.08192091 -0.05434819 0.07181494
000070 74 3b ae 3d de 0e 0e 3e d6 a4 d9 3d 41 88 1a 3d
       0.085074335 0.13872859 0.10627143 0.037727598
000080 8c 21 9a bd 8b 68 28 be 0f 07 d1 3d 81 f1 c8 bd
       -0.0752593 -0.1644613 0.102064244 -0.09811688
000090 07 ec 44 bc 46 b6 f0 3c 93 1f 62 3c f9 44 46 bd
       -0.012019164 0.02938379 0.013801473 -0.04840562
0000a0 22 96 cb 3e 93 3f 49 3e 24 e1 42 bd 45 c9 99 3d
       0.3976298 0.19653158 -0.047577992 0.07509092
0000b0 a7 9e 42 3d 90 4d 95 bb aa 48 8d bd 00 99 a6 3e
       0.047514584 -0.0045563653 -0.06898625 0.32538605
0000c0 be a0 9a 3c d1 b4 10 be 90 49 f4 bd 5a d0 b5 3d
       0.018875476 -0.14131476 -0.119280934 0.088776305
0000d0 28 53 8f bd fa 82 23 bd b3 56 89 bd bb fc a5 3d
       -0.06998283 -0.03991983 -0.0670599 0.08104845
0000e0 73 46 98 bd 65 22 58 3d 37 90 d0 bc 65 3b 89 bc
       -0.07435312 0.052767176 -0.025459392 -0.016751954
0000f0 04 8b 62 3a 94 b6 fe 3d 8d de 35 be fb 2d ab bd
       0.0008641931 0.12437168 -0.17760678 -0.083583795
000100 4e 58 e2 bd 79 98 e4 bd 1c dc 05 be 68 62 1b bd
       -0.11051999 -0.11161894 -0.13072246 -0.037935644
000110 9a ed ee bb 41 91 d3 bd 60 fa 03 3e 86 b2 be bd
       -0.007291508 -0.10330439 0.12888479 -0.093113944
000120 bd 60 a1 3d f2 38 6c 3b 5a 98 8a 3d 47 e3 41 3e
       0.078797795 0.0036044684 0.0676734 0.18934356
000130 c7 06 f6 bd 49 39 96 3c a6 19 8c 3d de 63 28 3e
       -0.120130114 0.018337863 0.068408296 0.16444346
000140 23 41 e8 bd 6a 07 b1 3d 90 67 ae bb 07 41 ba 3d
       -0.11340549 0.08643992 -0.005322404 0.09094434
000150 27 eb bd bd 9f 1d 7d be d4 0e 81 3e 2e 3d 8e 3d
       -0.092733674 -0.24718331 0.25206625 0.06945263
000160 40 e2 a9 bb 6f 0a 04 3d d1 c0 f6 3d 16 bf 06 3d
       -0.005184442 0.032236513 0.120484956 0.032897078
000170 4d 19 3d 3d 74 3c 06 be b4 b7 bd 3d 2e 6c f1 3d
       0.046166707 -0.13108999 0.09263554 0.11788212
000180 27 7f 13 3e 84 40 ff 3d 23 5c 3d bd 39 e2 d6 bd
       0.14403974 0.12463477 -0.046230447 -0.10492367
000190 16 04 49 3d 5c d3 a4 bd a2 5e 49 bd 7d 62 fe 3d
       0.049076162 -0.08048126 -0.049162515 0.12421129
0001a0 39 7b 15 3d ce 90 c2 3d 65 7a 88 bc ea ea 3a bd
       0.036494467 0.095002756 -0.016659925 -0.045634188
0001b0 cd 2d 46 3d 53 ab bf 3d bd ff 4b 3d 96 57 2f 3b
       0.048383523 0.093588494 0.049804438 0.0026755086
0001c0 9d 1f b8 bd af 30 32 bd 95 ce 18 be 18 dc c5 3c
       -0.08990405 -0.04350346 -0.14922555 0.0241528
0001d0 5d 90 c8 bd c1 19 3f bd 61 8e 23 bd 52 f9 2c bc
       -0.0979316 -0.04665542 -0.039930705 -0.0105574895
0001e0 9a 6a 03 be b2 76 bf bc 0f 1b 8e bd 67 c5 06 be
       -0.12833634 -0.023372028 -0.06938755 -0.1316124
0001f0 e0 55 f3 3c 3e 03 8b bd d4 8c d6 3d 64 9c 14 bd
       0.029704034 -0.06787728 0.104760796 -0.03628196
000200 6f ae 9b 3d 3c a5 5e bd 29 cc af 3d 51 c3 e9 bd
       0.0760163 -0.0543568 0.08583862 -0.11414207
000210 71 cc 0f be 57 0a 12 3e d4 fd 1b 3d 44 e8 8e 3b
       -0.14042832 0.14261757 0.038083866 0.0043611843
000220 18 e0 82 3c 0f e7 98 bd de aa 0a 3d ac d3 8e bd
       0.015975997 -0.07465946 0.033854358 -0.06973967
000230 a2 d5 ec 3d e9 03 cb 3b fb ef bf 3d 14 9f ae 3d
       0.11564185 0.0061955345 0.093719445 0.085264355
000240 f1 7b c1 bd 6d e6 fd bd 3d b0 77 bd a0 6b ee bd
       -0.09447468 -0.12397466 -0.06047081 -0.116416216
000250 8a 77 32 bd de 1e b4 3c 3c 08 d7 3d e0 7b 0e be
       -0.043571033 0.021987375 0.104996175 -0.13914442
000260 e6 5e 19 bd 95 27 22 be 96 a2 7e bd ee 2d ab bd
       -0.037444018 -0.15835412 -0.062166773 -0.0835837
000270 f4 2d 0e 3e bc 52 cb bd 14 68 04 3e 61 f6 82 bd
       0.13884717 -0.0992789 0.12930328 -0.06394649
000280 e4 19 8f 3c 0a 11 a3 3d 23 c4 1e 3d 45 ad 0b bd
       0.0174684 0.07962234 0.03876127 -0.03410079
000290 8c d3 3d bd f3 3c a9 bb eb a5 14 3e ba 45 40 3e
       -0.046344325 -0.0051647364 0.14516418 0.18776599
0002a0 0e 0d 00 3e 6b 66 2f 3d a9 70 05 be 6d 70 f5 3d
       0.1250498 0.042822283 -0.13031258 0.11984334
0002b0 f0 7d e5 3d d1 88 72 bd 6d 85 8d bd a5 64 fe bd
       0.11205661 -0.05921251 -0.069102146 -0.1242154
0002c0 12 33 02 3d a6 81 17 be 11 d6 0e be cf 77 11 be
       0.031786986 -0.1479555 -0.13948847 -0.1420586
0002d0 fc db 23 be 4c 65 11 3e 45 b4 2a be 9c 97 51 bd
       -0.16001886 0.14198798 -0.1667033 -0.051169977
0002e0 c5 70 94 3c 75 c5 81 be 5d 20 14 be 46 b0 f2 3d
       0.018120179 -0.2534596 -0.1446547 0.11850028
0002f0 7f c0 21 be 86 fe cf 3d e9 78 01 be 48 12 a2 bc
       -0.15796088 0.10155968 -0.1264378 -0.019784108
000300 3d b2 31 3d 8a 1c 0c bd 19 5d 4b 3e fe 19 3d be
       0.043382872 -0.034206904 0.19859733 -0.18466946
000310 f9 4c 08 3e 25 57 c3 bd 33 d8 ae 3b eb f7 3c bd
       0.13310613 -0.09538106 0.0053358315 -0.04613487
000320 fc 7a 94 3d 5d 76 a1 bd 70 3d 04 be b1 a3 c3 bd
       0.0725002 -0.07883904 -0.12914062 -0.09552706
000330 df 04 db 3a 3f eb bd bd 2f 6c d6 bd d5 c9 b3 bd
       0.0016709826 -0.09273385 -0.10469853 -0.08778731
000340 cd b8 db 3d 99 47 f4 bd bc 7f dc bd 75 48 6c bd
       0.10728607 -0.11927719 -0.10766551 -0.057686288
000350 e8 7c d4 3c 1a cf d7 3d a4 01 25 3d 86 63 03 be
       0.025938466 0.10537548 0.040284768 -0.12830934
000360 f9 d3 0a 3e 4c 64 1a 3d 14 20 5b bd 87 cf 09 3d
       0.13557424 0.037693307 -0.05349739 0.03364518
000370 a0 5c 2f 3d 5c f6 07 3e 30 d8 0e 3e 11 4f 21 be
       0.042812943 0.13277572 0.13949656 -0.15752818
000380 30 55 69 3d 09 ed f8 bd 61 6f 65 3d 60 25 17 3d
       0.056966007 -0.12154586 0.056014422 0.036900878
000390 4d 75 70 bd c0 68 0b bc 71 5a ea 3d 00 05 f6 bd
       -0.058705617 -0.008508861 0.114430316 -0.120126724
0003a0 8c b6 0a 3d 1c fe 87 bc c4 03 b4 bd a4 1e 20 be
       0.033865497 -0.016600661 -0.08789781 -0.15636688
0003b0 59 de 14 be b3 52 68 bd c4 fa 4d bd f4 56 35 bc
       -0.14537944 -0.056719493 -0.050287977 -0.0110680945
0003c0 c2 17 b5 3d 2c 9c 56 3e de f9 c8 bd 10 18 8d be
       0.08842422 0.20958012 -0.098132834 -0.2755742
0003d0 e3 04 26 3d fb 94 2a 3d 9e 29 95 bd 42 43 96 bc
       0.040532004 0.041645985 -0.072833285 -0.018342618
0003e0 51 ac 22 be 04 ca 2b 3e 00 9d 6f 3d 5b 22 98 3d
       -0.15886046 0.16776282 0.058499336 0.07428428
0003f0 28 63 12 be c8 a2 e1 bd 64 57 07 be e9 3e fe bd
       -0.14295638 -0.11017376 -0.1321693 -0.12414343

linear_relu_stack.8.bias f4 [50]
000000 d0 dc 06 bd 97 34 18 3d 76 65 d6 3d 84 a7 ca bd
       -0.032925427 0.03715953 0.10468571 -0.09895232
000010 68 60 f2 3e ef 87 05 3c 58 10 60 3d 04 97 b1 3e
       0.47339177 0.008150085 0.054703087 0.34685528
000020 c6 e0 40 3e 80 c7 0b be b8 7e c0 bd c2 73 bf 3b
       0.18835744 -0.13650322 -0.0939917 0.005842657
000030 2e be ae bd 4a d2 54 3e d6 c0 c6 bd 28 3f ab 3b
       -0.08532368 0.20783344 -0.09704749 0.0052260347
000040 c5 cd e8 3c 6d 52 f9 bd 13 ee 74 bc c1 bc 25 be
       0.028418431 -0.121739246 -0.014949339 -0.16185285
000050 48 a1 00 be 4e 7d 8c 3d 12 99 9a 3c b9 bc 8a 3d
       -0.12561524 0.068598375 0.018871818 0.06774277
000060 04 bc c9 bd 5c 41 a1 3c eb 93 3d be 08 65 eb bd
       -0.09850314 0.019684486 -0.18513457 -0.114938796
000070 7c 9d ab 3d 7f b4 97 bb 5a 1b 0b be 65 46 27 3c
       0.08379647 -0.004629671 -0.13584653 0.010209654
000080 e2 6e 48 be 20 5b 6e 3d f3 e8 1c 3e a4 b0 1d 3e
       -0.19573548 0.058192372 0.15323238 0.15399414
000090 94 88 2e 3e 24 4b fc 3c 13 1e b7 bc d7 0e a9 3e
       0.17044288 0.030797549 -0.022353208 0.33019134
0000a0 6d 07 80 3b 54 26 63 3e 19 58 70 bd ee 41 b9 3d
       0.003907135 0.2218259 -0.058677766 0.09045778
0000b0 96 f6 35 3c 84 ae d8 3b fa 57 ee 3d a6 4e cb 3e
       0.011106154 0.0066126008 0.11637874 0.39708441
0000c0 10 a7 63 3d 82 6a fe bd
       0.055579245 -0.124226585

linear_relu_stack.10.weight f4 [180, 50]
000000 85 df d6 bc 3e a5 a9 3d bb de 0c bc cf f5 23 3d
       -0.02622963 0.082834706 -0.008598025 0.040029343
000010 83 47 71 3d 85 a8 eb bb 3b 47 1f 3d e7 83 86 3d
       0.05890609 -0.00719172 0.03888629 0.06568127
000020 65 16 05 3d f2 27 f7 bd ef b6 e0 bd 81 08 d4 3c
       0.03249206 -0.12068166 -0.10972392 0.025882961
000030 88 f4 e5 3c 7c 1c fc bb ad 8e 9e bd 63 d7 ca bd
       0.028070703 -0.0076938253 -0.07742057 -0.09904363
000040 4e 47 30 bb e3 35 3f 3d d7 7c 8f 3c 82 14 bd 3d
       -0.002689797 0.04668225 0.017515583 0.09232427
000050 f1 74 d7 bd c0 74 ae bd 28 fb df bc 51 75 8a 3d
       -0.10520352 -0.08518362 -0.02734144 0.067606576
000060 95 49 25 bd 38 a0 be bd 17 1a c5 bd c5 3d a2 3d
       -0.040353376 -0.09307903 -0.09624117 0.07921938
000070 f8 70 40 3d a1 ae 88 3c 48 93 05 3e 3b 04 02 be
       0.046982735 0.016684832 0.13044465 -0.12696926
000080 c8 d4 c0 bd 0a 8a de bc 58 7e 80 bd e2 f9 a5 bc
       -0.09415585 -0.027165432 -0.06274098 -0.020260755
000090 a0 10 07 bc af bf b0 bc 3a 12 57 bc 2b dd 25 be
       -0.00824371 -0.021575777 -0.013126904 -0.1619765
0000a0 de e0 41 bd 5f a5 b8 bb c6 88 dd bd 56 7a be bc
       -0.04733359 -0.005634948 -0.10817103 -0.023251694
0000b0 bb dd 1b bd ab 09 6c 3d d4 5f c4 bb fe 97 5e 3d
       -0.038053256 0.057626408 -0.005992869 0.05434417
0000c0 2f 9c 12 3d 6a 5c a3 3d db 04 06 3b c8 84 85 3d
       0.03579348 0.07976611 0.0020449671 0.06519467
0000d0 80 4f d2 bd 72 2d ae bd 07 8b 91 3c 6c 70 94 bd
       -0.1026907 -0.08504762 0.017766489 -0.07248005
0000e0 63 0e 1a bd 1d 48 9e 3b e7 9e dd 3c 12 c3 99 3c
       -0.037611376 0.004830374 0.02705331 0.018769775
0000f0 4a c0 42 ba 69 18 9f bd 78 55 a7 3b 47 fc 15 3d
       -0.0007429166 -0.07768328 0.005106624 0.036617544
000100 83 4f 30 bd c6 40 21 3d b6 c1 7a bc ec e5 1d 3d
       -0.04304458 0.039368413 -0.015304973 0.03854935
000110 df 0f cc 3c 1b d5 ae bd 60 b7 c8 3b 07 fc d6 3c
       0.024909912 -0.085367404 0.0061253756 0.026243223
000120 16 ed 9c bd b5 5a 49 bd 9f 67 23 bd a4 c5 e8 3d
       -0.07662408 -0.04915877 -0.039893743 0.11365822
000130 aa b1 0a 3d 67 09 c6 bd 24 45 50 3d 7a aa 1f 3d
       0.03386084 -0.09669762 0.050847188 0.03898094
000140 eb 69 8a bb 9e 9b c6 3d c0 b6 8f 3d 18 d6 a5 3d
       -0.004224052 0.096976504 0.07017279 0.08097476
000150 40 f6 c3 bc b7 c4 99 bc b6 cf 26 3d ba ec 12 bc
       -0.023921132 -0.018770559 0.040725432 -0.008967573
000160 c8 a2 ea 3c 16 e6 73 3d 81 12 6d 3c 4b ad d4 bc
       0.028642073 0.0595456 0.014469744 -0.025961539
000170 ef ec 40 bd 0f ee a9 bd fb 88 3a 3d 92 c9 aa 3d
       -0.047100957 -0.08297359 0.04554079 0.08339228
000180 d0 37 a8 bd 39 5c 1f bb f1 a4 95 3d 7e 4b a6 ba
       -0.082137704 -0.0024316444 0.07306851 -0.0012687293
000190 47 1d e8 3c 3b ed 1c bc 8e 80 50 b9 c6 6b 87 3d
       0.028334273 -0.0095780445 -0.00019884316 0.06612353
0001a0 81 52 c1 3d c2 cd 00 3e ac e5 59 3c c7 15 b7 3c
       0.094395645 0.1257849 0.013299387 0.022349251
0001b0 24 87 ec 3c 5d aa ab 3b 6b 93 a1 bd 53 3c ae bc
       0.028873034 0.0052388147 -0.07889446 -0.021269
0001c0 8b dd 8f 3d 16 dd f2 bc 97 3b 89 3d 8e ce 7d 3d
       0.07024678 -0.029646438 0.06700819 0.061964564
0001d0 5d 3d cb bc 03 f4 94 bd a6 e9 a6 bc 6e db c1 bd
       -0.024809534 -0.07273104 -0.020375084 -0.09465681
0001e0 6d 17 ce 3d a7 26 d7 bb ea 8e 44 bd 04 eb 03 bb
       0.10063062 -0.006565887 -0.047987856 -0.0020129094
0001f0 08 e4 a1 bb be 89 81 bd 9a 23 b3 bd 2b c2 04 3d
       -0.0049405135 -0.063251 -0.08747025 0.032411736
000200 0e 9a ef bd 08 85 b7 3c 70 e0 44 bd ff ba e8 bb
       -0.116993055 0.022402301 -0.048065603 -0.00710237
000210 aa 2b e4 3d b3 3f fe 3b a6 a7 be 3c b1 5a 83 bc
       0.11141141 0.0077590584 0.0232733 -0.016034456
000220 5e b7 0b 3c 9c 59 7b bb bb cb 0c 3c b1 a4 b8 bb
       0.008527605 -0.0038352972 0.008593495 -0.005634867
000230 1d 55 8d bc 99 38 3a 3d d5 b1 f8 3c 39 78 65 bc
       -0.0172525 0.045464132 0.030358234 -0.014005714
000240 96 6b 1e bd 1e be 45 3d 93 63 ae bc 77 54 41 3b
       -0.03867682 0.048277013 -0.021287715 0.0029499808
000250 bc b3 df 3c 33 3a 60 bc 7b fb f0 3d 71 96 44 3e
       0.027307384 -0.013685751 0.11766716 0.19198014
000260 b8 a2 16 be 3d d7 00 3e e5 e6 88 3e 5b 32 1d bc
       -0.1471051 0.12582107 0.2673866 -0.009594525
000270 53 c0 57 be 6b 56 db 3d 79 79 a2 bd 34 29 14 bd
       -0.2106946 0.10709842 -0.07933325 -0.036172107
000280 54 31 49 3a 42 b7 71 3e 2c cd 07 be 75 94 a2 3e
       0.0007674892 0.23605064 -0.1326186 0.3175389
000290 73 3c db 3d cc 78 5e bd 04 44 8c be 30 0b 19 3e
       0.10704889 -0.05431442 -0.27395642 0.14945674
0002a0 ff f2 5e 3d 4e 74 8e 3d 90 b8 89 bd 0d d5 a6 bd
       0.054430958 0.06955777 -0.06724656 -0.08146105
0002b0 c6 3d 15 be 57 18 7b be 96 a3 05 be 1d a1 d6 bd
       -0.14574346 -0.24521004 -0.13050684 -0.10479949
0002c0 9c e5 4a bc 4e 92 4e bd f9 84 93 3b 98 dd 25 bd
       -0.012383845 -0.050432496 0.0045019356 -0.04049453
0002d0 e0 fd e1 bc 1a 6f 0e be e0 07 b6 bc 9b e7 54 be
       -0.027586877 -0.1390957 -0.022220552 -0.20791475
0002e0 9f 23 f9 bd 8f 93 42 be f3 fa 8b 3e 5b d2 ee 3d
       -0.12164997 -0.19001602 0.27339897 0.11661216
0002f0 10 58 a5 be 87 03 02 3e 01 27 09 bf 32 56 19 3d
       -0.3229375 0.12696658 -0.5357514 0.037435718
000300 56 ce 23 3e 29 1a 35 3e 0b ea 52 be 56 ad 72 3d
       0.1599668 0.1768576 -0.20597093 0.059247337
000310 d4 a9 89 3d e0 fe 06 3d 9c f2 aa bb 90 86 ff bd
       0.06721845 0.03295791 -0.0052169096 -0.12476838
000320 a7 0a 85 bd 73 55 07 be d9 5a e5 3e 34 62 b7 bc
       -0.064961724 -0.1321619 0.44795874 -0.022385694
000330 77 8c 81 3e 39 43 4d bc 32 3c 86 3c 76 13 07 bd
       0.2530248 -0.012528234 0.016386125 -0.032977544
000340 00 fa 42 be a4 2d f0 3d 3d 44 cd bc af 02 08 bd
       -0.1904068 0.11727455 -0.025056953 -0.033205684
000350 47 75 12 3d cb fa 1f 3e a3 3e 8f bd 00 e1 14 bd
       0.035756376 0.15623014 -0.06994369 -0.03634739
000360 eb 71 98 bc 17 4c d8 3b 4b d3 97 3e ba 8e b7 3d
       -0.018609008 0.0066008675 0.2965339 0.0896277
000370 c7 c9 05 3c 30 15 51 3d 47 bb a7 bd 67 fd 49 be
       0.008165783 0.051045597 -0.08190017 -0.19725572
000380 5e ce 3a be 78 c3 3b 3a b8 de fe bd 7f f6 d9 bd
       -0.18242785 0.0007162611 -0.12444824 -0.106427185
000390 1a 91 12 3d 83 de fd 3c 6e 87 27 3d c4 1e 45 3d
       0.03578291 0.03098989 0.04090064 0.048125044
0003a0 a7 c4 4f bd 2b 9b 93 3d e4 10 98 be 92 61 ab 3e
       -0.05072465 0.0720733 -0.29700387 0.33472878
0003b0 8b 28 4c be 18 72 44 3e d6 57 5c bd 55 11 c0 3d
       -0.19937341 0.19184148 -0.053794704 0.09378306
0003c0 77 fc 0c 3e d5 11 08 be 85 10 1f be ff 9a 5b be
       0.13768183 -0.13288052 -0.15533645 -0.21445845
0003d0 fa 33 d9 39 d2 91 0d 3e 10 cc 31 bc a8 c9 43 bd
       0.0004142819 0.13825157 -0.010851875 -0.047799736
0003e0 b3 67 58 be 46 3d 2d 3d 5c 4d 89 bc 98 a1 b2 3d
       -0.21133308 0.042294763 -0.01676052 0.08722228
0003f0 e4 a1 52 3c e8 40 fe 3d 49 95 83 3d e3 c6 27 3d
       0.012855981 0.12414724 0.06424958 0.040961158
