baselines/P&C_simplified/Weights/nonNormalisedTraining/w_0576.pth (torch, 71842 bytes, 12 tensors)

linear_relu_stack.0.weight f4 [50, 102]
00000000: 8ad4 a5bc 1294 93bd 9f6c 9f3d 5cf9 893d
00000010: 6c2e 26bd 94d6 823c f4cf fb3c da6b 1c3d
00000020: ba1a 2a3d 848c b73a 21b4 553d 1a0e 42bd
00000030: 57df a0bd b6d9 863d 6d90 aebd c382 1e3d
00000040: b947 97bd f10d c0bd 8547 7f3d df16 d3bc
00000050: 8a10 8cbd 6278 803d 975a fdbc 8bf2 6b3d
00000060: 058c 9f3d 75bc b23d f51a be3d 8c78 fa3a
00000070: a427 1c3d 3c2d b43d 38ba c5bd 7d6a 333c
00000080: 3a9c cfbb 999a 553c a8ea 133d 93f7 4bbd
00000090: 470b 7c3d c4be c1bc e8dd 7f3d 6ec8 05bd
000000a0: ece7 973d dac0 b63d 1536 383d 6913 cdbc
000000b0: 7dab 103d ba4a c93c a8fd 923d ac92 b83d
000000c0: 9a76 81bd 6400 a2bb 5286 aabd 8667 b5bb
000000d0: b70f cabd ae37 2d3c 9291 50bc e8d6 ad3d
000000e0: ecb7 9f3d 624d 67bd 85b9 bc3d 2f15 bc3d
000000f0: ed91 543d d8e2 563d 8481 b3bd eda9 aa3d
00000100: b443 8dbc 7ea2 a9bd 81ad 203d a56a 073d
00000110: 87f8 823c 0607 92bd 8bd5 753c 2eaf c5bd
00000120: 8f52 3bbd 890d 883d 03ea b43c 3849 81bd
00000130: a83f 183d 9d2e 6e3b c9a1 b7bd 4339 debc
00000140: 1d70 b53d 0839 b7bd 022c a8bd 9c5a 303c
00000150: b3d0 c7bc 3ad8 dbbc 614d 663d c43e b2bd
00000160: 7652 413c 83f0 78bd 5f1d b03b 2205 8fbd
00000170: 1b1d 843d 4029 203b 1218 513d 3486 a43d
00000180: da02 0d3d fd42 b6bd 9a74 0cbd 8c34 39bd
00000190: d2c7 c03d 0bad 47bd 8ed9 1e3d 02cc a1bd
000001a0: 2c38 58be 3345 c3bc 11f0 ce3d bd33 8abd
000001b0: 42d5 4f3d 23a5 08bd c076 0bbe 877e be3d
000001c0: 4150 e6bb 3505 15be 985d e93d fe3f 413c
000001d0: 90f4 0dbe 246e 3f3d 32ab ed3d 5179 96be
000001e0: 5029 8ebb a4b3 3e3d 914b 5abe 56e0 d03d
000001f0: 2e79 d83d 55ca aabd 3783 553e 3dc8 983d
00000200: e584 91bd 07d9 0d3e 68f0 7f3e a535 553b
00000210: 0442 153e 7d91 0b3e 7726 d1bd d4a6 ab3d
00000220: 7464 52bd 9d39 21bd 665e b93d 4fdf 9fbd
00000230: 52cf 05bd fbba e83d ca0f 9cbc 2fd1 7d3e
00000240: a630 8b3e 7465 b93b d93b a33e b32b bf3e
00000250: 4ae4 8bbb abe7 ed3e 5295 be3e 2e28 95bd
00000260: a3db 103f d5dc d83e 1a47 45bd a7d1 fe3e
00000270: c4b6 9f3d 76bd 9e3d 1e16 7bbe 908a 9f3c
00000280: e83c 623d b1af 8dbe d1c0 983d 00d7 353d
00000290: d97e b2be d023 6e3d 837a 8cbd 9279 b3be
000002a0: 7eb0 15bd 825c 353d ec4b 16be 0194 a73d
000002b0: 8d41 83bd c131 2bbe a646 cc3c d20c 103d
000002c0: a7d1 d8bd 8320 c23d fb2b 94bd b285 343c
000002d0: c07a b73c 74fc 263d 39c1 16bc 86a9 b93d
000002e0: fc9b fabc e242 26bd 79f7 e73d c130 29bd
000002f0: 6fdd 95bd c75f a03b a65b 523d 9cd6 ccbb
00000300: 7700 4d3d d7ae 6fbd 1822 d03d e62d 12bd
00000310: ad28 9c3d 0ceb 5fbd dbc8 8cbd 6a31 a9bd
00000320: b76e babe 9465 c33d d17e 12bd c30a a9bd
00000330: 8a67 b93d c776 293d 2cdb 853d 6730 e63c
00000340: 3c6c 7bbd de95 b03d 861d 5b3d df85 2abd
00000350: 2b23 bdbd 0c5b b6bd 3b54 cd3b 2b42 bc3d
00000360: 50b6 8bbd 2690 c4bb 6723 a9bd 3cef b63d
00000370: 296b 293d 5c39 5c3d 22e2 bc3d f6f1 1cbd
00000380: d54c edbc 2d7b 41bd 9ae1 f9bc 558d 4ebd
00000390: 9656 893c 6422 b2bd 275e 88bd e1be b3bd
000003a0: 15bd 503d bb66 403d 48b4 46bd 87d9 76bd
000003b0: 6c87 66bc 1153 3b3d 5790 163d 27c3 98bc
000003c0: 9713 9a3c 3845 03bd 6eee c1bd 0b7c a33d
000003d0: 63d3 36bd 17e2 a83d 81d0 ab3c 68b2 63bd
000003e0: f224 ba3d 446b bebd d89f 323d 579c c8bc
000003f0: d293 8d3c e7ce 7fbd 5b1e b1bc 60c8 693d
-0.020242948 -0.072059765 0.0778439 0.06737015 -0.040571615 0.01597146 0.030738808 0.038188793
0.041529395 0.0014003669 0.052173737 -0.04737673 -0.07855099 0.06584494 -0.08523641 0.038698923
-0.07386727 -0.09377659 0.062324066 -0.025767742 -0.06839092 0.06272961 -0.030926986 0.057604354
0.077903785 0.087273516 0.092824854 0.0019109412 0.03812374 0.0879769 -0.09654659 0.010950682
-0.0063357623 0.013037347 0.036112458 -0.049796652 0.061534192 -0.023650534 0.062467486 -0.032661848
0.074172825 0.08923502 0.04497345 -0.02503367 0.035319794 0.024571765 0.07177287 0.090123504
-0.063214496 -0.004943894 -0.08326401 -0.0055360226 -0.098662786 0.010572357 -0.012730019 0.08488256
0.07798752 -0.056470282 0.092150725 0.09183728 0.05189698 0.05246243 -0.087649375 0.08333192
-0.017244197 -0.08282946 0.039227966 0.03306069 0.015987648 -0.07130246 0.015004526 -0.096525535
-0.04573303 0.066432066 0.022084242 -0.063127935 0.037170082 0.0036343702 -0.08966405 -0.027126914
0.088592745 -0.08946425 -0.08211519 0.01076379 -0.024391508 -0.026836503 0.056226138 -0.08703378
0.011799445 -0.060776245 0.005374595 -0.06983401 0.06450864 0.002443865 0.051048346 0.0803341
0.034426548 -0.08899496 -0.034290887 -0.04521613 0.09413113 -0.04874901 0.038781695 -0.079002395
-0.21115178 -0.023836708 0.10104383 -0.067481495 0.050740488 -0.03336061 -0.13619518 0.09301477
-0.00702861 -0.14552768 0.11394805 0.011795042 -0.13862824 0.046735898 0.116049185 -0.29389432
-0.004338421 0.046558037 -0.21317889 0.10199039 0.10569988 -0.08339373 0.20850836 0.074600674
-0.07105426 0.1385232 0.24994051 0.0032533195 0.14575964 0.13629718 -0.10212415 0.08381429
-0.05136533 -0.039361585 0.09051208 -0.078062646 -0.03266842 0.11363789 -0.019050498 0.24786828
0.27185553 0.005657846 0.31881598 0.37338027 -0.0042691575 0.4646581 0.37223297 -0.07283054
0.5658514 0.4235598 -0.04816351 0.49769327 0.07798532 0.077509806 -0.24520156 0.019475251
0.055233866 -0.27673104 0.07458652 0.044394493 -0.34862402 0.058139622 -0.06859305 -0.35053688
-0.03654527 0.044277675 -0.146774 0.081825264 -0.06408987 -0.16718198 0.024936032 0.035168476
-0.10586863 0.09478857 -0.07234951 0.011018204 0.022397399 0.0407681 -0.009201341 0.09065537
-0.030591957 -0.04059113 0.113264985 -0.04130626 -0.07317626 0.00489423 0.051356934 -0.0062511694
0.05004927 -0.05851635 0.10162753 -0.035688303 0.07624946 -0.054667518 -0.06874248 -0.08261378
-0.36412594 0.09540859 -0.035765473 -0.08254006 0.09052952 0.04137304 0.06535944 0.028099252
-0.061382517 0.08622335 0.053494953 -0.041631576 -0.092352234 -0.089040846 0.0062661446 0.09192308
-0.06821883 -0.005998629 -0.082587056 0.08932349 0.04136196 0.05376564 0.09222819 -0.03831669
-0.0289673 -0.04723661 -0.030503083 -0.050427753 0.01676492 -0.08697966 -0.06658583 -0.08776642
0.050961573 0.04697297 -0.048511773 -0.060266044 -0.014070373 0.045733515 0.036758747 -0.018647743
0.01880817 -0.032048434 -0.09469305 0.07982644 -0.044635188 0.08246248 0.020973446 -0.055590063
0.09089078 -0.09297803 0.04360947 -0.024488611 0.0172824 -0.062453177 -0.02162092 0.057075858

linear_relu_stack.0.bias f4 [50]
00000000: 2eba 813c ac68 513d 0326 bf3d 9fe3 6f3d
00000010: 1d3a 863d e717 143d 3c82 3bbd 949f 52bc
00000020: c99a 8e3d 9f40 d43c b61a 8cbd a58e b33d
00000030: e87c d93c 64d7 1e3d 613f 563d aabd 4f3d
00000040: c949 56bd 1976 d93d ec80 9f3c 9671 113e
00000050: 1f79 9d3d 208a e7bc c2ac 84bd e887 a43d
00000060: 1b3d 46bd 4392 cc3d 505a 0cbd 25f3 a6bb
00000070: 5b37 c83d 4f53 053e a66e d63d 54e5 aebc
00000080: cbbe abbd 0c12 aebd 8a57 bf3d 0937 b03d
00000090: 2c98 a43d 8b70 f23b 4127 583d 2e94 913d
000000a0: 98e9 6c3d 8144 e8bc 23a3 88bd 4b5f cb3c
000000b0: 8cb4 cb3d 95d7 95bd 8b6d 26bd 2100 b33d
000000c0: 7f77 633d 4361 a73d
0.015835848 0.051125214 0.09333422 0.058566686 0.06554053 0.036155608 -0.045778498 -0.012855429
0.06963117 0.02590972 -0.06841032 0.08767442 0.026548818 0.03877963 0.052306537 0.050717987
-0.05231646 0.106182285 0.019470654 0.14203486 0.07689118 -0.028264105 -0.064782634 0.080337346
-0.04839812 0.09988835 -0.034265816 -0.005094903 0.09776183 0.13020061 0.10470323 -0.021349587
-0.08386 -0.08499536 0.093428686 0.08604247 0.08036837 0.00739867 0.05277181 0.07108341
0.05783996 -0.028352978 -0.06671741 0.024825713 0.09946546 -0.0731651 -0.040631812 0.08740259
0.055533882 0.08172848

linear_relu_stack.2.weight f4 [40, 50]
00000000: b1fa 3dbb ce85 9e3e ab98 d7bd d814 543d
00000010: 0978 57be d73d 09be bcfb dabd 8f5a bf3d
00000020: b340 fb3c 196b f3bd c7f0 1cbe c120 c2be
00000030: 5160 133d 82de 1e3e f7d2 dbbc 84a9 913d
00000040: bd6f 8cbd 521c 103e 00a7 f13c 3870 35bd
00000050: 78e2 bb3d 649c 243d 8c4c ebbd 8a8f 2a3d
00000060: f26e b53d 5cdd 5cbe 9ff4 8d3d 0704 a5bd
00000070: edfd e93d f757 953d 39ed d33d 4571 2c3d
00000080: 0a10 86bc c20d 80be 6443 92be 0faf 59be
00000090: adca a0bb 97aa 94bd 2cde 273d 1bc0 77bd
000000a0: 265a b53c 12c6 98bc 5e0c 81bd 3ee7 c43c
000000b0: c171 a0bd e721 18bd 7c8c c13c 90c3 04bc
000000c0: 8fc1 fabc 394d eebc a809 d8bc 0f22 4dbe
000000d0: e7b4 c5bc adab 0fbe c825 263d 906d 073e
000000e0: 8a0f ff3c 377c d5bc e7a0 2fbe 1e6a ccbd
000000f0: 4d0d 7a3d d134 213e 2116 583c 0ea4 d0bd
00000100: 2827 f3bd 3dc5 c8bc 619d e4bc 3f50 7d3e
00000110: 2359 bcbd a5aa 513e f25d e839 49db 2fbd
00000120: 1a50 08be a9a3 203e 7a5d 1e3e 42fb 80ba
00000130: 93eb 74bd 9629 7b3e 7190 a8bd 03bd 953d
00000140: 3284 11bd 0735 193e 0604 fb3d eb12 723d
00000150: 8dc1 803d 9c79 a13e 9fe4 013e d74f b13d
00000160: f7cc e7bd d50e 2d3d 1442 adbd 7202 1dbd
00000170: 4a85 f0bb f4f9 b93d 5ec9 f7bc eee0 8c3d
00000180: d35c 8dbc 5481 073d 5b87 be3c 860c 5cbc
00000190: c7f9 4cbd 13b1 803d 9449 b5bd 255b 733d
000001a0: 45a6 5bbe 46d7 463d 7a1a d3bd 8402 323d
000001b0: b8ce 9a3c 9a6b cabc df38 3fbb 5449 2fbe
000001c0: ebd5 00be a3b1 393d 4c63 98bc c1c8 8dbd
000001d0: be40 a4bd 4584 bc3d 49f4 d0bd b1f4 32bd
000001e0: d305 0f3e 29cf ddbd a8fd 47bd 014b 0fbe
000001f0: 0100 acbd f6da d5bd a301 263e 043f cfbb
00000200: 44d0 973d b957 193d 4ce2 fabd 8ee6 bdbd
00000210: 6fa0 01be 29ea 1ebe ecf5 8fbd b810 83bd
00000220: 0a3c 8abd 946a 06be 3c7f f2bc 72d2 ebbd
00000230: ccca 90bd 12a0 0b3e bd5b 87bd aef3 ac3d
00000240: 9849 fb3d c708 813d 24e4 b33d 6047 893c
00000250: 0ba4 93bb 1774 b8bd 6f0e 08be 85f0 14bd
00000260: 6eb9 7fbc 0e2a b13d 2fbf e63d 075c b23d
00000270: 1ae0 743d 272a ec3d 275d bb3d b6da 3ebd
00000280: a89d 01be b41a 4b3d e794 e83d 5e2b cbbc
00000290: 3559 75bd 568b 07be 40c5 ccbc 47b7 cbbd
000002a0: dab4 fa3d 5b1f 6a3e 0440 aa3d 120e bdbd
000002b0: fb38 d93d c3cd 05bc 67e8 d5bd 0bf2 4c3d
000002c0: 5600 b0bd 13c1 ca3c 2fd4 cc3c 6c25 86bd
000002d0: db9c e9bc 991f 8bbd 46e1 903d c7cc 053e
000002e0: 39d1 68bd 964c e53d 362b 95bd a676 eb3d
000002f0: a3be 053e 319b 1abd 211e 08bd e0fb acbd
00000300: 808e 90bd 5dd7 033e 1fa3 e53c a8c0 3f3d
00000310: 24b7 f4bd 02f8 d83d 50d4 4ebd 3914 9dbd
00000320: eceb 7ebc 7c3c d83d 8aa1 fdbd ed1f 36bd
00000330: f6ff 223e af45 58bc 1f7e fcbd e038 08be
00000340: 7064 2bbe 5336 653d 57d5 5c3e defe 3ebd
00000350: 6b42 a0bb 57c4 6cbd 3978 04be 0735 013d
00000360: 4a47 02be 9996 693d cca2 f3bd 4286 58bb
00000370: a240 cf3d ce8e 9c3d d674 1d3d edc6 7cbc
00000380: aa4d bf3d 16b6 fabd cf29 c33d 0435 9f3c
00000390: 23c2 2bbd 5293 acbd 0757 dfbb 56f7 9cbb
000003a0: 1b7f 9d3d eadb 99bd 84ad 36be 6013 10bc
000003b0: d9f3 5dbc a79e 25bd f841 1abd 4822 8dbd
000003c0: 61db d73d 5464 b9bb 8cbc f03d 59c5 c1bc
000003d0: 3cc6 3abb ec4b bebc 5333 8cbd 1213 f13d
000003e0: d3bc 01be 80bc b1bd 38f8 a6bc bd98 8a3c
000003f0: df11 80bd 4daa c7bd 9416 dcbd 7864 90bc
-0.0028988535 0.3096146 -0.10527166 0.05177769 -0.21041884 -0.13402496 -0.10692546 0.093434446
0.0306705 -0.11885662 -0.15326224 -0.37915614 0.035980526 0.15514567 -0.026833994 0.07112411
-0.0685725 0.14073303 0.029498577 -0.044296473 0.09174055 0.04018821 -0.114892095 0.041640796
0.08859052 -0.21568817 0.069314234 -0.08057409 0.114253856 0.072921686 0.10347981 0.04210021
-0.01636507 -0.25010496 -0.2856704 -0.21258186 -0.0049069733 -0.072591 0.040983364 -0.06048594
0.022137713 -0.018649135 -0.06301187 0.024036046 -0.07834197 -0.037141707 0.023626558 -0.008103266
-0.030609874 -0.029089557 -0.026371792 -0.20032524 -0.024134113 -0.14030333 0.040563375 0.13225389
0.03113534 -0.026060207 -0.17151223 -0.09981178 0.06104784 0.15742804 0.01318887 -0.10187541
-0.11872703 -0.024508113 -0.027907075 0.24737643 -0.09196689 0.20475252 0.00044320483 -0.042933736
-0.13311806 0.15687431 0.15465346 -0.0009840506 -0.059794974 0.24527583 -0.08230675 0.07311442
-0.035526462 0.14961635 0.12256627 0.059100073 0.06286917 0.31538093 0.12684868 0.08657806
-0.11318391 0.042250473 -0.08459869 -0.03833241 -0.007340108 0.09080878 -0.030247387 0.068788394
-0.017256176 0.03308232 0.023257902 -0.01343072 -0.050042894 0.06283774 -0.088519245 0.059413094
-0.21450146 0.048545144 -0.103077844 0.04345943 0.0188974 -0.024709512 -0.0029178185 -0.17117816
-0.12581603 0.045335423 -0.018602036 -0.069230564 -0.08020161 0.09204916 -0.10202844 -0.043690387
0.13967066 -0.10830528 -0.04882589 -0.13993455 -0.08398438 -0.10442154 0.16211562 -0.0063246507
0.074127704 0.037437174 -0.12250194 -0.092724904 -0.12658857 -0.15519013 -0.07029328 -0.06399673
-0.06749733 -0.13126594 -0.029601686 -0.11514749 -0.070699304 0.1363528 -0.066092946 0.08444916
0.12269896 0.06300502 0.08783749 0.016757667 -0.0045056394 -0.090065174 -0.13286756 -0.03636219
-0.015608175 0.086505994 0.11266934 0.08708959 0.059784032 0.115314774 0.09148627 -0.046595298
-0.12657797 0.049586013 0.11356526 -0.024800953 -0.059899528 -0.13236746 -0.0249964 -0.09947067
0.12241526 0.22863524 0.08312991 -0.09231199 0.10606571 -0.008166733 -0.10444718 0.050035518
-0.08593814 0.024750268 0.02500352 -0.065501064 -0.028517177 -0.06793136 0.070742175 0.13066398
-0.056840155 0.11196248 -0.072836325 0.1149724 0.13061003 -0.03774566 -0.03323186 -0.08446479
-0.0705843 0.12875123 0.028031884 0.04681459 -0.11948994 0.10594179 -0.050495446 -0.07669873
-0.015559178 0.105584115 -0.12384327 -0.04446404 0.15917954 -0.013200208 -0.12328743 -0.13302946
-0.16737533 0.05596001 0.21565758 -0.04662978 -0.00489073 -0.05780443 -0.12936486 0.03154471
-0.12722507 0.057028387 -0.118962854 -0.0033039008 0.101197496 0.07644425 0.0384415 -0.015428287
0.09340985 -0.122417614 0.09529459 0.01943446 -0.04193319 -0.084265366 -0.0068157944 -0.004790227
0.07690259 -0.075126484 -0.17839628 -0.008793682 -0.013546907 -0.040434506 -0.03766057 -0.06891304
0.1053989 -0.005657712 0.117547125 -0.023653673 -0.0028499505 -0.023229562 -0.06845727 0.117712155
-0.12669687 -0.08678532 -0.020382032 0.016918534 -0.06253409 -0.09749279 -0.10746494 -0.017626032

linear_relu_stack.2.bias f4 [40]
00000000: cf90 30be 5ab7 473e 7429 8bbc 1d69 483e
00000010: e865 673d ab97 adbc 6745 7d3d 739b 09be
00000020: bc96 22be bb52 3e3d b40b bc3d b6e9 94bd
00000030: ba1c 713d 8fc0 7ebd 48e9 d83d 3b17 83bd
00000040: a432 13be 3071 6f3e d66e 063d 26b5 95bd
00000050: bec0 9fbc 2848 b3bd 5ed6 80bc 1a48 ed3d
00000060: 60e4 c73d b685 46bc 12fc d83d f8e7 073e
00000070: 2b52 c63d 6e70 8abd 37b6 823d 0edf d6bd
00000080: 8142 d83d 3841 ef3d 8549 343d 75aa 03be
00000090: 9b20 1fbd 834d 393e a317 59bd e424 36bd
-0.1724274 0.19503537 -0.01698754 0.19571348 0.05649367 -0.021190485 0.061833765 -0.13438205
-0.15877813 0.046465617 0.0918192 -0.07271139 0.058865286 -0.062195357 0.1059137 -0.06400915
-0.14374787 0.23383021 0.032820545 -0.07309942 -0.019501086 -0.08753997 -0.015727218 0.11586018
0.09760356 -0.01211684 0.105949536 0.13272083 0.09683641 -0.067597255 0.06382411 -0.10491763
0.105595596 0.11682361 0.044015426 -0.12857993 -0.038849454 0.18095975 -0.053001057 -0.044468775

linear_relu_stack.4.weight f4 [30, 40]
00000000: 08ab 36bd d2f1 09be 1e8b f53d c787 e4bd
00000010: fa9f ca3d 0817 86bc 2845 19be cfc2 bdbd
00000020: c294 c8bd 8095 adbd c8a3 c4bc b05f 00be
00000030: 30a1 23bd b83b e4bc a4e0 253d 2ce9 1ebe
00000040: e436 04bd 6961 06be 383e 3e3d 1d74 143e
00000050: 1962 1abe f8b7 dcbc fc41 2a3d 6ce1 393d
00000060: 8090 0cbe acb6 19bd 8f3a babd b476 303d
00000070: ca80 49bd 009f 69bc 6620 a83d a75e 0d3e
00000080: 0812 42bd 9eb3 0cbe 18d3 f3bc 26bf dc3d
00000090: 403f fcbd 0e92 843d fc35 eebd c89e fd3c
000000a0: a829 2cbe e0af 3e3e 75af 0bbe e7b3 f3bc
000000b0: 1d44 cdbc 3503 783d 874e 43bc 533f 14be
000000c0: 7202 45bd 7f2e b33d 5847 0d3e 5e90 623d
000000d0: 8209 8a3b bd4f 0e3d e631 31bd e2fe af3d
000000e0: b42e a4bc e8f0 9ebc 2acf ffbd 10d3 ca3d
000000f0: 4b11 b93d 6364 08bd 0a98 703c 1efe be3d
00000100: 0b81 d0bd 3a81 cfbd d1cc bbbd ae8c 493e
00000110: eae0 a93d 6d52 843d 532e bcbc 5b7e 193c
00000120: 62e6 173b db9a 86bc 7530 d1bd 86c6 0dbe
00000130: 1a42 723d 070c ab3d 3cdb 33bd 4aec e23c
00000140: 3920 013e 6dcd 523e 749a d8bd bcc2 21be
00000150: aa0c fb3d 3548 00be ce7d 893e f16c 8d3d
00000160: ee9d 003e bea0 e83d 6789 eebd 47ae 203e
00000170: da94 fbbc 422f 30bd e2ee 013d cd0a a5bd
00000180: 2b7e ad3d 4538 3e3e 2f81 60be ef3c 1e3d
00000190: cd57 c7bd ca18 293e 738e 173e babb 0e3e
000001a0: 7bbf f9bd 71f8 203d fdac 77be d678 b1bd
000001b0: 9ba7 343e c8a6 2b3e fd0a 153e fe38 86be
000001c0: eda6 613e ed69 f2bd b985 1dbe 552d 0cbc
000001d0: 2558 75bd 283f 2cbe a2d6 52be fc61 f53d
000001e0: 6d52 423e 3e4b 323c 57cf 263d 24c7 7d3c
000001f0: 685e 193e 63e6 12bd 6b89 9c3e 28a4 b33d
00000200: a527 d4bc d621 1e3e 5901 1abe a5aa 75bb
00000210: 7b29 b3bd 232c 10be 35d5 d8bd 50d2 d23d
00000220: 229e 183d fab4 973d 8cfa 4fbc 3ea6 273d
00000230: 3e3b 933e d9fe 01be efe0 d33d c916 e63d
00000240: 7430 ceba 1dcf d0bd b5fc e7bd da10 88bd
00000250: 149d 12ba 584e 093e 403e 853d 33b4 323d
00000260: d4d3 efbc 714e dabd 12e9 433c 3739 ce3d
00000270: 9444 2b3e 4959 54bd fbaf dbbd 61c5 0d3e
00000280: 9693 ffbd e847 843c cf20 143e 7f13 f23d
00000290: 32ab 03be 9ea5 15be 2a2c 37be f32e ed3d
000002a0: a198 3c3d 9c48 87bd e9b5 833d 4f18 b0bb
000002b0: 9e06 5c3e 060b ff3d 2059 d63d 5288 dabd
000002c0: 623e 15bd 0837 4f3e 8fe5 403e 8075 663d
000002d0: eed2 643d e03b 60bd 569c 04be 5c63 633e
000002e0: 2fbf 0bbe 71fb 4cbd 4348 973d 7247 353d
000002f0: 9ed2 d13d 1cb9 46bc 98f1 9dbc babd ad3d
00000300: ada4 3cbe 2a4e 4c3d 28d9 e03b 346a e8ba
00000310: ceaf 32bd b1f3 883d 8727 213e 1a4b 17be
00000320: 38db 9a3d 1c36 7f3d 65a8 85bd d328 963d
00000330: df0d ffbd a295 f6bc c641 e6bd 8c7d a3bd
00000340: cec5 243e 5e3b 0bbe 008a d93d b4a1 253d
00000350: 6aa3 93bd ca98 5a3e ce1c 24bd 16e6 843b
00000360: e610 d93d ecf6 053e e3a0 b23d 17f3 4ebd
00000370: 9fcb df3c 20fc bdbd cff9 11be 6b30 03bd
00000380: a0ec 35ba e681 8d3d b3ff 1abe fc6f 98bd
00000390: 9cdc bc3d 0b12 983e d838 343d bb65 bd3d
000003a0: fda3 153e a458 d4bd 3169 a03d 9682 1b3e
000003b0: ce38 30be 8d9a 9bbd 66aa 4f3c 6a3d d6bd
000003c0: 065b 26be b24c ac3c 64d8 983d 086d b1bb
000003d0: 1b8b d33c db49 9abd cc42 703d 98c7 8c3d
000003e0: 0874 643d 71bf 33be 0eb9 64bc 1816 8a3d
000003f0: 4add c7bd 27ed d93c 73a2 fe3d ebf3 72bd
-0.0445967 -0.13471153 0.11989425 -0.1115871 0.09893794 -0.016368404 -0.14967787 -0.092656724
-0.09793998 -0.084757805 -0.024003878 -0.12536502 -0.039948642 -0.027860507 0.040497437 -0.15518636
-0.03227891 -0.13123097 0.046446055 0.14497419 -0.15076484 -0.026943192 0.041566834 0.045380995
-0.13726997 -0.037527725 -0.090932004 0.043081954 -0.04919509 -0.0142591 0.082093045 0.13805638
-0.047380477 -0.13740394 -0.029763743 0.10778646 -0.123167515 0.0647317 -0.116313905 0.030959502
-0.16812766 0.18621778 -0.1364115 -0.02974887 -0.025056893 0.060549933 -0.011920578 -0.14477281
-0.048098035 0.08749103 0.13796747 0.05531346 0.004212559 0.034744013 -0.043260477 0.08593537
-0.020041801 -0.019401982 -0.12490685 0.09903538 0.090365015 -0.03329886 0.014684686 0.09325813
-0.10180863 -0.1013207 -0.09169925 0.19682571 0.08294852 0.06461034 -0.022971308 0.009368504
0.002317809 -0.016431263 -0.102143206 -0.13845262 0.05914507 0.083519034 -0.04391025 0.027700562
0.12609948 0.20586176 -0.105763346 -0.15796942 0.12258275 -0.12527545 0.26853794 0.069055445
0.12560245 0.11358784 -0.11647301 0.15691482 -0.030710626 -0.04301382 0.031721957 -0.08058701
0.0847133 0.18576153 -0.2192428 0.03863233 -0.097335435 0.16513363 0.14800434 0.139388
-0.12194725 0.039299432 -0.24187084 -0.08665626 0.17642061 0.16762841 0.14554973 -0.26215357
0.22036333 -0.1183661 -0.15383042 -0.00855573 -0.059898514 -0.16820967 -0.20589688 0.1198158
0.18976755 0.010882197 0.04072508 0.015489373 0.1497742 -0.035864245 0.30573592 0.08771545
-0.02589781 0.15442595 -0.15039577 -0.0037485745 -0.08748146 -0.14079337 -0.10587541 0.1029402
0.037260182 0.074075654 -0.012694012 0.040930025 0.28756136 -0.12694873 0.10345637 0.11234815
-0.0015730993 -0.10195754 -0.11327497 -0.06643839 -0.00055928645 0.13408792 0.06506014 0.043628883
-0.029275812 -0.10659493 0.011957424 0.100695066 0.16725379 -0.05184296 -0.10726925 0.13844825
-0.12479322 0.016147569 0.1446564 0.11820125 -0.12858275 -0.14613959 -0.17887941 0.115812205
0.046043996 -0.06605646 0.06431181 -0.0053739916 0.214869 0.124532744 0.10466218 -0.10670532
-0.036436446 0.20235837 0.1883757 0.0562644 0.05586522 -0.0547446 -0.12950262 0.22205871
-0.1364715 -0.05004448 0.0738683 0.04425759 0.1024525 -0.012129094 -0.01928024 0.08483453
-0.18422194 0.04987923 0.0068618245 -0.0017731846 -0.04362469 0.066871054 0.15737735 -0.14774743
0.07561344 0.062307462 -0.06526259 0.07332005 -0.124538176 -0.030100647 -0.11243014 -0.079829305
0.16091082 -0.13596866 0.106220245 0.040437415 -0.07208903 0.21347347 -0.040066533 0.0040557487
0.10598926 0.13082474 0.08722093 -0.050524797 0.027318774 -0.09276605 -0.1425545 -0.032028597
-0.0006939862 0.06909542 -0.15136604 -0.07443234 0.092217654 0.29701266 0.043999523 0.09247919
0.14613338 -0.10368469 0.07832564 0.15186533 -0.1720917 -0.075978376 0.0126749035 -0.104609326
-0.1624566 0.021032665 0.07463148 -0.005414609 0.025823167 -0.07533618 0.058657452 0.06874007
0.05577472 -0.17553498 -0.013960136 0.06742495 -0.097590044 0.02660234 0.124333285 -0.05931465

linear_relu_stack.4.bias f4 [30]
00000000: 081c e4bd b127 dabd ddf2 b2bd 4bf0 d83d
00000010: 4569 b23d ed3e 9fbd 8f9c 483e 2b45 b63e
00000020: e803 f13d dabe 733e 1a06 32bd d797 e1bd
00000030: 0647 673e 82bf 11be 7beb b63e 0f59 b9bd
00000040: 6f0f d7bd 0f71 813d f637 df3c 30bc 163d
00000050: 6dfb 673e 3e66 7d3e 636a 0b3f 92a0 0fbe
00000060: 9044 d33b 5957 dcbd d37f 673e 56ed 803e
00000070: eb4b 87bd 532f 803e
-0.11138159 -0.10652102 -0.08737729 0.10592707 0.08711485 -0.07775674 0.19590972 0.35599646
0.11768323 0.23803273 -0.04346285 -0.11015289 0.22585687 -0.1423321 0.35726532 -0.0905019
-0.105009906 0.06320392 0.027248364 0.036800563 0.22654505 0.24746034 0.5445921 -0.14026096
0.0064473823 -0.10758848 0.22607355 0.25181073 -0.06606277 0.25036106

linear_relu_stack.6.weight f4 [40, 30]
00000000: 1cf2 37be 82d6 6cbb 41a7 81bd a890 323d
00000010: 0dc9 d43d d8ac 273e 6d4b 123c 0e6b e33d
00000020: 7934 b13d 5fc9 813d d60c 9f3d 9d52 ccbd
00000030: e7b6 723d 1447 a83d f39d 28bd 9747 c5bd
00000040: edbe 043e d17a e53b cd21 023e d36f fdbd
00000050: e22d 55bd cf35 973d 3949 56be 3500 a5bd
00000060: 534a 9bbd 086f db3d 1cc7 2bbe bc07 24be
00000070: 0bff 80bd d5ab 0bbe 2c5a 873d a2ba 023d
00000080: 553f 7abe e5cf 9d3e 4dab 2c3e 0619 803c
00000090: 901f f83d d43d 863e 8ca4 91be f04e 99bd
000000a0: e9ef c43d 46fc 37bd 5489 223e 4587 8c3d
000000b0: c128 3e3e dd41 40be 260e 513e 9359 0c3e
000000c0: bb8e e4bd c63a edbd b9ba 7d3d b1ca e73d
000000d0: 4192 873e e577 5abe 57df b5bd ec22 933d
000000e0: 431f c43d 32c1 50be d9a6 9a3d c886 f23d
000000f0: abf9 09be bcda c63c 3fb6 6bbe 43d9 e1bc
00000100: 382c ad3d 2652 89bd 29b7 903d 5b09 89bd
00000110: 8b9e 02be e321 843d 18f6 23be 1d6f 1c3e
00000120: 7cd6 193d 2af6 b2bd 89b1 0d3e d1b4 eebd
00000130: 1f39 54be 4afe 98bc 29bd 343e 6645 a73b
00000140: af51 7bbe c35f 0fbd 7417 12bd 5545 f3bc
00000150: e15f 8e3d 8d2b d5bd a08c 1dbe d78a 92bd
00000160: ebd5 f63d 532c 19be f0a0 903c 815e f6bd
00000170: 236c 05be 28ab 863d f11d 073d 6519 04be
00000180: 6697 6a3e 614e b9bd 17f0 a4bd 5f3d 56bc
00000190: 5211 213e 1929 74bd 201f afbc 490e a43d
000001a0: ae50 8c3d 5d67 adbd d96f b93c ebb3 873e
000001b0: 2184 883d 6985 2ebd cd30 f4bd 46d1 ad3d
000001c0: b85b 92be 68ce 82be 3e0a b93d 4d88 e33d
000001d0: 2662 233d 2840 a8be 66a6 ea3d 614c 81bd
000001e0: f30e 28be f59c 823c ef99 86bc bea1 303e
000001f0: e435 8f3c bb73 30be 16ee 25be 9bc7 24ba
00000200: 048e 153e 675c 20be 7962 5ebd 55ef 3abe
00000210: b47f 03be 10bf d3bc eaa3 243e ea47 3fbe
00000220: 75d4 273e 69fe c7bd 37e8 b73d e82d b8bc
00000230: 8471 10be 8fb4 103d 70ca cbbd eaea e93d
00000240: 3600 25be 7578 0ebc 5161 c53d 6b14 1c3e
00000250: 0fbd 96ba 8785 24be f456 393e 247d 133e
00000260: 6df7 b1bd 4122 253e 3807 813d a013 423d
00000270: c0fe 81bd eed0 5c3e 050e bc3d 9baf 99bd
00000280: a895 dabd 4dcc 1dbe e488 bc3c f74b 5abd
00000290: 2de0 cf3d a21e 6a3d b378 13be b011 5e3e
000002a0: 2795 fab9 5c01 f7bd 7ca3 423d f06b c33d
000002b0: 3c93 d4bd 8490 afbc 1542 313c 8d99 58be
000002c0: 22d8 923e d6a8 94bd 97cb 20be be51 0e3e
000002d0: 1007 7a3d 91d0 633d 5ec6 7a3d ff15 263d
000002e0: efe5 d9bd d4de 773d 6b03 15be d253 473e
000002f0: cba4 85bc d177 b8bd db4d 70bc f34f 6ebd
00000300: fa82 e63d 1b2a 31be e858 e73d 0309 25bd
00000310: b7c9 a9bd e53a 2cbd 88ab efbd 21c1 bfbd
00000320: 7b41 24be e5df 913e 3ef8 aabd 06a9 6f3e
00000330: e8dd 1d3e 9fdc fc3d c1a8 df3d 601b 5bbe
00000340: 6c6f 413e 249f 81be b0e3 193c 7baf 793c
00000350: 07fb 19be 768b 57be 4d18 113e 437b 57bb
00000360: 515c c73c fb3c 91bd c11e 313e deb5 e93c
00000370: b81a e93d 076e a3bd d425 173c a7ae 7abd
00000380: 6f7b 29be 4e6f 003e ba98 46be 5d45 20bd
00000390: 2bc2 123d c13d 18be e32d 82bd 06b4 2f3c
000003a0: b85b 57be d921 643d 0766 853b 3ef2 a73c
000003b0: 7978 863d c7ca 59be 1f8a 383d c213 9b3d
000003c0: e50c 20be e98c 7cbd 9dca 2b3d 39ea b53d
000003d0: 5b28 48be 3eda 38bd ec49 753d c52f 7e3e
000003e0: 17f4 c33d d36a a4be c31c c2bc 22e0 b6bd
000003f0: 0bcc f43c dd23 aa3d 098b 90be faac b33d
-0.17963451 -0.0036138599 -0.06330729 0.043594986 0.1038991 0.16374528 0.008929116 0.111044034
0.086525865 0.063372366 0.0776612 -0.09976695 0.05925646 0.08216682 -0.041166257 -0.09632795
0.12963457 0.0070031662 0.12708206 -0.123748444 -0.05204571 0.0738331 -0.2092637 -0.0805668
-0.075825356 0.10714537 -0.16775173 -0.16018575 -0.062986456 -0.13639767 0.06608996 0.03191627
-0.24438222 0.30822673 0.16862221 0.015636932 0.12115395 0.26219046 -0.28445852 -0.07485759
0.09616072 -0.04491832 0.15872699 0.06861738 0.18570234 -0.18775125 0.20415553 0.13706045
-0.11160036 -0.11583476 0.06194565 0.11317957 0.2647877 -0.21334799 -0.08880489 0.07184395
0.09576275 -0.20386198 0.07551355 0.11842114 -0.13474147 0.024274223 -0.2301874 -0.027569419
0.084557 -0.06705122 0.07066185 -0.066912375 -0.12755792 0.06451776 -0.16011846 0.15276761
0.037558064 -0.08738358 0.13837256 -0.11655582 -0.20724915 -0.018675942 0.17650284 0.0051047085
-0.24542879 -0.035003435 -0.035666898 -0.029696146 0.06951881 -0.10408697 -0.15385675 -0.07155388
0.1205252 -0.14958315 0.017654866 -0.12029744 -0.13029532 0.06575614 0.03298754 -0.12900312
0.22909316 -0.09048153 -0.08053606 -0.013076155 0.15729263 -0.059609506 -0.021377146 0.08010537
0.06851326 -0.084669806 0.02263634 0.26504454 0.066658266 -0.0426077 -0.119233705 0.08487181
-0.285856 -0.255481 0.09035157 0.11109982 0.039888524 -0.32861447 0.11457519 -0.06313396
-0.16411953 0.015943984 -0.016430823 0.172492 0.017481752 -0.17231648 -0.16204104 -0.0006285847
0.14604956 -0.15660249 -0.05429313 -0.1825536 -0.12841684 -0.025847942 0.16078153 -0.18679777
0.1638964 -0.09765322 0.08979838 -0.022482827 -0.14105803 0.035328444 -0.09950721 0.114217594
-0.16113362 -0.008695711 0.09637702 0.15242164 -0.0011500436 -0.16066562 0.18099576 0.14403206
-0.08689771 0.16126348 0.06300205 0.047381997 -0.06347418 0.21564075 0.091823615 -0.07504197
-0.10673076 -0.15409966 0.023014493 -0.053295102 0.1015018 0.05715812 -0.14401512 0.21686435
-0.00047794843 -0.12060806 0.047519192 0.09542072 -0.10379645 -0.021431215 0.010818978 -0.21152325
0.2868052 -0.072587654 -0.15702663 0.1389837 0.06104189 0.055618826 0.061224334 0.04054832
-0.106395595 0.06051524 -0.14552085 0.19465569 -0.016313931 -0.09007228 -0.014667 -0.058181714
0.112554505 -0.17301218 0.112962544 -0.040291797 -0.08290427 -0.042048354 -0.11702639 -0.09363008
-0.16040604 0.2849113 -0.0834813 0.23404321 0.15416682 0.12346768 0.10920859 -0.21397161
0.1889016 -0.25316727 0.009392664 0.015239592 -0.15037166 -0.21049294 0.14169426 -0.0032879866
0.024336012 -0.07091709 0.17296888 0.028529104 0.11382049 -0.079799704 0.0092253275 -0.061201718
-0.16550992 0.1254246 -0.19394198 -0.03912865 0.035829704 -0.14867307 -0.063564084 0.010724073
-0.21031082 0.055696342 0.0040710005 0.020501252 0.06565947 -0.2126876 0.045053598 0.07572128
-0.15629919 -0.06165782 0.041941274 0.08882565 -0.19546644 -0.045130007 0.05988495 0.2482291
0.09568041 -0.3211275 -0.023695355 -0.08929469 0.029882452 0.08307622 -0.28231075 0.08773227

linear_relu_stack.6.bias f4 [40]
00000000: 71aa a8be c46c 493e e26d 1b3e 11b1 153e
00000010: 3044 2abe 9d8d 753e a6dd 48bd eed3 81bd
00000020: 4f81 0d3e 1661 153e b886 31bd ba2e 343e
00000030: 0a1f ea3e de62 e8bd e319 33be 053b 5cbe
00000040: 2953 12be 8cb1 39be 7e5c 833d f475 ad3e
00000050: 80b4 36be 299c 01bd 2bb3 823e abac b3bd
00000060: 68cc 723e 06a8 4cbe 39b2 81be 1c8f b9bd
00000070: 81e4 14be dbc5 95be b459 27be 5905 5ebe
00000080: 00a5 8f3d 5382 2c3e 5423 183c 1a14 83bd
00000090: 1edd 05be fb0e dd3e abae 14bd 823a 113f
-0.32942536 0.19670397 0.15178636 0.14618327 -0.16627574 0.23979802 -0.049039505 -0.063392505
0.13818859 0.14587817 -0.04334137 0.1759595 0.45726806 -0.113469824 -0.17490344 -0.21506889
-0.14289536 -0.18134135 0.06414126 0.33879054 -0.17842293 -0.031643067 0.2552732 -0.08773168
0.23710787 -0.19985971 -0.25331286 -0.09060499 -0.14540292 -0.29252514 -0.16342813 -0.21681727
0.07013893 0.1684659 0.009285767 -0.064003184 -0.13072631 0.43175492 -0.03629939 0.567299

linear_relu_stack.8.weight f4 [50, 40]
00000000: d2b5 243e f582 6ebe 848c 96be 8fe8 b13b
00000010: 9a5c 0ebe 2a1d cf3e 66d6 d43d b0e9 013e
00000020: 26bb aa3e d112 3c3e 980e ae3d b96c 9e3d
00000030: ef5d 283e 9e39 ca3d a166 44bd 81a6 96bd
00000040: 0507 8fbd b35c 8cbd fbc0 973d b09e 1bbe
00000050: 60a3 0ebd c06e c03d 72fd 79bc fcaa 87bd
00000060: e862 ed3e 48ab 0ebd dcb7 643e 6d63 0abe
00000070: c47c 3fbe 4d5b 003e 7e55 12be a52b debc
00000080: 9ebf 283e b34b 9a3e 69d0 bd3c 4a64 f1bd
00000090: 3c1b edbd 796d 2abe dda3 1bbe 1ffa c7be
000000a0: 9582 e43d 0fa4 1dbe 9298 fcbd 6741 75bd
000000b0: 7c66 143e 6a06 d03d 6453 423d 68d4 013e
000000c0: 5ba3 02be c80b dabd 9021 083c d113 4e3d
000000d0: ff8f a3bd 0a2c 0fbe 4a5e 0b3e 2295 97bd
000000e0: 7343 fdbc 4062 0abe 08f2 a5bc f868 58bd
000000f0: adb5 653d 7b2d 373c b810 75bd e6f0 843d
00000100: 7f2b 56bd 261a a33d 73b1 65bd 8629 37bd
00000110: 8e82 09be 0ee8 03be 3490 353c 1654 5dbd
00000120: a577 dd3d 356b 9b3d 03ef 17bc 2492 253e
00000130: 06f5 a53d 6230 81bd 5f23 b5bd c74f 0a3e
00000140: fdd2 62bd 6e03 bfbc 5bbd f13d 3125 b2bd
00000150: f061 04bb e8f8 1abe a081 68bd 22c4 e3bc
00000160: 89d6 453c 5a13 8f3d ec4b bc3d c834 9cbd
00000170: 72d8 d3bc eebb 01bc f0e2 053e af4c 0dbe
00000180: 2175 75bd d888 a03d 07ac 553e 4882 e53d
00000190: d4f2 643d 0fc5 9abd b775 b4bd dd7b 6b3d
000001a0: 2953 a53d af8a 5dbd 38fc 0abe 8e29 1dbe
000001b0: ea99 07be 9928 193e 45f4 903d ee0f 11be
000001c0: 6e1d b83b 27fc 5abe d3dc 0ebd 8a3e 8abd
000001d0: e009 ca3d 46d9 533d 551e cd3d b0b8 bbbd
000001e0: f4e4 94bd f48c 273e 1cd8 ee3d 9744 9a3d
000001f0: e4b8 4fbd 7390 00bd 4c95 febd 2385 f03d
00000200: 7c07 4b3d ae40 9bbd 93c8 d9bd c211 15be
00000210: c084 00be f19d fdbb 63d3 c53d 01a8 8ebc
00000220: b825 ae3c 5e1a d43c 1180 c33d aa7b eebd
00000230: 9208 61bd 3abb 063c 01e3 92bd ba5e c33d
00000240: 78b5 fa3c a256 18be c449 323d 7b8c fe3d
00000250: 3faf 783d 9b3b d03d e023 bd3d 4959 1abe
00000260: 25cb 07be 6971 ed3d fe49 f8bd 6cb7 d33d
00000270: e909 1c3e bd66 19be a0ab 533c 235e a4bd
00000280: 26d2 8fbc b652 a43e 5001 6a3e f13b 253e
00000290: 07e7 f6bd bb71 a03c 501a 073e 8c07 69be
000002a0: a3cf 04bd b4d0 e6bc 294c 563d b728 e7bd
000002b0: e6c5 ee3c a198 eebd 225d 473b 99b1 46bd
000002c0: 66d5 b0ba 4219 1e3d c06a 0ebe 1f00 b4bc
000002d0: a873 45be 879d ee3d 7bc4 f13d 2d42 083e
000002e0: 7e7d 133e 2e3e b43d 39f8 513e fbfd f7bc
000002f0: 9ea4 ed3b cefa 07be 071c 573e 3475 58be
00000300: 0e1a 83be a84d 5139 cae0 8fbd 8844 99bc
00000310: 5f65 c53d 9162 6fbd 5c42 433e 9fa1 4a3e
00000320: 8d12 ab3c 7104 03be d86a cebd ef22 483e
00000330: d0e4 e7bd c5f0 513c 9270 0fbe c3c4 dcbd
00000340: 190e dbbd 8755 873c 40a0 82bd af05 e8bd
00000350: 87c2 6a3d a6d5 3fbd afa2 dc3d 55c7 27be
00000360: dbf0 93bd 3ac0 683b 728f 85bd 1f7d 453c
00000370: 9b10 a3bd dcbb 6fbe 90c8 adbd 308a d63c
00000380: 4bfb 0fbd 9a5f 4fbd 58ee dfbd ac18 0b3e
00000390: 4735 d8bc 56eb 0bbe 6244 ab3b c59a 573e
000003a0: f744 383e 6027 943d 209e cf3d 2ff6 39be
000003b0: a87f 96bd 2931 013e f1c8 2d3c 8590 01be
000003c0: 8996 94bd b332 e6bc c8b1 3ebd f793 ff3d
000003d0: 664f 023e a2bc 803c 170e ef3c 03aa 80bd
000003e0: ccc1 2d3d 9970 8f3e c065 093e 6143 9b3d
000003f0: 0f66 28be 5672 ea3a 0484 b53c 1d2a 9f3c
0.16084984 -0.23292144 -0.2940408 0.0054293345 -0.13902512 0.40451938 0.10392456 0.12686801
0.33345908 0.18366553 0.08498877 0.07735581 0.16442083 0.09874271 -0.047949437 -0.07355977
-0.06983761 -0.068536185 0.07409855 -0.15197253 -0.034823775 0.09396124 -0.01525818 -0.066244096
0.46364522 -0.034831315 0.22335762 -0.1351449 -0.18699938 0.12534828 -0.14290425 -0.02712042
0.16479346 0.3013588 0.023170667 -0.11786707 -0.1157746 -0.16643323 -0.15199228 -0.39058015
0.11157719 -0.15394615 -0.12333788 -0.059876826 0.1449222 0.101574734 0.04744281 0.12678683
-0.12757628 -0.10646778 0.008308783 0.050311867 -0.079864495 -0.13981643 0.13610187 -0.07401492
-0.030915951 -0.13514042 -0.020257011 -0.05283448 0.056081463 0.011180277 -0.059830397 0.0649126
-0.052287575 0.07963972 -0.056077432 -0.044717334 -0.13428709 -0.1288149 0.011081744 -0.05403527
0.10813836 0.075888075 -0.009273293 0.1616903 0.08103375 -0.063080564 -0.08844637 0.13506995
-0.055376995 -0.023317065 0.11803695 -0.086985 -0.0020199977 -0.15134013 -0.056764245 -0.027803484
0.012075075 0.06986113 0.091941684 -0.07627255 -0.025860045 -0.007918341 0.13074851 -0.13798784
-0.059926156 0.07838601 0.20866404 0.1120649 0.05589564 -0.07557117 -0.08811515 0.057491172
0.08072502 -0.054087337 -0.13572776 -0.15347883 -0.13242307 0.14956893 0.07077841 -0.14166233
0.0056187427 -0.21385251 -0.034878563 -0.0675021 0.09865165 0.05172088 0.10015551 -0.09166086
-0.07270232 0.16362363 0.11662313 0.07532614 -0.050713435 -0.031387758 -0.1243082 0.11744144
0.049567685 -0.07580696 -0.106339596 -0.14557555 -0.1255064 -0.0077397753 0.096594594 -0.017414095
0.02125822 0.02589148 0.09545911 -0.11644681 -0.054939814 0.008223349 -0.07172204 0.09539552
0.03060411 -0.14876798 0.04352738 0.12429138 0.060714003 0.10167619 0.09235358 -0.15073122
-0.13261087 0.11593897 -0.12123488 0.10337719 0.15238155 -0.14980598 0.012919337 -0.08025768
-0.017556261 0.32094353 0.22852063 0.16136147 -0.12055784 0.01958548 0.13193631 -0.22756785
-0.03242458 -0.02817569 0.052318726 -0.112870626 0.0291471 -0.116502054 0.0030420502 -0.048509214
-0.0013491332 0.038598306 -0.1390791 -0.021972714 -0.192824 0.1165114 0.11805054 0.13306494
0.1440334 0.08800922 0.20504846 -0.030272475 0.00725229 -0.13279268 0.21006785 -0.2113846
-0.25605816 0.00019960722 -0.07025297 -0.018709436 0.096384756 -0.05844361 0.19068283 0.19788216
0.02088287 -0.12794663 -0.100789726 0.19544576 -0.113229394 0.012813752 -0.14007786 -0.10779717
-0.10696048 0.016520275 -0.063782215 -0.11329209 0.057314422 -0.04683461 0.10773217 -0.16384633
-0.07223674 0.0035514967 -0.06521501 0.012053757 -0.079621516 -0.23411506 -0.0848552 0.02618894
-0.03515176 -0.050628282 -0.10934132 0.1358363 -0.026392592 -0.13663992 0.0052266577 0.21055134
0.17995058 0.07234073 0.10137582 -0.18160318 -0.07348567 0.1261641 0.01060699 -0.12652786
-0.07255275 -0.028100347 -0.046556264 0.12479394 0.127256 0.015714947 0.029181523 -0.06282427
0.042421147 0.28015593 0.13417721 0.07581211 -0.16445182 0.0017886858 0.022157677 0.01942926

linear_relu_stack.8.bias f4 [50]
00000000: b919 c33e fdbd 32be e8d1 1a3e e4cd c9bc
00000010: 6ce7 86be 2152 0d3f 0fc9 063f b78d 533e
00000020: dd26 063e 78ac 42be 0584 d9bc 6d86 873e
00000030: 2afa 993e 68d2 043e e178 5b3e b40a a3bd
00000040: d331 a83e 16f3 1dbe 5a6e 1b3e 2cd9 28be
00000050: 8150 ef3d 76ec d7bd 8d78 193e 947e 52be
00000060: b5af 433c f764 883d f263 573d 054c a4be
00000070: a6f5 bcbd 4172 3f3f a18e 793e de37 4ebe
00000080: 8cce 073e e771 8c3e 16d5 a83e 4b71 32be
00000090: 9432 833e e36a 1bbe 43ba 7c3e 3336 dbbd
000000a0: 989f 493e a691 14be 0beb e33d b50f 22be
000000b0: 779e b73c 0426 be3c 73b0 6e3e 7364 083f
000000c0: 0a47 5b3e 80d8 643d
0.38105562 -0.17455287 0.15119135 -0.02463431 -0.26348436 0.55203444 0.5265054 0.20659529
0.13100763 -0.19011104 -0.02655221 0.26469746 0.30073673 0.12970889 0.2143283 -0.07961026
0.32850513 -0.15424761 0.15178815 -0.16489094 0.11685277 -0.10543148 0.14987393 -0.20556098
0.011943747 0.066598825 0.05258555 -0.32089248 -0.09226541 0.7478371 0.24370815 -0.20138499
0.13262385 0.2743065 0.32975072 -0.1742603 0.25624526 -0.15177493 0.24680428 -0.10703697
0.19689786 -0.14508685 0.11128815 -0.15826304 0.02241443 0.023211487 0.23309498 0.53278273
0.21413818 0.055870533

linear_relu_stack.10.weight f4 [102, 50]
00000000: e04a 56bd 3f3e cabd 19e1 15bd 938a cd3c
00000010: eacf 383e 7b46 5f3d eee0 9dbb 003b 42bd
00000020: 8427 5fbd 11d4 e6bd 7556 d0bc 8473 2bbc
00000030: cd53 883c 9100 e6bd 2753 07bc dd3c 20bd
00000040: 61a0 92bc f2e5 4bbd a6d2 823d eeff 593d
00000050: 5d05 013d 2bd1 00be 0209 3c3d 5776 febc
00000060: 9b8f c1bd 7cd1 08bd 01e3 98bd 9411 9ebd
00000070: 6a04 863b 224c a33d cf37 883d 516f 9fbc
00000080: 772b 0a3d 1ae0 38bd 7dff dcbd 2ade b13d
00000090: 7ec7 f3bd 06ef e83c 2efd f8bc 3c5e c5bc
000000a0: ad6e ea3d 12bb c6bd 46b6 bfbd f725 053e
000000b0: 5218 823d 064c 89bd b90b 923d 7e88 5d3d
000000c0: 2b0b bf3c e6c7 48be 4f5c 8bbd 5dcb b5bd
000000d0: 6a53 efbc 7218 ec3d b7e6 05bc 1022 1e3d
000000e0: 6a70 8ebd f7fb db3d ce93 263d fa8d 22bd
000000f0: e566 493d 3795 4dbd 1350 aa3c 62ef 9c3c
00000100: 93f6 bfbc b1cb 85bd f5d5 96bd 3679 32bd
00000110: 4ff4 1cbd 9ed8 d0bb 3f17 423d ae64 dfbc
00000120: e773 eabc b0fd 853d f689 fcbd 9a6b 883d
00000130: 2f01 1d3d 380c bb3d b4f1 afbc c1e9 bebd
00000140: ecc1 a03b 7213 10be 1118 bebd 6d57 563d
00000150: 776e d1bc 440c e4bc 207f 8b3d a493 043e
00000160: 968f 0a3a d4b8 903d c60f c73c 6b02 ffbd
00000170: d086 d5bd 1f1e 9cbd d31c 1e3c 16bc a9bd
00000180: 7beb 943c 650f 29bb acab 173d d57a 573c
00000190: 0535 a4bd aa61 08be 53bd a03d 65b1 05be
000001a0: c88d 623d f59f 153d ec07 11be 353e e3bd
000001b0: 149d 9a3c 1d74 5f3d e0d1 34bc f85e 8cbd
000001c0: 675c 9dbe 601f 7bbc b16c febd 43e8 263d
000001d0: e45c 303e 13dc afbc 5e81 013e 302c 03be
000001e0: 9806 1fbe b3af d43c d53b abbd 4ad6 20bb
000001f0: a183 cdbd bb52 7b3d 6f84 f9bd 16a6 d93b
00000200: 55d0 473d 29ae 35be 044e a9bd 6318 d03d
00000210: b99c 65be 7d8d 11bd 5f41 91bd d69f 93bd
00000220: 97f3 13be b46b c93d 3bac 453e 914f a7bd
00000230: 252e b2bc e809 bc3d c168 46bd 9704 5a3d
00000240: d209 febd fc53 a6bd 53e9 3ebd a290 68be
00000250: c164 1cbe 9061 ecbd a86f 76bc f9cd 933d
00000260: 0c98 9c3d 940c a23d 353a c43d 1adc 273c
00000270: 174f 53bd 2e70 b43d f334 f4bc 1f1a 933d
00000280: 5a0b cdbc 9917 6f3d eb44 24bd 4275 39bd
00000290: dd45 64bd bf53 97bc 8c1e 123d ea28 553d
000002a0: abe4 65bc 404a dbbd 471d cb3c 2ba4 e43d
000002b0: c833 043e 8c87 3fbd 589b 63bc a55e 6d3d
000002c0: d206 27bd 2253 27bd 7c7e ecbc 2586 093e
000002d0: 2c79 c33c b940 db3c b60f 84bd e898 78bd
000002e0: eae3 cabd 57a5 7d3c 879f ecbc 6008 0ebe
000002f0: c426 233c 5a11 0bbe 4ae9 433d a437 f13d
00000300: a93e ad3d 518a 7abd 8b50 123e 0a3a 703c
00000310: 0505 0fbc 708c b5bc ff2a 803d 9a89 bfbd
00000320: e63b 81bc 3d92 d93d 73bb a63d 107f b73d
00000330: 26a9 b4bc 3905 f7bc 5a82 c4bc a2b5 573c
00000340: 8599 82bc 6532 cdbd 99c8 8f3d 444b 50bd
00000350: 3643 963c 767a bbbc 1b66 8ebc 24c5 46bc
00000360: bf72 70bd de73 0ebe d572 b6bc 5c9e 173b
00000370: e06f b83d 2923 e43d f34b 5dbd 2e24 f23c
00000380: 9153 5a3d 5e38 b03c f2b6 173d d433 8a3c
00000390: bcba 9a3d 375f 243d 7244 7d3d 6919 00be
000003a0: 8431 1dbe 905e 9f3d 861a 38bc 897f 6ebc
000003b0: bc96 1e3d 1c37 aebc 3ed6 4c3d 78e7 d43c
000003c0: 2c31 afbc 3e20 a53c c22a 6c3d 3b29 873d
000003d0: 3c0c 13bd e17e 38bd 5c5c 7abb 5249 28be
000003e0: 2577 cfbb abb8 d93d 6a95 39bc 4bf5 40bc
000003f0: 00ab 863d 910c adbc 5636 2a39 5fc6 5fbd
-0.0523175 -0.09875154 -0.036591623 0.025090491 0.18048063 0.054510575 -0.0048180735 -0.047419548
-0.054481044 -0.11270917 -0.02543185 -0.010464553 0.016641522 -0.11230577 -0.008259571 -0.039120544
-0.01789874 -0.04977984 0.06387834 0.05322259 0.031499255 -0.12579791 0.045907028 -0.031062288
-0.09451219 -0.033402905 -0.074651726 -0.077181965 0.0040898817 0.079735056 0.0665127 -0.01946226
0.033732858 -0.045135595 -0.10790918 0.086849526 -0.119032845 0.028434288 -0.030394163 -0.024092786
0.11446891 -0.097036496 -0.09360938 0.13002764 0.06352295 -0.067039534 0.07131142 0.054085247
0.023320755 -0.19607505 -0.06804716 -0.08876679 -0.02921458 0.115281 -0.0081726825 0.038606703
-0.06955035 0.10741418 0.0406683 -0.03968618 0.049170393 -0.05019113 0.020790135 0.019157115
-0.023433005 -0.06532992 -0.07365028 -0.043572627 -0.03831893 -0.006373479 0.04738545 -0.027269688
-0.02861972 0.06542528 -0.123310015 0.06661148 0.038331207 0.0913319 -0.021477558 -0.09321929
0.00490593 -0.14069918 -0.09281934 0.05232947 -0.025565369 -0.02783788 0.068113565 0.12946945
0.0005285678 0.07066503 0.024299514 -0.12451633 -0.10426104 -0.07622933 0.009650427 -0.08287828
0.018178692 -0.002579653 0.037028953 0.013151844 -0.08017925 -0.13318506 0.07848611 -0.13055952
0.055310994 0.0365295 -0.14163178 -0.110958494 0.018873729 0.054554094 -0.011036366 -0.06854051
-0.3073456 -0.015327305 -0.12423075 0.040748846 0.17222935 -0.021467244 0.12647006 -0.12809825
-0.15529859 0.025962686 -0.083610214 -0.0024541789 -0.10034872 0.061358195 -0.12183463 0.0066421134
0.048782665 -0.17742218 -0.082668334 0.101609014 -0.22423066 -0.035535324 -0.07092547 -0.07208221
-0.14448391 0.09834996 0.19303982 -0.08169473 -0.021750519 0.09181577 -0.048439745 0.053227033
-0.12404217 -0.081214875 -0.046609234 -0.22711423 -0.1527281 -0.11542046 -0.015041269 0.072170205
0.07646188 0.07912555 0.095814146 0.010245347 -0.051589098 0.08810459 -0.029810404 0.071827166
-0.025029827 0.058372114 -0.040104788 -0.04527784 -0.05573069 -0.01847255 0.035673663 0.05204097
-0.0140315695 -0.107075214 0.024794234 0.11164125 0.12910378 -0.046760127 -0.013892017 0.05795159
-0.04077799 -0.040850766 -0.028868906 0.13430078 0.02386149 0.02676426 -0.06448309 -0.060692698
-0.099067524 0.015481315 -0.028884662 -0.13870382 0.009957973 -0.13580838 0.047829904 0.11778191
0.08459217 -0.061167065 0.14288537 0.014662275 -0.008729224 -0.022161692 0.06258201 -0.09352417
-0.015775632 0.10623596 0.08141222 0.08959782 -0.022053313 -0.030153858 -0.023987938 0.013165863
-0.015942344 -0.100193776 0.07020683 -0.05085303 0.018342596 -0.022885542 -0.017382672 -0.012131963
-0.05870318 -0.13911387 -0.022271553 0.002313516 0.090057135 0.11139519 -0.05402751 0.029558267
0.05330235 0.021511253 0.037039705 0.016870417 0.07555148 0.040129866 0.061832853 -0.12509693
-0.1535092 0.07781708 -0.011236792 -0.014556774 0.03871797 -0.021266513 0.050009005 0.02598928
-0.021385752 0.020156976 0.057657965 0.06599661 -0.03590034 -0.045042876 -0.0038202023 -0.1643422
-0.006331342 0.10630926 -0.011327127 -0.011777232 0.065755844 -0.021124156 0.00016232705 -0.05463254

linear_relu_stack.10.bias f4 [102]
00000000: 5091 5fbd 482a 69be 5622 1bbf d8ee e9bd
00000010: a5b7 e2bd aadc fdbe 81a0 8dbd c97f 2dbc
00000020: 846b 0cbf ee67 15be c3a2 213e 26d6 e6be
00000030: c4b4 b2bd 8fdd 4b3e eafb d1be 01cc 43bd
00000040: 4543 843e 5491 c7be 3310 4abc 38c3 01bd
00000050: b001 14bf 4d8c 7a3d 8328 98be 0007 10bf
00000060: 8a9b ce3d 184f afbe 4053 08bf 6c2e 6d3d
00000070: 8566 b8be 91b7 12bf 7f5a c5bc 684a debe
00000080: f275 09bf 4a5d c3bd 306c 5f3e da68 cbbe
00000090: 65f3 97be 0f71 3f3e dd3b 01bf 6eaa 89be
000000a0: e0f6 073d d558 00bf 1fce 9dbe 4da9 4abe
000000b0: 4816 f4be 95cb a1be 099c b3be ac5d f3be
000000c0: c8ab b8be 699b a5be fcea e7be 2940 acbe
000000d0: 1910 60be 1803 c5be e46b 673d 1555 79be
000000e0: b6d4 16bf 44c3 b13c f221 10bf 6722 14bf
000000f0: 3573 89bd 74a3 1dbf 037a 31bf d217 36bd
00000100: b87e 2fbf 9353 05bf 40c5 41be c7b4 42be
00000110: da8e 2abf 5c4e febd e28c fdbe aa61 94be
00000120: 1544 2dbd 28e6 1bbf 25ab 94be 6894 3ebd
00000130: 773a 13bf 1a91 97be 9607 32be 1297 4b3e
00000140: d251 abbe caae 3cbe 2469 aa3e c0c3 ccbe
00000150: 912f 20be fc2f cf3e 9dcf 8bbe 9fe3 6cbd
00000160: 78ca 9b3e d4ae afbe 94c9 60be efda 923e
00000170: 300a cbbe 1e1a abbd ba2e af3e 9a0f c3be
00000180: c2a7 593d eded 2abf 8b4f 12bf 2092 0c3b
00000190: 32b6 1cbf 649a cabe
-0.05458194 -0.22770035 -0.6059927 -0.11422509 -0.11070184 -0.49582416 -0.06915379 -0.010589548
-0.54851556 -0.14590427 0.15784745 -0.45085257 -0.087258846 0.19908737 -0.41012508 -0.047801975
0.25832573 -0.38978064 -0.012332964 -0.031680316 -0.57815075 0.061168958 -0.29718408 -0.5626068
0.100882605 -0.3424003 -0.5325203 0.0579056 -0.36015716 -0.5731135 -0.024091003 -0.43416142
-0.53695595 -0.09539278 0.21818614 -0.39728433 -0.29677883 0.18695472 -0.5048197 -0.2688784
0.033194423 -0.50135547 -0.3082132 -0.19791146 -0.4767325 -0.31600633 -0.35079983 -0.47532403
-0.3606856 -0.3234513 -0.45296466 -0.336427 -0.21881141 -0.38478923 0.056499377 -0.24348862
-0.5891832 0.021699555 -0.56301796 -0.57864994 -0.06711427 -0.61577535 -0.693268 -0.04445631
-0.6855273 -0.5208065 -0.18922901 -0.19014274 -0.66624224 -0.124172896 -0.49521548 -0.28980762
-0.042301256 -0.60898066 -0.29036823 -0.04652825 -0.57511085 -0.2960289 -0.17385706 0.19881848
-0.3346086 -0.18426052 0.3328334 -0.39993095 -0.15643145 0.40466297 -0.27306834 -0.057834264
0.3042791 -0.3431307 -0.21951896 0.28682658 -0.3965621 -0.08354591 0.34215337 -0.3809784
0.053138502 -0.66769296 -0.5715262 0.0021449402 -0.6121551 -0.39570916
