baselines/P&C_simplified/Weights/nonNormalisedTraining/w_p2_0550.pth (torch, 83222 bytes, 16 tensors)

linear_relu_stack.0.weight f4 [50, 102]
0	0x3c372a29	0.011179485
1	0x3a4d3b32	0.000782895
2	0x3ca22ff4	0.019798256
3	0xbd74389f	-0.05962431
4	0x3c2cea3b	0.010553892
5	0xbd392509	-0.045201335
6	0x3c104236	0.008804848
7	0xbd3869fb	-0.045022946
8	0xbda2d936	-0.07951586
9	0xbbf7d7bc	-0.0075635593
10	0x3dd2cac4	0.10292581
11	0xbde1ebf0	-0.1103133
12	0xbd46d3cd	-0.048541833
13	0xbd8483bf	-0.06470441
14	0xbd0e9a7e	-0.034815304
15	0xbd9c619c	-0.07635805
16	0x3d6b5795	0.05745657
17	0xbdc20704	-0.094739944
18	0xbe2315bf	-0.15926264
19	0xbd1befd2	-0.038070507
20	0xbcf37df4	-0.029723145
21	0xbe651003	-0.22369389
22	0x3e0749e0	0.13211775
23	0xbe1ebf56	-0.15502676
24	0xbd802f7c	-0.06259057
25	0x3b46ba1d	0.0030323335
26	0xbe2ce16f	-0.16882871
27	0xbdf9eed8	-0.12203759
28	0x3e1376be	0.14400765
29	0xbca2dfa0	-0.019882023
30	0xbd0c5503	-0.03426076
31	0x3d5bedc3	0.053693544
32	0xbdf7673e	-0.12080239
33	0xbc2a01c0	-0.010376394
34	0x3d473afc	0.048640236
35	0x3b72d557	0.003705343
36	0xbc4bab05	-0.012430911
37	0xbcbe3d2f	-0.023222534
38	0xbc1e0107	-0.0096438
39	0xbcc8c2dd	-0.02450698
40	0x3cb5ff22	0.022216383
41	0x3c4014f5	0.011723747
42	0xbc2bc233	-0.010483312
43	0xbc9ca341	-0.019120814
44	0x3e104f20	0.14092684
45	0x3d99a847	0.075027995
46	0xbde67f23	-0.11254718
47	0x3e3395ae	0.17537567
48	0x3dec4692	0.11536898
49	0xbd116d22	-0.035504468
50	0x3e152478	0.14564693
51	0xbcaa191b	-0.020763924
52	0xbde650fa	-0.11245914
53	0x3e04db55	0.12974294
54	0xbdbd2413	-0.09235396
55	0x3c7aee1e	0.015315561
56	0x3d2b9080	0.041885853
57	0xbd6a4662	-0.05719603
58	0x3d825560	0.0636394
59	0xbdd7f9a4	-0.10545662
60	0xbda5ca38	-0.08095211
61	0xbd771a52	-0.060327835
62	0xbda2c0a2	-0.07946898
63	0xbdd2ef4a	-0.10299547
64	0x3d4d3bfa	0.050106026
65	0xbc9befe5	-0.019035289
66	0xbdcebdbf	-0.10094785
67	0xbd28ccf1	-0.041211072
68	0xbdcc20ce	-0.099671945
69	0x3c590133	0.013244915
70	0x3d7e94c7	0.062153604
71	0x3c347cef	0.011016115
72	0xbd959a89	-0.07304866
73	0xbb718f9d	-0.0036859282
74	0x3d6c1a9a	0.057642557
75	0xbcba46f8	-0.022738919
76	0xbd554be6	-0.052074336
77	0xbd91c38a	-0.07117374
78	0xbdc717fd	-0.09721372
79	0x3dbfeb01	0.09370995
80	0xbcfc762c	-0.030818067
81	0xbd11dcf7	-0.03561112
82	0xbaa4162b	-0.0012518814
83	0xbd23e251	-0.040010754
84	0xbda31908	-0.07963759
85	0x3cd69263	0.02619285
86	0xbde0e1e3	-0.109805845
87	0xbe2c20a3	-0.16809325
88	0x3d1b1611	0.03786284
89	0xbd3852b7	-0.045000758
90	0xbdec3349	-0.11533219
91	0xbba90c0e	-0.0051589077
92	0xbc21101d	-0.009830502
93	0xbdde72cd	-0.1086174
94	0xbc83568e	-0.016032483
95	0x3d169a5d	0.036768306
96	0xbe029ef8	-0.12755954
97	0x3d6347c8	0.055488378
98	0xbd459677	-0.048239198
99	0xbc3bfdb7	-0.011474065
100	0xbd0ecccc	-0.03486328
101	0x3b3016d3	0.0026869073
102	0xbdbef3f9	-0.09323878
103	0xbd96fd51	-0.07372535
104	0xbd0403ae	-0.03223007
105	0xbe0852d7	-0.13312851
106	0xbca02ae6	-0.019551706
107	0xbde5e76e	-0.11225782
108	0xbd2d467f	-0.04230356
109	0x3ba6ac3f	0.0050864513
110	0xba6d0610	-0.0009041736
111	0xbbf8224a	-0.007572447
112	0x3d361c9e	0.044460885
113	0xbdb1f1f1	-0.08688725
114	0xbd990db2	-0.07473315
115	0xbd140217	-0.036134806
116	0x3b478ea9	0.0030450022
117	0xbd7298c7	-0.05922773
118	0x3d691461	0.0569042
119	0xbd475da1	-0.048673276
120	0xbda90a8f	-0.08253967
121	0xbd7bef2d	-0.061507393
122	0xbdadfff5	-0.084960856
123	0xbdfb49b0	-0.12269914
124	0xbb333bff	-0.0027348993
125	0xbd382487	-0.04495671
126	0xbd13ad3f	-0.036053892
127	0x3e0785a3	0.13234572
128	0x3d9e3dd3	0.07726636
129	0xbce761f8	-0.028244957
130	0xbbed4c8c	-0.007241791
131	0xbd5268ab	-0.05136935
132	0xbe02833f	-0.12745379
133	0x3dcee3db	0.10102054
134	0x3d7ca8ad	0.0616843
135	0x3cd8d424	0.026468344
136	0xbd09a790	-0.033607066
137	0xbd9a0c41	-0.075218685
138	0xbd4144d4	-0.04718478
139	0x3d4c0cc3	0.049816858
140	0xbd2ae0f9	-0.041718457
141	0xbda650d9	-0.08120889
142	0xbcbdd29c	-0.023171715
143	0xbd1ff60b	-0.039053004
144	0xbe0c1901	-0.13681413
145	0x3d57a7c5	0.052650232
146	0x3d9c64c9	0.07636411
147	0xbe062a04	-0.13101965
148	0xbd9a1d3f	-0.075251095
149	0xbd623639	-0.055227492
150	0xbd2cb5cc	-0.042165563
151	0x3d9a3ff6	0.07531731
152	0x3d41439e	0.047183625
153	0x3c7d30e2	0.015453549
154	0x3dda8e8e	0.106717214
155	0xbd4cbabc	-0.04998277
156	0xbde04f61	-0.1095264
157	0x3d893459	0.06699438
158	0x3c7e9e29	0.015540638
159	0xbe0598af	-0.13046525
160	0xbd6293eb	-0.055316847
161	0x3d8cf396	0.06882398
162	0x3d20a43f	0.039219137
163	0xbd3e18ab	-0.046410244
164	0x3d2eabfe	0.042644493
165	0x3c71820a	0.014740476
166	0x3cdce7f2	0.026966069
167	0x3d6e0850	0.058113396
168	0xbda73f6c	-0.08166394
169	0x3d2ba2a6	0.04190316
170	0x3d176be7	0.036968138
171	0xbc058b0d	-0.008150828
172	0xbd826a05	-0.06367878
173	0xbdccca66	-0.09999542
174	0xbce40ccd	-0.027838135
175	0x3da3e1ef	0.08002078
176	0xbd6e4e75	-0.05818029
177	0x3d3528c5	0.044228334
178	0xbd436c64	-0.04771079
179	0x3aeed70b	0.0018222047
180	0xbcf23c17	-0.029569669
181	0xbc2dd299	-0.010609292
182	0x3b83f960	0.0040275306
183	0xbdfbe636	-0.122997686
184	0xbb84c213	-0.0040514558
185	0xbd076152	-0.033051796
186	0xbe253d2b	-0.16136615
187	0x3dbc9df7	0.09209817
188	0xbaa10a21	-0.0012286344
189	0xbd6f0bfe	-0.058361046
190	0xbd903f36	-0.070433065
191	0xbd5f3a25	-0.05449881
192	0xbe21bf19	-0.15795554
193	0x3db38a77	0.087666444
194	0xbc5ac070	-0.013351545
195	0xbdef59a8	-0.116870224
196	0x3d663753	0.056205105
197	0xbcda0f64	-0.026618667
198	0xbd70d841	-0.058799986
199	0xbbbbcb5d	-0.00573103
200	0xbd0ab03e	-0.033859484
201	0xbd4393a1	-0.04774821
202	0xbd5b734b	-0.05357675
203	0x3d0d3e2c	0.03448312
204	0x3c885654	0.016642727
205	0xbdb62bba	-0.08895059
206	0xbded4d87	-0.11587053
207	0x3b5f6cc7	0.0034091936
208	0xbcee5d81	-0.02909732
209	0xbdbe7dbf	-0.09301328
210	0xbcc7902a	-0.024360735
211	0x3d86ca64	0.06581572
212	0xbd50df86	-0.05099442
213	0xbdd9ee47	-0.10641151
214	0x3bd98562	0.006638215
215	0x3cf6f28d	0.030144954
216	0xbe44a2cb	-0.19202726
217	0x3d915907	0.07097059
218	0xbde991ff	-0.114048
219	0xbd8fb2c7	-0.07016521
220	0x3d8b6219	0.0680582
221	0x3d8275a0	0.063700914
222	0xbe781652	-0.24227265
223	0xbd8e781d	-0.069565035
224	0x3d923c4c	0.07140407
225	0xbe3a0e30	-0.18169475
226	0x3de8b5a2	0.11362769
227	0xbe024c30	-0.12724376
228	0xbe833e32	-0.2563339
229	0x3dd3b4b6	0.10337202
230	0xbd63a557	-0.055577602
231	0xbe88dcd8	-0.2673099
232	0x3d971c0a	0.07378395
233	0x3aababce	0.0013097466
234	0xbe6a19a6	-0.22861347
235	0x3d8ca844	0.068680316
236	0xbd858690	-0.065198064
237	0xbe07ba53	-0.13254671
238	0x3d95eb9a	0.07320328
239	0x3d04b376	0.03239771
240	0xbd34eec0	-0.044173002
241	0xbdc3f1d1	-0.09567607
242	0xbdf350ab	-0.118806206
243	0xbd0cf786	-0.034415744
244	0x3d8f81b5	0.070071615
245	0xbd92a32c	-0.07160029
246	0x3d146f51	0.036238972
247	0x3db7f643	0.089825176
248	0x3e122e7e	0.14275548
249	0xbda91521	-0.08255983
250	0xbd9a53fc	-0.0753555
251	0xbc2d9fe9	-0.010597208
252	0xbcb47dca	-0.022032637
253	0xbd921c95	-0.07134358
254	0x3d921542	0.07132961
255	0xbc144542	-0.0090497155

linear_relu_stack.0.bias f4 [50]
0	0x3d87f6f1	0.06638897
1	0xbaeeb0a0	-0.0018210597
2	0x3dda4387	0.10657411
3	0x3dc5f103	0.0966511
4	0xbda2e31c	-0.07953474
5	0xbc6b6d58	-0.014369331
6	0x3d279e5e	0.040922515
7	0xbcc79f0e	-0.024367835
8	0x3d9ee107	0.07757764
9	0x3d4c4ac1	0.04987598
10	0xbdb0ea35	-0.086384214
11	0xbd278a4e	-0.040903382
12	0x3da9cbee	0.082908496
13	0x3cd7c758	0.026340172
14	0x3d98bffb	0.07458492
15	0x3d125aaf	0.035731014
16	0x3cf80aa4	0.030278511
17	0xbd2ed609	-0.04268459
18	0x3db74ffe	0.08950804
19	0x3d6a1f6c	0.057158872
20	0xbcbb351d	-0.022852475
21	0xbd886bc6	-0.06661181
22	0x3da65ba8	0.08122951
23	0xbd9a75f1	-0.07542027
24	0xbd812099	-0.06305046
25	0x3da466d1	0.08027423
26	0x3dc3538d	0.095374204
27	0x3cab8e28	0.020941809
28	0xbd0e6a26	-0.0347692
29	0x3da8913d	0.08230827
30	0xbd650c89	-0.055920158
31	0xbd1a18b5	-0.03762122
32	0x3cf865c3	0.030321961
33	0x3d2c3560	0.04204309
34	0xbd91ad92	-0.07113184
35	0x3c5c4160	0.013443321
36	0xbdc31fc6	-0.09527545
37	0x3d2750a6	0.040848397
38	0xbd1e2a11	-0.038614336
39	0x3c77af89	0.015117534
40	0xbd5ea6de	-0.054358356
41	0xbd72d0d2	-0.059281178
42	0xbda37fc1	-0.079833515
43	0x3c17d05c	0.009265985
44	0x3d3a1d7a	0.045438267
45	0xbc8214a6	-0.015878987
46	0xbd14dc2a	-0.036342777
47	0xbdc6ef34	-0.09713593
48	0xbd9fc033	-0.07800331
49	0x3d8ebf8f	0.06970131

linear_relu_stack.2.weight f4 [40, 50]
0	0xbdd09fae	-0.101867065
1	0x3e1fe522	0.15614751
2	0xbd15dc6f	-0.036587175
3	0xbe3828ce	-0.17984316
4	0xbdf82138	-0.12115711
5	0xbe00b148	-0.12567627
6	0xbde8a368	-0.11359292
7	0xbd4f4300	-0.050601006
8	0xbd4757b5	-0.04866763
9	0xbccd4175	-0.025055626
10	0xbd118983	-0.035531532
11	0xbe171444	-0.14753824
12	0xbb25023f	-0.002517834
13	0x3d5e0974	0.054208234
14	0xbdc75874	-0.09733668
15	0xbdeee560	-0.116648436
16	0xbc85ddf0	-0.01634118
17	0xbdcca244	-0.09991887
18	0xbe22c950	-0.15897107
19	0x3e026e2c	0.1273734
20	0x3d29e030	0.041473567
21	0x3c828c34	0.015935995
22	0x3cfcacfe	0.030844208
23	0xbd54d550	-0.051961243
24	0xbd864025	-0.06555203
25	0x3ddbf208	0.10739523
26	0x3d5c13b8	0.053729743
27	0x3e328673	0.17434101
28	0xbe10bd4a	-0.14134708
29	0x3dcaecb8	0.09908432
30	0xbd5d1a46	-0.053980134
31	0x3ab28e44	0.0013622721
32	0xbe01991a	-0.1265606
33	0x3dd4d42e	0.103920326
34	0x3ce83158	0.028343841
35	0x3d0bcc20	0.034130216
36	0x3d4df10c	0.05027871
37	0xbc860418	-0.016359374
38	0x3db5f682	0.08884908
39	0xbd48f1f2	-0.049058862
40	0xbe00caaa	-0.1257731
41	0x3ca836d8	0.020533964
42	0xbd6dd5be	-0.05806517
43	0x3e240e4c	0.16021079
44	0xbd45279a	-0.04813347
45	0xbe0cbfda	-0.1374506
46	0xbcdc1b40	-0.026868463
47	0xbd37d6ee	-0.044882707
48	0xbe063f68	-0.13110125
49	0x3dcd8768	0.10035592
50	0xbe015ead	-0.12633772
51	0xbdab2529	-0.08356697
52	0xbcedd186	-0.029030573
53	0xbddc33fa	-0.10752101
54	0x3d43f82e	0.047844104
55	0xbdb2db74	-0.087332636
56	0xbe0e8538	-0.13918006
57	0xbcc4a3c0	-0.024003863
58	0xbd27104f	-0.040787037
59	0x3ceead55	0.029135386
60	0x3cfa127c	0.030526392
61	0xbc42287e	-0.011850474
62	0x3cfa1591	0.030527862
63	0x3e067c59	0.13133372
64	0x3d9b11d4	0.0757176
65	0xbd92f136	-0.071749136
66	0x3c8d4e98	0.01724939
67	0xbd8b7491	-0.06809343
68	0x3cd351fa	0.025795925
69	0xbe0e786a	-0.13913122
70	0x3ba46020	0.005016342
71	0xbd9664f3	-0.07343473
72	0x3e00c78e	0.12576124
73	0xbd3baef5	-0.04582115
74	0x3bb0760e	0.005385167
75	0x3dc29d76	0.095026895
76	0x3bf339e0	0.0074226707
77	0x3bdc7496	0.0067277653
78	0xbdf1ddda	-0.11809893
79	0x3b9c7900	0.0047751665
80	0x3df24d72	0.11831178
81	0x3cb5f6f7	0.022212489
82	0x3d020c58	0.031750053
83	0xbd5be568	-0.053685576
84	0xbd085738	-0.033286303
85	0x3e05abbf	0.13053797
86	0xbcdf0250	-0.027222782
87	0xbd84d2c5	-0.064855136
88	0x3d4e0ec4	0.05030705
89	0x3cd5fc73	0.026121354
90	0x3cd310f8	0.025764927
91	0xbc4e75b4	-0.012601305
92	0x3d9274c0	0.071511745
93	0x3c1e905f	0.009677975
94	0x3e084d49	0.13310732
95	0x3df37676	0.11887829
96	0x3dad4ce8	0.08461934
97	0xbdf28d40	-0.118433475
98	0xbe02285a	-0.12710705
99	0xbe04a2a0	-0.12952662
100	0xbdbd42a3	-0.092412256
101	0x3e0f04d4	0.13966686
102	0x3e04b6bf	0.12960337
103	0x3e6cb56e	0.23116085
104	0xbd1cafe0	-0.038253665
105	0x3daf903c	0.085724324
106	0x3e3f2e73	0.18670063
107	0x3dfb5fe3	0.12274148
108	0x3da84489	0.08216197
109	0xbdcbc4c7	-0.09949642
110	0xbca20d07	-0.019781603
111	0x3e2a9f26	0.16662273
112	0x3e084ea4	0.13311249
113	0x3c4f8461	0.012665839
114	0x3c339a2e	0.010962052
115	0x3e086f18	0.13323629
116	0x3e00f381	0.1259289
117	0x3ce9cc20	0.028539717
118	0x3e2b1004	0.16705328
119	0x3e4aa01d	0.19787641
120	0x3d44a657	0.048010197
121	0xbd450b8e	-0.048106723
122	0xbdf97a51	-0.12181533
123	0x3e0a709e	0.13519523
124	0x3e0be7ab	0.13662593
125	0x3ce8380d	0.02834704
126	0x3d64f77a	0.055900075
127	0xbdcddc8a	-0.1005183
128	0x3da99984	0.08281234
129	0x3daed178	0.08536047
130	0xbdb70fd5	-0.089385666
131	0xbd5ac871	-0.053413812
132	0x3e074ca7	0.13212834
133	0xbdcb5a02	-0.09929277
134	0xbdfcf250	-0.12350905
135	0xbde929f4	-0.11384955
136	0xbddf492e	-0.1090263
137	0x3d24d2f8	0.040240258
138	0xbd4cfb48	-0.050044328
139	0xbe1bc1c4	-0.15210634
140	0x3dd4e077	0.10394376
141	0x3db96941	0.09053279
142	0x3d400a01	0.04688454
143	0xbdf345d6	-0.118785545
144	0xbd912bb4	-0.07088414
145	0x3c0c653c	0.008569058
146	0xbdf2f43e	-0.11862992
147	0xbdbb3ccc	-0.091424555
148	0xbdb7625a	-0.08954306
149	0x3ddd3ace	0.10802232
150	0x3ca753ed	0.020425761
151	0x3c4fed91	0.012690918
152	0x3cb8a810	0.022541076
153	0x3d12df59	0.035857532
154	0x3e2a6737	0.16640936
155	0x3ddbb05a	0.10726996
156	0xbadbb523	-0.0016762357
157	0xbdb23028	-0.08700591
158	0xbdd9299a	-0.10603638
159	0x3e218219	0.15772285
160	0x3e20a4d4	0.15687877
161	0xbc7b14a4	-0.015324745
162	0x3e2aa7ea	0.16665617
163	0x3e050de9	0.12993588
164	0x3cdfa351	0.027299555
165	0xbb8f61c7	-0.0043756696
166	0xbc0f53b0	-0.00874798
167	0x3e0e8705	0.13918693
168	0xbd331119	-0.043717477
169	0xbca1dd21	-0.019758763
170	0xbda6eb40	-0.08150339
171	0xbdd5bcfe	-0.10436438
172	0xbc2166e2	-0.009851189
173	0x3d85a4a4	0.06525543
174	0x3c82cf4b	0.015967986
175	0xbdae1322	-0.08499743
176	0x3df1a832	0.11799659
177	0x3df96f70	0.12179458
178	0xbe070806	-0.13186654
179	0xbd6d2b04	-0.05790235
180	0xbdf58f70	-0.11990249
181	0x3dab798f	0.08372795
182	0xbc947759	-0.018123316
183	0x3cd77d67	0.026304914
184	0x3d88ecec	0.06685814
185	0xbc5b94f0	-0.013402209
186	0xbe06394f	-0.13107799
187	0x3c883c98	0.016630456
188	0xbdaeb93c	-0.085314244
189	0xbced95a3	-0.029002016
190	0xbd87fc71	-0.06639946
191	0x3e0a46bf	0.1350355
192	0x3d9337e2	0.07188393
193	0xbc70fc2b	-0.014708559
194	0xbe012915	-0.12613328
195	0xbe078dac	-0.13237637
196	0xbd5b6555	-0.053563435
197	0xbd942a5e	-0.072346434
198	0xbdd740bc	-0.10510394
199	0xbc91a34c	-0.017778061
200	0xbdf503d6	-0.11963622
201	0x3e0e2dbd	0.13884635
202	0x3e3dd912	0.18539837
203	0xbdd2a1f9	-0.102848
204	0x3dcc90b2	0.09988536
205	0xbd95f132	-0.07321395
206	0x3b0b1413	0.0021221682
207	0xbc990e08	-0.018683448
208	0x3dbbcb05	0.09169582
209	0xbdf5df15	-0.1200544
210	0xbc874e85	-0.016516933
211	0xbc2ea8bc	-0.010660347
212	0xbd422e83	-0.04740764
213	0xbda3b624	-0.07993725
214	0xbdca9636	-0.09891932
215	0xbdf9363b	-0.12168547
216	0xbd8f2eff	-0.06991386
217	0x3dc3bf48	0.095579684
218	0xbcdf2f80	-0.02724433
219	0xbd31b254	-0.043382958
220	0x3d9ca138	0.076479375
221	0xbdd99200	-0.106235504
222	0x3dd7db39	0.1053986
223	0xbdbe74a0	-0.09299588
224	0xbc46f3be	-0.012143074
225	0x3dbe279e	0.092849
226	0xbc7188c0	-0.014742076
227	0xbd485318	-0.04890737
228	0x3c8a6f40	0.016898751
229	0xbd5a5684	-0.053305164
230	0x3dce0f9a	0.100615695
231	0xbd46c044	-0.048523203
232	0xbdd26f28	-0.102751076
233	0xbe104237	-0.14087759
234	0xbdc2ae6d	-0.09505925
235	0x3de9d972	0.114184275
236	0x3dbeaa4a	0.09309824
237	0x3dc478f6	0.09593384
238	0xbdaee322	-0.08539416
239	0x3db77be2	0.08959176
240	0x3d56dd3b	0.052457076
241	0xbda1f652	-0.0790831
242	0x3e174af6	0.14774689
243	0xbd7cf0d2	-0.0617531
244	0x3dc8efda	0.09811373
245	0x3cc7e130	0.02439937
246	0xbd4a16b6	-0.049338065
247	0x3ca7b348	0.02047123
248	0x3c8e6328	0.017381266
249	0x3d5a7bac	0.0533406
250	0xbc13ad0a	-0.009013424
251	0x3d193057	0.037399616
252	0xbba60a6d	-0.005067161
253	0xbdcfb49a	-0.10141869
254	0xbd6df699	-0.058096502
255	0xbdf061cf	-0.117374055

linear_relu_stack.2.bias f4 [40]
0	0xbbce7299	-0.006300282
1	0x3cd9f406	0.026605617
2	0x3e0c9b46	0.13731107
3	0xbdd04684	-0.101697
4	0x3d9cf609	0.07664115
5	0xbdf9fd58	-0.122065246
6	0xbd3e7743	-0.046500456
7	0xbdf0b10f	-0.11752521
8	0x3d0e3b59	0.034724567
9	0xbe24d0d0	-0.1609528
10	0x3de7a6ca	0.11311109
11	0x3e09fff0	0.13476539
12	0x3c72dffe	0.014823912
13	0xbdb8964e	-0.09013043
14	0xbce207ab	-0.027591547
15	0xbd32a440	-0.043613672
16	0x3da49fbb	0.08038279
17	0x3de93c4f	0.11388456
18	0x3d1df427	0.03856292
19	0xbdf21916	-0.11821191
20	0xbd8b8343	-0.068121456
21	0xbdb62c3d	-0.088951565
22	0xbd10e56e	-0.03537505
23	0xbcbc03f4	-0.022951104
24	0xbc229c05	-0.009924893
25	0xbe144b3f	-0.14481829
26	0xbe0361bf	-0.12830256
27	0xbdc8a526	-0.097971246
28	0xbe029eb5	-0.12755854
29	0xbcee82a5	-0.02911503
30	0xbd9704ea	-0.07373984
31	0xbda1d5c5	-0.079021014
32	0xbe140619	-0.14455451
33	0x3d725f1f	0.059172746
34	0x3e076253	0.13221101
35	0xbcffeef8	-0.031241879
36	0x3e2e00cb	0.1699249
37	0xbd845d8b	-0.064631544
38	0xbd9ad1ec	-0.07559571
39	0xbd734197	-0.059388723

linear_relu_stack.4.weight f4 [35, 40]
0	0x3ddcbab7	0.107778005
1	0xbde1f3e4	-0.110328466
2	0xbaa8e4e1	-0.0012885594
3	0xbd6ee171	-0.058320466
4	0xbc9f181b	-0.019420674
5	0xbd44cfc7	-0.048049714
6	0xbd2771c0	-0.040879965
7	0x3d96cb1a	0.07362957
8	0x3c63201f	0.013862639
9	0xbe040123	-0.12891059
10	0x3dc8b4df	0.098001234
11	0xbe05cf38	-0.13067329
12	0x3d82013d	0.063478924
13	0x3df83522	0.12119509
14	0x3de3e3a3	0.11127403
15	0xbd49912d	-0.049210716
16	0x3e0e7b5d	0.13914247
17	0x3df1dc45	0.11809591
18	0xbdf67719	-0.12034435
19	0xbda153d2	-0.078773156
20	0xbbe81769	-0.007082869
21	0x3d7fa051	0.06240875
22	0x3dad6f31	0.08468474
23	0xbd243025	-0.040084977
24	0x3e19c88d	0.1501791
25	0x3d652c1b	0.055950265
26	0xbd90ab15	-0.07063881
27	0xbd532e7f	-0.051558014
28	0xbc9eed70	-0.019400328
29	0x3e1e3684	0.15450484
30	0x3ce808f2	0.028324578
31	0x3c743422	0.014905008
32	0x3dbddf02	0.09271051
33	0x3e24df7c	0.16100878
34	0xbc4d5fbc	-0.012535032
35	0xbd829fca	-0.063781336
36	0xbde74e5d	-0.112942435
37	0x3dba54fa	0.09098239
38	0xbd5b132c	-0.05348508
39	0xbe14dbd2	-0.1453698
40	0x3da79fe5	0.08184794
41	0xbdbb6e7c	-0.091519326
42	0xbca5da92	-0.020245824
43	0x3d79fd06	0.061032318
44	0xbd4ef95e	-0.050530784
45	0x3807aee7	3.23494e-05
46	0xbd7cb23f	-0.061693426
47	0x3de64156	0.112429306
48	0xbd8a86c7	-0.06763988
49	0x3cb393c7	0.021921052
50	0x3da3c5fe	0.079967484
51	0x3e1dbb6e	0.1540353
52	0xbd6e0fac	-0.058120415
53	0x3d5a30cf	0.053269204
54	0xbc456854	-0.0120488
55	0xbbf33ba4	-0.007422881
56	0x3ddc1d7f	0.107478134
57	0x3d73c751	0.059516255
58	0xbe04f73f	-0.12984942
59	0xbd0a03a3	-0.033694874
60	0xbe142e72	-0.14470842
61	0xbd9744e4	-0.07386187
62	0xbdfeb101	-0.124361046
63	0x3dd0c2fa	0.10193439
64	0xbce4dd5d	-0.027937585
65	0xbd698d98	-0.0570198
66	0xbcb33d7f	-0.02187991
67	0x3e1aa581	0.15102197
68	0xbcac09d8	-0.021000788
69	0xbdd29503	-0.10282328
70	0xbd91ffb8	-0.071288526
71	0xbde09d5b	-0.10967513
72	0xbe1214af	-0.14265703
73	0x3dbd7533	0.092508696
74	0x3dddd703	0.10832026
75	0xbdc159f6	-0.09440987
76	0x3e5729f4	0.21012098
77	0xbd0c6714	-0.03427799
78	0xbe03cb37	-0.12870489
79	0xbe0a8d79	-0.1353053
80	0x3de2344a	0.110451296
81	0x3da6d2ed	0.081457
82	0x3d3f2f9e	0.04667627
83	0x3e518039	0.2045907
84	0xbd9f46aa	-0.0777715
85	0x3ddd927e	0.10818957
86	0x3dcede06	0.10100941
87	0xbde5f989	-0.11229236
88	0xbcdd88d7	-0.02704279
89	0xbcacab48	-0.021077767
90	0x3cae1547	0.02125038
91	0x3d88584b	0.066574655
92	0x3dd6e037	0.10491984
93	0x3e082f63	0.13299327
94	0xbdccf4a6	-0.100076005
95	0xbd01a21c	-0.03164874
96	0x3e46decf	0.19420932
97	0x3d023eb8	0.031798095
98	0x3d9bc5f2	0.076061144
99	0xbd9b5e98	-0.07586402
100	0x3d82c893	0.06385913
101	0x3d83444b	0.0640951
102	0xbb19e4f7	-0.002348242
103	0x3d80b49e	0.0628445
104	0xbd94ba0b	-0.072620474
105	0x3c212c5e	0.009837238
106	0xbb647b77	-0.003486363
107	0x3e00ab78	0.1256541
108	0x3d3b3fec	0.045715258
109	0xbd929366	-0.0715702
110	0x3d4b3276	0.04960867
111	0xbd6dcbe5	-0.058055777
112	0x3dd655fc	0.10465619
113	0x3d3def01	0.04637051
114	0x3c53899f	0.012911229
115	0x3ddf1fc3	0.1089473
116	0xbd80a73b	-0.06281897
117	0x3bb48428	0.0055089183
118	0x3d730114	0.0593272
119	0xbda38a58	-0.07985371
120	0xbd84e90f	-0.06489765
121	0xbd653fdc	-0.055969104
122	0x3d28def8	0.041228265
123	0xba77b400	-0.00094491243
124	0xbd26bb7f	-0.040706154
125	0xbe2960f3	-0.1654089
126	0x3de7111b	0.112825595
127	0x3d818d8a	0.063258246
128	0x3e11cebb	0.14239018
129	0xbd2a76b5	-0.041617114
130	0xbdde50a7	-0.10855227
131	0xbd7f58d3	-0.06234057
132	0xbd59fdb3	-0.053220462
133	0xbd130a62	-0.035898574
134	0x3ca1a96a	0.019734103
135	0x3e0af436	0.13569722
136	0x3d5b397e	0.053521626
137	0x3de568bd	0.11201618
138	0xbe0e1b50	-0.13877606
139	0xbde6fa40	-0.112782
140	0xbd1ff944	-0.039056078
141	0x3d6cbd4d	0.05779772
142	0x3b998e75	0.0046861717
143	0x3e2c6fb8	0.16839492
144	0x3dcfadb3	0.10140552
145	0xbd8e0ec6	-0.069364116
146	0xbb8b2629	-0.0042464924
147	0xbe0f1fb8	-0.13976943
148	0xbe210fba	-0.15728655
149	0x3de5f7b5	0.11228887
150	0xbdcf2daa	-0.101161316
151	0xbe072c86	-0.13200578
152	0xbe00e241	-0.12586309
153	0x3e7ee644	0.24892527
154	0xbd2277d2	-0.03966505
155	0x3e083f16	0.13305315
156	0x3e548e9e	0.20757529
157	0xbd065db7	-0.032804217
158	0x3e061303	0.1309319
159	0x3c981f56	0.01856963
160	0xbe4438de	-0.19162318
161	0xbe072739	-0.13198556
162	0xbc9f7abe	-0.019467708
163	0x3c508c0d	0.012728703
164	0x3df57622	0.11985423
165	0x3e095343	0.13410668
166	0x3c129551	0.008946733
167	0x3ddd385e	0.10801767
168	0xbcbc4209	-0.022980707
169	0xbd25a819	-0.040443514
170	0x3e03fece	0.12890169
171	0x3e36f7ce	0.17867967
172	0xbdeee1be	-0.11664151
173	0x3ca43590	0.020045072
174	0xbd438a80	-0.047739506
175	0xbd7b4ffc	-0.061355576
176	0xbd7d00cb	-0.061768334
177	0x3e94bed8	0.29051852
178	0xbe0fd13b	-0.14044659
179	0x3e097b4b	0.13425939
180	0xbe198b64	-0.1499458
181	0x3dff0c70	0.12453544
182	0xbe005188	-0.12531102
183	0x3d36aac3	0.044596445
184	0xbd95e6bc	-0.073194
185	0x3e5e1a4e	0.21689722
186	0xbd0e681e	-0.034767263
187	0xbcc7f564	-0.024409004
188	0x3d96a374	0.07355395
189	0x3e089162	0.13336709
190	0xbd8901df	-0.0668981
191	0xbbafdcbb	-0.0053668893
192	0x3cd4d505	0.025980482
193	0x3d5a50b4	0.05329962
194	0x3d9cdbd2	0.07659115
195	0x3dce14bc	0.100625485
196	0x3e9511b6	0.29115075
197	0xbbcea403	-0.006306173
198	0xbb386800	-0.002813816
199	0x3dcfef90	0.10153115
200	0xbae709b2	-0.0017626791
201	0x3d9cfade	0.076650366
202	0x3e42fe6e	0.1904237
203	0xbe100848	-0.14065659
204	0x3cd9df29	0.026595669
205	0x3daca2df	0.08429503
206	0x3dcd3b26	0.10021047
207	0x3bab97a0	0.005236581
208	0xbcee5a60	-0.029095829
209	0xbda4a3c1	-0.08039046
210	0x3d878543	0.066172145
211	0x3e642251	0.22278716
212	0xbe0503b2	-0.12989691
213	0xbc9c6abe	-0.019093867
214	0xbd708a0a	-0.058725394
215	0x3d98f834	0.07469216
216	0x3d099c6f	0.033596452
217	0xbceef48d	-0.029169345
218	0x3d478a7c	0.048716053
219	0x3d654a5c	0.055979118
220	0xbbb6a400	-0.0055737495
221	0x3ddaada9	0.10677654
222	0xbd82c3fc	-0.06385037
223	0x3da7e5bf	0.081981175
224	0xbdb88e99	-0.09011573
225	0xbd42b3c5	-0.047534723
226	0xbde95443	-0.11393025
227	0xbe013e3b	-0.12621395
228	0x3dd0b7a2	0.10191275
229	0x3dce7fe6	0.100829884
230	0xbd8bfdca	-0.06835516
231	0xbe1da6df	-0.15395688
232	0xbde994be	-0.114053234
233	0x3ad900f9	0.0016556076
234	0xbd7419cc	-0.059594914
235	0x3df8c213	0.12146392
236	0x3de0ffc3	0.10986283
237	0x3deb1ff5	0.11480705
238	0x3e1b1cd3	0.15147714
239	0x3dbc8191	0.092044
240	0xbe204be8	-0.15653956
241	0x3dd2c212	0.10290922
242	0x3b4774ca	0.0030434602
243	0xbd7e083f	-0.062019583
244	0x3d983fae	0.07434021
245	0x3d63420e	0.055482917
246	0xbe1e4838	-0.15457237
247	0xbd137328	-0.035998493
248	0x3dc9edf4	0.09859839
249	0xbdc27d53	-0.0949656
250	0xbda0bc82	-0.07848455
251	0x3e3e604b	0.1859142
252	0xbd9dfadb	-0.077138625
253	0x3e143f53	0.14477281
254	0xbdb669d1	-0.08906902
255	0x3e186a16	0.14884219

linear_relu_stack.4.bias f4 [35]
0	0xbdef87f6	-0.11695854
1	0x3db8f138	0.09030384
2	0x3d502f82	0.050826557
3	0x3e806970	0.25080442
4	0x3ce6ca12	0.028172527
5	0xbdbfc7b2	-0.09364261
6	0x3d7d85e6	0.061895274
7	0xbd7cfa6a	-0.06176225
8	0xbe035aa4	-0.12827545
9	0x3d7526f2	0.059851594
10	0xbdbe8c99	-0.093041606
11	0x3d0069c4	0.031350866
12	0xbe077e73	-0.1323183
13	0xbdbd0fab	-0.09231504
14	0xbe036489	-0.1283132
15	0xbdd96e0f	-0.10616695
16	0xbd80eb99	-0.06294937
17	0xbb13d086	-0.002255471
18	0xbce9b2e7	-0.02852769
19	0x3c100e61	0.008792491
20	0xbd1b1c00	-0.0378685
21	0xbd6ae2a7	-0.05734506
22	0x3ddb13b2	0.10697116
23	0x3d375520	0.044758916
24	0xbde34681	-0.11097432
25	0xbd7bb6a3	-0.061453473
26	0x3d8c2a2e	0.06843983
27	0xbddf7409	-0.10910804
28	0x3d81eccb	0.06343993
29	0xbe2371e4	-0.15961415
30	0xbe002c86	-0.12516984
31	0xbdac22d0	-0.084050775
32	0xbe026fc9	-0.12737955
33	0xbd1cd12f	-0.03828543
34	0x3e1c83c7	0.15284644

linear_relu_stack.6.weight f4 [30, 35]
0	0x3cb8bbe1	0.022550525
1	0xbd679fc4	-0.05654885
2	0xbd202ef1	-0.039107267
3	0x3be6f38e	0.007048077
4	0x3d10eafe	0.035380356
5	0xbe13dd4a	-0.14439884
6	0x3dca6735	0.098829664
7	0x3bb10947	0.0054027173
8	0xbcb351b5	-0.021889547
9	0xbcfa3605	-0.030543337
10	0x3e4baffc	0.19891351
11	0x3da07742	0.078352466
12	0xbde81650	-0.11332381
13	0x3dd46df0	0.103725314
14	0xbe292d6f	-0.16521238
15	0xbe2265ce	-0.15859148
16	0x3e3df0cb	0.18548886
17	0x3dd9454c	0.106089205
18	0xbd30dae9	-0.04317752
19	0x3d92b126	0.07162695
20	0x3e6e9bef	0.23301671
21	0x3d98f9b8	0.07469505
22	0x3c86af2b	0.016440948
23	0x3e056d3c	0.13029951
24	0xbda19666	-0.07890014
25	0x3d0f05d7	0.03491768
26	0xbd87aeb7	-0.06625121
27	0x3df5ca93	0.120015286
28	0x3cf3dafa	0.029767502
29	0xbde3da59	-0.11125631
30	0xbd081e41	-0.033231977
31	0xbc4ca166	-0.012489652
32	0xbdb29ef7	-0.087217264
33	0x3b85cfeb	0.0040836236
34	0x3e002332	0.12513426
35	0xbd84d3c4	-0.064857036
36	0x3d90510c	0.070467085
37	0x3e19f2f8	0.15034091
38	0xbd489409	-0.048969302
39	0xbe2271c9	-0.15863718
40	0x3d7b911f	0.061417695
41	0x3caac631	0.020846458
42	0xbe207714	-0.15670425
43	0xbcb1ba35	-0.021695236
44	0x3e289986	0.16464815
45	0xbb9fae60	-0.004873082
46	0xbe2313a1	-0.15925457
47	0xbd99f876	-0.07518093
48	0x3e1e0d30	0.15434718
49	0x3dbce004	0.09222415
50	0xbd2d87eb	-0.04236595
51	0xbd9cde05	-0.07659534
52	0xbdacd853	-0.08439698
53	0x3d34d612	0.044149466
54	0xbd832b1b	-0.06404706
55	0xbe1daf71	-0.15398957
56	0x3df02c86	0.11727242
57	0xbbacd060	-0.0052738637
58	0xbd14d2ad	-0.03633373
59	0x3d2d99bc	0.04238294
60	0xbdb80f99	-0.0898735
61	0x3deb48fc	0.1148853
62	0xbba0992e	-0.004901073
63	0x3e108d4e	0.14116403
64	0xbd144c58	-0.03620562
65	0xbdf2afd7	-0.11849945
66	0xbde6aa38	-0.112629354
67	0xbdadaa56	-0.084797546
68	0xbd480458	-0.048832268
69	0x3d3dd686	0.046347164
70	0x3dbb9597	0.091593914
71	0x3e0569ed	0.13028689
72	0x3d953495	0.0728542
73	0x3c9e5f13	0.019332444
74	0x3db4a788	0.088210166
75	0x3d9f34e1	0.07773758
76	0xbe15b829	-0.14621033
77	0x3d9b75c4	0.075908214
78	0x3e13cc3a	0.14433375
79	0x3dbcca9f	0.092183344
80	0xbdfebaa8	-0.124379456
81	0xbdf0977e	-0.11747645
82	0xbca78db8	-0.020453319
83	0xbd9854da	-0.07438059
84	0xbd642dfe	-0.055707924
85	0xbd7d905b	-0.061905246
86	0xbdc720e3	-0.097230695
87	0xbd701c9d	-0.058621038
88	0x3db6a997	0.089190654
89	0xbdc673ee	-0.096900806
90	0x3e29ae09	0.16570295
91	0x3cfeed71	0.03111908
92	0x3c8365bd	0.016039724
93	0xbdc2a139	-0.09503407
94	0x3d87535c	0.066076964
95	0xbdbe2ed7	-0.09286278
96	0xbd8275e2	-0.063701406
97	0xbe1bd547	-0.15218078
98	0xbe1f01b2	-0.1552799
99	0xbde8a887	-0.11360269
100	0x3d2a2a5a	0.041544296
101	0x3c7a4780	0.015275836
102	0x3d983256	0.07431476
103	0x3c510bb0	0.012759134
104	0xbe15946e	-0.14607403
105	0xbd814e64	-0.0631378
106	0x3e0a2071	0.13488938
107	0xbca34f8e	-0.019935396
108	0x3dc6ddf8	0.09710306
109	0x3e3247e4	0.17410237
110	0x3e281861	0.1641555
111	0xbdea8cb9	-0.11452622
112	0xbdce0c32	-0.1006092
113	0x3d4f04d2	0.050541706
114	0x3d95d5d8	0.07316178
115	0xbd274155	-0.04083379
116	0x3d5c8f98	0.05384788
117	0xbdbc7fbd	-0.09204052
118	0xbe139cf9	-0.14415349
119	0x3e0b36d4	0.13595134
120	0xbe1adc61	-0.1512313
121	0xbe10706a	-0.14105383
122	0x3de142b9	0.109990545
123	0xbdfdec0e	-0.123985395
124	0xbc7ac388	-0.015305407
125	0xbd68c46e	-0.056827955
126	0xbe190f39	-0.14947213
127	0x3dde52c1	0.10855628
128	0x3e0be683	0.13662152
129	0xb9a0f2f5	-0.00030698595
130	0xbd35a152	-0.0443433
131	0xbd8abda7	-0.067744546
132	0xbd4ad844	-0.049522653
133	0xbe1c005f	-0.15234517
134	0x397ca2fb	0.00024093308
135	0xbe0fb515	-0.14033921
136	0xbd994720	-0.07484269
137	0xbc7cbe80	-0.015426278
138	0x3e2366f9	0.1595725
139	0xbcf11bc6	-0.029432189
140	0xbd93b6ce	-0.072126016
141	0x3e227480	0.15864754
142	0xbe220831	-0.15823437
143	0xbde11338	-0.10989994
144	0xbcd5dae7	-0.026105357
145	0x3bffcacc	0.0078061577
146	0xbdb109ae	-0.086444244
147	0xbbffa266	-0.007801342
148	0x3ec4ec0c	0.3846134
149	0xbce6c962	-0.028172199
150	0x3ba0366e	0.004889301
151	0xbe178067	-0.14795075
152	0x3e003dc2	0.12523559
153	0x3dd41890	0.103562474
154	0x3df86423	0.121284746
155	0xbdf932e6	-0.12167911
156	0xbdad8784	-0.08473113
157	0x3e02cc28	0.12773192
158	0xbbfc6ff3	-0.007703775
159	0x3da48654	0.080334336
160	0x3e14ce33	0.14531784
161	0x3df69b77	0.12041371
162	0x3d515295	0.051104147
163	0xbded33c5	-0.1158214
164	0x3e72eeba	0.2372388
165	0x3dd1e054	0.10247865
166	0xbde458cf	-0.111497514
167	0x3e0d7fde	0.13818309
168	0x3e04728e	0.12934324
169	0x3da9d873	0.082932375
170	0xbdcfdda4	-0.101496965
171	0x3e1f4d10	0.15556741
172	0x3d7aa978	0.061196774
173	0xbdb50ae3	-0.08839967
174	0xbd3fc3a1	-0.046817426
175	0xbd2e66b4	-0.042578414
176	0x3ded17e0	0.115768194
177	0xbbedf612	-0.007262
178	0x3e1fe198	0.15613401
179	0x3d9679e1	0.07347465
180	0x3d18800b	0.037231486
181	0xbc0532b9	-0.008129769
182	0x3b95a4c5	0.004566761
183	0xbddd51a7	-0.108065896
184	0x3d2aa174	0.04165788
185	0x3e4f4453	0.20240907
186	0xbd9e5cc0	-0.077325344
187	0xbd2e8c0c	-0.042614028
188	0xbdbd52a3	-0.09244277
189	0x3d8118a7	0.0630353
190	0xbdd4b267	-0.1038559
191	0x3cbaed00	0.022818089
192	0x3e55e339	0.2088746
193	0x3d8696dc	0.06571743
194	0xbe00fd49	-0.1259662
195	0xbd2344a8	-0.039860398
196	0xbddc3c2c	-0.107536644
197	0xbe203af6	-0.15647492
198	0x3beb674e	0.0071839457
199	0xbc192a79	-0.009348505
200	0x3cbb3bbe	0.022855636
201	0xbd012ca1	-0.031536702
202	0xbe27c00b	-0.16381852
203	0x3dd1182a	0.10209687
204	0xbe0f3ebe	-0.13988778
205	0x3d55fb8a	0.05224184
206	0xbb25d88d	-0.0025306076
207	0x3e228982	0.15872768
208	0x3d7a68bc	0.06113504
209	0x3deb628f	0.11493408
210	0x3e0c3052	0.13690308
211	0xbe234523	-0.15944342
212	0xbe0d2f39	-0.13787545
213	0xbe105d30	-0.14098048
214	0x3c8486f4	0.016177632
215	0xbd4b4922	-0.04963029
216	0x3bcf15a0	0.0063197166
217	0xbd9e03d0	-0.07715571
218	0x3d6aa14f	0.057282742
219	0x3da6da9d	0.08147166
220	0x3c3db4b7	0.01157873
221	0x3e203990	0.15646958
222	0x3cb57c60	0.022154033
223	0xbc44b580	-0.012006164
224	0xbd7d3db8	-0.061826438
225	0x3e01149c	0.12605518
226	0x3d059733	0.032614898
227	0x3d840283	0.064457916
228	0xbdd413f3	-0.103553675
229	0x3b828ec0	0.0039843023
230	0xbd568366	-0.052371405
231	0x3e1de2b2	0.15418509
232	0x3d5e55f7	0.0542812
233	0x3b9ad3ba	0.004724947
234	0xbe26bc1c	-0.16282696
235	0xbe1ee7c3	-0.15518098
236	0x3cfc9d99	0.030836867
237	0xbd4ddc60	-0.050258994
238	0xbd8fc7a1	-0.07020498
239	0xbdf28167	-0.11841088
240	0x3e233d4c	0.15941352
241	0xbdb2f924	-0.08738926
242	0xbdd5579c	-0.10417101
243	0xbe083cd9	-0.13304462
244	0x3e1237f8	0.14279163
245	0x3d9df0a5	0.07711915
246	0x3db75bba	0.08953042
247	0x3da4db33	0.080496214
248	0x3cb8e143	0.02256835
249	0xbe250685	-0.16115768
250	0x3e2d78c4	0.169406
251	0xbe1fcded	-0.15605898
252	0x3e005af2	0.12534693
253	0xbe1350bb	-0.14386265
254	0xbd843492	-0.064553395
255	0x3afbaa06	0.0019200451

linear_relu_stack.6.bias f4 [30]
0	0x3e1c8440	0.15284824
1	0xbe1526d7	-0.14565597
2	0xbdbd6723	-0.092481874
3	0xbe43a74d	-0.19106789
4	0x3e25fd69	0.1620995
5	0xbe16f547	-0.14742003
6	0xbdec1440	-0.115273
7	0x3c827c47	0.0159284
8	0xbc62d840	-0.013845503
9	0x3e16db72	0.14732149
10	0xbe0cee48	-0.13762772
11	0x3d906719	0.07050914
12	0xbe0de333	-0.13856201
13	0x3dd15e1f	0.1022303
14	0xbe086a04	-0.13321692
15	0xbdce733d	-0.10080574
16	0x3ddbd373	0.1073369
17	0xbd5abfd1	-0.053405587
18	0xbb78ba7e	-0.0037952955
19	0xbce97777	-0.028499348
20	0xbe541b76	-0.207136
21	0x3d076911	0.033059184
22	0xbe01aa11	-0.12662531
23	0xbd587a81	-0.052851204
24	0x3d432555	0.047643024
25	0xbdda3973	-0.10655489
26	0xbe186ab3	-0.14884453
27	0xbe059163	-0.13043742
28	0xbe955110	-0.29163408
29	0xbe1df5c2	-0.1542578

linear_relu_stack.8.weight f4 [35, 30]
0	0xbe0c03ad	-0.13673277
1	0x3cc2ffe0	0.023803651
2	0x3dfdb3ae	0.12387787
3	0x3e104394	0.14088279
4	0x3e0578c4	0.1303435
5	0xbdc5be58	-0.09655446
6	0xbb36dd00	-0.0027902722
7	0xbe1a7099	-0.15082015
8	0x3c3f3190	0.011669531
9	0x3d85b754	0.06529108
10	0x3dd3feb0	0.10351312
11	0x3df72b30	0.12068784
12	0x3cdf2a4f	0.027241854
13	0xbde1a950	-0.11018622
14	0xbe230016	-0.15918002
15	0xbccb091b	-0.024784615
16	0xbcce5b70	-0.025190085
17	0xbe30eb7e	-0.17277333
18	0xbe23bb82	-0.15989497
19	0xbc9f1f70	-0.01942417
20	0xbe26919e	-0.16266486
21	0xbd874550	-0.06605017
22	0x3d32feb7	0.043699946
23	0xbe037a14	-0.12839538
24	0xbe062224	-0.13098961
25	0xbe3c517b	-0.18390457
26	0x3e0fd062	0.14044335
27	0x3d6aaba4	0.057292596
28	0x3d99fe97	0.07519262
29	0xbe0a0176	-0.1347712
30	0x3c9adf92	0.018905435
31	0x3d69c208	0.05706981
32	0x3b8be5b1	0.0042693247
33	0xbcf4d6d3	-0.029887592
34	0x3e381988	0.1797849
35	0x3e21be66	0.15795287
36	0xbe12a051	-0.14318968
37	0xbd141be6	-0.03615942
38	0xbdf32e88	-0.118741095
39	0xbcdd25f0	-0.02699563
40	0xbde1bc64	-0.11022261
41	0xbdde9671	-0.10868538
42	0x3dd75a10	0.10515225
43	0xbd2f4fac	-0.04280059
44	0x3d99758f	0.07493126
45	0x3dc4fc83	0.09618475
46	0xbda4e32b	-0.08051141
47	0xbddf8c45	-0.10915426
48	0x3cc1ae81	0.02364278
49	0xbe014c61	-0.12626792
50	0x3b82d230	0.0039923415
51	0x3dec7c1c	0.115471095
52	0x3e41e378	0.18934429
53	0x3c3bef0c	0.011470567
54	0x3dbed71e	0.09318374
55	0x3e5f2a7e	0.21793553
56	0xbe28269c	-0.16420978
57	0x3e0c8170	0.13721251
58	0x3e7e0b22	0.24808934
59	0xbd187a4c	-0.037226006
60	0xbde7c958	-0.113177
61	0xbd1f5a2a	-0.038904347
62	0xbd80ef9f	-0.06295704
63	0x3e229b7e	0.15879628
64	0x3e51e365	0.204969
65	0xbd2a53c3	-0.041583788
66	0x3bb2d1f4	0.0054571573
67	0x3df7da0f	0.12102138
68	0x3d67e83c	0.05661796
69	0x3d9989e5	0.074970044
70	0x3b753800	0.0037417412
71	0xbde00900	-0.109392166
72	0x3e350264	0.17676693
73	0xbdb5220b	-0.08844384
74	0xbc60e6f4	-0.0137269385
75	0x3e529a4d	0.20566674
76	0x3cc8c633	0.024508571
77	0xbde2809d	-0.11059687
78	0x3c8a37d1	0.016872318
79	0x3ce45eb8	0.027877197
80	0xbc318c3b	-0.010836656
81	0xbd1facb7	-0.038983073
82	0xbba23fcf	-0.0049514542
83	0xbcb26ddb	-0.021780899
84	0xbd9e59a1	-0.07731939
85	0x3e8d1b32	0.2755981
86	0x3e0d52e6	0.13801154
87	0xbdc79456	-0.0974509
88	0x3e38fa72	0.18064287
89	0x3de86a64	0.113484174
90	0x3c81684f	0.015796809
91	0xbdc7a31a	-0.09747906
92	0x3df9a9d8	0.12190598
93	0xbe12d9e2	-0.14340928
94	0x3e061847	0.13095199
95	0xbb9d4280	-0.004799187
96	0xbe352d83	-0.17693143
97	0xbbb518b8	-0.0055266283
98	0xbd91e0e3	-0.07122972
99	0xbe169b5d	-0.14707704
100	0xbe048a3c	-0.12943357
101	0xbe25e2fd	-0.1619987
102	0x3d757292	0.059923716
103	0x3d367587	0.044545677
104	0x3d8e402e	0.06945835
105	0xbe08c413	-0.13356046
106	0x3ddf91e0	0.10916495
107	0xbe3a55a3	-0.1819673
108	0xbd9abaa4	-0.0755513
109	0xbdd826be	-0.105542645
110	0xbd16f284	-0.036852375
111	0xbdd5981b	-0.104294024
112	0xbd8bb48c	-0.06821546
113	0xbe05240f	-0.13002037
114	0xbe14d955	-0.1453603
115	0xbdbe75eb	-0.09299835
116	0xbcf11e30	-0.02943334
117	0xbc87a150	-0.016556412
118	0x3c7b55a0	0.015340239
119	0xbdb541cf	-0.088504426
120	0xbe24722a	-0.16059175
121	0x3d2c457f	0.042058464
122	0x3cf2cbe2	0.029638235
123	0x3d7d2f49	0.061812673
124	0xbe03304d	-0.12811394
125	0x3e4f42af	0.20240282
126	0xbc4929a7	-0.012277997
127	0xbd9416cf	-0.07230913
128	0x3da92278	0.082585275
129	0x3e3e345a	0.18574658
130	0x3e2007f2	0.15628031
131	0x3d85d415	0.06534592
132	0xbe1e3f2f	-0.1545379
133	0xbe02eaa8	-0.12784827
134	0xbdc3eafc	-0.09566304
135	0x3d855410	0.06510174
136	0x3d543bca	0.05181483
137	0x3d9bc283	0.076054595
138	0x3e59be4f	0.21264003
139	0xbe2ec941	-0.1706896
140	0xbc4d16a5	-0.012517606
141	0x3e82ff9a	0.25585634
142	0x3dacf68d	0.08445463
143	0xbc85ac55	-0.016317526
144	0xbbc07019	-0.005872738
145	0xbe06e0b2	-0.13171652
146	0xbde31142	-0.11087276
147	0x3dbdddf4	0.0927085
148	0x3d877fc9	0.0661617
149	0x3e05a924	0.13052803
150	0xbdf23581	-0.11826611
151	0x3df4d220	0.11954141
152	0x3e18cf34	0.14922792
153	0x3d32dc88	0.043667346
154	0x3e80e94e	0.25177997
155	0x3d0663e3	0.032810103
156	0xbd58406c	-0.052795812
157	0xbd3dd69e	-0.046347253
158	0x3de4a4f0	0.11164272
159	0x3e039bd6	0.12852415
160	0xbe0e8c46	-0.13920698
161	0x3a6d7b24	0.0009059182
162	0xbd8cfb4c	-0.068838686
163	0xbd04d994	-0.03243406
164	0x3dd382e5	0.103277005
165	0x3c2a7b5d	0.010405389
166	0xbdf8495b	-0.121233664
167	0xbddf6875	-0.109085955
168	0xbd718cd5	-0.0589722
169	0xbdb70fa2	-0.089385286
170	0xbcb9c101	-0.02267504
171	0x3e5ac2ae	0.21363327
172	0x3d16ca30	0.036813915
173	0x3de7d3aa	0.113196686
174	0xbc588774	-0.013215888
175	0x3ea519f6	0.3224637
176	0x3e198eee	0.1499593
177	0xbd1082b4	-0.0352809
178	0x3d5039c1	0.05083633
179	0x3ded1238	0.115757406
180	0xbd8753c0	-0.06607771
181	0x3d8af6b8	0.06785339
182	0x3d125355	0.035724003
183	0xbd305ab3	-0.043055248
184	0xbb788623	-0.0037921749
185	0xbd9b95ab	-0.07596906
186	0x3d09e8a5	0.033669133
187	0xbdc9444c	-0.0982748
188	0x3cc49ce0	0.024000585
189	0xbdf67986	-0.120348975
190	0x3e29934a	0.16560093
191	0x3e186122	0.14880803
192	0x3bb1c360	0.005424902
193	0xbdfa317a	-0.12216468
194	0x3d1b38ac	0.037895843
195	0x3c6d24cd	0.014474106
196	0x3e1ceb44	0.15324122
197	0xbd019314	-0.031634405
198	0x3c0e5853	0.00868805
199	0x3c886e2e	0.0166541
200	0x3d4ea5be	0.050451033
201	0x3dfc81cb	0.123294435
202	0xbd83fccf	-0.06444704
203	0x3c229d55	0.009925206
204	0xbe1de208	-0.15418255
205	0xbdbb658d	-0.09150229
206	0x3dc5761c	0.09641668
207	0xbe340a19	-0.17581977
208	0xbe16d553	-0.14729814
209	0x3d606da0	0.054792047
210	0xbe496f7d	-0.19671436
211	0xbdcdad7e	-0.10042857
212	0x3dbeec9f	0.09322476
213	0x3c6023bd	0.013680396
214	0x3e2ae580	0.1668911
215	0x3e0bddf5	0.13658889
216	0x3e197772	0.14986971
217	0x3d33807e	0.04382371
218	0x3dc4933c	0.09598395
219	0xbca046ef	-0.019565074
220	0xbd9a5837	-0.07536357
221	0x3e244959	0.16043605
222	0xbe0e0894	-0.1387046
223	0xbe2c8105	-0.16846092
224	0x3e3bbacb	0.18332975
225	0xbd5d6ec6	-0.05406072
226	0xbe416aed	-0.18888445
227	0xbdb9adbc	-0.0906634
228	0x3aedc349	0.0018139865
229	0xbd333e3e	-0.04376053
230	0xbdd9184f	-0.106003396
231	0xbd922825	-0.07136563
232	0xbceac95d	-0.02866047
233	0x3db0af3f	0.086271755
234	0xbbc092f4	-0.005876893
235	0x3d96f9ce	0.07371865
236	0x3e1ff350	0.1562016
237	0x3d92cb18	0.07167643
238	0xbdd44c74	-0.10366145
239	0xbc00c6c0	-0.007859886
240	0xbe45b08e	-0.19305632
241	0xbe2bc563	-0.16774516
242	0x3e2bf980	0.16794395
243	0xbdf5383b	-0.11973616
244	0x3bd75cd2	0.0065723443
245	0xbdc6dc15	-0.09709946
246	0x3de528e4	0.1118944
247	0xbd8eaeab	-0.06966909
248	0xbe20d1b7	-0.15705
249	0xbe02446c	-0.12721413
250	0x3dbb1850	0.091354966
251	0xbe3907c6	-0.18069372
252	0x3dac7978	0.08421606
253	0x3d5930ad	0.053024936
254	0xbdd2e6ef	-0.10297953
255	0x3d1e11ab	0.03859107

linear_relu_stack.8.bias f4 [35]
0	0xbd8cc7ce	-0.06874047
1	0xbe70af28	-0.23504317
2	0x3e226fe2	0.15862992
3	0x3d08cdf8	0.033399552
4	0x3de4478c	0.11146459
5	0x3d69b75e	0.05705964
6	0xbe19e3f6	-0.15028366
7	0xbd347386	-0.044055484
8	0x3d0c0102	0.03418065
9	0xbe12c693	-0.14333563
10	0xbe175bec	-0.14781159
11	0xbe2715ee	-0.1631696
12	0x3e165a3c	0.14682859
13	0xbde2f2e8	-0.11081487
14	0xbd129e15	-0.03579529
15	0xbe9c9e47	-0.30589506
16	0xbc8c866e	-0.017153945
17	0xbda592d8	-0.08084649
18	0xbe38c628	-0.1804434
19	0x3e8a190a	0.26972228
20	0x3d2eb90e	0.04265695
21	0xbc41695d	-0.011804906
22	0x3e86bf92	0.26318032
23	0xbd44a4de	-0.048008792
24	0xbcc8fc5a	-0.024534393
25	0xbd792160	-0.060822845
26	0x3c8df19a	0.017327119
27	0xbd278290	-0.040896
28	0xbe44e915	-0.19229539
29	0x3d12c398	0.035831064
30	0xbe63c4ce	-0.22243044
31	0xbe0ebb52	-0.13938645
32	0xbe8687c4	-0.26275456
33	0x3f17dc88	0.5932088
34	0x3da2a593	0.07941737

linear_relu_stack.10.weight f4 [40, 35]
0	0x3d225228	0.03962913
1	0xbe0a7eed	-0.13524981
2	0xbe1d7671	-0.15377213
3	0x3e21f402	0.15815738
4	0x3e313490	0.17305207
5	0xbd96c692	-0.07362093
6	0xbdddd2f8	-0.10831255
7	0x3e2f7cc8	0.17137444
8	0x3e1763ce	0.14784166
9	0x3c3efc40	0.011656821
10	0x3df0aabc	0.11751315
11	0x3ddcf74e	0.10789357
12	0xbdde503e	-0.10855149
13	0x3d49669c	0.04917012
14	0x3ca4c180	0.0201118
15	0x3dc20021	0.09472681
16	0x3c8deed4	0.017325796
17	0x3e05d203	0.13068394
18	0x3db6b9ac	0.08922133
19	0x3d222c42	0.03959299
20	0x3de09035	0.10965005
21	0x3db71f0e	0.0894147
22	0x3cb553b7	0.022134645
23	0xbd098883	-0.033577453
24	0xbc985cd6	-0.018598955
25	0xbe23654b	-0.15956609
26	0xbdcbba44	-0.09947637
27	0x3d92d514	0.07169548
28	0x3dbc8e86	0.09206872
29	0x3e2a88c6	0.16653737
30	0xbe3a9bd3	-0.18223505
31	0xbd1a77ec	-0.037712023
32	0x3dac4448	0.08411461
33	0xbe509a53	-0.2037137
34	0xbe345c78	-0.17613399
35	0xbd4ef77a	-0.05052898
36	0xbd8a0b45	-0.06740431
37	0xbe1e7264	-0.15473324
38	0xbe180686	-0.14846238
39	0x3d1e0020	0.038574338
40	0xbdff38f6	-0.12462036
41	0x3db64930	0.08900678
42	0x3d8cd19e	0.06875919
43	0x3e0d0d9e	0.13774726
44	0xbd81b2cb	-0.0633293
45	0xbdca1b0e	-0.098684415
46	0x3d2cbc58	0.042171806
47	0xbdad7323	-0.08469226
48	0x3d9daac2	0.07698585
49	0x3dd0c4c8	0.10193783
50	0x3e150b38	0.14555061
51	0x3e03332c	0.1281249
52	0xbe0c73f2	-0.13716105
53	0xbdd98ee2	-0.10622956
54	0xbd65c578	-0.056096524
55	0x3df41f88	0.119200766
56	0xbe194032	-0.14965895
57	0x3daa6328	0.08319694
58	0xbe20e356	-0.15711722
59	0xbe216290	-0.15760255
60	0xbe1fb036	-0.15594563
61	0x3d94a8bc	0.07258746
62	0xbd8a3d7e	-0.0675001
63	0xbde7ec6c	-0.11324391
64	0xbce9ac30	-0.028524488
65	0xbc8e51a0	-0.017372906
66	0x3d8a3336	0.06748049
67	0xbd8c9d3e	-0.06865929
68	0x3d1e3e90	0.038633883
69	0xbd433d72	-0.04766602
70	0x3caa7d88	0.020811811
71	0xbd4cfca4	-0.050045624
72	0xbcc777f5	-0.024349192
73	0x3d9d3a7e	0.07677172
74	0xbc3f9b3d	-0.0116947265
75	0xbb1cdff7	-0.0023937204
76	0x3e004d14	0.12529403
77	0xbe1b2463	-0.15150599
78	0xbdfad3dc	-0.1224744
79	0xbdc8164b	-0.09769877
80	0x3d8c0ef4	0.068387896
81	0xbd1b07e0	-0.037849307
82	0xbbe2db5c	-0.0069231223
83	0x3e219764	0.15780407
84	0xbde32c3a	-0.1109242
85	0xbe13c64e	-0.14431116
86	0x3cbf97df	0.023387847
87	0xbde4cd6e	-0.11171995
88	0x3e0f3b46	0.13987455
89	0xbdf8a65b	-0.12141105
90	0x3d225138	0.039628237
91	0x3db02f40	0.08602762
92	0x3e07a775	0.13247474
93	0xbe05a1d6	-0.13050017
94	0x3d60e098	0.05490169
95	0xbd7ce12a	-0.06173817
96	0x3db846f0	0.08997905
97	0xbe136a81	-0.14396097
98	0xbd6e52bc	-0.05818437
99	0xbda2529d	-0.079259135
100	0x3d7f6497	0.06235179
101	0x3d73181c	0.059349164
102	0x3d860706	0.06544308
103	0x3dd79080	0.10525608
104	0x3e0373dc	0.12837166
105	0xbc52bc20	-0.012862235
106	0x3c2dd380	0.010609508
107	0xbcc304f6	-0.023806076
108	0x3c549020	0.012973815
109	0xbd6e51c9	-0.058183465
110	0xbe072c57	-0.13200508
111	0xbe0926e0	-0.13393736
112	0xbe09fcdc	-0.13475364
113	0x3da7533c	0.081701726
114	0xbe169f48	-0.14709198
115	0x3e16280a	0.14663711
116	0x3dcc91ec	0.0998877
117	0x3d80d2c7	0.062902026
118	0xbd739df6	-0.059476815
119	0x3e40817c	0.18799394
120	0x3db3e188	0.08783251
121	0xbdf436db	-0.11924525
122	0xbd37a6fc	-0.044836983
123	0xbe12c3aa	-0.14332452
124	0xbe183ee2	-0.14867738
125	0xbbb31d82	-0.005466164
126	0x3cefacd7	0.029257221
127	0xbd3ff941	-0.046868566
128	0x3d223c61	0.039608363
129	0x3b4b3b1f	0.003101058
130	0xbe20e40c	-0.15711993
131	0xbd64b792	-0.05583913
132	0xbdf7b8d0	-0.12095797
133	0xbd0a5ff6	-0.03378292
134	0xbc0a095a	-0.008425081
135	0x3ded4fcd	0.115874864
136	0x3bdfb4a0	0.006826952
137	0x3c87badb	0.016568592
138	0xbdd766ab	-0.10517629
139	0x3ca8395a	0.02053516
140	0xbd512fa8	-0.05107084
141	0x3e15407a	0.14575377
142	0xbd76c809	-0.060249362
143	0xbd267aa8	-0.040644318
144	0xbdbb6c97	-0.09151571
145	0xbdd38a8c	-0.1032916
146	0x3d19ca0f	0.037546214
147	0xbe2012f2	-0.15632227
148	0xbbc14ffb	-0.005899427
149	0x3d747684	0.059683338
150	0xbe109295	-0.14118417
151	0xbdb4b315	-0.0882322
152	0xbd04b0db	-0.032395225
153	0xbdcd3433	-0.10019722
154	0x3dc1c9e4	0.09462336
155	0xbe271857	-0.16317879
156	0x3e1a9800	0.15097046
157	0x3d4fe6b2	0.050757118
158	0x3db389a4	0.08766487
159	0xbdb002da	-0.08594294
160	0xbe14959d	-0.14510198
161	0x3cbbd5b0	0.022929043
162	0x3e216356	0.1576055
163	0xbe1958b0	-0.14975238
164	0x3c6edf10	0.014579549
165	0xbe219f18	-0.15783346
166	0x3d32374a	0.04350976
167	0x3cdeeab0	0.027211517
168	0xbc844c98	-0.016149804
169	0xbe0c7f5e	-0.13720462
170	0xbbaaa520	-0.0052076727
171	0x3c901268	0.017586902
172	0x3d15bbd5	0.036556084
173	0xbc0bb5d0	-0.008527234
174	0x3d22edaa	0.039777435
175	0x3e04f878	0.12985408
176	0x3d931021	0.07180811
177	0x3e33dad5	0.17563947
178	0xbdaf9520	-0.08573365
179	0x3ce150e6	0.027504396
180	0x3e91fad7	0.28511688
181	0x3e208c0a	0.1567842
182	0xbd003be9	-0.031307135
183	0xbcd09ed5	-0.025466362
184	0xbc75e760	-0.015008777
185	0xbcb227f0	-0.02174756
186	0x3cadc671	0.021212788
187	0x3c817ffc	0.015808098
188	0xbc9242e8	-0.017854169
189	0xbe2f42db	-0.17115347
190	0x3e473dad	0.19457121
191	0xbc67ae4b	-0.014140676
192	0x3d05e950	0.032693207
193	0xbb767e00	-0.0037611723
194	0xbe36fe35	-0.1787041
195	0x3d9fe0f5	0.07806579
196	0x3e1273d1	0.14301993
197	0x3e30dd16	0.17271838
198	0x3e11cb71	0.14237763
199	0x3e24a8ba	0.16079989
200	0xbe28359d	-0.16426702
201	0xbd89a2d3	-0.067205094
202	0xbe09b98c	-0.13449687
203	0x3d87a933	0.06624069
204	0xbdd04dd8	-0.101710975
205	0x3d8c801d	0.06860373
206	0xbe0e4a87	-0.13895617
207	0xbe21201c	-0.15734905
208	0xbbf18f4e	-0.0073718196
209	0x3e2031e7	0.15644036
210	0xbd8dccd3	-0.06923833
211	0x3d4194cd	0.047261048
212	0x3e3e67b3	0.18594246
213	0x3d84c87e	0.06483553
214	0x3d581653	0.052755665
215	0x3e0b4ca6	0.13603458
216	0xbdbd30b8	-0.09237808
217	0xbe0c6589	-0.13710608
218	0xbb96c7c0	-0.004601449
219	0x3e0cd360	0.13752508
220	0xbd00d318	-0.031451315
221	0xbd765982	-0.060143955
222	0x3d276995	0.040872175
223	0xbdd8f28c	-0.10593137
224	0x3e14f96c	0.14548272
225	0x3e38d74e	0.18050882
226	0x3e464ded	0.19365664
227	0x3df0401e	0.117309794
228	0x3e233186	0.1593686
229	0x3df2f5b6	0.11863272
230	0x3d456b53	0.048198055
231	0x3bb420eb	0.005497088
232	0x3d975eca	0.073911265
233	0xbdb618c8	-0.088914454
234	0x3d5f44d4	0.054509
235	0x3cce7290	0.025201112
236	0x3d621a80	0.055201054
237	0x3e10be42	0.14135078
238	0x3d950bf6	0.07277672
239	0x3c5ec989	0.013597854
240	0x3dbebbb6	0.09313147
241	0xbe13301e	-0.14373824
242	0x3d5e6326	0.054293774
243	0xbe58f699	-0.2118782
244	0xbe20a24b	-0.1568691
245	0xbc06a286	-0.00821746
246	0x3cddd661	0.027079763
247	0x3df69330	0.120397925
248	0x3e01b3a1	0.12666179
249	0xbbf68e26	-0.0075242696
250	0x3bc48c7a	0.0059981914
251	0xbbf1aac7	-0.0073750946
252	0xbe1957d4	-0.1497491
253	0xbe167902	-0.14694598
254	0xbdcd685c	-0.100296706
255	0xbce1a170	-0.0275428

linear_relu_stack.10.bias f4 [40]
0	0x3e890056	0.2675807
1	0xbe24510a	-0.16046539
2	0xbe187522	-0.14888433
3	0x3dacf5ef	0.084453456
4	0xbdc5ac42	-0.09651996
5	0x3dcb56cc	0.099286646
6	0xbe562a81	-0.20914651
7	0x3def5529	0.11686165
8	0x3b8d6710	0.0043152645
9	0xbd62d024	-0.05537428
10	0x3f013d78	0.5048442
11	0x3caf7350	0.02141729
12	0x3dbb8039	0.09155316
13	0xbdf7b0a3	-0.12094238
14	0xbd7c24e8	-0.061558634
15	0xbe049bcd	-0.12950058
16	0xbcff14d0	-0.031137854
17	0x3d22b324	0.039721623
18	0xbe25ce6a	-0.16192022
19	0xbe74286e	-0.23843548
20	0xbd032bb2	-0.032024093
21	0xbed7f9f2	-0.4218288
22	0xbd8def3e	-0.069303975
23	0x3d6bb1f6	0.057542764
24	0x3e3972f9	0.18110265
25	0x3d6cd3bc	0.057819113
26	0xbd60bf75	-0.054870088
27	0xbdc754a4	-0.09732941
28	0x3dfb56e2	0.12272431
29	0x3d3f8767	0.04675999
30	0xbe077160	-0.13226843
31	0xbde31db3	-0.11089649
32	0x3e1a6bbe	0.15080163
33	0xbd510c94	-0.051037386
34	0xbdd25fba	-0.10272165
35	0xbd1dde11	-0.038541857
36	0xbd1681d1	-0.036744896
37	0x3e7d36f8	0.24728
38	0xbe16efca	-0.1473991
39	0xbeddd9f5	-0.4333035
