baselines/P&C_simplified/Weights/Normalised/standard.pth (torch, 71794 bytes, 12 tensors)

linear_relu_stack.0.weight f4 [50, 102]
0	0xbd81cfea	-0.063384846
1	0xbe289f01	-0.16466905
2	0x3ddbf197	0.10739439
3	0x3c76a7a7	0.01505462
4	0xbac94b06	-0.0015357442
5	0x3ddb082f	0.1069492
6	0xbd9f12a8	-0.0776723
7	0xbc8dc50c	-0.017305873
8	0xbcb9a1d4	-0.022660173
9	0x3d303c35	0.043026168
10	0x3d9a83b5	0.075446524
11	0xbd97af0d	-0.07406435
12	0x3daf3db8	0.08556694
13	0xbcdcbabe	-0.026944514
14	0xbda0de4b	-0.07854899
15	0x3d162179	0.036653016
16	0x3da82d1a	0.082117274
17	0xbdfa8228	-0.122318566
18	0x3df7e8b1	0.12104929
19	0xbd9aaabc	-0.07552096
20	0x3c0465e1	0.00808093
21	0x3d0dac96	0.03458842
22	0xbd87240f	-0.065986745
23	0xbe56e9c3	-0.2098761
24	0x3d3a0023	0.045410287
25	0xbdcd2178	-0.10016149
26	0xbea95a4a	-0.33076698
27	0xbd31193e	-0.043236963
28	0xbe12e753	-0.14346056
29	0xbed37b54	-0.4130503
30	0xbc30dd96	-0.010795018
31	0xbde58504	-0.11207011
32	0xbea8b060	-0.32947063
33	0xbd94eb7b	-0.07271477
34	0xbd507d05	-0.050900478
35	0xbdb98e2c	-0.0906032
36	0xbdb63f4a	-0.0889879
37	0xbd22c796	-0.03974112
38	0x3c112ec6	0.008861249
39	0xbe087ec1	-0.13329603
40	0xbce250ee	-0.02762648
41	0x3c97d837	0.018535716
42	0x3da4e08f	0.08050644
43	0x3e3293b1	0.17439152
44	0x3da18a66	0.078877255
45	0xbd93b241	-0.072117336
46	0x3e3f5390	0.1868422
47	0x3dd8ee96	0.10592382
48	0xbd337f48	-0.043822557
49	0x3e4eb997	0.20187984
50	0x3dee9732	0.11649932
51	0x3dc2f152	0.095186844
52	0x3ddfaf59	0.10922117
53	0x3e4e7fc1	0.20165922
54	0xbd5640f3	-0.052308034
55	0xbdac3c57	-0.084099464
56	0x3db19711	0.08671392
57	0xbdb81ba5	-0.08989648
58	0xbe084317	-0.13306843
59	0x3e035880	0.12826729
60	0xbdb50dc1	-0.08840514
61	0xbdc6702d	-0.096893646
62	0x3cce7a82	0.0252049
63	0x3d8713d4	0.06595579
64	0x3b6a3105	0.0035734784
65	0x3d026166	0.031831168
66	0x3c381f57	0.011237941
67	0xbe10667f	-0.14101599
68	0x3e6ebfe6	0.23315391
69	0x3da6e361	0.08148838
70	0xbca545ab	-0.020174822
71	0x3e05abac	0.13053769
72	0xbd27adb6	-0.040937148
73	0xbd8734a2	-0.06601836
74	0x3c8c8b9a	0.017156411
75	0x3d5ef1e8	0.05442992
76	0xbe63c6a5	-0.22243746
77	0x3da3be41	0.079952724
78	0xbd9246c1	-0.071424015
79	0x3c43064d	0.011903358
80	0x3d67634b	0.056491178
81	0xbd58c898	-0.052925676
82	0x3c2438ac	0.010023277
83	0xbd8138b1	-0.06309641
84	0xbcbeed4a	-0.023306508
85	0x3e155c14	0.14585906
86	0xbc4ef14a	-0.01263077
87	0x3df2b5a6	0.11851053
88	0x3dfd659a	0.123728946
89	0x3d39ec10	0.045391142
90	0xbe3ab524	-0.18233162
91	0x3cf61290	0.030038148
92	0xbe18630a	-0.1488153
93	0xbdfe7cdb	-0.12426158
94	0x3ddaf3a4	0.10691002
95	0xbdca0fb2	-0.09866275
96	0xbcdf14fc	-0.027231686
97	0xbd2e3d77	-0.042539086
98	0x3d91374d	0.07090626
99	0xbddd6ba2	-0.10811545
100	0xbd10477a	-0.035224415
101	0x3d501b22	0.050807126
102	0xbd18826b	-0.03723375
103	0xbcea5dea	-0.028609235
104	0x3d772df4	0.06034656
105	0xbd28b171	-0.041184846
106	0x3d6f3692	0.05840165
107	0xbd5e0270	-0.054201543
108	0xbd5f44cf	-0.05450898
109	0xbd3f61c0	-0.04672408
110	0x3da3610d	0.07977495
111	0x3dd6161b	0.10453435
112	0x3d0475ac	0.032338783
113	0x3ddd7e21	0.10815073
114	0x3dadb6db	0.084821425
115	0x3d69aeac	0.057051346
116	0xbd700626	-0.058599614
117	0xbceee317	-0.02916102
118	0xbdb3bf3d	-0.0877671
119	0x3da97540	0.08274317
120	0x3cce2d9d	0.025168234
121	0xbd691478	-0.056904286
122	0xbdcbb091	-0.09945787
123	0x3d105de2	0.035245784
124	0x3c26ceac	0.01018111
125	0xbd142df7	-0.036176648
126	0x3dad93d1	0.08475459
127	0xbe18c036	-0.14917073
128	0xbdd2dbac	-0.10295805
129	0x3da8ffab	0.0825189
130	0xbe0b7d0f	-0.13621925
131	0xbcc1f133	-0.023674583
132	0x3dca4692	0.098767415
133	0x3c25fe42	0.010131421
134	0xbc8bb705	-0.017055044
135	0x3d1dede0	0.038556933
136	0x3d8e8526	0.0695899
137	0x3d9692fc	0.07352254
138	0x3df1e087	0.11810403
139	0xbc789fb5	-0.015174796
140	0xbc70a57e	-0.014687894
141	0x3db1cb13	0.086813115
142	0xbb98809d	-0.004654004
143	0xbd0e0960	-0.03467691
144	0x3dde1edb	0.10845729
145	0xbd7958e7	-0.0608758
146	0xbe65be7f	-0.2243595
147	0xbd893f4c	-0.06701526
148	0x3d331064	0.043716803
149	0xbe462210	-0.19348931
150	0x3d7ea66c	0.06217043
151	0x3d08ba18	0.033380598
152	0xbea5fd83	-0.32419977
153	0xbd7dc5d6	-0.06195625
154	0x3c00ff99	0.007873439
155	0xbe7673ce	-0.24067613
156	0xbe29f9b8	-0.16599166
157	0xbda8c9f7	-0.08241647
158	0xbdc3b39e	-0.09555744
159	0xbc2ff40b	-0.010739337
160	0xbbc2aa72	-0.005940729
161	0xbd524b81	-0.051341537
162	0x39e81630	0.0004426702
163	0x3c321d21	0.010871203
164	0x3a7ac1c9	0.00095656194
165	0xbdb15d2b	-0.086603485
166	0xbd9d18cb	-0.076707445
167	0x3d7e17bd	0.062034357
168	0xbdf2673d	-0.118360974
169	0x3d21e283	0.03952266
170	0x3c5f7201	0.0136380205
171	0xbdd74529	-0.10511238
172	0xbd1dd830	-0.03853625
173	0x3d99993b	0.074999295
174	0xbde56275	-0.1120042
175	0xbd8968fd	-0.06709478
176	0xbd3ae019	-0.045623872
177	0xbe5486b5	-0.20754512
178	0xbc7b86c8	-0.015351959
179	0xbd8af52b	-0.06785043
180	0xbbe1bd43	-0.006889017
181	0x3af78a91	0.00188859
182	0xbd4099f9	-0.04702184
183	0x3d946bd7	0.07247131
184	0xbb43635b	-0.002981386
185	0x3d05bfb2	0.032653518
186	0x3cdd1976	0.02698968
187	0xbd80dcc1	-0.062921055
188	0xbe0e8181	-0.1391659
189	0x3d7b98df	0.061425086
190	0xbd79e1c5	-0.061006326
191	0x3dca1e42	0.098690525
192	0x3d3ff73e	0.046866648
193	0xba531e9d	-0.0008053573
194	0xbe0d2ace	-0.1378586
195	0x3dc4d791	0.096114285
196	0xbdcc1245	-0.09964422
197	0xbc7cb476	-0.015423885
198	0x3ccc2f5e	0.02492493
199	0xbd7b7576	-0.061391316
200	0x3cb1b505	0.021692762
201	0xbdd05631	-0.1017269
202	0x3da12970	0.07869232
203	0xbdd6242a	-0.104561165
204	0xbd1ed618	-0.038778394
205	0x3da9fee2	0.08300568
206	0x3c7e7adb	0.015532221
207	0x3c9762cb	0.018479725
208	0x3d120298	0.035647005
209	0xbbf8d9ba	-0.0075943144
210	0x3b8e3d30	0.00434079
211	0x3ba42af0	0.0050100014
212	0x3cdca08c	0.026932023
213	0xbde686da	-0.1125619
214	0x3cf39c53	0.029737627
215	0xbd3ee3a3	-0.04660381
216	0xbdccbdb6	-0.09997122
217	0x3dbb80b1	0.09155405
218	0xbd5d97cb	-0.05409984
219	0xbcd51cfb	-0.026014796
220	0x3cd03eae	0.025420513
221	0x3dfd1245	0.12357
222	0xbe04450e	-0.12916967
223	0x3dafafa3	0.08578422
224	0x3d598f68	0.05311528
225	0xbe466911	-0.19376017
226	0xbcaa14d9	-0.020761894
227	0x3e178f42	0.14800742
228	0xbd9a52be	-0.07535313
229	0xbc7d5a61	-0.015463443
230	0x3e2959dd	0.16538186
231	0xbe8d9767	-0.27654573
232	0x3dcce55c	0.10004684
233	0x3df5079a	0.119643405
234	0xbe13194c	-0.14365119
235	0x3e18fb49	0.14939608
236	0x3dd11482	0.1020899
237	0x3da3e169	0.08001978
238	0xbbbe1638	-0.0058009885
239	0xbd4ff516	-0.05077084
240	0x3c403b82	0.011732938
241	0x3d2a9e29	0.04165474
242	0xbdf10591	-0.1176864
243	0x3b085fbf	0.0020809022
244	0x3c6ffe48	0.014648028
245	0x3c204abb	0.009783442
246	0xbdb89c00	-0.0901413
247	0x3d508255	0.050905544
248	0xbd13510f	-0.035965975
249	0xbd2b682a	-0.041847385
250	0xbd444249	-0.047914777
251	0xbd347776	-0.04405924
252	0x3c768d8d	0.015048397
253	0x3e007cc9	0.12547602
254	0x3de4c6fb	0.11170765
255	0xbd1498bd	-0.036278475

linear_relu_stack.0.bias f4 [50]
0	0x3ce047c6	0.027377974
1	0x3cd8ef3b	0.026481261
2	0xb97a3fcc	-0.00023865624
3	0x3d315f28	0.04330364
4	0x3d1d2df1	0.03837389
5	0x3d54abc5	0.051921625
6	0xbd9905a5	-0.0747178
7	0xbdc91c1f	-0.09819817
8	0xbcf7c93e	-0.030247327
9	0xbda02b6a	-0.078207806
10	0xbc879cf4	-0.016554333
11	0xbd9776cf	-0.07395708
12	0x3d9c5b1f	0.076345675
13	0xbad888a2	-0.0016520212
14	0x3bab4202	0.0052263746
15	0xbcccca9c	-0.024998955
16	0xbdcfc139	-0.10144276
17	0x3da762ce	0.081731424
18	0x3dee4b9f	0.11635517
19	0x3d083d5c	0.03326164
20	0x3ce20e54	0.027594723
21	0xbd8cf856	-0.06883304
22	0x3e0a9187	0.13532077
23	0x3e72a10a	0.23694244
24	0x3d04af1e	0.032393567
25	0xbd73844e	-0.059452347
26	0xbe1e69a1	-0.15469982
27	0x3e0ba8c9	0.13638605
28	0x3d824560	0.063608885
29	0xbdb86e82	-0.09005453
30	0xbd894067	-0.06701737
31	0x3d5c35ae	0.05376213
32	0x3e4d8a24	0.20072228
33	0x3dd43f27	0.10363608
34	0x3c50d20c	0.012745392
35	0x3c1cbf40	0.009567082
36	0x3dfcb92f	0.123400085
37	0x3ceddcb6	0.029035907
38	0xbd7d950e	-0.061909728
39	0x3cdec87c	0.027195208
40	0xbdc09cbc	-0.09404895
41	0x3d9262a3	0.0714772
42	0x3e3cb584	0.18428618
43	0xbd290acb	-0.04127006
44	0xbb63120b	-0.0034648206
45	0xbcbaf8f8	-0.022823796
46	0x3e8cd94a	0.27509528
47	0x3c8f9a00	0.017529488
48	0xbc263ded	-0.0101466
49	0xbd138c88	-0.036022693

linear_relu_stack.2.weight f4 [40, 50]
0	0xbe686320	-0.22694063
1	0xbe1e97df	-0.15487622
2	0x3d86fe1e	0.06591438
3	0x3d824594	0.06360927
4	0x3e24a15f	0.16077183
5	0xbd03c9f4	-0.03217502
6	0x3d8ff616	0.07029359
7	0xbdc91d60	-0.09820056
8	0xbd111924	-0.035424367
9	0xbc83bb5c	-0.01608055
10	0xbc5b3250	-0.013378695
11	0xbd896fbe	-0.06710766
12	0xbd5faef3	-0.054610204
13	0xbc870a18	-0.016484305
14	0xbc9c1182	-0.019051317
15	0x3dde6742	0.108595386
16	0xbd423aa4	-0.047419205
17	0x3d0efafb	0.034907322
18	0x3d8611ac	0.065463394
19	0x3e781d24	0.24229866
20	0x3e08050c	0.13283175
21	0xbe3cf082	-0.18451121
22	0xbd66ef73	-0.0563807
23	0x3d414a1f	0.047189828
24	0x3b04dbc6	0.0020272597
25	0x3c259d20	0.010108262
26	0xbc158a60	-0.009127229
27	0x3b29eb8f	0.0025927757
28	0xbc8d689c	-0.017261796
29	0xbbeddaa0	-0.007258728
30	0xbe306c9c	-0.17228931
31	0x3da9c62a	0.0828975
32	0x3e8413ce	0.2579636
33	0x3e3d3a64	0.18479306
34	0xbd7f2cb0	-0.062298477
35	0x3d096004	0.033538833
36	0x3d9adb6d	0.075613834
37	0xbda87214	-0.08224884
38	0xbdcb891e	-0.099382624
39	0xbdba7fd4	-0.091064125
40	0x3e135e51	0.14391448
41	0xbde869ba	-0.11348291
42	0x3d87b1ed	0.066257335
43	0xbd085610	-0.0332852
44	0x3d5477f8	0.051872224
45	0x3dd23e5c	0.102658
46	0xbb7abfa9	-0.003826121
47	0x3db2f8ea	0.08738883
48	0xbd4dfcee	-0.05029004
49	0x3c8eed8b	0.017447254
50	0xbdf2a342	-0.11847545
51	0x3c76e77a	0.015069837
52	0xbdc80755	-0.097670235
53	0xbc70ba80	-0.014692903
54	0x3e1feecf	0.15618442
55	0x3cb164da	0.021654535
56	0x3dd6ab48	0.10481888
57	0x3d94f742	0.07273723
58	0x3df38876	0.11891262
59	0x3d970520	0.073740244
60	0xbb8abc80	-0.0042338967
61	0x3db35fb6	0.0875849
62	0x3cdd4cca	0.027014155
63	0x3ddadcfa	0.10686679
64	0x3c672355	0.014107545
65	0x3da93a66	0.08263092
66	0x3d63e058	0.055633873
67	0xbddfaee1	-0.109220274
68	0x3da93c1b	0.08263417
69	0x3db7ff50	0.08984244
70	0x3d5a9bff	0.053371426
71	0xbde3ed58	-0.11129254
72	0xbd90cf2d	-0.07070766
73	0xbdb8a426	-0.09015684
74	0x3e0be0d9	0.13659991
75	0x3d8b3540	0.06797266
76	0xbdf54b80	-0.11977291
77	0xbd5c2723	-0.05374826
78	0x3daca316	0.08429544
79	0xbde2dfd2	-0.110778466
80	0xbb071ed4	-0.002061774
81	0xbb895060	-0.0041904896
82	0x3dc3beac	0.09557852
83	0x3baa3c7e	0.0051951995
84	0x3d58ee36	0.05296155
85	0xbd784df4	-0.060621217
86	0xbd33c0a3	-0.043884885
87	0x3d131324	0.035906926
88	0x3e04ff49	0.12988009
89	0xbbec34e2	-0.0072084526
90	0x3e055c68	0.13023531
91	0x3cc05700	0.023478985
92	0xbd8eba12	-0.06969084
93	0x3df903ec	0.12158951
94	0xbd880320	-0.06641221
95	0x3e04b161	0.1295829
96	0xbd73509e	-0.059403054
97	0x3c6cc8f0	0.014452204
98	0x3d279a28	0.0409185
99	0xbdd3d486	-0.1034327
100	0x3e5726d3	0.21010904
101	0xbda01bfa	-0.07817836
102	0xbd8d6a63	-0.06905057
103	0xbd998ad1	-0.0749718
104	0x3d9a0cfb	0.07522007
105	0x3e903573	0.2816578
106	0xbd993bfd	-0.07482145
107	0xbdf3e3fc	-0.11908719
108	0xbdd07bc7	-0.10179859
109	0x3bd69cfa	0.006549475
110	0xbe01409e	-0.12622306
111	0xbd4897a2	-0.048972733
112	0x3bbc54fc	0.0057474356
113	0xbd9f91a1	-0.077914484
114	0x3e01015b	0.12598173
115	0xbdf7ae39	-0.12093777
116	0xbc8a6b01	-0.016896727
117	0x3dbbe0d1	0.0917374
118	0xbc3d23b0	-0.011544153
119	0xbe3d761c	-0.18502086
120	0xbddfd338	-0.10928959
121	0xbda7509e	-0.081696734
122	0x3e3d12eb	0.18464248
123	0xbe36f1e8	-0.17865717
124	0xbb2ede40	-0.0026682764
125	0xbd6a9488	-0.057270557
126	0xbe0b654a	-0.13612857
127	0x3d63f1f7	0.055650678
128	0xbda4cb5e	-0.08046602
129	0xbd300528	-0.042973667
130	0x3e14fc1d	0.14549299
131	0x3e0b1379	0.13581647
132	0xbd81c20a	-0.06335838
133	0xbce68b28	-0.028142527
134	0x3da64605	0.08118824
135	0x3dbd8e6c	0.092556804
136	0xbcd2bc5b	-0.02572458
137	0xbd07eab5	-0.03318282
138	0xbe0d5703	-0.13802724
139	0xbe1058f5	-0.14096434
140	0xbd04aaa6	-0.032389306
141	0xbd33e2b8	-0.043917388
142	0x3dc38e09	0.095485754
143	0xbd90d152	-0.07071175
144	0x3d94894e	0.07252751
145	0x3d1c382c	0.038139507
146	0x3e8640ae	0.26221222
147	0xbe0c57b6	-0.13705334
148	0xbc2fba15	-0.010725518
149	0x3de53342	0.11191417
150	0xbe064d9b	-0.13115542
151	0xbdb7ba9a	-0.08971138
152	0x3d407b12	0.04699237
153	0xbd8b34d3	-0.06797185
154	0x3e10be1c	0.14135021
155	0x3c2bbb8c	0.010481726
156	0xbd238b68	-0.03992787
157	0x3d58187a	0.052757718
158	0xbd3bb0a4	-0.045822755
159	0x3bff6211	0.007793673
160	0xbd18cda4	-0.03730549
161	0x3dfac476	0.12244503
162	0xbd84191c	-0.06450102
163	0xbb117ca5	-0.0022199538
164	0xbdb4d2af	-0.08829247
165	0x3e003d17	0.12523304
166	0x3ccc6b1b	0.024953416
167	0x3dc8f9a9	0.09813244
168	0x3be18893	0.006882736
169	0x3dd36232	0.10321464
170	0xbda50112	-0.08056845
171	0xbe16d95b	-0.14731352
172	0x3d81d698	0.06339759
173	0xbddeda66	-0.108815
174	0xbdc2860c	-0.09498224
175	0xbdd2638e	-0.10272895
176	0xbde6140c	-0.112342924
177	0xbd6fdbef	-0.058559354
178	0xbe0ef70a	-0.13961425
179	0xbc14f8d0	-0.009092525
180	0xbe2af5af	-0.16695283
181	0xbda3a893	-0.07991137
182	0xbd9524df	-0.07282423
183	0x3d8f54c6	0.06998591
184	0xbd264346	-0.0405915
185	0x3d801990	0.06254876
186	0x3d62a85d	0.055336345
187	0x3e0277b6	0.12740979
188	0xbc9cffd0	-0.01916495
189	0xbd48a062	-0.048981078
190	0x3dc8d88d	0.09806929
191	0x3dbe339e	0.09287189
192	0xbdb1465e	-0.086559996
193	0x3e005100	0.12530899
194	0x3e0b5791	0.13607623
195	0x3dea641a	0.11444874
196	0x3ddbdef4	0.10735884
197	0xbd450a66	-0.04810562
198	0xbd9de0af	-0.077088706
199	0xbd9ad12b	-0.07559427
200	0x3e2b83d8	0.16749513
201	0x3e69a926	0.22818431
202	0x3de4c101	0.11169625
203	0x3e2c0bff	0.16801451
204	0xbe4855f6	-0.19564041
205	0xbd684dc9	-0.056714807
206	0xbdc78724	-0.09742573
207	0x3cc6fcb1	0.024290415
208	0xbe08af37	-0.13348089
209	0x3ce8b56d	0.028406823
210	0x3bb51560	0.0055262297
211	0xbb09fb46	-0.0021054312
212	0x3dae7a71	0.085194476
213	0x3da8af45	0.08236555
214	0x3da393ed	0.07987199
215	0xbb78b280	-0.0037948191
216	0x3e0e54ed	0.13899584
217	0xbca46677	-0.02006839
218	0x3d89ce6b	0.06728824
219	0xba431d68	-0.00074430415
220	0x3dced9ef	0.10100161
221	0x3e24d1da	0.16095677
222	0xbd3889cf	-0.0450533
223	0x3e3dcb8b	0.18534677
224	0xbdeac80a	-0.11463936
225	0x3df4c43e	0.11951493
226	0x3e4c4b5c	0.19950622
227	0xbe6397aa	-0.22225824
228	0x3d41ba56	0.047296844
229	0xbe08d2ef	-0.13361715
230	0xbcf67e39	-0.030089485
231	0x3d9a5838	0.07536358
232	0xbca969f1	-0.0206804
233	0x3d74f156	0.05980047
234	0xbd4cd672	-0.0500092
235	0xbd8e04a6	-0.0693448
236	0x3c907b02	0.01763678
237	0xbda759d3	-0.081714295
238	0xbde944da	-0.113900855
239	0x3e38476c	0.17995995
240	0x3b289951	0.002572615
241	0x3d48d91c	0.049035177
242	0xbdeb2f4b	-0.1148363
243	0x3d2905ca	0.041265287
244	0x3e0790fe	0.13238904
245	0xbcfa76b8	-0.030574188
246	0xbe6dabc6	-0.23210058
247	0xbd1f354e	-0.038869195
248	0xbd361851	-0.044456784
249	0x3d88c6a0	0.0667851
250	0xbdd6a533	-0.10480728
251	0x3dd2cf2d	0.10293422
252	0x3db62991	0.08894647
253	0xbe052eab	-0.13006084
254	0xbd1073db	-0.03526674
255	0xbda8eb48	-0.08248001

linear_relu_stack.2.bias f4 [40]
0	0x3d568794	0.05237539
1	0xbe225958	-0.15854394
2	0x3e338fed	0.17535372
3	0xbd9d580a	-0.07682808
4	0x3c2eb242	0.010662617
5	0xbddc2a31	-0.10750235
6	0xbcee046c	-0.029054843
7	0x3e0f21d2	0.13977745
8	0x3db25dcd	0.08709297
9	0xbd9144e2	-0.070932165
10	0x3d1efc8f	0.038815077
11	0xbc8b3da9	-0.016997175
12	0xbdfa0c56	-0.12209384
13	0x3e089b0a	0.13340393
14	0x3e805f6c	0.250728
15	0x3d00edc8	0.031476766
16	0x3ddb6a5c	0.10713646
17	0x3cf3cd44	0.029760964
18	0x3d90cc2f	0.07070195
19	0x3e2eeea4	0.17083222
20	0x3e16c44b	0.14723317
21	0xbd8460f7	-0.06463807
22	0x3e4fc5e3	0.20290332
23	0x3cd872c6	0.026421916
24	0x3e099f0f	0.13439582
25	0x3cf57c2a	0.029966433
26	0xbcd7d9d5	-0.026348988
27	0x3e0aed84	0.13567168
28	0x3dc447fe	0.09584044
29	0xbdb37700	-0.08762932
30	0x3deeac59	0.116539665
31	0xbe2b97aa	-0.16757074
32	0xbdf003da	-0.117194846
33	0x3e943ddd	0.28953448
34	0x3ecf4bed	0.40487614
35	0x3dea6986	0.11445908
36	0xbdce6aea	-0.10078986
37	0x3d0e0984	0.034677044
38	0x3e56f6db	0.20992605
39	0x3bd85ef9	0.0066031185

linear_relu_stack.4.weight f4 [30, 40]
0	0xbd413444	-0.047168985
1	0xbc9ca5e5	-0.019122073
2	0x3de134c0	0.109963894
3	0x3de6b40e	0.112648115
4	0xbe1ae619	-0.15126838
5	0xbddc2b57	-0.10750454
6	0x3ae18d80	0.0017208308
7	0x3e120f4d	0.1426365
8	0xbe26a57b	-0.16274063
9	0xbda0877c	-0.078383416
10	0x3d4264b4	0.04745932
11	0x3c140d99	0.009036445
12	0x3d943aae	0.07237755
13	0xbca0204a	-0.019546647
14	0xbd3f2c71	-0.046673242
15	0x3bd10890	0.0063791946
16	0x3e1913f8	0.14949024
17	0x3db74b2d	0.089498855
18	0xbda461f3	-0.08026495
19	0x3dedb26d	0.11606298
20	0x3dc11268	0.09427339
21	0x3de73100	0.11288643
22	0x3cfc2543	0.030779487
23	0xbd89de9f	-0.06731915
24	0xbd5ccbf0	-0.053905427
25	0x3c61b542	0.013776125
26	0x3dffcb79	0.12489981
27	0xbda5154f	-0.08060705
28	0xbc4b75f0	-0.012418255
29	0x3ddab0d8	0.106782615
30	0x3ddd20a3	0.107972406
31	0x3cba00d1	0.022705467
32	0x3e2125f1	0.1573713
33	0xbde1691e	-0.11006378
34	0xbe1d87f3	-0.15383892
35	0xbe0f94c0	-0.14021587
36	0x3defdc72	0.117119685
37	0xbd2c113b	-0.04200862
38	0xbd5a80f0	-0.05334562
39	0x3d34fd77	0.044187035
40	0x3de90e2e	0.11379658
41	0xbc4564e0	-0.012047976
42	0x3d9b9816	0.075973675
43	0xbd6678c4	-0.056267515
44	0xbd065ee8	-0.032805353
45	0x3b110940	0.0022130758
46	0x3cdb9e00	0.026808739
47	0x3d3a27c8	0.045448095
48	0xbd389a90	-0.045069277
49	0xbb6299c0	-0.0034576505
50	0xbdf881f8	-0.121341646
51	0xbd868648	-0.06568581
52	0xbd15c356	-0.03656324
53	0x3ddebd12	0.10875906
54	0xbd863809	-0.065536566
55	0xbdf0c824	-0.11756924
56	0xbd673232	-0.056444354
57	0x3da7dbd6	0.08196227
58	0x3cae03e0	0.021242082
59	0x3cb9ea18	0.022694632
60	0xbe16cd60	-0.14726782
61	0xbc8d9978	-0.017285094
62	0xbd7650f2	-0.06013579
63	0xbd4c5ed6	-0.04989513
64	0xbe0f97bd	-0.14022727
65	0xbcca5f18	-0.024703547
66	0x39587400	0.00020642579
67	0xbcaa9190	-0.020821363
68	0xbda5a66b	-0.08088382
69	0xbdd34438	-0.10315746
70	0x3da0cf24	0.07852009
71	0xbda81320	-0.08206773
72	0xbe0bf296	-0.13666758
73	0xbe12dc9b	-0.14341967
74	0xbda19461	-0.07889629
75	0x3db8ca8c	0.09023008
76	0xbdc81d55	-0.0977122
77	0xbe1a103a	-0.15045252
78	0xbd57454a	-0.052556314
79	0x3dc81f4a	0.09771593
80	0x3c996afa	0.018727768
81	0xbe1aca0a	-0.15116134
82	0x3db74d2b	0.089502655
83	0xbddd365b	-0.10801383
84	0xbe40e0b7	-0.18835722
85	0x3de480c4	0.111573726
86	0x3dc89dc9	0.0979572
87	0x3e78ce46	0.24297437
88	0x3e8f692a	0.2800992
89	0xbd9507c2	-0.0727687
90	0xbe3fad14	-0.18718368
91	0xbdd65b4d	-0.10466633
92	0x3e08b234	0.13349229
93	0x3dbe0cba	0.09279771
94	0xbe4ecc09	-0.2019502
95	0x3cb6a0ee	0.022293534
96	0x3e401880	0.18759346
97	0xbdf1c106	-0.118043944
98	0xbdfa129e	-0.12210582
99	0xbe576910	-0.21036172
100	0x3e263a1e	0.16233107
101	0xbdeeeeae	-0.11666618
102	0x3e9f22b3	0.3108116
103	0x3e0d6b3e	0.13810441
104	0x3c901dfb	0.01759242
105	0xbd94118f	-0.072299115
106	0xbe8a889f	-0.2705736
107	0x3e34aede	0.17644832
108	0x3d163381	0.03667021
109	0xbda6e923	-0.08149936
110	0xbe0b427a	-0.13599578
111	0xbd22329e	-0.039599054
112	0x3c9ed763	0.019389814
113	0x3e3d7610	0.18502069
114	0x3e50f10c	0.20404452
115	0x3e605188	0.21906102
116	0xbdc63d59	-0.0967967
117	0xbe3407c4	-0.17581087
118	0x3e402bce	0.1876671
119	0xbe5b189a	-0.21396104
120	0x3db60ece	0.088895425
121	0xbd058394	-0.032596186
122	0xbe2b2316	-0.16712603
123	0x3e0775ee	0.1322858
124	0x3d08c575	0.033391435
125	0x3e07e673	0.13271503
126	0x3d5eccf5	0.05439468
127	0x3e0dd6f2	0.13851526
128	0xbddb166b	-0.10697635
129	0x3daf3b67	0.08556252
130	0x3cbaee17	0.022818608
131	0x3d9b316f	0.07577788
132	0x3e0da475	0.13832267
133	0xbc201f5f	-0.009773104
134	0x3e0e1da1	0.1387849
135	0xbd31dcb7	-0.04342338
136	0x3d47314d	0.048631
137	0xbd46589c	-0.04842435
138	0xbc1575c9	-0.00912232
139	0xbd51dbcf	-0.051235016
140	0x3c76197b	0.015020723
141	0xbd72abe2	-0.05924595
142	0xbbcd7661	-0.0062702154
143	0xbcec3013	-0.028831517
144	0xbdb069d5	-0.08613936
145	0x3d72164b	0.05910329
146	0x3c3629f4	0.011118401
147	0x3d5416ed	0.051779676
148	0x3de61f6f	0.11236464
149	0xbe0b4df2	-0.13603953
150	0xbd86cbf4	-0.0658187
151	0x3e105f9e	0.14098975
152	0x3e0aaf75	0.13543494
153	0xbdd2f12d	-0.10299907
154	0xbdfe7f34	-0.12426606
155	0xbcc5d6e0	-0.024150312
156	0xbdb62579	-0.08893866
157	0xbe34b4e0	-0.17647123
158	0xbdb4023a	-0.08789487
159	0xbe2577ba	-0.16158953
160	0x3e150637	0.14553152
161	0x3d853f77	0.065062456
162	0x3d6a374e	0.05718165
163	0xbd853647	-0.06504493
164	0x3c3c4f32	0.011493491
165	0xbd049e6b	-0.03237764
166	0x3d1ef7b9	0.038810465
167	0x3e92ee71	0.2869754
168	0x3e41defa	0.18932715
169	0xbe450276	-0.1923922
170	0x3e0cde6c	0.13756722
171	0x3df929e3	0.121661924
172	0xbc3541b1	-0.011063025
173	0xbcc3892a	-0.023869116
174	0xbe595b79	-0.212263
175	0x3eafd8f8	0.34345222
176	0x3e34890e	0.17630407
177	0xbd713e21	-0.05889714
178	0x3d9a4977	0.075335436
179	0xbdeee245	-0.11664251
180	0xbe6a85d3	-0.22902612
181	0x3d3ba4ef	0.04581159
182	0xbcde9100	-0.02716875
183	0x3e29e0e9	0.16589703
184	0x3e081869	0.13290562
185	0x3ce53224	0.02797801
186	0x3e82ae6d	0.255237
187	0x3d009f01	0.031401638
188	0xbcccfd23	-0.025023049
189	0xbd272990	-0.04081112
190	0x3e37ab9d	0.17936559
191	0xbb9275ab	-0.0044695935
192	0xbc80f3a8	-0.015741184
193	0xbd412071	-0.04715008
194	0xbd86ec8f	-0.06588089
195	0x3e4b4472	0.19850329
196	0xbd3110e0	-0.043228984
197	0x3e783341	0.24238302
198	0xbe6f8dfd	-0.23394008
199	0x3c0f7933	0.0087569235
200	0x3de5677e	0.1120138
201	0xbde89e73	-0.11358347
202	0x3db8df2b	0.09026941
203	0xbc4a7f0e	-0.012359394
204	0xbceb7d78	-0.028746352
205	0xbded0bbd	-0.115745045
206	0xbe1c8894	-0.15286475
207	0x3dd4e515	0.103952564
208	0x3d54e446	0.05197551
209	0x3e66f982	0.22556117
210	0xbbf56cef	-0.0074897925
211	0xbdcf1e3d	-0.10113189
212	0xbe310ab0	-0.17289233
213	0xbdfa77b2	-0.12229861
214	0xbd931193	-0.071810864
215	0x3d0b4742	0.034003504
216	0xbe5f0cf5	-0.21782286
217	0x3d519d4d	0.051175404
218	0xbe3c0972	-0.18362978
219	0xbddab064	-0.10678175
220	0xbda8cf60	-0.08242679
221	0x3ccb8003	0.024841314
222	0x3e03ad73	0.12859134
223	0x3d1aa66d	0.037756372
224	0x3d7c2707	0.061560657
225	0x3e295c3f	0.16539095
226	0x3e1f941a	0.1558384
227	0x3c84c552	0.01620737
228	0x3d20b47e	0.03923463
229	0xbdec6d65	-0.11544303
230	0xbe8ea7fb	-0.27862534
231	0x3e929482	0.28628927
232	0xbe2118d4	-0.15732127
233	0x3e0553d7	0.13020264
234	0xbe04e59e	-0.12978217
235	0x3ea306a5	0.31841007
236	0xbd01e304	-0.03171064
237	0x3e7fc01d	0.24975629
238	0x3cf7c20b	0.030243894
239	0xbe6a3776	-0.22872719
240	0x3e3bb2ee	0.18329975
241	0xbde747d2	-0.112929955
242	0xbd1060c3	-0.03524853
243	0x3e34db28	0.17661726
244	0x3dccb80d	0.099960424
245	0x3e052e8a	0.13006034
246	0x3d6f8de7	0.058484938
247	0xbe3644f3	-0.1779974
248	0xbea20096	-0.31641072
249	0xbd32c121	-0.043641213
250	0x3e2f597c	0.1712398
251	0x3de86e38	0.113491476
252	0x3e7eb55b	0.24873869
253	0xbce03670	-0.027369708
254	0x3e9ea0e4	0.30982125
255	0xbdb5c4e6	-0.08875446

linear_relu_stack.4.bias f4 [30]
0	0xbde6da13	-0.11272063
1	0xbc4b5630	-0.012410685
2	0x3e490aad	0.19632979
3	0x3ce45ade	0.02787536
4	0xbe08afb9	-0.13348283
5	0x3da6fb20	0.08153367
6	0x3ec489e3	0.3838645
7	0x3c91c610	0.017794639
8	0xbd8b1502	-0.06791116
9	0xbc839ccd	-0.01606598
10	0x3ea56043	0.32300004
11	0x3c70fbc0	0.014708459
12	0x3dac05d5	0.0839955
13	0xbaced2df	-0.0015779397
14	0x3d1bdcba	0.038052298
15	0x3da47bc8	0.08031422
16	0xbe1503e8	-0.14552271
17	0xbce63baf	-0.028104631
18	0x3e8a4545	0.27005973
19	0x3e8268ce	0.25470585
20	0xbdda82d7	-0.10669487
21	0xbdb02901	-0.08601571
22	0xbcb87626	-0.022517275
23	0xbc848dc3	-0.016180879
24	0x3db348a2	0.08754088
25	0x3e0a0c77	0.13481317
26	0x3e854323	0.26027784
27	0xbe4fed78	-0.20305431
28	0x3bff2f87	0.007787648
29	0x3e296151	0.1654103

linear_relu_stack.6.weight f4 [40, 30]
0	0xbda22634	-0.07917443
1	0x3dfb6ac4	0.12276223
2	0x3e74d03e	0.23907563
3	0x3dbb6e7a	0.09151931
4	0xbecface4	-0.40561593
5	0x3e375e24	0.17907006
6	0xbe331929	-0.17490067
7	0x3dfa37e4	0.122176915
8	0x3d941494	0.072304875
9	0x3e9950b6	0.2994439
10	0xbe4215f5	-0.18953688
11	0xbe392e42	-0.18084052
12	0xbd434b13	-0.04767902
13	0xbd78bfa2	-0.06072963
14	0x3c28fd5b	0.010314311
15	0xbe00831a	-0.12550011
16	0x3d29497e	0.041329853
17	0x3de07089	0.109589644
18	0x3e876ca1	0.26450065
19	0x3e587029	0.21136536
20	0xbe26be41	-0.16283514
21	0x3e8e730f	0.27822158
22	0x3c8d7e89	0.01727225
23	0x3d8f53a5	0.06998376
24	0x3d6c838f	0.05774265
25	0xbcec5bb3	-0.02885232
26	0x3c7c65f5	0.015405168
27	0x3e04f7bf	0.12985133
28	0xbebab131	-0.3646331
29	0x3e8f93c4	0.28042424
30	0x3e28b597	0.16475521
31	0xbcdf2630	-0.027239889
32	0xbcb98253	-0.022645151
33	0xbd9272e5	-0.07150821
34	0x3e0ab0a5	0.13543947
35	0xbe1f2084	-0.15539747
36	0xbdac82d3	-0.0842339
37	0xbced92fc	-0.029000752
38	0xbe2716f4	-0.1631735
39	0xbc4337f6	-0.011915198
40	0x3d16710d	0.036728907
41	0x3e1049f6	0.14090714
42	0xbd934c50	-0.0719229
43	0xbdb37292	-0.08762087
44	0x3dd8aab7	0.10579436
45	0x3d5e6aee	0.054301195
46	0x3e227dd4	0.15868312
47	0xbe1101e7	-0.14160882
48	0xbd449676	-0.047995053
49	0xbdbd237e	-0.09235285
50	0x3e0d1499	0.13777389
51	0x3e26baba	0.16282168
52	0x3dd66bd8	0.10469788
53	0xbd04a53a	-0.032384135
54	0x3d9f4e0b	0.077785574
55	0x3dafc305	0.08582119
56	0xbcbbb1e0	-0.022911966
57	0xbc6b8273	-0.014374363
58	0xbe43a49d	-0.19105764
59	0x3da17777	0.07884114
60	0x3d2b1487	0.041767623
61	0x3dbd68d0	0.09248507
62	0x3d3b2eb5	0.04569884
63	0x3d92c5bc	0.07166621
64	0xbd84c391	-0.06482614
65	0x3e0001a5	0.12500627
66	0xbd64d54d	-0.055867482
67	0x3e1e36c9	0.15450586
68	0xbe60bf24	-0.21947914
69	0x3ddd1fea	0.10797103
70	0x3e483713	0.19552259
71	0x3d421954	0.047387436
72	0xbe01fc7f	-0.12693976
73	0xbdc739d6	-0.09727828
74	0x3e9c546b	0.30533156
75	0x3e88af7b	0.2669638
76	0x3db1db86	0.08684449
77	0x3e718bb4	0.23588449
78	0xbe325cf1	-0.17418267
79	0x3e862dd9	0.26206854
80	0xbd36814b	-0.044556897
81	0x3e6a280f	0.22866844
82	0xbd234672	-0.039862104
83	0xbe47c3a3	-0.19508223
84	0xbd49dbca	-0.049281873
85	0xbca3fe97	-0.020018859
86	0xbd0b5216	-0.03401383
87	0x3e2e9304	0.1704827
88	0x3e53b698	0.20675123
89	0xbdd5182c	-0.10405001
90	0x3e252fe7	0.16131555
91	0x3d7a64c0	0.06113124
92	0x3e3518c2	0.17685226
93	0x3d3b70e8	0.045761973
94	0xbd78777c	-0.060660824
95	0xbd75d5e7	-0.060018446
96	0x3de9b392	0.114112034
97	0x3d52b09c	0.05143796
98	0xbe316bb0	-0.17326236
99	0xbe2d48f8	-0.16922367
100	0x3db03f9f	0.08605885
101	0xbdfc5ec0	-0.1232276
102	0xbdff3eb8	-0.124631345
103	0x3deec1f5	0.11658088
104	0xbda5e5b4	-0.08100453
105	0x3e8e3098	0.2777145
106	0xbcc7c9a7	-0.024388148
107	0x3d88b8bd	0.06675861
108	0x3e9ad4a1	0.30240348
109	0x3e198fc0	0.14996243
110	0xbdfa4727	-0.122206025
111	0xbdbc3904	-0.09190562
112	0x3d6f3170	0.058396757
113	0x3e3b0010	0.18261743
114	0x3bddef8a	0.00677294
115	0x3ca810bf	0.020515798
116	0x3d409ea6	0.0470263
117	0xbd926f08	-0.07150084
118	0xbe1b440a	-0.15162674
119	0xbdf91684	-0.12162498
120	0xbde42798	-0.111403644
121	0xbc867420	-0.016412795
122	0xbd2bd45a	-0.04195056
123	0x3dc68b33	0.09694519
124	0x3e4ed56b	0.201986
125	0xbe8d7c02	-0.27633673
126	0x3eb2fa52	0.34956604
127	0xbe0b1e3a	-0.1358575
128	0x3e341c9d	0.1758904
129	0xbe318fb1	-0.1733997
130	0x3e25c7f5	0.16189559
131	0xbbdcfc20	-0.006743923
132	0xbdf2c435	-0.1185383
133	0xbe0a4820	-0.13504076
134	0x3de3e7ae	0.11128174
135	0x3de6d410	0.112709165
136	0xbe5680cb	-0.20947568
137	0xbdd5b543	-0.104349636
138	0x3e8f0b37	0.27938244
139	0x3e87551f	0.2643213
140	0xbdc94cef	-0.09829127
141	0xbc1f8ceb	-0.009738187
142	0x3e0bc53f	0.13649462
143	0xbe4a6a22	-0.19767049
144	0xbe49a798	-0.19692838
145	0x3c85fb2a	0.016355116
146	0x3e2ad1a0	0.16681528
147	0xbe8516e8	-0.2599404
148	0xbe80e174	-0.25172007
149	0x3d2665e9	0.040624533
150	0xbe16e078	-0.14734066
151	0x3d3e9f24	0.046538487
152	0x3e6ea1da	0.23303929
153	0xbc6b74bd	-0.014371094
154	0xbd919a83	-0.07109549
155	0xbcd47657	-0.025935335
156	0x3dd1ed60	0.10250354
157	0xbdf52b64	-0.11971167
158	0x3d40ba50	0.04705268
159	0x3daf09c2	0.08546783
160	0x3dd5a562	0.10431935
161	0xbe216780	-0.15762138
162	0xbeb9d13c	-0.36292446
163	0xbe0eeeb0	-0.1395824
164	0x3dfdad19	0.123865314
165	0x3df92ad9	0.12166376
166	0x3dcc34ce	0.09971009
167	0x3e4a1870	0.19735885
168	0x3e05ed50	0.13078809
169	0x3d9e15ea	0.077190235
170	0xbe2ecf24	-0.17071205
171	0xbe3d99ae	-0.18515655
172	0x3ceed066	0.029152106
173	0xbe51c622	-0.20485738
174	0x3ddf4dbe	0.109035
175	0xbe10ad6e	-0.14128658
176	0x3db960ea	0.09051688
177	0xbe7206c8	-0.236354
178	0xbda8d87b	-0.082444154
179	0xbd113363	-0.035449397
180	0xbd5ca796	-0.05387076
181	0x3d3d26c4	0.046179548
182	0x3e3f3175	0.1867121
183	0xbe036b8c	-0.12833995
184	0x3df79fe9	0.12091047
185	0xbcdc9d6d	-0.026930535
186	0xbe0bf495	-0.1366752
187	0xbcd6c23c	-0.026215665
188	0xbdd4e5fc	-0.103954285
189	0x3e9081ab	0.2822393
190	0x3d9068f9	0.07051272
191	0xbe0f0a18	-0.13968694
192	0xbd0f7d21	-0.03503144
193	0xbd95ef03	-0.073209785
194	0x3daed00b	0.08535775
195	0x3e972646	0.29521388
196	0x3dffaebc	0.124845
197	0x3d0f4ea8	0.03498712
198	0x3e5c7502	0.2152901
199	0xbddb1355	-0.10697047
200	0x3d3638da	0.04448781
201	0x3cfc9e0c	0.030837081
202	0x3d286e42	0.041120775
203	0x3e95646a	0.29178172
204	0x3e041048	0.12896836
205	0x3e9a2751	0.3010812
206	0x3e9e577d	0.30926123
207	0x3d274772	0.04083962
208	0xbdedd04b	-0.11611994
209	0xbd9b5cf1	-0.075860865
210	0x3e0d75f2	0.13814524
211	0x3e04fb4a	0.12986484
212	0xbd79909f	-0.060928937
213	0xbce2b1f6	-0.027672749
214	0xbe794e64	-0.2434631
215	0xbd997478	-0.07492918
216	0x3e24564f	0.16048549
217	0x3d820d1d	0.063501574
218	0x3d3e228b	0.04641966
219	0xbdcfc5c2	-0.10145141
220	0x3e11914e	0.14215586
221	0x3db390c8	0.08767849
222	0x3d954b5b	0.072897635
223	0x3e7304ed	0.23732348
224	0x3d63dcde	0.055630557
225	0xbdeb4b28	-0.11488944
226	0xbe52a199	-0.20569457
227	0xbe3f10d4	-0.18658763
228	0xbd3bc0e5	-0.045838255
229	0x3e3b8632	0.1831291
230	0x3e2beb50	0.16788983
231	0x3c58eae5	0.013239597
232	0xbe251a03	-0.16123204
233	0x3c9ec0fa	0.019379128
234	0xbe423686	-0.18966112
235	0xbdabbed8	-0.0838601
236	0xbd1fe098	-0.03903255
237	0xbe03d54a	-0.12874332
238	0xbd9f777f	-0.07786464
239	0x3e2814fd	0.16414256
240	0x3e235bc6	0.15952978
241	0x3dd3e6dc	0.10346767
242	0x3bdc7c3e	0.006728678
243	0xbdfb5ac6	-0.12273173
244	0xbde7fb3d	-0.11327217
245	0x3dc2cd34	0.09511796
246	0xbe4fe8b8	-0.20303619
247	0x3e2b0835	0.1670235
248	0xbdc7191e	-0.097215876
249	0x3e6ed5ad	0.23323698
250	0xbdc479ee	-0.09593569
251	0x3e00a8a0	0.12564325
252	0xbe432f4e	-0.19061014
253	0x3d41986d	0.047264505
254	0xbd27f0d9	-0.041001175
255	0x3d3e3d89	0.046445403

linear_relu_stack.6.bias f4 [40]
0	0xbe16f52d	-0.14741965
1	0xbd83e35c	-0.0643985
2	0x3dc2952e	0.0950111
3	0xbe5f9a1e	-0.21836135
4	0x3e59bf70	0.21264434
5	0x3d8760f2	0.06610288
6	0xbd8cacea	-0.06868918
7	0x3e7d89c5	0.24759586
8	0x3c3d35d6	0.01154848
9	0xbd44b81a	-0.048027135
10	0x3bbf6f09	0.005842094
11	0xbd542fd0	-0.05180341
12	0xbd6b2ea9	-0.057417545
13	0x3d70e4a3	0.058811795
14	0xbe3a9e83	-0.1822453
15	0xbdf12742	-0.11775066
16	0xbdac4975	-0.08412448
17	0xbe1c5403	-0.15266423
18	0x3e71bd11	0.2360728
19	0x3e63882d	0.22219916
20	0xbda8c6c1	-0.08241034
21	0x3e2ecc5c	0.17070144
22	0xbde5c494	-0.11219135
23	0x3e284f5e	0.16436526
24	0xbd0575fa	-0.032583214
25	0x3ea67c3e	0.32516664
26	0x3e8c2386	0.27370852
27	0x3ce2801e	0.027648982
28	0xbd8582cd	-0.06519089
29	0x3da29f36	0.07940523
30	0x3e57a814	0.2106021
31	0xbcd05366	-0.025430392
32	0xbc59e62d	-0.013299507
33	0x3eb8993a	0.36054403
34	0x3d762b85	0.060100097
35	0x3be8b9f1	0.007102244
36	0x3e242ec0	0.16033459
37	0x3b8db84a	0.0043249475
38	0xbcefcade	-0.02927154
39	0xbe13d82e	-0.14437935

linear_relu_stack.8.weight f4 [50, 40]
0	0xbec52bf3	-0.38510093
1	0xbdcfb096	-0.10141103
2	0xbd3d6b64	-0.046244994
3	0x3c70942d	0.014683765
4	0x3d36c133	0.044617843
5	0x3dbe7729	0.09300072
6	0x3e192b07	0.1495782
7	0xbd093845	-0.03350093
8	0x3dd4c18d	0.103884794
9	0x3e218a42	0.15775397
10	0xbe16ffc9	-0.14746012
11	0x3dd3976e	0.10331617
12	0xbe02a0e8	-0.12756693
13	0x3d190839	0.037361357
14	0xbdb305d0	-0.08741343
15	0xbe105cc3	-0.14097886
16	0x3cdc52b7	0.02689491
17	0xbdb9fe39	-0.09081692
18	0x3e017666	0.12642822
19	0xbdd54f21	-0.10415483
20	0x3d86e997	0.065875225
21	0xbe937b22	-0.2880488
22	0xbe3191c7	-0.17340766
23	0xbdde9be9	-0.10869581
24	0xbc5bad33	-0.013407993
25	0x3e15a25e	0.1461272
26	0xbe13db2d	-0.14439078
27	0xbe2e6549	-0.17030825
28	0x3d939ebe	0.07208012
29	0xbcec0684	-0.0288117
30	0x3ea564a3	0.32303342
31	0xbe4b5b1d	-0.19858976
32	0xbdfba858	-0.122879684
33	0xbcf0d5fb	-0.029398909
34	0x3e66707d	0.22503848
35	0x3d0ae1db	0.0339068
36	0x3cf63662	0.030055229
37	0xbe80b54a	-0.25138313
38	0x3cecb082	0.02889276
39	0xbd7bcf84	-0.0614772
40	0x3d1c3947	0.03814056
41	0x3dbeae4d	0.09310589
42	0xbe5c0e40	-0.21489811
43	0xbdb5d1a6	-0.08877878
44	0xbddfb887	-0.10923868
45	0xbde596f6	-0.11210434
46	0x3c0014ea	0.007817486
47	0xbd3b0189	-0.04565576
48	0xbdff859e	-0.12476657
49	0x3bfd3275	0.007726962
50	0x3c8155d8	0.015788004
51	0xbd55f320	-0.052233815
52	0xbd8c03be	-0.06836651
53	0x3de1d92f	0.110277526
54	0x3d94746c	0.07248768
55	0x3d677591	0.056508604
56	0x3df098e4	0.117479116
57	0x3df873f7	0.121314935
58	0xbe1521b0	-0.14563632
59	0xbc9cffd5	-0.019164959
60	0xbe4dbc41	-0.20091344
61	0xbd74398e	-0.0596252
62	0xbce04ce8	-0.027380422
63	0x3e29f901	0.16598894
64	0x3d091a8e	0.03347259
65	0xbd1b10bd	-0.03785776
66	0xbe763e34	-0.24047166
67	0x3e08d3f5	0.13362105
68	0xbdf2d0aa	-0.11856206
69	0x3d93d596	0.07218473
70	0xbe6cb132	-0.2311447
71	0xbe12e1f1	-0.14344002
72	0x3df5649d	0.11982081
73	0x3ea1b72a	0.31585056
74	0x3d23980f	0.039939936
75	0x3eacbaa8	0.33736157
76	0x3e68ae10	0.2272265
77	0x3e649f9f	0.22326516
78	0x3d80a6d1	0.06281818
79	0x3e1d46d6	0.15359053
80	0xbe79efea	-0.24407926
81	0x3d923865	0.07139663
82	0x3d8832b1	0.066502936
83	0xbc72b1e1	-0.014812917
84	0x3e7570bf	0.2396879
85	0xbd5f4074	-0.054504827
86	0x3e3d5d8e	0.1849272
87	0xbd906763	-0.070509695
88	0xbe2643eb	-0.16236846
89	0x3e3b8e66	0.1831604
90	0x3e65bb4a	0.22434726
91	0x3de7af6e	0.113127574
92	0xbc53fbe9	-0.012938478
93	0xbdc8ddb6	-0.09807913
94	0x3e1d52f5	0.15363677
95	0xbe0deea6	-0.13860568
96	0x3daf5b5d	0.08562348
97	0x3dd936fd	0.10606191
98	0xbcb023da	-0.02150147
99	0xbdf338b0	-0.11876047
100	0x3e39c5a8	0.18141806
101	0xbd895b81	-0.06706906
102	0x3ea045c1	0.31303218
103	0x3dd10621	0.10206247
104	0x3dbaeca8	0.0912717
105	0x3d757a83	0.05993129
106	0xbdb0176b	-0.085982166
107	0xbe24715a	-0.16058865
108	0xbd615094	-0.055008486
109	0xbd5b98b1	-0.053612415
110	0x3d4537dd	0.04814898
111	0x3e86b61d	0.26310816
112	0x3d79e54c	0.06100969
113	0xbe9b28ed	-0.3030466
114	0x3db52111	0.088441975
115	0x3dac25a8	0.0840562
116	0xbe615d14	-0.22008163
117	0x3de6425c	0.11243126
118	0x3e023930	0.12717128
119	0xbd706008	-0.058685333
120	0x3dc3eb3a	0.0956635
121	0x3db00512	0.08594717
122	0x3b162a37	0.0022913346
123	0x3d864de5	0.06557826
124	0x3e23467b	0.15944855
125	0x3dadad5d	0.08480332
126	0xbd4f43ca	-0.050601758
127	0x3dbf859d	0.093516566
128	0x3e2a8330	0.16651607
129	0x3d70c97d	0.058785904
130	0xbddbe5ad	-0.107371666
131	0x3d9c7030	0.076385856
132	0x3d00d160	0.031449676
133	0x3e2aa226	0.16663417
134	0x3cdb46d8	0.02676718
135	0xbe2120e4	-0.15735203
136	0x3c29f0d5	0.01037236
137	0xbdf6438f	-0.120246045
138	0x3b81e38e	0.003963894
139	0x3e1dc302	0.15406421
140	0x3e020976	0.12698922
141	0x3d5e9d7c	0.054349408
142	0xbdd6bae8	-0.10484868
143	0x3bea16e0	0.00714384
144	0xbcc83451	-0.024439009
145	0xbbd93dd2	-0.006629684
146	0x3e04d4ef	0.12971853
147	0x3d462c39	0.048382018
148	0xbc068e30	-0.008212611
149	0x3d048419	0.03235254
150	0xbdfde372	-0.123968974
151	0xbdde4475	-0.10852901
152	0xbd313182	-0.043260105
153	0xbe1aa2d6	-0.1510118
154	0x3daf379f	0.08555531
155	0xbe572649	-0.21010698
156	0xbe5f925c	-0.21833175
157	0x3d9e33be	0.07724713
158	0x3ca899fd	0.02058124
159	0xbd7211ee	-0.05909913
160	0x3cef49b4	0.02920995
161	0x3d39394f	0.04522067
162	0x3d4ad67b	0.04952095
163	0xbeaa1005	-0.33215347
164	0xbdbddf82	-0.09271146
165	0x3dd942f9	0.10608477
166	0xbe33841d	-0.17530866
167	0x3e36c8c1	0.17850019
168	0x3d200e7c	0.039076313
169	0x3dd2bf16	0.10290353
170	0x3e0476f8	0.12936008
171	0xbd9f1417	-0.07767504
172	0x3de531f8	0.111911714
173	0xbe17cbce	-0.14823839
174	0x3cd18378	0.025575384
175	0x3c93d0ca	0.018043894
176	0x3e46ebb2	0.19425848
177	0xbe2303e5	-0.15919454
178	0x3d370c59	0.04468951
179	0xbe1212d4	-0.14264995
180	0xbe4f3fcf	-0.20239185
181	0x3dbf0902	0.0932789
182	0x3e64155f	0.22273777
183	0xbd8f5ff6	-0.07000725
184	0xbcb9c33f	-0.022676108
185	0xbd804ea9	-0.06265003
186	0x3c516589	0.0127805555
187	0xbccc0f98	-0.02490978
188	0x3dd918b6	0.10600416
189	0x3e8a7532	0.27042538
190	0x3bb91587	0.005648318
191	0x3cadba99	0.02120714
192	0xbbdf2428	-0.00680973
193	0xbd06167b	-0.032736283
194	0x3d7abc78	0.061214894
195	0x3d48d15d	0.04902779
196	0xbbf3da99	-0.0074418304
197	0x3dab2117	0.08355921
198	0x3d935a44	0.07194951
199	0x3d94c975	0.072649874
200	0x3dcd4ef2	0.10024823
201	0xbde22fee	-0.11044298
202	0xbe2602c3	-0.16211991
203	0xbd6316d5	-0.055441696
204	0xbebbe14a	-0.3669532
205	0x3de7ea6a	0.11324008
206	0xbe691da2	-0.2276521
207	0xbe06de98	-0.1317085
208	0xbe51af2d	-0.2047698
209	0xbeb9f980	-0.36323166
210	0xbdae8114	-0.085207134
211	0xbdedff12	-0.116209164
212	0x3d1f639d	0.038913358
213	0xbe630958	-0.22171533
214	0x3d1d8828	0.038459927
215	0xbd817b47	-0.063223414
216	0x3d9a6b44	0.075399905
217	0x3e154c8a	0.14579979
218	0x3e4bfb5a	0.19920102
219	0x3d9f8cb5	0.077905096
220	0xbd171cb4	-0.036892608
221	0x3e4929ce	0.19644853
222	0xbe19f1c3	-0.15033631
223	0x3d8a2114	0.067445904
224	0xbdb0c937	-0.08632129
225	0x3c261622	0.010137113
226	0xbe1b13fd	-0.15144344
227	0x3dd8f5c3	0.1059375
228	0x3c542f60	0.012950748
229	0x3c7248a5	0.014787828
230	0x3dd95c73	0.106133364
231	0xbdc54af6	-0.09633438
232	0x3de4dcfe	0.111749634
233	0x3d70061d	0.05859958
234	0x3e58eccb	0.2118408
235	0x3e3377ff	0.17526244
236	0xbb7b60a7	-0.003835717
237	0xbea4edd0	-0.32212687
238	0x3d71f59d	0.059072126
239	0xbe18a09e	-0.1490502
240	0xbd70890c	-0.058724448
241	0x3d9392a4	0.07205704
242	0xbe0e4976	-0.1389521
243	0xbdc28951	-0.09498847
244	0x3e25468e	0.16140196
245	0xbd598f00	-0.05311489
246	0x3e8285d7	0.25492737
247	0xbd60eed9	-0.054915283
248	0x3d5865b4	0.052831367
249	0xbe435636	-0.19075856
250	0x3e3131dc	0.17304176
251	0xbd7b8e02	-0.061414726
252	0x3d487358	0.048938125
253	0xbd9ab603	-0.07554247
254	0x3c2d2970	0.0105689615
255	0xbd850bae	-0.06496368

linear_relu_stack.8.bias f4 [50]
0	0x3eb6891f	0.3565149
1	0x3e13c49b	0.14430468
2	0x3c41a801	0.01181984
3	0x3ea7ca4f	0.32771537
4	0x3e644889	0.22293295
5	0x3e2465c5	0.16054447
6	0x3ee704ac	0.45120752
7	0xbd0e64a9	-0.034763966
8	0xbc1aabba	-0.009440357
9	0x3d867f03	0.06567194
10	0xbd594463	-0.053043734
11	0xbd0f3e26	-0.03497138
12	0x3d5b85da	0.053594448
13	0x3e80eae8	0.2517922
14	0xbe0d4c65	-0.13798673
15	0x3adf8077	0.0017051835
16	0x3cae0109	0.021240728
17	0x3c4bad47	0.012431449
18	0xbdf6c613	-0.120494984
19	0xbc8bf997	-0.017086787
20	0xbe128c76	-0.14311394
21	0x3e056696	0.13027415
22	0xbd83051e	-0.063974604
23	0x3ca3c6a2	0.019992176
24	0x3e0ece94	0.13945991
25	0x3f106998	0.56411123
26	0xbdaeb815	-0.085312046
27	0x3d01234a	0.031527795
28	0xbdf2ddbc	-0.11858699
29	0x3caa25c9	0.02076997
30	0x3ee49678	0.4464605
31	0xbe046126	-0.12927684
32	0x3c5f2f1d	0.0136220725
33	0x3de14cb6	0.110009596
34	0x3de533a9	0.11191494
35	0x3e250291	0.1611426
36	0xbe22b6e6	-0.15890083
37	0x3de0e7e2	0.10981728
38	0x3eb01b5d	0.34395877
39	0xbcc8ae77	-0.024497254
40	0xbbb9bfa0	-0.0056685954
41	0xbd02a0a4	-0.03189148
42	0xbc66bbb7	-0.014082841
43	0xbdb67d70	-0.08910644
44	0x3d355bd8	0.044277042
45	0x3e42eb69	0.19035114
46	0xbd9e0dbb	-0.07717463
47	0x3d2dd91a	0.042443372
48	0x3dfb5d86	0.122736976
49	0x3dfc52b2	0.123204604

linear_relu_stack.10.weight f4 [102, 50]
0	0xbe046857	-0.12930427
1	0xbb478598	-0.0030444618
2	0xbd269148	-0.040665895
3	0xbd9e2bb2	-0.07723178
4	0xbd5d1752	-0.053977318
5	0x3cda96f9	0.026683317
6	0xbda199b7	-0.07890647
7	0x3e064800	0.13113403
8	0x3d14f50d	0.03636651
9	0x3defe296	0.1171314
10	0xbdd65fd5	-0.10467497
11	0x3d3385e0	0.043828845
12	0xbbbcf380	-0.005766332
13	0xbcb31132	-0.021858785
14	0xbd640240	-0.05566621
15	0x3b7726cb	0.0037712331
16	0x3d7ad582	0.061238773
17	0x3d719358	0.05897841
18	0x3c808c3a	0.015691865
19	0xbaa66566	-0.0012695014
20	0x3b694974	0.003559676
21	0x3d73189a	0.059349634
22	0x3dd70306	0.104986235
23	0xbd5fff10	-0.054686606
24	0x3c34e6bd	0.01104134
25	0x3d9d8eff	0.0769329
26	0xbdc9b05e	-0.098480925
27	0x3e101747	0.1407138
28	0x3e0fd6bd	0.1404676
29	0x3e01f5ac	0.12691373
30	0x3d9e458c	0.07728109
31	0x3cb906e9	0.022586303
32	0xbcead06f	-0.028663842
33	0xbdf4973c	-0.11942908
34	0x3dbf48da	0.09340067
35	0x3e09e996	0.13468012
36	0xbc9bb8fe	-0.01900911
37	0x3ddab1ca	0.10678442
38	0xbbf30317	-0.00741614
39	0xbd17314f	-0.03691226
40	0xbde9bf29	-0.11413414
41	0x3e079730	0.13241267
42	0x3ce4c358	0.027925178
43	0x3dc3dc05	0.0956345
44	0x3ad6a74f	0.0016376766
45	0xbdb7997d	-0.089648224
46	0x3de4791b	0.111559115
47	0xbd0ef30e	-0.034899764
48	0xbc5b883f	-0.013399183
49	0xbc87e5a2	-0.01658899
50	0xbd4c5e84	-0.049894825
51	0xbc977d50	-0.01849237
52	0xbd1a0500	-0.037602425
53	0x3d99815b	0.07495376
54	0xbdd64c98	-0.10463828
55	0x3c4f8161	0.012665124
56	0xbdc581a2	-0.09643866
57	0x3d231c51	0.039821927
58	0xbda9be67	-0.082882695
59	0x3dc7f337	0.097631864
60	0x3d35c003	0.04437257
61	0xba963d00	-0.0011462271
62	0xbd24dd33	-0.040250015
63	0xbc3693ff	-0.011143683
64	0x3e084c11	0.13310267
65	0x3cd2987f	0.025707481
66	0x3d508c03	0.050914776
67	0xbd519314	-0.051165655
68	0x3d072af0	0.032999933
69	0xb9ad7cf5	-0.00033090232
70	0x3dcf967d	0.10136125
71	0xbda9e9b9	-0.08296532
72	0xbd872926	-0.06599645
73	0xbd1be83b	-0.03806327
74	0x3d8bcf0b	0.068266
75	0x3d2bd310	0.04194933
76	0x3d444083	0.047913086
77	0x3de4e898	0.11177176
78	0x3e06a791	0.13149859
79	0x3cafea3b	0.021473994
80	0xbdb01cf8	-0.08599275
81	0x397fd954	0.00024399656
82	0xbc3238e9	-0.010877826
83	0x3d210ff3	0.03932185
84	0x3d883528	0.06650764
85	0x3a708367	0.0009174854
86	0x3daa6d0b	0.083215795
87	0xbd4af2f0	-0.04954809
88	0xbdcd05eb	-0.100108944
89	0xbc1a4960	-0.009416908
90	0xbde88dac	-0.11355147
91	0x3d5154f3	0.051106405
92	0xbd3b7d29	-0.04577366
93	0x3e0f5e4d	0.14000817
94	0x3d044929	0.032296333
95	0xbdc37290	-0.095433354
96	0x3dc7f647	0.097637706
97	0xbbd9c2d8	-0.0066455416
98	0xbc873599	-0.01650505
99	0x3c4b4d1b	0.01240852
100	0x3db21e18	0.08697146
101	0x3d2fcdb3	0.04292078
102	0xbd82e882	-0.063920036
103	0x3d842a3f	0.0645337
104	0xbd951e13	-0.07281127
105	0xbc9e5d9a	-0.019331742
106	0x3cb88c02	0.022527698
107	0x3d65f797	0.056144323
108	0x3bf69068	0.007524539
109	0x3cf7eb51	0.030263575
110	0x3dec07fb	0.1152496
111	0xbd9e7876	-0.0773782
112	0x3e22fe83	0.15917401
113	0x3c8e48cb	0.017368695
114	0x3de31ac2	0.11089088
115	0xbd00352d	-0.031300712
116	0xbe033d23	-0.1281629
117	0xbd96ea8d	-0.07368956
118	0x3dd6f94c	0.10496768
119	0xbd8daa1f	-0.06917214
120	0x3ce72188	0.028214231
121	0xbc9a5834	-0.018840887
122	0x3d45a1e2	0.048250087
123	0x3e66af28	0.22527754
124	0x3d4ece6c	0.050489828
125	0xbb31635f	-0.0027067286
126	0x3e08e75d	0.13369508
127	0xbd988f4a	-0.07449205
128	0x3d628ac0	0.055308104
129	0xbd916fa8	-0.07101375
130	0x3d440547	0.047856595
131	0x3d2e2fbf	0.042526003
132	0xbce6f89e	-0.028194722
133	0xbd921b9c	-0.07134172
134	0xbd1fde0d	-0.039030124
135	0xbd663bea	-0.056209482
136	0xbdd04ed3	-0.101712845
137	0x3b85c574	0.004082376
138	0x3caa5c71	0.020796033
139	0x3dc7f49c	0.097634524
140	0xbd4c3034	-0.049850658
141	0x3dd691dd	0.1047704
142	0x3da4d64f	0.080486886
143	0xbcb87f92	-0.022521768
144	0xbd95312e	-0.07284771
145	0xbcdf3ffd	-0.027252192
146	0x3e0eb478	0.13936031
147	0x3d9ffde9	0.078121014
148	0x3df3f842	0.11912586
149	0xbe0a70ae	-0.13519546
150	0xbd5960f9	-0.053070996
151	0xbbc0b9b2	-0.0058815116
152	0x3ade79fc	0.001697361
153	0xbd6a4d7e	-0.05720281
154	0xbce6f076	-0.028190833
155	0x3c32d2f4	0.010914553
156	0xbd289f15	-0.041167337
157	0xbd9ef9bb	-0.07762476
158	0x3c93a049	0.018020766
159	0x3d24d5cc	0.040242955
160	0x3ce3a793	0.027789867
161	0xbbae24a0	-0.0053144246
162	0xbb744644	-0.0037273327
163	0x3b3a3ef7	0.0028418878
164	0x3cd59058	0.026069805
165	0x3caaa9dd	0.02083295
166	0xbd0cb8de	-0.03435599
167	0x3d2b04f0	0.041752756
168	0xbc8164a0	-0.015795052
169	0xbb3775ca	-0.0027993792
170	0xbd26c4a6	-0.040714882
171	0xbc45bcf2	-0.012068974
172	0x3d695330	0.0569641
173	0xbc910d37	-0.017706497
174	0x3bec4774	0.0072106663
175	0x3d1582d0	0.036501706
176	0xbd83c649	-0.06434304
177	0x3c9c5264	0.019082256
178	0x3df7bc32	0.12096442
179	0xbd2719e2	-0.04079617
180	0x3d013b4e	0.031550698
181	0x3cc1d40a	0.023660678
182	0xb927d6a4	-0.00016006321
183	0xbd33c8d9	-0.043892715
184	0x3d83ac01	0.064292915
185	0x3d99e5c1	0.07514525
186	0xbe0d567a	-0.1380252
187	0x3d44d508	0.048054725
188	0xbbefb371	-0.0073150923
189	0xbc230328	-0.009949483
190	0x3db5f268	0.08884126
191	0x3cfc290e	0.030781295
192	0x3d99ef4d	0.07516346
193	0x3b46b0ea	0.0030317851
194	0x3d21cdb4	0.039502814
195	0xbd77cfa8	-0.06050077
196	0xbcb6dd85	-0.022322426
197	0xbd505f93	-0.050872397
198	0xbce70ad8	-0.028203413
199	0xbcd9ec6f	-0.026601998
200	0xbcaef28f	-0.021355895
201	0xbd2aed7a	-0.04173038
202	0xbcade730	-0.021228403
203	0xbceb41f9	-0.028717982
204	0xbc67ab56	-0.014139971
205	0x3c2bc85b	0.01048478
206	0xbd33fb2e	-0.043940715
207	0x3d9defd7	0.077117614
208	0xbd50cbeb	-0.05097572
209	0x3d819433	0.06327095
210	0x3cd8bbc7	0.026456727
211	0xbe037fae	-0.12841675
212	0xbca6ea3a	-0.02037536
213	0xbcd95fd3	-0.02653495
214	0xbccf3e0c	-0.025298141
215	0x3ca02cdf	0.019552646
216	0x3c4ea703	0.012613061
217	0x3b90ce9a	0.00441916
218	0xbb824bb8	-0.0039763115
219	0xbb0c5af6	-0.0021416522
220	0x3d0ee876	0.03488966
221	0xbc90b4fa	-0.017664421
222	0xbd8e8bd4	-0.06960264
223	0x3bdeaadf	0.0067952718
224	0x3d964bdf	0.0733869
225	0x3d4ae25a	0.049532272
226	0x3de3f1f2	0.11130132
227	0xbcf00908	-0.029301181
228	0x3d74866c	0.059698507
229	0xbcf9f3c3	-0.030511742
230	0xbd89d50e	-0.0673009
231	0x3b91e41f	0.004452243
232	0x3b13e0ad	0.0022564337
233	0x3d4cf969	0.050042544
234	0x3d198444	0.037479654
235	0x3aab6088	0.0013075033
236	0xbe0add90	-0.13561082
237	0xbcc4dd93	-0.024031436
238	0xbd837566	-0.06418876
239	0xbaa41868	-0.0012519481
240	0xbdad81e8	-0.08472043
241	0xbcafe836	-0.021473031
242	0xbc5c7338	-0.013455205
243	0xbd808aab	-0.06276449
244	0x3cdf02e2	0.027223054
245	0xbd30e401	-0.04318619
246	0xbd0b2fa9	-0.033981
247	0xbd166166	-0.03671398
248	0xbc708dd7	-0.014682255
249	0xbd592942	-0.053017862
250	0x3cecf2fb	0.028924456
251	0xbcc6ac74	-0.024252154
252	0xbd424b29	-0.04743496
253	0xbcde6ede	-0.027152475
254	0xbd5cf326	-0.053942822
255	0x3bfe9112	0.0077687586

linear_relu_stack.10.bias f4 [102]
0	0xbd31b639	-0.04338667
1	0xbe42c590	-0.19020677
2	0xbd84ace2	-0.06478287
3	0xbc430684	-0.011903409
4	0xbdb4ba8b	-0.08824643
5	0xbca9b308	-0.020715252
6	0xbc31be61	-0.0108486125
7	0xbba34a06	-0.0049831895
8	0x3c029c0e	0.007971777
9	0x3c6d44fd	0.01448178
10	0x3dca6a21	0.09883524
11	0x3be6d9ac	0.0070449915
12	0x3d5a442e	0.053287677
13	0x3db75274	0.089512736
14	0xbae16350	-0.0017195735
15	0x3e66b312	0.22529247
16	0x3d51b987	0.051202323
17	0xbc749727	-0.014928616
18	0x3ec21277	0.37904713
19	0xbdc64a7b	-0.09682175
20	0xbe3d6d73	-0.18498783
21	0x3eccf191	0.4002805
22	0xbdd65c77	-0.10466855
23	0xbdd32401	-0.103096016
24	0x3ebe9330	0.3722167
25	0xbe0e8ea4	-0.139216
26	0xbdcde4f2	-0.100534335
27	0x3eb921d1	0.36158612
28	0xbde32385	-0.11090759
29	0xbc8218d3	-0.015880978
30	0x3e908062	0.28222948
31	0xbe5c2563	-0.21498637
32	0xbcc19915	-0.023632566
33	0x3bd8022c	0.006592056
34	0x3dabb369	0.08383829
35	0x3cffa912	0.031208549
36	0xbe5e2abc	-0.2169599
37	0x3dccc60d	0.09998713
38	0x3e214139	0.15747537
39	0xbe893df7	-0.26805088
40	0xbe12751d	-0.14302488
41	0x3e27c61a	0.16384163
42	0xbd18fef6	-0.037352525
43	0xbe40a863	-0.18814234
44	0x3e69ebd9	0.22843875
45	0xbc9e0a58	-0.019292042
46	0xbe3c97f0	-0.18417335
47	0x3e949aca	0.29024345
48	0x3d8a21dd	0.0674474
49	0xbe5a9337	-0.2134522
50	0x3eaeee46	0.34166163
51	0x3dc53e4c	0.09631023
52	0xbe81859c	-0.25297248
53	0x3e8f412c	0.2797941
54	0x3da30cef	0.07961451
55	0xbe51197d	-0.2041988
56	0xbe03c2ce	-0.12867281
57	0x3ca7e321	0.020494046
58	0xbec6d939	-0.38837603
59	0xbebce865	-0.36896053
60	0xbc4dc616	-0.012559434
61	0xbeed8862	-0.46393114
62	0xbef5a702	-0.4797898
63	0xbc2e909e	-0.010654597
64	0xbf0bdf58	-0.5463767
65	0xbed4ddc6	-0.4157545
66	0xbddec2d3	-0.108770035
67	0xbe07d828	-0.13266051
68	0xbb9d9424	-0.0048089195
69	0xbe207de6	-0.15673026
70	0xbe8d879d	-0.27642527
71	0xbe0b8c84	-0.13627821
72	0xbe208e73	-0.1567934
73	0xbed4bcbd	-0.41550246
74	0xbe898219	-0.2685707
75	0xbe396324	-0.18104225
76	0xbf082e07	-0.5319523
77	0xbe6fc88a	-0.23416343
78	0x3da079b2	0.078357115
79	0x3d6770d6	0.056504093
80	0x3e6415fc	0.22274011
81	0x3d905011	0.070465215
82	0x3d8ff3f2	0.07028951
83	0x3e651109	0.2236978
84	0x3e279379	0.1636485
85	0x3df9ea83	0.12202933
86	0x3e486354	0.1956914
87	0x3e370ba0	0.17875528
88	0x3e293ac7	0.16526328
89	0x3e00e99a	0.12589112
90	0x3dc5d0d4	0.096589714
91	0x3dbfb4be	0.09360646
92	0x3e913582	0.28361136
93	0xbc9b7bc7	-0.01897992
94	0x3e56cfda	0.20977727
95	0x3e415f03	0.188839
96	0xbc9b0666	-0.01892395
97	0xbed726da	-0.4202183
98	0xbf0e793a	-0.5565373
99	0xbe4fec15	-0.20304902
100	0xbee28b83	-0.44247064
101	0xbeb165f0	-0.34648085
