baselines/P&C_simplified/Weights/Normalised/standard.pth (torch, 71730 bytes, 12 tensors)

linear_relu_stack.0.weight f4 [50, 102]
-0.06281391 -0.16545413 0.10505524 0.015347308 -0.0019426636 0.10579321 -0.0776723 -0.017305873
-0.022660173 0.04273394 0.07585445 -0.072908156 0.08518847 -0.026531152 -0.07736773 0.035918903
0.08238546 -0.120476075 0.119606614 -0.07349966 0.006455794 0.03424861 -0.063471526 -0.21254458
0.045291074 -0.09754801 -0.33363688 -0.042914994 -0.14064628 -0.41633895 -0.010577984 -0.10893079
-0.3320619 -0.0729232 -0.050495747 -0.08945939 -0.08884256 -0.03919157 0.009343767 -0.13087781
-0.029529108 0.019342095 0.082001805 0.16817331 0.08183896 -0.07080573 0.17975916 0.10931644
-0.042879906 0.19307259 0.12075383 0.09646012 0.10139239 0.20463845 -0.05192038 -0.08492286
0.08467712 -0.09152356 -0.13481624 0.1303467 -0.09294397 -0.0999252 0.029694913 0.060071383
0.00085116137 0.03680836 0.011992924 -0.14175758 0.23051408 0.08176708 -0.018340612 0.12699696
-0.03997824 -0.062274475 0.01885585 0.055110153 -0.21648778 0.08195524 -0.06842836 0.013059921
0.05705203 -0.049484406 0.011317306 -0.06276155 -0.020533273 0.1470701 -0.013331836 0.11842112
0.12440252 0.04315092 -0.1795498 0.031269215 -0.14785199 -0.124326296 0.10763645 -0.09618687
-0.032292746 -0.046100818 0.076036625 -0.10683771 -0.03157778 0.054153305 -0.036803935 -0.028010435
0.061553158 -0.04092243 0.058704946 -0.05361398 -0.05450898 -0.04672408 0.07977495 0.10427247
0.032035578 0.107562594 0.08458261 0.056986168 -0.05915176 -0.029126467 -0.08706004 0.08221091
0.025828578 -0.056197964 -0.09894723 0.033217207 0.0121385055 -0.035811048 0.08218675 -0.14696404
-0.1026207 0.07887755 -0.13351087 -0.023395155 0.09551044 0.0124493325 -0.017315116 0.038271468
0.06904322 0.07289506 0.11754305 -0.016493697 -0.015336337 0.08652653 -0.0065349024 -0.031932082
0.107205234 -0.061797693 -0.22476973 -0.06845949 0.04298655 -0.19453235 0.060340267 0.03303405
-0.32650355 -0.06360462 0.006987469 -0.24077399 -0.16538046 -0.08125724 -0.09497329 -0.010816062
-0.0032842553 -0.0540003 0.0005021769 0.0152638005 -0.0034175746 -0.08602499 -0.07251418 0.057121985
-0.11811245 0.03956055 0.01546683 -0.106465414 -0.039015338 0.079317056 -0.11582525 -0.06823616
-0.04147332 -0.2116801 -0.016720572 -0.06339622 -0.008493855 0.0008559764 -0.04620686 0.07063722
-0.0041878973 0.03377676 0.02565386 -0.06407388 -0.13774015 0.061687894 -0.06166455 0.09992074
0.04487613 -0.0021026225 -0.13708265 0.09452178 -0.100714795 -0.016035587 0.024856463 -0.056353305
0.016926229 -0.10626533 0.07740464 -0.10056832 -0.03855952 0.08397482 0.01592 0.018594045
0.036131006 -0.007400517 0.00434079 0.0050100014 0.026932023 -0.11267674 0.029253807 -0.04679759
-0.10018816 0.09114448 -0.05431566 -0.026361715 0.025242094 0.12346049 -0.13021329 0.08569733
0.05334151 -0.19444953 -0.02170106 0.1482675 -0.07597126 -0.016573148 0.16564904 -0.27702183
0.098596275 0.11992364 -0.14430776 0.148167 0.10237029 0.08000596 -0.0063644354 -0.05094534
0.01184973 0.040860362 -0.11796658 0.0009100489 0.0146133015 0.010513698 -0.092678085 0.051293008
-0.037983812 -0.044658065 -0.04744251 -0.04662675 0.011691248 0.12611629 0.10804106 -0.039733022
00000000: 94a4 80bd cf6c 29be 3427 d73d 4673 7b3c
00000010: f9a0 feba 1caa d83d a812 9fbd 0cc5 8dbc
00000020: d4a1 b9bc c909 2f3d 9459 9b3d df50 95bd
00000030: 4b77 ae3d dc57 d9bc f972 9ebd b31f 133d
00000040: b5b9 a83d 29bc f6bd 50f4 f43d fd86 96bd
00000050: 208b d33b 4548 0c3d 5cfd 81bd 49a5 59be
00000060: 2283 393d 40c7 c7bd 74d2 aabe a2c7 2fbd
00000070: 9405 10be 612a d5be 484f 2dbc 1b17 dfbd
00000080: 0404 aabe c258 95bd a1d4 4ebd 7c36 b7bd
00000090: 17f3 b5bd 5787 20bd 9916 193c d504 06be
000000a0: 07e7 f1bc 5073 9e3c 90f0 a73d a035 2c3e
000000b0: 2f9b a73d 9802 91bd c912 383e 4ce1 df3d
000000c0: d7a2 2fbd d2b4 453e c94d f73d e28c c53d
000000d0: d0a6 cf3d be8c 513e 77aa 54bd 09ec adbd
000000e0: 336b ad3d b470 bbbd 450d 0abe 9b79 053e
000000f0: 6859 bebd 95a5 ccbd bf42 f33c 690d 763d
00000100: 7920 5f3a 5dc4 163d f87d 443c e628 11be
00000110: e20b 6c3e 8075 a73d 0d3f 96bc 7e0b 023e
00000120: 39c0 23bd 8513 7fbd 9577 9a3c 2fbb 613d
00000130: f9ae 5dbe 26d8 a73d 2b24 8cbd 47f9 553c
00000140: 64af 693d 29b0 4abd 396c 393c 2189 80bd
00000150: 6535 a8bc 8b99 163e c66d 5abc c686 f23d
00000160: c0c6 fe3d 05bf 303d e7db 37be 2614 003d
00000170: 8366 17be c99e febd 8070 dc3d 9ffd c4bd
00000180: 6645 04bd 36d4 3cbd 17b9 9b3d bbcd dabd
00000190: b457 01bd dbcf 5d3d b9bf 16bd 2476 e5bc
000001a0: 2a1f 7c3d 479e 27bd 9974 703d 559a 5bbd
000001b0: cf44 5fbd c061 3fbd 0d61 a33d ce8c d53d
000001c0: bd37 033d c749 dc3d a639 ad3d 546a 693d
000001d0: 1e49 72bd a19a eebc 894c b2bd 325e a83d
000001e0: 7496 d33c d62f 66bd d8a4 cabd c40e 083d
000001f0: 95e0 463c 9bae 12bd 8751 a83d be7d 16be
00000200: cd2a d2bd 8e8a a13d 13b7 08be 32a7 bfbc
00000210: fa9a c33d 49f8 4b3c 6ed8 8dbc 8bc2 1c3d
00000220: 8866 8d3d 014a 953d 69ba f03d ca1d 87bc
00000230: 4245 7bbc d234 b13d bc22 d6bb 37cb 02bd
00000240: 6b8e db3d 941f 7dbd 092a 66be 7d34 8cbd
00000250: aa12 303d 7d33 47be 5b27 773d b64e 073d
00000260: 792b a7be 2443 82bd 23f7 e43b 758d 76be
00000270: 7f59 29be 326a a6bd 5b81 c2bd da35 31bc
00000280: a93c 57bb 6b2f 5dbd 85a4 033a 0515 7a3c
00000290: 63f9 5fbb df2d b0bd 5082 94bd bef8 693d
000002a0: f1e4 f1bd 3e0a 223d 9668 7d3c 8a0a dabd
000002b0: 8cce 1fbd fb70 a23d ca35 edbd 66bf 8bbd
000002c0: eedf 29bd abc2 58be 95f9 88bc e1d5 81bd
000002d0: cf29 0bbc 9b63 603a 6843 3dbd 3faa 903d
000002e0: a13a 89bb 8059 0a3d 0b28 d23c 2b39 83bd
000002f0: c10b 0dbe 72ac 7c3d f893 7cbd 3fa3 cc3d
00000300: 08d0 373d 27cc 09bb 655f 0cbe a394 c13d
00000310: 8f43 cebd 105d 83bc c89f cb3c b9d2 66bd
00000320: e0a8 8a3c a3a1 d9bd 5386 9e3d c3f6 cdbd
00000330: 96f0 1dbd fefa ab3d a96a 823c 8a52 983c
00000340: 1bfe 133d 0980 f2bb 303d 8e3b f02a a43b
00000350: 8ca0 dc3c 10c3 e6bd aea5 ef3c d4ae 3fbd
00000360: 732f cdbd f5a9 ba3d 197a 5ebd 86f4 d7bc
00000370: 82c8 ce3c dad8 fc3d a256 05be 1582 af3d
00000380: a17c 5a3d c71d 47be 6cc6 b1bc 6fd3 173e
00000390: d296 9bbd 69c4 87bc e79f 293e ced5 8dbe
000003a0: d8ec c93d 869a f53d 6ac5 13be 17b9 173e
000003b0: 84a7 d13d 2ada a33d c18c d0bb 10ac 50bd
000003c0: 5f25 423c 325d 273d 7698 f1bd 5990 6e3a
000003d0: a16c 6f3c a541 2c3c 02ce bdbd 9e18 523d
000003e0: ea94 1bbd 60eb 36bd 1453 42bd b1fb 3ebd
000003f0: a68c 3f3c a124 013e a244 dd3d 18bf 22bd

linear_relu_stack.0.bias f4 [50]
0.031917136 0.024183277 -0.0024201954 0.04435693 0.037753873 0.056714788 -0.0747178 -0.09819817
-0.030247327 -0.078207806 -0.016554333 -0.07395708 0.07566966 -0.0016520212 0.0052263746 -0.024998955
-0.10144276 0.08574494 0.11488883 0.031965245 0.022919597 -0.0658469 0.12999637 0.2325105
0.032393567 -0.059452347 -0.15291163 0.13173768 0.063608885 -0.09005453 -0.06385974 0.05376213
0.19715708 0.101048835 0.01136778 0.009567082 0.11890956 0.029035907 -0.061909728 0.031044934
-0.092697576 0.0714772 0.18473987 -0.03872873 -0.0034648206 -0.022823796 0.2705441 0.017529488
-0.0101466 -0.02788201
00000000: 8bbb 023d 021c c63c 249c 1ebb 9daf 353d
00000010: cea3 1a3d c44d 683d a505 99bd 1f1c c9bd
00000020: 3ec9 f7bc 6a2b a0bd f49c 87bc cf76 97bd
00000030: b2f8 9a3d a288 d8ba 0242 ab3b 9cca ccbc
00000040: 39c1 cfbd 0b9b af3d d64a eb3d fded 023d
00000050: e1c1 bb3c bdda 86bd c51d 053e 3c17 6e3e
00000060: 1eaf 043d 4e84 73bd de94 1cbe 3ee6 063e
00000070: 6045 823d 826e b8bd e5c8 82bd ae35 5c3d
00000080: 8ce3 493e b1f2 ce3d ed3f 3a3c 40bf 1c3c
00000090: db86 f33d b6dc ed3c 0e95 7dbd f251 fe3c
000000a0: 3ad8 bdbd a362 923d 732c 3d3e 04a2 1ebd
000000b0: 0b12 63bb f8f8 babc c284 8a3e 009a 8f3c
000000c0: ed3d 26bc d068 e4bc

linear_relu_stack.2.weight f4 [40, 50]
-0.22426882 -0.15589096 0.06090984 0.0646059 0.16319084 -0.034992095 0.07029359 -0.09820056
-0.035424367 -0.01608055 -0.013378695 -0.06710766 -0.054385584 -0.016484305 -0.019051317 0.108595386
-0.047419205 0.033165503 0.0643432 0.24006507 0.13337001 -0.18218268 -0.05662258 0.04102771
0.0020272597 0.010108262 -0.011740878 0.0044042342 -0.017261796 -0.007258728 -0.16796042 0.0828975
0.25324205 0.17813495 -0.061643153 0.033538833 0.080420166 -0.08224884 -0.099382624 -0.0954489
0.1390916 -0.11348291 0.065893844 -0.030030726 0.051872224 0.102658 -0.00755699 0.08738883
-0.05029004 0.017142657 -0.11847545 0.015069837 -0.097670235 -0.014692903 0.15618442 0.021654535
0.10481888 0.07273723 0.11891262 0.073740244 -0.0042338967 0.0875849 0.027014155 0.10686679
0.014107545 0.08263092 0.055633873 -0.109220274 0.08263417 0.08984244 0.053371426 -0.11129254
-0.07070766 -0.09015684 0.13659991 0.06797266 -0.11977291 -0.05374826 0.08429544 -0.110778466
-0.002061774 -0.0041904896 0.09557852 0.0051951995 0.05296155 -0.060621217 -0.043884885 0.035906926
0.12988009 -0.0072084526 0.13023531 0.023478985 -0.06969084 0.12158951 -0.06641221 0.1295829
-0.059403054 0.014452204 0.0409185 -0.1034327 0.21081117 -0.078053236 -0.06698232 -0.07868037
0.07764885 0.28123045 -0.07482145 -0.11908719 -0.10179859 0.006549475 -0.12622306 -0.048972733
0.0049360157 -0.077914484 0.12598173 -0.12093777 -0.016896727 0.08912136 -0.008225175 -0.185708
-0.10986809 -0.07927859 0.18188186 -0.17493495 -0.0026682764 -0.057270557 -0.13248779 0.05171996
-0.08046602 -0.042973667 0.14534032 0.13581647 -0.06598639 -0.025083324 0.080270685 0.092556804
-0.027048677 -0.03318282 -0.13802724 -0.13954177 -0.03137856 -0.043917388 0.09659176 -0.073875226
0.07252751 0.038139507 0.25921395 -0.13705334 -0.010725518 0.10941364 -0.12557104 -0.08642683
0.047415443 -0.06753447 0.13291132 0.008618239 -0.03992787 0.052757718 -0.045822755 0.007793673
-0.03730549 0.12244503 -0.06418139 -0.0022199538 -0.08829247 0.12523304 0.024953416 0.10385306
0.007423536 0.104182124 -0.080949634 -0.14839338 0.057979643 -0.10837428 -0.09498224 -0.10272895
-0.110507786 -0.05865287 -0.13961425 -0.009092525 -0.1674929 -0.07991137 -0.07046713 0.07556428
-0.040987317 0.06254876 0.05190788 0.12740979 -0.01916495 -0.041868806 0.09899333 0.09287189
-0.088266686 0.12588185 0.13607623 0.11444874 0.10340923 -0.04810562 -0.077088706 -0.07852706
0.16444844 0.21789545 0.11147252 0.16820177 -0.18475105 -0.051174883 -0.09742573 0.024290415
-0.13348089 0.028406823 0.0055262297 -0.0021054312 0.08542587 0.08236555 0.07987199 -0.0037948191
0.13899584 -0.017005678 0.066161714 0.0017003776 0.1022467 0.16124411 -0.03384031 0.18353781
-0.11463936 0.11951493 0.1932786 -0.21536396 0.047296844 -0.13361715 -0.033649407 0.07536358
-0.016768642 0.055207033 -0.048661463 -0.0693448 0.009855492 -0.081714295 -0.113900855 0.17301343
0.008103777 0.049035177 -0.11480362 0.042270195 0.13238904 -0.030574188 -0.23721056 -0.038869195
-0.044456784 0.06771844 -0.10480728 0.10293422 0.08894647 -0.13006084 -0.03526674 -0.08248001
00000000: baa6 65be e1a1 1fbe 997c 793d 1950 843d
00000010: 801b 273e df53 0fbd 16f6 8f3d 601d c9bd
00000020: 2419 11bd 5cbb 83bc 5032 5bbc be6f 89bd
00000030: 6bc3 5ebd 180a 87bc 8211 9cbc 4267 de3d
00000040: a43a 42bd 8dd8 073d 5ec6 833d 9ed3 753e
00000050: 2692 083e 198e 3abe 14ed 67bd ac0c 283d
00000060: c6db 043b 209d 253c d05c 40bc 6551 903b
00000070: 9c68 8dbc a0da edbb d1fd 2bbe 2ac6 a93d
00000080: f1a8 813e 0269 363e 887d 7cbd 0460 093d
00000090: 54b3 a43d 1472 a8bd 1e89 cbbd b67a c3bd
000000a0: 076e 0e3e ba69 e8bd 5af3 863d ff02 f6bc
000000b0: f877 543d 5c3e d23d a0a0 f7bb eaf8 b23d
000000c0: eefc 4dbd c26e 8c3c 42a3 f2bd 7ae7 763c
000000d0: 5507 c8bd 80ba 70bc cfee 1f3e da64 b13c
000000e0: 48ab d63d 42f7 943d 7688 f33d 2005 973d
000000f0: 80bc 8abb b65f b33d ca4c dd3c fadc da3d
00000100: 5523 673c 663a a93d 58e0 633d e1ae dfbd
00000110: 1b3c a93d 50ff b73d ff9b 5a3d 58ed e3bd
00000120: 2dcf 90bd 26a4 b8bd d9e0 0b3e 4035 8b3d
00000130: 804b f5bd 2327 5cbd 16a3 ac3d d2df e2bd
00000140: d41e 07bb 6050 89bb acbe c33d 7e3c aa3b
00000150: 36ee 583d f44d 78bd a3c0 33bd 2413 133d
00000160: 49ff 043e e234 ecbb 685c 053e 0057 c03c
00000170: 12ba 8ebd ec03 f93d 2003 88bd 61b1 043e
00000180: 9e50 73bd f0c8 6c3c 289a 273d 86d4 d3bd
00000190: e2de 573e 60da 9fbd 072e 89bd 2c23 a1bd
000001a0: 5c06 9f3d 70fd 8f3e fd3b 99bd fce3 f3bd
000001b0: c77b d0bd fa9c d63b 9e40 01be a297 48bd
000001c0: 4dbe a13b a191 9fbd 5b01 013e 39ae f7bd
000001d0: 016b 8abc 4285 b63d e2c2 06bc 3d2a 3ebe
000001e0: 8502 e1bd d05c a2bd 3d3f 3a3e 2622 33be
000001f0: 40de 2ebb 8894 6abd e1aa 07be 4fd8 533d
00000200: 5ecb a4bd 2805 30bd 18d4 143e 7913 0b3e
00000210: df23 87bd 8b7b cdbc f564 a43d 6c8e bd3d
00000220: 3095 ddbc b5ea 07bd 0357 0dbe 0ae4 0ebe
00000230: ce86 00bd b8e2 33bd e7d1 c53d e54b 97bd
00000240: 4e89 943d 2c38 1c3d b1b7 843e b657 0cbe
00000250: 15ba 2fbc 4214 e03d b295 00be 8d00 b1bd
00000260: b236 423d 834f 8abd e819 083e 8433 0d3c
00000270: 688b 23bd 7a18 583d a4b0 3bbd 1162 ff3b
00000280: a4cd 18bd 76c4 fa3d 8871 83bd a57c 11bb
00000290: afd2 b4bd 173d 003e 1b6b cc3c eab0 d43d
000002a0: 2241 f33b 705d d53d ecc8 a5bd 6ff4 17be
000002b0: 107c 6d3d 56f3 ddbd 0c86 c2bd 8e63 d2bd
000002c0: e851 e2bd fe3d 70bd 0af7 0ebe d0f8 14bc
000002d0: 4283 2bbe 93a8 a3bd 1251 90bd 72c1 9a3d
000002e0: 51e2 27bd 9019 803d 5b9d 543d b677 023e
000002f0: d0ff 9cbc a07e 2bbd 04bd ca3d 9e33 be3d
00000300: 2ac5 b4bd 2ce7 003e 9157 0b3e 1a64 ea3d
00000310: 38c8 d33d 660a 45bd afe0 9dbd ccd2 a0bd
00000320: 2c65 283e fc1f 5f3e b44b e43d 163d 2c3e
00000330: 612f 3dbe c19c 51bd 2487 c7bd b1fc c63c
00000340: 37af 08be 6db5 e83c 6015 b53b 46fb 09bb
00000350: c2f3 ae3d 45af a83d ed93 a33d 80b2 78bb
00000360: ed54 0e3e 7e4f 8bbc cb7f 873d 34df de3a
00000370: b866 d13d 2d1d 253e 239c 0abd 56f1 3b3e
00000380: 0ac8 eabd 3ec4 f43d d3ea 453e 5f88 5cbe
00000390: 56ba 413d efd2 08be f6d3 09bd 3858 9a3d
000003a0: 645e 89bc c520 623d 3e51 47bd a604 8ebd
000003b0: ee78 213c d359 a7bd da44 e9bd 6f2a 313e
000003c0: b4c5 043c 1cd9 483d 291e ebbd 8323 2d3d
000003d0: fe90 073e b876 fabc 53e7 72be 4e35 1fbd
000003e0: 5118 36bd f7af 8a3d 33a5 d6bd 2dcf d23d
000003f0: 9129 b63d ab2e 05be db73 10bd 48eb a8bd

linear_relu_stack.2.bias f4 [40]
0.049830254 -0.15854394 0.1772153 -0.07733697 0.015779026 -0.10750235 -0.029348934 0.13259587
0.088292934 -0.07326126 0.040204026 -0.018864801 -0.11527629 0.13179952 0.24765308 0.03179474
0.110852584 0.029760964 0.07077137 0.17384107 0.14676797 -0.06340648 0.19987449 0.02374717
0.13573 0.037138373 -0.028078401 0.13156383 0.09584044 -0.08767512 0.11501996 -0.16053644
-0.117194846 0.28539807 0.4038616 0.11700013 -0.10078986 0.03837443 0.20845881 0.0042726076
00000000: cf1a 4c3d 5859 22be ed77 353e d862 9ebd
00000010: 0443 813c 312a dcbd 2d6d f0bc 36c7 073e
00000020: edd2 b43d 000a 96bd faac 243d 5b8a 9abc
00000030: fa15 ecbd 74f6 063e c598 7d3e 343b 023d
00000040: ae06 e33d 44cd f33c 94f0 903d 6503 323e
00000050: 584a 163e 42db 81bd e6ab 4c3e 6d89 c23c
00000060: cefc 0a3e 681e 183d ad04 e6bc abb8 063e
00000070: fe47 c43d 038f b3bd 968f eb3d aa63 24be
00000080: da03 f0bd b21f 923e f3c6 ce3e c49d ef3d
00000090: ea6a cebd 822e 1d3d 3a76 553e 3b01 8c3b

linear_relu_stack.4.weight f4 [30, 40]
-0.047168985 -0.019122073 0.110370874 0.112648115 -0.1511882 -0.10750454 0.0017208308 0.14303413
-0.1625306 -0.07747387 0.04745932 0.009184367 0.07243469 -0.019379985 -0.04628213 0.006690256
0.14994875 0.089498855 -0.08026495 0.11612799 0.09428709 0.11307182 0.030917538 -0.06731397
-0.053905427 0.013801994 0.1253425 -0.080518134 -0.012418255 0.10685749 0.10819667 0.023088964
0.1573713 -0.1097864 -0.15383892 -0.13960873 0.117119685 -0.04200862 -0.053098306 0.044346336
0.11379658 -0.012047976 0.075973675 -0.056267515 -0.032805353 0.0022130758 0.026808739 0.045448095
-0.045069277 -0.0034576505 -0.121341646 -0.06568581 -0.03656324 0.10875906 -0.065536566 -0.11756924
-0.056444354 0.08196227 0.021242082 0.022694632 -0.14726782 -0.017285094 -0.06013579 -0.04989513
-0.14022727 -0.024703547 0.00020642579 -0.020821363 -0.08088382 -0.10315746 0.07852009 -0.08206773
-0.13666758 -0.14341967 -0.07889629 0.09023008 -0.0977122 -0.15045252 -0.052556314 0.09771593
0.017214704 -0.15116134 0.08460773 -0.109260194 -0.18460043 0.111573726 0.09678907 0.23989603
0.28511453 -0.071590915 -0.18379524 -0.106312275 0.1379213 0.09042552 -0.20139802 0.018240456
0.1893532 -0.118043944 -0.12047713 -0.20663783 0.1632533 -0.11357018 0.3166308 0.1316097
0.015412499 -0.07009221 -0.2719632 0.17478164 0.03667021 -0.08070657 -0.14620864 -0.038613632
0.019389814 0.18022275 0.20836662 0.22053842 -0.0967967 -0.17318475 0.19056723 -0.21631698
0.090710804 -0.032596186 -0.16885711 0.1308289 0.03530392 0.13271503 0.054599848 0.13899499
-0.10508113 0.07726293 0.022591675 0.07920985 0.1352879 -0.010419154 0.13781665 -0.04009527
0.047531936 -0.04842435 -0.0071718423 -0.05283923 0.011727194 -0.06042004 -0.0075831674 -0.022170449
-0.08194632 0.060276605 0.010833373 0.052976616 0.11236464 -0.13447991 -0.06490604 0.13664077
0.13543494 -0.09982725 -0.124855 -0.023748146 -0.08893866 -0.16923761 -0.09012189 -0.1580369
0.1386799 0.065062456 0.058102194 -0.06549593 0.012988952 -0.03237764 0.038884144 0.28831032
0.18803833 -0.19734511 0.12885846 0.1258105 -0.014650002 -0.023980808 -0.2054915 0.3397403
0.16718525 -0.05889714 0.08434763 -0.11766715 -0.22827984 0.04544038 -0.02904352 0.16868328
0.1308353 0.035067067 0.25499752 0.033383396 -0.025023049 -0.041501798 0.18004327 -0.00927819
-0.015741184 -0.04435321 -0.06897828 0.20640278 -0.043228984 0.23940961 -0.23242311 0.007634518
0.10986214 -0.11358347 0.09279619 -0.015661782 -0.032456625 -0.115745045 -0.15278885 0.10477446
0.045946077 0.2263402 -0.0037733119 -0.10813018 -0.17249404 -0.12354727 -0.071033195 0.032718282
-0.2120228 0.051175404 -0.19039057 -0.10637553 -0.079848655 0.024056718 0.12812181 0.033935703
0.057765767 0.16569552 0.15727073 0.011969626 0.03923463 -0.11628519 -0.27406713 0.28710425
-0.15732127 0.12729256 -0.12604097 0.31019646 -0.03171064 0.24225348 0.026146987 -0.22578922
0.17894518 -0.112929955 -0.035114273 0.17599715 0.09643128 0.13006034 0.056501724 -0.17614199
-0.31639612 -0.045834024 0.17431706 0.11093715 0.24953504 -0.03078339 0.30641446 -0.09066079
00000000: 4434 41bd e5a5 9cbc 200a e23d 0eb4 e63d
00000010: 14d1 1abe 572b dcbd 808d e13a 8a77 123e
00000020: 6c6e 26be 9faa 9ebd b464 423d 077a 163c
00000030: a458 943d c6c2 9ebc 5592 3dbd ef39 db3b
00000040: 2a8c 193e 2d4b b73d f361 a4bd 83d4 ed3d
00000050: 9719 c13d 3392 e73d c746 fd3c e8db 89bd
00000060: f0cb 5cbd c221 623c c959 003e b1e6 a4bd
00000070: f075 4bbc 1ad8 da3d 3796 dd3d 1125 bd3c
00000080: f125 213e b1d7 e0bd f387 1dbe 97f5 0ebe
00000090: 72dc ef3d 3b11 2cbd 9c7d 59bd 81a4 353d
000000a0: 2e0e e93d e064 45bc 1698 9b3d c478 66bd
000000b0: e85e 06bd 4009 113b 009e db3c c827 3a3d
000000c0: 909a 38bd c099 62bb f881 f8bd 4886 86bd
000000d0: 56c3 15bd 12bd de3d 0938 86bd 24c8 f0bd
000000e0: 3232 67bd d6db a73d e003 ae3c 18ea b93c
000000f0: 60cd 16be 7899 8dbc f250 76bd d65e 4cbd
00000100: bd97 0fbe 185f cabc 0074 5839 9091 aabc
00000110: 6ba6 a5bd 3844 d3bd 24cf a03d 2013 a8bd
00000120: 96f2 0bbe 9bdc 12be 6194 a1bd 8cca b83d
00000130: 551d c8bd 3a10 1abe 4a45 57bd 4a1f c83d
00000140: da05 8d3c 0aca 1abe d146 ad3d cfc3 dfbd
00000150: e507 3dbe c480 e43d 5939 c63d 4ea7 753e
00000160: 88fa 913e 429e 92bd d234 3cbe 40ba d9bd
00000170: 3e3b 0d3e 0431 b93d 483b 4ebe 026d 953c
00000180: cee5 413e 06c1 f1bd b7bc f6bd de98 53be
00000190: e02b 273e 7c97 e8bd 6f1d a23e b1c4 063e
000001a0: b584 7c3c 818c 8fbd c33e 8bbe f5f9 323e
000001b0: 8133 163d 7c49 a5bd b8b7 15be 5429 1ebd
000001c0: 63d7 9e3c 508c 383e 0f5e 553e d3d4 613e
000001d0: 593d c6bd 5857 31be 0e24 433e 3382 5dbe
000001e0: 96c6 b93d 9483 05bd e1e8 2cbe 03f8 053e
000001f0: d89a 103d 73e6 073e 17a4 5f3d b454 0e3e
00000200: c734 d7bd 073c 9e3d 2d12 b93c c638 a23d
00000210: e988 0a3e 19b5 2abc cf1f 0d3e f03a 24bd
00000220: d9b0 423d 9c58 46bd c601 ebbb f36d 58bd
00000230: 6b23 403c 017b 77bd 387c f8bb cd9e b5bc
00000240: 79d3 a7bd 9ae4 763d 767e 313c 02fe 583d
00000250: 6f1f e63d 1ab5 09be 75ed 84bd 8feb 0b3e
00000260: 75af 0a3e 3b72 ccbd fab3 ffbd 798b c2bc
00000270: 7925 b6bd a04c 2dbe d391 b8bd 6dd4 21be
00000280: 1b02 0e3e 773f 853d 91fc 6d3d bb22 86bd
00000290: 9dcf 543c 6b9e 04bd fb44 1f3d 699d 933e
000002a0: 1f8d 403e d614 4abe 79f3 033e 78d4 003e
000002b0: 9006 70bc 6673 c4bc 5d6c 52be 71f2 ad3e
000002c0: 9c32 2b3e 213e 71bd 73be ac3d 7afb f0bd
000002d0: 31c2 69be b11f 3a3d adec edbc 4fbb 2c3e
000002e0: b0f9 053e 7ca2 0f3d 098f 823e 07bd 083d
000002f0: 23fd ccbc cafd 29bd 435d 383e 8d03 18bc
00000300: a8f3 80bc b6ab 35bd 7c44 8dbd 405b 533e
00000310: e010 31bd cb27 753e 5300 6ebe fb2a fa3b
00000320: 67ff e03d 739e e8bd ee0b be3d 234d 80bc
00000330: 3df1 04bd bd0b edbd ae74 1cbe fe93 d63d
00000340: f431 3c3d bac5 673e ab49 77bb 5b73 ddbd
00000350: 47a2 30be 5a06 fdbd da79 91bd 9b03 063d
00000360: 811c 59be 4d9d 513d bff5 42be 6adb d9bd
00000370: b187 a3bd 9812 c53c 5d32 033e 2a00 0b3d
00000380: cc9b 6c3d 16ac 293e 940b 213e 401c 443c
00000390: 7eb4 203d ee26 eebd 8752 8cbe 54ff 923e
000003a0: d418 21be fb58 023e e210 01be 12d2 9e3e
000003b0: 04e3 01bd 4c11 783e 3532 d63c 4a35 67be
000003c0: 683d 373e d247 e7bd fcd3 0fbd 9938 343e
000003d0: c37d c53d 8a2e 053e 5a6e 673d 915e 34be
000003e0: acfe a1be 75bc 3bbd 2c80 323e 0433 e33d
000003f0: 1d86 7f3e 732d fcbc 5be2 9c3e 5dac b9bd

linear_relu_stack.4.bias f4 [30]
-0.112356484 -0.012410685 0.18859044 0.027114652 -0.13380307 0.087130204 0.38471562 0.017794639
-0.063133806 -0.0150382975 0.31721053 0.014708459 0.07935071 0.001138075 0.034418125 0.07488105
-0.13608484 -0.02908709 0.2642261 0.24836953 -0.10689998 -0.089324996 -0.022517275 -0.0106574325
0.08650084 0.1359989 0.26099214 -0.19563586 0.014280773 0.16565128
00000000: 281b e6bd 3056 4bbc da1d 413e 8c1f de3c
00000010: ac03 09be 5271 b23d 72f9 c43e 10c6 913c
00000020: 4c4c 81bd 3163 76bc 6b69 a23e c0fb 703c
00000030: a082 a23d 762b 953a 05fa 0c3d 3c5b 993d
00000040: d359 0bbe 0d48 eebc a548 873e 9554 7e3e
00000050: 60ee dabd 06f0 b6bd 2676 b8bc 839c 2ebc
00000060: 5a27 b13d 4c43 0b3e c3a0 853e c454 48be
00000070: e7f9 693c 7da0 293e

linear_relu_stack.6.weight f4 [40, 30]
-0.07917447 0.12276223 0.24858977 0.0926395 -0.4072702 0.17436232 -0.17471379 0.122176915
0.07024105 0.2961724 -0.18686712 -0.18084052 -0.0566506 -0.062354364 0.012374059 -0.12173562
0.03990142 0.12138849 0.26922554 0.2116071 -0.16021009 0.27499408 0.01727225 0.062117826
0.06379862 -0.031857405 0.019741435 0.13822393 -0.36472714 0.27634123 0.16475521 -0.027239889
-0.022645151 -0.07150821 0.13543947 -0.15539747 -0.0842339 -0.029000752 -0.1631735 -0.011915198
0.036728907 0.14090714 -0.0719229 -0.08762087 0.10579436 0.054301195 0.15868312 -0.14160882
-0.047995053 -0.09235285 0.13777389 0.16282168 0.10469788 -0.032384135 0.077785574 0.08582119
-0.022911966 -0.014374363 -0.19105764 0.07884114 0.0417677 0.09248507 0.041747242 0.07010385
-0.06840934 0.14147283 -0.05065423 0.15450586 -0.22172104 0.103009224 0.18198325 0.047387436
-0.12869488 -0.094937116 0.29649583 0.26754326 0.087311886 0.22714528 -0.17456436 0.2658095
-0.05382135 0.22429857 -0.039862104 -0.19602317 -0.038219944 -0.017663324 -0.03353753 0.1760776
0.20381345 -0.10175235 0.16131565 0.06113124 0.17594308 0.04562892 -0.0698851 -0.052401558
0.12049621 0.05143796 -0.17311287 -0.17090721 0.08673055 -0.1232276 -0.1273991 0.119170785
-0.08391142 0.2767953 -0.031488046 0.06329571 0.29233631 0.1468491 -0.12454575 -0.09380889
0.058396757 0.17623869 0.005660395 0.024132406 0.04808061 -0.083744146 -0.14971372 -0.1230536
-0.111403644 -0.016412795 -0.04678249 0.09211057 0.18995976 -0.27609897 0.3513991 -0.1358575
0.18134648 -0.17446664 0.15244654 -0.006743923 -0.12095926 -0.1325874 0.1117601 0.11037411
-0.20773461 -0.10366411 0.2863686 0.2620376 -0.100028455 -0.0011572067 0.13649462 -0.19571826
-0.20089926 0.024612898 0.16732961 -0.2585338 -0.2441058 0.038779758 -0.14734066 0.046538487
0.23500876 -0.012959518 -0.0702533 -0.030456813 0.09130722 -0.11971167 0.052879717 0.08308766
0.09379234 -0.15762138 -0.35925868 -0.13919021 0.12257084 0.12485588 0.09093465 0.20039769
0.13244344 0.0789979 -0.17094886 -0.18452439 0.029152106 -0.19772261 0.10665263 -0.14412512
0.09102639 -0.24126887 -0.0729414 -0.033000305 -0.053870767 0.046179548 0.18111816 -0.12817238
0.121623375 -0.026561107 -0.1353517 -0.026215665 -0.1048336 0.2776232 0.06444244 -0.13968694
-0.03632649 -0.07662463 0.081687845 0.28430563 0.13472763 0.041086845 0.20617369 -0.10706992
0.035844 0.038754553 0.041120775 0.28620905 0.12222366 0.30363366 0.30293453 0.04177422
-0.112814784 -0.08964782 0.13814524 0.12986484 -0.05942541 -0.027541606 -0.23452371 -0.065014765
0.14770864 0.063501574 0.050512683 -0.10152814 0.1413719 0.08767849 0.08135952 0.23185071
0.056271628 -0.13566408 -0.2026342 -0.18445247 -0.03703961 0.18772154 0.16694121 0.017771496
-0.16123204 0.01731627 -0.19307692 -0.09152485 -0.04604812 -0.123908654 -0.09040901 0.16311233
0.15952978 0.10346767 0.007794333 -0.11980907 -0.11082498 0.09017744 -0.2038986 0.1670235
-0.09805134 0.23000495 -0.09013643 0.12564325 -0.18317223 0.045934822 -0.04548826 0.048295442
00000000: 3926 a2bd c46a fb3d 518e 7e3e c7b9 bd3d
00000010: b885 d0be 098c 323e 2ce8 32be e437 fa3d
00000020: 8ada 8f3d e9a3 973e 185a 3fbe 422e 39be
00000030: 760a 68bd 4a67 7fbd 91bc 4a3c 8650 f9bd
00000040: ac6f 233d 879a f83d eed7 893e 88af 583e
00000050: 1d0e 24be 06cc 8c3e 897e 8d3c 436f 7e3d
00000060: daa8 823d e97c 02bd cab8 a13c 938a 0d3e
00000070: 84bd babe 997c 8d3e 97b5 283e 3026 dfbc
00000080: 5382 b9bc e572 92bd a5b0 0a3e 8420 1fbe
00000090: d382 acbd fc92 edbc f416 27be f637 43bc
000000a0: 0d71 163d f649 103e 504c 93bd 9272 b3bd
000000b0: b7aa d83d ee6a 5e3d d47d 223e e701 11be
000000c0: 7696 44bd 7e23 bdbd 9914 0d3e baba 263e
000000d0: d86b d63d 3aa5 04bd 0b4e 9f3d 05c3 af3d
000000e0: e0b1 bbbc 7382 6bbc 9da4 43be 7777 a13d
000000f0: 9c14 2b3d d068 bd3d 28ff 2a3d 9b92 8f3d
00000100: 321a 8cbd 41de 103e cf7a 4fbd c936 1e3e
00000110: d70a 63be 80f6 d23d d159 3a3e 5419 423d
00000120: 97c8 03be 646e c2bd 4dce 973e 6efb 883e
00000130: 93d0 b23d c698 683e 00c1 32be 2f18 883e
00000140: c773 5cbd 86ae 653e 7246 23bd 4cba 48be
00000150: 848c 1cbd adb2 90bc a65e 09bd b04d 343e
00000160: 79b4 503e 8963 d0bd ee2f 253e c064 7a3d
00000170: 6c2a 343e 64e5 3a3d eb1f 8fbd 04a3 56bd
00000180: b8c6 f63d 9cb0 523d 8044 31be 4d02 2fbe
00000190: c99f b13d c05e fcbd e974 02be d00f f43d
000001a0: c0d9 abbd 1db8 8d3e 9cf9 00bd 2ea1 813d
000001b0: 1bad 953e 9c5f 163e d811 ffbd e01e c0bd
000001c0: 7031 6f3d ea77 343e d67a b93b 53b1 c53c
000001d0: 2cf0 443d 0d82 abbd 8e4e 19be 8703 fcbd
000001e0: 9827 e4bd 2074 86bc ff9e 3fbd 77a4 bc3d
000001f0: d084 423e d85c 8dbe 95ea b33e 3a1e 0bbe
00000200: e4b2 393e 62a7 32be f21a 1c3e 20fc dcbb
00000210: 7db9 f7bd fec4 07be 7be2 e43d d20b e23d
00000220: 62b8 54be d94d d4bd e89e 923e cb29 863e
00000230: b8db ccbd 6aad 97ba 3fc5 0b3e 5e6a 48be
00000240: 89b8 4dbe fda0 c93c 7458 2b3e 8b5e 84be
00000250: dff6 79be 86d7 1e3d 78e0 16be 249f 3e3d
00000260: 23a6 703e 2854 54bc f6e0 8fbd 9180 f9bc
00000270: 48ff ba3d 642b f5bd 6798 583d dd29 aa3d
00000280: 3316 c03d 8067 21be c1f0 b7be e187 0ebe
00000290: 6c06 fb3d 71b4 ff3d f23b ba3d 0d35 4d3e
000002a0: 419f 073e a7c9 a13d 380d 2fbe f6f3 3cbe
000002b0: 66d0 ee3c cc77 4abe b26c da3d 8995 13be
000002c0: 0b6c ba3d 300f 77be 4d62 95bd 542b 07bd
000002d0: 98a7 5cbd c426 3d3d 0a77 393e 9f3f 03be
000002e0: ad15 f93d ae96 d9bc a399 0abe 3cc2 d6bc
000002f0: 00b3 d6bd a124 8e3e 66fa 833d 180a 0fbe
00000300: 16cb 14bd 60ed 9cbd f54b a73d 8290 913e
00000310: 0af6 093e ae4a 283d 321f 533e 7947 dbbd
00000320: 28d1 123d 18bd 1e3d 426e 283d fe89 923e
00000330: 6650 fa3d df75 9b3e 3c1a 9b3e 721b 2b3d
00000340: 700b e7bd 4799 b7bd f275 0d3e 4afb 043e
00000350: 0f68 73bd ef9e e1bc fc26 70be 7626 85bd
00000360: ef40 173e 1d0d 823d 63e6 4e3d fced cfbd
00000370: ccc3 103e c890 b33d d29f a63d 466a 6d3e
00000380: 147d 663d 86eb 0abe 577f 4fbe 1ce1 3cbe
00000390: d9b6 17bd 133a 403e a3f2 2a3e 8795 913c
000003a0: 031a 25be dada 8d3c f5b5 45be 6171 bbbd
000003b0: f49c 3cbd d2c3 fdbd 5c28 b9bd eb06 273e
000003c0: c65b 233e dce6 d33d 9b67 ff3b 755e f5bd
000003d0: 35f8 e2bd f3ae b83d cbca 50be 3508 2b3e
000003e0: 24cf c8bd 6b86 6b3e 7399 b8bd a0a8 003e
000003f0: 8091 3bbe 2726 3c3d e651 3abd 71d1 453d

linear_relu_stack.6.bias f4 [40]
-0.15219508 -0.0643985 0.099673636 -0.21750979 0.20752792 0.06021179 -0.07267271 0.24869327
0.0080477055 -0.05192624 0.005418722 -0.05180341 -0.05999722 0.057796426 -0.1822453 -0.12108089
-0.08897505 -0.15985784 0.23619804 0.22077817 -0.0882778 0.1675429 -0.10668234 0.16221038
-0.024707496 0.3274902 0.27413523 0.028406223 -0.06519089 0.081390165 0.21454248 -0.023333233
-0.012342108 0.35592958 0.05801259 0.0033564297 0.16080658 -0.00053220335 -0.02583012 -0.14559627
00000000: 07d9 1bbe 5ce3 83bd b121 cc3d e3ba 5ebe
00000010: 3382 543e a3a0 763d 6ed5 94bd 73a9 7e3e
00000020: 86da 033c 9cb0 54bd 898f b13b d02f 54bd
00000030: a5bf 75bd f2bb 6c3d 839e 3abe 42f9 f7bd
00000040: 8d38 b6bd c6b1 23be e6dd 713e ac13 623e
00000050: feca b4bd 5e90 2b3e 457c dabd 7a1a 263e
00000060: 6067 cabc ccac a73e 745b 8c3e 2bb4 e83c
00000070: cd82 85bd e3af a63d 06b1 5b3e 5625 bfbc
00000080: 8e36 4abc 673c b63e 9c9e 6d3d 8cf7 5b3b
00000090: 7baa 243e 9083 0bba b099 d3bc 3017 15be

linear_relu_stack.8.weight f4 [50, 40]
-0.3835791 -0.10141103 -0.04919836 0.013150675 0.04301381 0.08413093 0.14037359 -0.031008767
0.10233431 0.14976646 -0.1436663 0.10331617 -0.12525253 0.034076195 -0.08741343 -0.13853492
0.020603927 -0.085753866 0.1333906 -0.113533504 0.051088374 -0.28605133 -0.17780007 -0.10287917
-0.016108217 0.13977826 -0.14756459 -0.15903004 0.07208012 -0.027909132 0.32018515 -0.19878396
-0.13231805 -0.023824697 0.22014673 0.044066895 0.035603367 -0.24069312 0.02726388 -0.059163366
0.040047925 0.09310589 -0.21701424 -0.09539029 -0.117569506 -0.12084996 0.015118886 -0.047865216
-0.13373779 0.0073136766 0.024110097 -0.052233815 -0.06376167 0.10553686 0.07248768 0.06329289
0.10915467 0.12309125 -0.14573072 -0.01992093 -0.21358457 -0.058772694 -0.02974508 0.16360985
0.029856564 -0.028992638 -0.24780662 0.13076057 -0.11856206 0.06153307 -0.22704807 -0.13647695
0.11774967 0.30916414 0.040344805 0.3387328 0.22693405 0.21803202 0.06560955 0.15047815
-0.24953194 0.07139663 0.07357659 -0.008614836 0.23828964 -0.054417837 0.17255588 -0.06909888
-0.1582845 0.1768732 0.22928461 0.113127574 -0.017577631 -0.09473915 0.15363677 -0.13760123
0.09324431 0.10455321 -0.02050329 -0.12652293 0.19179833 -0.06500899 0.31480783 0.10286535
0.094095334 0.051062137 -0.08326475 -0.15932012 -0.055008486 -0.046502605 0.040673718 0.25848967
0.0641754 -0.30010498 0.08977809 0.08059489 -0.20901182 0.11085661 0.12558255 -0.062102243
0.09451351 0.08594717 0.012126909 0.068888485 0.1541943 0.08541298 -0.046389848 0.09757861
0.16450645 0.058648296 -0.11049606 0.076385856 0.029965416 0.16922869 0.02676718 -0.15855247
0.018056747 -0.12146367 0.014125349 0.14992374 0.12680495 0.052462805 -0.10542992 0.004091277
-0.024820415 -0.005888785 0.130814 0.050280884 -0.008212611 0.025886979 -0.12391737 -0.10931938
-0.054831102 -0.15091063 0.079655774 -0.2125044 -0.22021246 0.075930595 0.014897678 -0.061448555
0.024383811 0.04522067 0.042666763 -0.32140496 -0.08661381 0.11119903 -0.1781275 0.16601796
0.041683897 0.104640216 0.12497297 -0.07767504 0.10840748 -0.14388202 0.025575384 0.02825091
0.18380417 -0.1631198 0.041918125 -0.13481617 -0.19553941 0.09158838 0.22297412 -0.053652674
-0.018903136 -0.05949395 0.011561959 -0.022641513 0.10600416 0.26960963 0.0022364366 0.01635186
-0.0012279446 -0.03522495 0.06753639 0.041230004 -0.013374285 0.08677961 0.07226258 0.07686583
0.11028039 -0.11044298 -0.15954362 -0.060249954 -0.36177695 0.114462934 -0.22399803 -0.12259167
-0.20282832 -0.36061814 -0.08374896 -0.116209164 0.042734638 -0.22056605 0.038459927 -0.0627164
0.08044718 0.14876938 0.19859329 0.08235914 -0.030492939 0.1982996 -0.15036151 0.06118006
-0.0830641 0.015757984 -0.14469849 0.09838162 0.012950748 0.017846018 0.11048779 -0.09520509
0.116945006 0.056257207 0.21192028 0.17504634 -0.0066675856 -0.32956278 0.06109862 -0.15008818
-0.05684173 0.07205704 -0.12681581 -0.093176305 0.15437515 -0.052530803 0.25865653 -0.051143453
0.05092915 -0.2013972 0.16855302 -0.061414726 0.05324352 -0.07257149 0.0105689615 -0.066765994
00000000: 7b64 c4be 96b0 cfbd 3884 49bd ee75 573c
00000010: 402f 303d d64c ac3d 18be 0f3e 1906 febc
00000020: a794 d13d 615c 193e 421d 13be 6e97 d33d
00000030: 3342 00be 7b93 0b3d d005 b3bd 19dc 0dbe
00000040: 91c9 a83c b99f afbd 8c97 083e 4184 e8bd
00000050: 0b42 513d 5275 92be 3911 36be 50b2 d2bd
00000060: 61f5 83bc 0822 0f3e 2c1b 17be c5d8 22be
00000070: be9e 933d b1a1 e4bc 4fef a33e 068e 4bbe
00000080: 627e 07be 032c c3bc 256e 613e 7d7f 343d
00000090: d6d4 113d 4278 76be 8058 df3c 4955 72bd
000000a0: 4b09 243d 4dae be3d fb38 5ebe fc5b c3bd
000000b0: 48c8 f0bd 2f80 f7bd 34b5 773c 510e 44bd
000000c0: 8ff2 08be 91a7 ef3b 8a82 c53c 20f3 55bd
000000d0: 7a95 82bd b623 d83d 6c74 943d b49f 813d
000000e0: 7c8c df3d 4417 fc3d 6f3a 15be 3831 a3bc
000000f0: eab5 5abe a3bb 70bd f4ab f3bc 5789 273e
00000100: c195 f43c f881 edbc 05c1 7dbe 19e6 053e
00000110: aad0 f2bd 1a0a 7c3d 4a7f 68be 9dc0 0bbe
00000120: bd26 f13d c34a 9e3e 9840 253d 636e ad3e
00000130: 6661 683e c943 5f3e 4d5e 863d f216 1a3e
00000140: 4d85 7fbe 6538 923d 53af 963d 3e25 0dbc
00000150: 3302 743e 3de5 5ebd 7db2 303e b783 8dbd
00000160: 5515 22be 401e 353e 96c9 6a3e 6eaf e73d
00000170: f7fe 8fbc 9906 c2bd f552 1d3e 56e7 0cbe
00000180: dff6 be3d fe1f d63d 84f6 a7bc 3a8f 01be
00000190: c866 443e 6f23 85bd 7e2e a13e 12ab d23d
000001a0: 0eb5 c03d 8826 513d b686 aabd d024 23be
000001b0: 9450 61bd 8479 3ebd 7c99 263d c258 843e
000001c0: 646e 833d 5ca7 99be 93dd b73d ef0e a53d
000001d0: 3207 56be ca08 e33d b698 003e ec5e 7ebd
000001e0: 4d90 c13d 1205 b03d f1af 463c 6815 8d3d
000001f0: 1ce5 1d3e 00ed ae3d 4803 3ebd 4bd7 c73d
00000200: 6174 283e 3239 703d c24b e2bd 3070 9c3d
00000210: 087a f53c 494a 2d3e d846 db3c 945b 22be
00000220: beeb 933c f2c1 f8bd 026e 673c 9c85 193e
00000230: 28d9 013e 3de3 563d a4eb d7bd 1e10 863b
00000240: 2f54 cbbc b5f6 c0bb 1bf4 053e 54f3 4d3d
00000250: 308e 06bc ee10 d43c 64c8 fdbd d7e2 dfbd
00000260: 9496 60bd 5188 1abe 9122 a33d c19a 59be
00000270: 607f 61be 8081 9b3d 6415 743c 7bb1 7bbd
00000280: 8fc0 c73c 4f39 393d 58c3 2e3d 318f a4be
00000290: 9562 b1bd 51bc e33d 0e67 36be 9d00 2a3e
000002a0: bcbc 2a3d 9c4d d63d d4f1 ff3d 1714 9fbd
000002b0: be04 de3d cf55 13be 7883 d13c 746e e73c
000002c0: 2937 3c3e e008 27be 57b2 2b3d 400d 0abe
000002d0: 7c3b 48be b092 bb3d 5453 643e e8c2 5bbd
000002e0: c0da 9abc eeaf 73bd 5f6e 3d3c b27a b9bc
000002f0: b618 d93d 460a 8a3e 2e91 123b 56f4 853c
00000300: fcf2 a0ba 0a48 10bd 8550 8a3d cbe0 283d
00000310: d11f 5bbc 82b9 b13d 67fe 933d d56b 9d3d
00000320: afda e13d ee2f e2bd 675f 23be a8c8 76bd
00000330: d43a b9be 8b6b ea3d bd5f 65be 5711 fbbd
00000340: 3ab2 4fbe f1a2 b8be 9384 abbd 12ff edbd
00000350: 840a 2f3d 11dc 61be 2888 1d3d 7571 80bd
00000360: 7ec1 a43d 0057 183e 0a5c 4b3e e9ab a83d
00000370: 54cc f9bc 0d0f 4b3e 5ef8 19be f197 7a3d
00000380: 831d aabd e316 813c d72b 14be 4e7c c93d
00000390: 602f 543c d031 923c 6c47 e23d e3fa c2bd
000003a0: dd80 ef3d f56d 663d a101 593e 593f 333e
000003b0: c37b dabb 74bc a8be 8c42 7a3d b7b0 19be
000003c0: e0d2 68bd a492 933d 01dc 01be 38d3 bebd
000003d0: 8514 1e3e 8a2a 57bd a16e 843e cc7b 51bd
000003e0: 169b 503d 113b 4ebe 2a99 2c3e 028e 7bbd
000003f0: e115 5a3d 5da0 94bd 7029 2d3c 9cbc 88bd

linear_relu_stack.8.bias f4 [50]
0.3569716 0.14497416 0.004888444 0.32539168 0.21953714 0.16121987 0.45000336 -0.03456491
-0.0091079185 0.062017124 -0.048857074 -0.03497138 0.053519275 0.24280539 -0.13798673 0.0069632344
0.018936576 0.012668082 -0.11813317 -0.0036439842 -0.14250293 0.1310581 -0.061656393 0.022882558
0.14058428 0.5667764 -0.08440006 0.031527795 -0.118521705 0.017917592 0.44557142 -0.12867509
0.0183364 0.11317527 0.11198756 0.15585615 -0.15796944 0.10320451 0.34236664 -0.025123794
-0.0056685954 -0.03189148 -0.014082841 -0.08937825 0.043396957 0.1908818 -0.07528326 0.042401478
0.1166421 0.12581143
00000000: fbc4 b63e 1b74 143e 3e2f a03b bd99 a63e
00000010: 58ce 603e d216 253e d766 e63e ef93 0dbd
00000020: 6139 15bc ab05 7e3d 5b1e 48bd 263e 0fbd
00000030: 0737 5b3d faa1 783e 654c 0dbe d82b e43b
00000040: e120 9b3c c98d 4f3c ceef f1bd e9cf 6ebb
00000050: 4aec 11be 1834 063e 6a8b 7cbd 3474 bb3c
00000060: 53f5 0f3e 4218 113f f0d9 acbd 4a23 013d
00000070: 82bb f2bd eac7 923c f021 e43e 67c3 03be
00000080: 3836 963c 70c8 e73d bc59 e53d c198 1f3e
00000090: bec2 21be e35c d33d ae4a af3e 6ad0 cdbc
000000a0: a0bf b9bb a4a0 02bd b7bb 66bc f20b b7bd
000000b0: 02c1 313d 8576 433e 1c2e 9abd 2cad 2d3d
000000c0: 0ee2 ee3d b6d4 003e

linear_relu_stack.10.weight f4 [102, 50]
-0.12818173 -0.0009855385 -0.04034921 -0.07583073 -0.053553738 0.025124496 -0.07943773 0.13117528
0.039048843 0.116887756 -0.10453648 0.043828845 -0.010274135 -0.019157933 -0.05566621 -0.0003705775
0.06276185 0.056353547 0.013640755 0.0018769772 0.0035589861 0.062493153 0.09804739 -0.05288629
0.012487934 0.076927215 -0.09851728 0.1407138 0.14046542 0.12560007 0.072788 0.025398329
-0.030193781 -0.11957605 0.09284408 0.13396783 -0.019013079 0.10614248 -0.00554687 -0.035008024
-0.11413414 0.13241267 0.027925178 0.09564253 -0.0028198818 -0.08694576 0.11172108 -0.03368897
-0.012827151 -0.015922576 -0.04626933 -0.019117478 -0.035186335 0.0704045 -0.10360573 0.013862481
-0.10099507 0.039818004 -0.08387945 0.09631037 0.044133104 -0.0011462271 -0.03833248 -0.008926471
0.13310267 0.025822673 0.05678918 -0.05180732 0.034896053 0.00095950306 0.101361774 -0.0812573
-0.06171692 -0.04466633 0.06540662 0.038034596 0.047876395 0.11177176 0.1316169 0.02067883
-0.08933887 0.0019477946 -0.013563321 0.036839608 0.06594448 -0.0008332453 0.083220474 -0.051585667
-0.099434584 -0.0057467637 -0.11355147 0.051106405 -0.04577366 0.13985649 0.03601131 -0.09899038
0.0998314 -0.008576842 -0.016235422 0.016959568 0.08369281 0.04071205 -0.067902364 0.065328114
-0.071377456 -0.02049186 0.021730874 0.05617503 0.009518399 0.031886443 0.11578151 -0.0773782
0.16498181 0.014762567 0.11089088 -0.031800993 -0.12792984 -0.080102034 0.101978526 -0.064250425
0.028214922 -0.014461883 0.04623239 0.22572209 0.04920013 -0.00479158 0.13367245 -0.07449205
0.055192634 -0.07240032 0.048422463 0.04550656 -0.03344036 -0.07043132 -0.03829188 -0.052441407
-0.10171742 0.005096092 0.024623659 0.09364401 -0.049850658 0.1047704 0.080486886 -0.022434378
-0.07580818 -0.027786046 0.13770173 0.078964986 0.11927248 -0.13763113 -0.05547559 -0.007874692
0.0024447166 -0.053933483 -0.028401278 0.010681847 -0.038106184 -0.07758851 0.019217439 0.038599517
0.02817039 -0.0053144246 -0.00842631 0.0056088613 0.026069805 0.01866 -0.037406996 0.039559603
-0.016037555 -0.002032187 -0.040715575 -0.014193606 0.049333233 -0.013818434 0.009836451 0.037540905
-0.06437969 0.019082256 0.12096022 -0.04162566 0.028930128 0.02278795 -0.000776382 -0.04110891
0.06213881 0.07430283 -0.13802977 0.045347363 -0.008574966 -0.01081033 0.08884126 0.030781295
0.07516346 0.0031543144 0.039251808 -0.057143163 -0.022990737 -0.04979987 -0.02849763 -0.028915456
-0.021080626 -0.045174193 -0.021227857 -0.03165507 -0.01454953 0.013252233 -0.043898083 0.077146456
-0.057840817 0.06158232 0.026459647 -0.12841675 -0.021343194 -0.028744396 -0.025298141 0.019754099
0.011888462 0.007310531 -0.0039568343 -0.0014490699 0.034890354 -0.016602507 -0.068171516 0.0069991793
0.073747285 0.050063573 0.11126462 -0.029301181 0.05981686 -0.031492874 -0.06826906 0.0043472857
0.002651651 0.050963026 0.037785094 -0.0003697785 -0.13560762 -0.025977466 -0.063063376 0.00038943707
-0.08472043 -0.021473031 -0.013455205 -0.062924646 0.027446989 -0.043731563 -0.033658784 -0.037571423
-0.017194193 -0.05528051 0.023671621 -0.025954695 -0.049704276 -0.026354749 -0.0514818 0.0056483364
00000000: 1242 03be 2f2d 81ba 3745 25bd 244d 9bbd
00000010: 2a5b 5bbd e3d1 cd3c 40b0 a2bd d052 063e
00000020: aef1 1f3d d962 ef3d 3917 d6bd e085 333d
00000030: d854 28bc 19f1 9cbc 4002 64bd 124a c2b9
00000040: 4989 803d fad2 663d 797d 5f3c e704 f63a
00000050: e13d 693b d2f8 7f3d 12cd c83d 4b9f 58bd
00000060: 319a 4c3c 048c 9d3d 6dc3 c9bd 4717 103e
00000070: 2bd6 0f3e 4e9d 003e e011 953d 2810 d03c
00000080: f358 f7bc 4ae4 f4bd 0925 be3d dd2e 093e
00000090: 51c1 9bbc 3b61 d93d 85c2 b5bb 9364 0fbd
000000a0: 29bf e9bd 3097 073e 58c3 e43c 3be0 c33d
000000b0: c4cd 38bb 9e10 b2bd 06ce e43d 72fd 09bd
000000c0: f928 52bc 1070 82bc e984 3dbd 429c 9cbc
000000d0: 8c1f 10bd 3c30 903d 3e2f d4bd 761f 633c
000000e0: 81d6 cebd 3418 233d fdc8 abbd 5f3e c53d
000000f0: eac4 343d 003d 96ba 8502 1dbd 5540 12bc
00000100: 114c 083e 128a d33c c59b 683d ea33 54bd
00000110: 2aef 0e3d 2987 7b3a c396 cf3d 3a6a a6bd
00000120: e2ca 7cbd 0bf4 36bd e8f3 853d 2aca 1b3d
00000130: 0a1a 443d 98e8 e43d 95c6 063e a666 a93c
00000140: 4cf7 b6bd 244d ff3a b138 5ebc 21e5 163d
00000150: e60d 873d 256e 5aba 7f6f aa3d 7e4b 53bd
00000160: 5ca4 cbbd 594f bcbb ac8d e8bd f354 513d
00000170: 297d 3bbd 8a36 0f3e 9880 133d 78bb cabd
00000180: 6874 cc3d e285 0cbc 2600 85bc cbee 8a3c
00000190: 2367 ab3d aec1 263d 6510 8bbd bfca 853d
000001a0: 582e 92bd 8cde a7bc f204 b23c ca17 663d
000001b0: 0ff3 1b3c 5c9b 023d db1e ed3d 7678 9ebd
000001c0: fef0 283e b2de 713c c21a e33d c241 02bd
000001d0: 0a00 03be 890c a4bd 1eda d03d ba95 83bd
000001e0: fb22 e73c 89f1 6cbc 2d5e 3d3d b123 673e
000001f0: 1386 493d b002 9dbb 6ee1 083e 4a8f 98bd
00000200: ac11 623d 9e46 94bd a256 463d 1665 3a3d
00000210: c2f8 08bd 4c3e 90bd f2d7 1cbd cdcc 56bd
00000220: 3951 d0bd 1efd a63b 8eb7 c93c 6ec8 bf3d
00000230: 3430 4cbd dd91 d63d 4fd6 a43d 4dc8 b7bc
00000240: 5241 9bbd 909f e3bc af01 0d3e 65b8 a13d
00000250: 2145 f43d 2def 0cbe 5f3a 63bd da04 01bc
00000260: 8a37 203b 5be9 5cbd cca9 e8bc ea02 2f3c
00000270: 3b15 1cbd bae6 9ebd e46d 9d3c 871a 1e3d
00000280: 97c5 e63c a024 aebb 810e 0abc 8aca b73b
00000290: 5890 d53c dbdc 983c 1438 19bd 4009 223d
000002a0: 3161 83bc 712e 05bb 60c5 26bd 4c8c 68bc
000002b0: a511 4a3d b766 62bc 1129 213c 7ec4 193d
000002c0: 80d9 83bd 6452 9c3c feb9 f73d ab7f 2abd
000002d0: e0fe ec3c cbad ba3c 1d86 4bba d161 28bd
000002e0: 4485 7e3d 152c 983d ad57 0dbe 28be 393d
000002f0: 047e 0cbc cf1d 31bc 68f2 b53d 0e29 fc3c
00000300: 4def 993d 9db8 4e3b 81c6 203d f30e 6abd
00000310: 1257 bcbc f3fa 4bbd dd73 e9bc 1be0 ecbc
00000320: 47b1 acbc 9308 39bd 0be6 adbc bfa8 01bd
00000330: 2761 6ebc e51f 593c 7ace 33bd f6fe 9d3d
00000340: 7eea 6cbd be3d 7c3d e7c1 d83c ae7f 03be
00000350: ecd7 aebc 5e79 ebbc 0c3e cfbc 59d3 a13c
00000360: d3c7 423c 2e8d ef3b 55a8 81bb b8ee bdba
00000370: 30e9 0e3d fb01 88bc 829d 8bbd 5f59 e53b
00000380: d108 973d 760f 4d3d b5de e33d 0809 f0bc
00000390: 8602 753d acfe 00bd a6d0 8bbd ad73 8e3b
000003a0: 52c7 2d3b 9bbe 503d 8bc4 1a3d d5de c1b9
000003b0: b9dc 0abe b2ce d4bc 5f27 81bd 5c2d cc39
000003c0: e881 adbd 36e8 afbc 3873 5cbc a3de 80bd
000003d0: 82d8 e03c de1f 33bd cbdd 09bd 7ee4 19bd
000003e0: d6da 8cbc d16d 62bd fdea c13c f19e d4bc
000003f0: b696 4bbd eae5 d7bc 94de 52bd ae15 b93b

linear_relu_stack.10.bias f4 [102]
-0.042896498 -0.18993713 -0.06591044 -0.010923024 -0.0885896 -0.020862315 -0.012686834 -0.0058900453
0.0090011805 0.01443276 0.09988927 0.007927338 0.053679816 0.09262581 -0.0011313373 0.22262062
0.05497666 -0.01630118 0.37953708 -0.09662565 -0.18881176 0.4002805 -0.10599222 -0.10446871
0.3723637 -0.14272128 -0.10126971 0.3639134 -0.116937645 -0.011542765 0.2829154 -0.21949665
-0.020985426 0.0088469405 0.083985366 0.031502657 -0.21507244 0.09469245 0.15850489 -0.26922676
-0.14758419 0.15839988 -0.039533798 -0.18801978 0.22547275 -0.019365573 -0.18419786 0.28825915
0.06286358 -0.21612406 0.34445435 0.095158145 -0.25400138 0.27852023 0.07799669 -0.19961497
-0.13234967 0.019023413 -0.38781258 -0.3692545 -0.013784915 -0.46571946 -0.4768011 -0.010899693
-0.5494389 -0.4127168 -0.10722575 -0.13266051 -0.005250092 -0.1552105 -0.28259864 -0.13667041
-0.15797 -0.4209409 -0.265435 -0.18045396 -0.53552896 -0.2289668 0.07963176 0.05542571
0.22455403 0.07164181 0.06876974 0.22384487 0.16418777 0.12153908 0.19475994 0.17880431
0.16403766 0.124959655 0.096687764 0.09292011 0.28373384 -0.017019076 0.20830652 0.19075097
-0.019708287 -0.4209532 -0.5525687 -0.20471586 -0.448742 -0.34261024
00000000: 3db4 2fbd e17e 42be 0efc 86bd 7cf6 32bc
00000010: 776e b5bd 72e7 aabc 70dc 4fbc 4801 c1bb
00000020: b079 133c 6277 6c3c bf92 cc3d aae1 013c
00000030: 5edf 5b3d 9ab2 bd3d 6149 94ba a9f6 633e
00000040: 352f 613d 0d8a 85bc af52 c23e abe3 c5bd
00000050: df57 41be 91f1 cc3e 7312 d9bd b1f3 d5bd
00000060: 74a6 be3e 8725 12be 7e66 cfbd db52 ba3e
00000070: 017d efbd de1d 3dbc 4ada 903e bbc3 60be
00000080: a1e9 abbc c2f2 103c 8500 ac3d ee08 013d
00000090: f33b 5cbe 1dee c13d 1b4f 223e 17d8 89be
000000a0: 4f20 17be 9433 223e 31ee 21bd 4288 40be
000000b0: 54e2 663e 8da4 9ebc 5d9e 3cbe b496 933e
000000c0: 9fbe 803d a04f 5dbe 525c b03e 46e2 c23d
000000d0: 780c 82be 349a 8e3e bbbc 9f3d de67 4cbe
000000e0: ac86 07be fdd6 9b3c 5f8f c6be ed0e bdbe
000000f0: 20da 61bc c872 eebe 461f f4be a094 32bc
00000100: 07a8 0cbf 9e4f d3be 2d99 dbbd 28d8 07be
00000110: f708 acbb 80ef 1ebe c5b0 90be 54f3 0bbe
00000120: e3c2 21be 9185 d7be 19e7 87be ecc8 38be
00000130: 6d18 09bf 4676 6abe fa15 a33d 1206 633d
00000140: 7ef1 653e f1b8 923d 26d7 8c3d 9737 653e
00000150: d720 283e 7be9 f83d 266f 473e 7a18 373e
00000160: 7df9 273e d9ea ff3d 3c04 c63d e64c be3d
00000170: 9045 913e 976b 8bbc 4e4e 553e 3954 433e
00000180: 4673 a1bc 2e87 d7be 2475 0dbf 09a1 51be
00000190: 83c1 e5be 9c6a afbe
