baselines/P&C_simplified/Weights/new.pth (torch, 71730 bytes, 12 tensors)

linear_relu_stack.0.weight f4 [50, 102]
-0.02026926 -0.072191454 0.07783265 0.067356385 -0.040637333 0.015965857 0.030738808 0.038188793
0.041529395 0.0014141127 0.052239455 -0.0473711 -0.0785193 0.0659075 -0.085233495 0.038782366
-0.073814824 -0.093781576 0.06241042 -0.025809191 -0.06835926 0.062794276 -0.030998155 0.05772566
0.07796421 0.08719639 0.092964105 0.0019626617 0.03803473 0.08815207 -0.09651262 0.010864511
-0.006184928 0.013033316 0.03618204 -0.049788285 0.061478384 -0.023570806 0.06248381 -0.032741845
0.07419912 0.089333214 0.04495453 -0.025040053 0.035485886 0.024565078 0.07175995 0.09030316
-0.063196756 -0.0049698874 -0.0830572 -0.0055276304 -0.09870195 0.010753594 -0.0127187 0.084743224
0.07798179 -0.05646117 0.091881506 0.0918242 0.05191072 0.052088656 -0.08771143 0.083341785
-0.017658852 -0.08287274 0.039163955 0.032936655 0.01597099 -0.07139022 0.014752895 -0.0965345
-0.045834333 0.066071935 0.022038035 -0.063239284 0.036772452 0.003611289 -0.08964558 -0.02702593
0.08864466 -0.089443296 -0.08199873 0.0108238235 -0.024356939 -0.02670563 0.05628129 -0.08697742
0.011934735 -0.060753826 0.0053883567 -0.06969935 0.06456297 0.0024412647 0.051194407 0.080354325
0.034443147 -0.0893899 -0.03437548 -0.045318604 0.093747295 -0.04881535 0.040906955 -0.08060489
-0.21015312 -0.02281278 0.10023589 -0.06695508 0.050740488 -0.03336061 -0.13619518 0.09199071
-0.0062207044 -0.14605474 0.112922445 0.012373928 -0.13762164 0.046289474 0.11589107 -0.28807065
-0.0074612214 0.04463402 -0.20032208 0.089425124 0.10755375 -0.05704044 0.19405639 0.077209376
-0.04200145 0.12029275 0.25405952 0.037704706 0.13018672 0.14133084 -0.072590694 0.08278068
-0.050319705 -0.04142742 0.08889989 -0.07627954 -0.03955158 0.114226714 -0.01725254 0.24987327
0.26967105 0.010651601 0.32527295 0.37064284 0.0013637473 0.47200704 0.36838698 -0.065919586
0.5749814 0.42007142 -0.042459507 0.5080706 0.0803741 0.075664744 -0.24118197 0.02220283
0.05136081 -0.27415013 0.07946638 0.039063398 -0.3470589 0.061103992 -0.07472745 -0.3487135
-0.034683533 0.042916853 -0.1487955 0.08454858 -0.06792784 -0.17303969 0.030940412 0.029367758
-0.115477845 0.09946317 -0.07944478 0.00094416674 0.015885774 0.043780793 -0.009237943 0.08300965
-0.026962517 -0.04069318 0.10605155 -0.0376904 -0.07253845 0.0013699613 0.053716376 -0.0044436897
0.042469773 -0.054364342 0.100005396 -0.040251113 0.08012847 -0.05926386 -0.062506594 -0.08816358
-0.362985 0.10295026 -0.0417894 -0.09324541 0.090125166 0.040689774 0.065316044 0.027898021
-0.061724294 0.08620117 0.053494953 -0.041631576 -0.092352234 -0.088839844 0.0066078603 0.09194524
-0.06782825 -0.0056161657 -0.08285205 0.09026436 0.0418685 0.052589513 0.09417265 -0.038100094
-0.030653492 -0.043971073 -0.031038612 -0.052428003 0.02029445 -0.08766579 -0.06864891 -0.083708555
0.049974658 0.04478454 -0.045028888 -0.061349723 -0.015870541 0.045747526 0.037063487 -0.018338226
0.01827208 -0.031867795 -0.09347261 0.07926781 -0.0447004 0.08326698 0.02116502 -0.056013938
0.09145757 -0.09263646 0.043114074 -0.02396962 0.017924279 -0.06309238 -0.021197252 0.057761602
00000000: b80b a6bc 1dd9 93bd b966 9f3d 25f2 893d
00000010: 5573 26bd d4ca 823c f4cf fb3c da6b 1c3d
00000020: ba1a 2a3d c059 b93a 0af9 553d 3308 42bd
00000030: bace a0bd 83fa 863d e68e aebd 42da 1e3d
00000040: 3a2c 97bd 8e10 c0bd 12a2 7f3d cc6d d3bc
00000050: f1ff 8bbd 499a 803d d8ef fdbc be71 6c3d
00000060: b3ab 9f3d 0594 b23d f763 be3d 00a0 003b
00000070: 4eca 1b3d 1389 b43d 69a8 c5bd 1001 323c
00000080: f0aa cabb b089 553c 9e33 143d cdee 4bbd
00000090: c2d0 7b3d 9017 c1bc 06ef 7f3d 501c 06bd
000000a0: b5f5 973d 55f4 b63d 3e22 383d cc20 cdbc
000000b0: a659 113d b43c c93c e1f6 923d ddf0 b83d
000000c0: 4d6d 81bd 70da a2bb e519 aabd 2021 b5bb
000000d0: 3f24 cabd d82f 303c 1862 50bc db8d ad3d
000000e0: ebb4 9f3d d443 67bd 5f2c bc3d 530e bc3d
000000f0: 56a0 543d ea5a 553d 0da2 b3bd 19af aa3d
00000100: 4ca9 90bc 2fb9 a9bd 626a 203d 96e8 063d
00000110: 98d5 823c 0935 92bd 20b6 713c e1b3 c5bd
00000120: c8bc 3bbd b950 873d 1c89 b43c 9983 81bd
00000130: b69e 163d 60ab 6c3b 1a98 b7bd 7c65 ddbc
00000140: 558b b53d 0c2e b7bd f3ee a7bd 6856 313c
00000150: 3488 c7bc c4c5 dabc 3687 663d 3821 b2bd
00000160: e889 433c 01d9 78bd d090 b03b 88be 8ebd
00000170: 9739 843d a0fd 1f3b 3ab1 513d cf90 a43d
00000180: 4214 0d3d 0d12 b7bd 4ecd 0cbd 00a0 39bd
00000190: 95fe bf3d 9bf2 47bd 0d8e 273d 2d14 a5bd
000001a0: 6132 57be dee1 babc 7948 cd3d bf1f 89bd
000001b0: 42d5 4f3d 23a5 08bd c076 0bbe a065 bc3d
000001c0: 0dd7 cbbb 608f 15be e243 e73d 04bc 4a3c
000001d0: b0ec 0cbe 089a 3d3d 4c58 ed3d ff7d 93be
000001e0: 437d f4bb 2ad2 363d 3b21 4dbe 8524 b73d
000001f0: 2445 dc3d 3da3 69bd b8b6 463e f31f 9e3d
00000200: b609 2cbd 0c5c f63d 1714 823e 4070 1a3d
00000210: ab4f 053e 08b9 103e 6eaa 94bd eb88 a93d
00000220: 091c 4ebd ccaf 29bd 2511 b63d 7338 9cbd
00000230: d600 22bd b2ef e93d 3355 8dbc c7de 7f3e
00000240: 5312 8a3e 0d84 2e3c 2d8a a63e e6c4 bd3e
00000250: c4bf b23a e8aa f13e 389d bc3e d900 87bd
00000260: fb31 133f 9a13 d73e 05ea 2dbd ea10 023f
00000270: 2d9b a43d 1ef6 9a3d 68f8 76be b6e2 b53c
00000280: b65f 523d 685d 8cbe 45bf a23d f100 203d
00000290: b4b1 b1be 2e48 7a3d b50a 99bd 938a b2be
000002a0: 5210 0ebd 95c9 2f3d d95d 18be ce27 ad3d
000002b0: c01d 8bbd 5131 31be bf76 fd3c a794 f03c
000002c0: a67f ecbd 59b3 cb3d f2b3 a2bd f581 773a
000002d0: e222 823c 7d53 333d be5a 17bc f700 aa3d
000002e0: 7fe0 dcbc e4ad 26bd 8e31 d93d 4061 1abd
000002f0: 0a8f 94bd 4690 b33a b405 5c3d 5f9c 91bb
00000300: c9f4 2d3d 25ad 5ebd a1cf cc3d 5ade 24bd
00000310: 651a a43d a9be 72bd 7503 80bd 1b8f b4bd
00000320: 2bd9 b9be 96d7 d23d 5d2b 2bbd 73f7 bebd
00000330: 8b93 b83d 52aa 263d 6bc4 853d 648a e43c
00000340: 9dd2 7cbd 3d8a b03d 861d 5b3d df85 2abd
00000350: 2b23 bdbd aaf1 b5bd c086 d83b c94d bc3d
00000360: 8ae9 8abd d007 b8bb 56ae a9bd 85dc b83d
00000370: 4e7e 2b3d 1a68 573d 97dd c03d d80e 1cbd
00000380: 081d fbbc 031b 34bd b044 febc bfbe 56bd
00000390: 8c40 a63c 1f8a b3bd cd97 8cbd 646f abbd
000003a0: 3ab2 4c3d fe6f 373d 3670 38bd d949 7bbd
000003b0: f002 82bc c261 3b3d e2cf 173d 0c3a 96bc
000003c0: 54af 953c ce87 02bd 916e bfbd 2957 a23d
000003d0: c417 37bd e187 aa3d 4462 ad3c df6e 65bd
000003e0: 1b4e bb3d 2fb8 bdbd 6298 303d f05b c4bc
000003f0: f0d5 923c 9436 81bd dca5 adbc 6e97 6c3d

linear_relu_stack.0.bias f4 [50]
0.01625105 0.05742166 0.095144846 0.06439186 0.024704108 0.038575597 -0.060487855 -0.056341175
0.04363693 0.028132297 -0.08453005 0.0637796 0.008961752 0.007871416 0.054682486 0.0486752
-0.05961053 0.0670965 0.019470654 0.058809496 0.070063226 -0.010299265 -0.06573782 0.07737263
-0.055223223 0.060797546 -0.027438555 -0.052643 0.10726892 0.10665823 0.098135434 -0.023819923
-0.092758104 -0.10563397 0.058255266 0.041922178 0.071715824 0.0041000545 0.053319626 0.05306849
0.05114991 -0.028419882 -0.06671741 0.015038284 0.08683028 -0.08599056 -0.042756155 0.08740259
0.041591823 0.05532379
00000000: ec20 853c f932 6b3d 4ddb c23d e1df 833d
00000010: 4560 ca3c 7201 1e3d 1dc2 77bd 01c6 66bd
00000020: a3bc 323d b475 e63c 171e adbd e19e 823d
00000030: 50d4 123c 1df7 003c befa 5f3d a65f 473d
00000040: 2c2a 74bd e469 893d ec80 9f3c 3ae2 703d
00000050: 4f7d 8f3d 40be 28bc 8da1 86bd 8b75 9e3d
00000060: bf31 62bd d906 793d d2c6 e0bc 30a0 57bd
00000070: cfaf db3d a16f da3d 3bfb c83d 0022 c3bc
00000080: f6f7 bdbd 9f56 d8bd 139d 6e3d 97b6 2b3d
00000090: bfdf 923d c059 863b ae65 5a3d 585e 593d
000000a0: 9182 513d d0d0 e8bc 23a3 88bd 2263 763c
000000b0: 13d4 b13d d21b b0bd 1421 2fbd 2100 b33d
000000c0: 305c 2a3d 339b 623d

linear_relu_stack.2.weight f4 [40, 50]
-0.0028881282 0.289863 -0.10527671 0.05096267 -0.21274224 -0.13402496 -0.11652105 0.07803926
0.02468519 -0.122749925 -0.15326224 -0.37915614 0.03555283 0.14104564 -0.0268391 0.07035373
-0.07276263 0.1393859 0.029498577 -0.036229312 0.09082334 0.039505288 -0.11987078 0.037673116
0.084561735 -0.21555378 0.069314234 -0.07826689 0.120836504 0.07329186 0.09797034 0.03684503
-0.017002024 -0.25414285 -0.2694813 -0.21175107 -0.0037598908 -0.08022638 0.040991366 -0.06650323
0.016994372 -0.019862734 -0.06301187 0.023404285 -0.07787032 -0.03813292 0.023625433 -0.008103266
-0.026511163 -0.037921123 -0.026372232 -0.21909152 -0.02576378 -0.14173159 0.07602911 0.13103868
0.029001908 -0.049325876 -0.16485602 -0.11424192 0.06081777 0.1613624 0.008454323 -0.12231882
-0.119118765 -0.024258226 -0.02797614 0.19019982 -0.09196689 0.21671742 -0.008147761 -0.052493818
-0.13765247 0.13426445 0.13952373 -0.025961543 -0.062343072 0.21274905 -0.09430337 0.056967232
-0.053561784 0.13535248 0.1115449 0.100601844 0.07306302 0.29379785 0.12130578 0.08038525
-0.11318965 0.04535682 -0.08277113 -0.051056087 -0.007340108 0.094612464 -0.03525292 0.07421232
-0.018286122 0.03308232 0.004807535 -0.011995507 -0.050042897 0.06303359 -0.088519245 0.059444718
-0.21450146 0.04854849 -0.10307715 0.04358454 0.018897288 -0.024598219 -0.0029178185 -0.17117658
-0.12580317 0.045482066 -0.018602036 -0.06923067 -0.080185965 0.09221064 -0.10202844 -0.04367551
0.13971566 -0.10826287 -0.04878111 -0.1398346 -0.083908126 -0.104357556 0.16214716 -0.0062422543
0.074253365 0.03748709 -0.12243358 -0.092649415 -0.12657452 -0.15519013 -0.070250906 -0.06393628
-0.06748307 -0.13125855 -0.029601686 -0.11514261 -0.07069196 0.13643532 -0.066092946 0.08444916
0.12270944 0.06301851 0.087839045 0.016757667 -0.0044212714 -0.09005336 -0.1328732 -0.08169735
-0.01641263 0.082981475 0.12676856 0.08648507 0.051964905 0.09071073 0.08232983 -0.05646579
-0.12582113 0.05856981 0.11011146 -0.047629308 -0.06001433 -0.13305415 -0.02955637 -0.1133644
0.12241526 0.21370037 0.07795912 -0.100259244 0.10219566 -0.023420699 -0.1193061 0.041639514
-0.087457724 0.017192261 0.018702107 -0.071585394 -0.04024274 -0.0814469 0.0650749 0.14823605
-0.058469214 0.1133145 -0.07513359 0.11083545 0.13060032 -0.041406125 -0.03485532 -0.09722904
-0.0705843 0.1304923 0.025781438 0.043604042 -0.119893245 0.10594179 -0.061432756 -0.085324615
-0.015558884 0.11856135 -0.12369158 -0.042560946 0.15942855 -0.013187423 -0.12150182 -0.12618162
-0.16688919 0.06110528 0.21578534 -0.04611543 -0.0047211945 -0.04955647 -0.12936446 0.03173688
-0.12557435 0.06103848 -0.118962854 -0.0028104726 0.10285926 0.07889056 0.04121304 -0.010570765
0.097090736 -0.12185722 0.09538577 0.020488938 -0.040149305 -0.083923034 -0.0031697154 -0.00041885674
0.07738283 -0.07455065 -0.17793284 -0.0076369625 -0.013362342 -0.03871756 -0.03766057 -0.06786305
0.10625193 -0.0020202994 0.117547125 -0.023574248 -0.0027752668 -0.022924159 -0.0684507 0.117712155
-0.12481362 -0.085351616 -0.020382032 0.023623416 -0.062538505 -0.09705159 -0.1074745 -0.017625898
00000000: c046 3dbb ec68 943e 519b d7bd 3cbe 503d
00000010: 1ad9 59be d73d 09be 97a2 eebd 0cd3 9f3d
00000020: 9838 ca3c 5064 fbbd c7f0 1cbe c120 c2be
00000030: d89f 113d 456e 103e acdd dbbc 9e15 903d
00000040: 9304 95bd 2dbb 0e3e 00a7 f13c 3065 14bd
00000050: 9601 ba3d 4cd0 213d d07e f5bd 204f 1a3d
00000060: b42e ad3d 21ba 5cbe 9ff4 8d3d 644a a0bd
00000070: 2179 f73d 0b1a 963d aca4 c83d d0ea 163d
00000080: d447 8bbc 031f 82be 74f9 89be 46d5 58be
00000090: 8068 76bb ba4d a4bd 90e6 273d d832 88bd
000000a0: c837 8b3c 2cb7 a2bc 5e0c 81bd 58ba bf3c
000000b0: 797a 9fbd 4431 1cbd 208a c13c 90c3 04bc
000000c0: f02d d9bc 2e53 1bbd 940a d8bc 8759 60be
000000d0: 900e d3bc 1622 11be 26b5 9b3d 012f 063e
000000e0: 6995 ed3c ee09 4abd 04d0 28be abf7 e9bd
000000f0: 0e1c 793d 2f3c 253e 0084 0a3c 4a82 fabd
00000100: 8af4 f3bd 30b9 c6bc 382e e5bc bec3 423e
00000110: 2359 bcbd 2ceb 5d3e 307e 05bc c203 57bd
00000120: c5f4 0cbe 9f7c 093e 4fdf 0e3e 4dad d4bc
00000130: 735b 7fbd e3da 593e 2022 c1bd 7956 693d
00000140: 9a63 5bbd d799 0a3e a771 e43d 5708 ce3d
00000150: 11a2 953d ac6c 963e 2a6f f83d 06a1 a43d
00000160: facf e7bd 13c8 393d e983 a9bd 3020 51bd
00000170: 4a85 f0bb 2ec4 c13d 5e65 10bd a1fc 973d
00000180: c7cc 95bc 5481 073d 8788 9d3b ce88 44bc
00000190: c8f9 4cbd c117 813d 9449 b5bd 4e7c 733d
000001a0: 45a6 5bbe c8da 463d 1d1a d3bd b485 323d
000001b0: 7cce 9a3c 3482 c9bc df38 3fbb ea48 2fbe
000001c0: 8cd2 00be 674b 3a3d 4c63 98bc cfc8 8dbd
000001d0: 8a38 a4bd efd8 bc3d 49f4 d0bd 17e5 32bd
000001e0: 9f11 0f3e ecb8 ddbd b4ce 47bd cd30 0fbe
000001f0: 06d8 abbd 6ab9 d5bd e809 263e d38b ccbb
00000200: 2612 983d 108c 193d 75be fabd fabe bdbd
00000210: c09c 01be 29ea 1ebe b5df 8fbd 06f1 82bd
00000220: 9034 8abd a468 06be 3c7f f2bc e4cf ebbd
00000230: f2c6 90bd b3b5 0b3e bd5b 87bd aef3 ac3d
00000240: 164f fb3d d90f 813d f5e4 b33d 6047 893c
00000250: 50e0 90bb e56d b8bd ea0f 08be f150 a7bd
00000260: c873 86bc 31f2 a93d 9ecf 013e 161f b13d
00000270: 27d9 543d 8cc6 b93d 8b9c a83d ac48 67bd
00000280: 41d7 00be e6e6 6f3d 1e82 e13d f316 43bd
00000290: 96d1 75bd 593f 08be 3320 f2bc 982b e8bd
000002a0: dab4 fa3d 45d4 5a3e 08a9 9f3d b854 cdbd
000002b0: f54b d13d c4dc bfbc c256 f4bd 328e 2a3d
000002c0: 091d b3bd c9d6 8c3c 2935 993c 5d9b 92bd
000002d0: 92d5 24bd a2cd a6bd fd45 853d 31cb 173e
000002e0: 6a7d 6fbd 6f11 e83d a4df 99bd b2fd e23d
000002f0: 17bc 053e 7899 29bd 74c4 0ebd 0520 c7bd
00000300: 808e 90bd c69f 053e 9833 d33c 279a 323d
00000310: 978a f5bd 02f8 d83d eaa0 7bbd acbe aebd
00000320: b0ea 7ebc 4bd0 f23d 0352 fdbd 6354 2ebd
00000330: 3d41 233e 1010 58bc f2d5 f8bd c135 01be
00000340: 00e5 2abe 8849 7a3d d5f6 5c3e 88e3 3cbd
00000350: 40b4 9abb bafb 4abd 1e78 04be 88fe 013d
00000360: 9096 00be 7c03 7a3d cca2 f3bd e82f 38bb
00000370: e0a7 d23d 6091 a13d 01cf 283d 0031 2dbc
00000380: 82d7 c63d 4790 f9bd 9d59 c33d 6bd8 a73c
00000390: 9973 24bd d7df abbd 00bb 4fbb 009a dbb9
000003a0: e47a 9e3d 03ae 98bd 0734 36be 7c3f fabb
000003b0: b9ed 5abc 4e96 1ebd f841 1abd c8fb 8abd
000003c0: 9d9a d93d 0067 04bb 8cbc f03d c81e c1bc
000003d0: 40e1 35bb 72cb bbbc e12f 8cbd 1213 f13d
000003e0: 489e ffbd d4cc aebd 38f8 a6bc e585 c13c
000003f0: 3014 80bd fcc2 c6bd 971b dcbd 3064 90bc

linear_relu_stack.2.bias f4 [40]
-0.18944219 0.14808422 -0.016680818 0.15353814 0.07281647 -0.015887402 0.047496732 -0.119148485
-0.14586627 0.020731665 0.09185049 -0.06770382 0.0054156794 -0.09581946 0.06310642 -0.06400915
-0.12215061 0.15564534 0.018401809 -0.074086 -0.03706243 -0.10155388 -0.013395537 0.043570958
0.06261265 0.0066773035 0.07589075 0.10526344 0.056523547 -0.06618311 0.016156858 -0.12464611
0.070852414 0.11308787 0.06866825 -0.14674054 -0.050061785 0.14369975 -0.07947437 -0.06471078
00000000: 22fd 41be 64a3 173e 36a6 88bc 1a39 1d3e
00000010: cd20 953d 4c26 82bc ef8b 423d 1f04 f4bd
00000020: f85d 15be 74d5 a93c 1c1c bc3d 4da8 8abd
00000030: 0376 b13b fe3c c4bd f03d 813d 3b17 83bd
00000040: 192a fabd 7e61 1f3e 64bf 963c 67ba 97bd
00000050: c6ce 17bd 7bfb cfbd f478 5bbc 7677 323d
00000060: 103b 803d 48cd da3b 9c6c 9b3d 5c94 d73d
00000070: 3c85 673d 038b 87bd 635b 843c 7646 ffbd
00000080: 121b 913d 9d9a e73d f1a1 8c3d 2743 16be
00000090: 960d 4dbd 0726 133e 75c3 a2bd 1687 84bd

linear_relu_stack.4.weight f4 [30, 40]
-0.0445967 -0.13471153 0.11989425 -0.1115871 0.09893794 -0.016368404 -0.14967787 -0.092656724
-0.09793998 -0.084757805 -0.024003878 -0.12536502 -0.039948642 -0.027860507 0.040497437 -0.15518636
-0.03227891 -0.13123097 0.046446055 0.14497419 -0.15076484 -0.026943192 0.041566834 0.045380995
-0.13726997 -0.037527725 -0.090932004 0.043081954 -0.04919509 -0.0142591 0.082093045 0.13805638
-0.047380477 -0.13740394 -0.029763743 0.10778646 -0.123167515 0.0647317 -0.116313905 0.030959502
-0.16765384 0.16855113 -0.1364115 -0.02734401 -0.02507276 0.060559634 -0.006822548 -0.14279981
-0.047258582 0.09194438 0.13800803 0.055366263 0.016126271 0.014817863 -0.0378356 0.08593537
-0.019765615 -0.008404604 -0.12599522 0.09903549 0.058358897 -0.044056583 0.015175628 0.10837063
-0.09842126 -0.101098165 -0.08264291 0.18198432 0.099605024 0.066581056 -0.040472597 0.0015411138
0.0061089946 -0.005108461 -0.10230002 -0.13852762 0.03273197 0.07784364 -0.04456502 0.030109085
0.115342215 0.16596663 -0.105743706 -0.15661262 0.12288117 -0.12536593 0.2667315 0.06990924
0.13589764 0.10520819 -0.11650989 0.1575872 -0.013581802 -0.054422587 0.03754256 -0.08058701
0.08539393 0.16557246 -0.19640154 0.03864211 -0.09525453 0.14396866 0.14895277 0.13264206
-0.12729986 0.039772004 -0.22502114 -0.09958045 0.17537841 0.19390368 0.14703166 -0.24199578
0.1791934 -0.10551047 -0.15387902 0.007718036 -0.05120191 -0.1735697 -0.19944069 0.114420146
0.17202619 -0.024422616 0.04072744 0.029761204 0.14919394 -0.035949755 0.29022735 0.085804306
-0.025713962 0.13086113 -0.15038636 -0.0037485817 -0.09729881 -0.1459628 -0.11514827 0.1029402
0.035053056 0.03460243 -0.024812777 0.04092285 0.24028589 -0.14331315 0.10321112 0.12296635
-0.01779589 -0.10277003 -0.094081484 -0.070362754 0.024263302 0.12052014 0.03423976 0.039176296
-0.032665726 -0.10627828 0.010048737 0.09778719 0.13792475 -0.05800457 -0.105895184 0.12805624
-0.12966485 0.021390036 0.1446274 0.117637835 -0.12986535 -0.14612372 -0.18710697 0.11525386
0.042471845 -0.07536834 0.06428915 -0.0056926757 0.18840794 0.111973695 0.09479049 -0.10670532
-0.03977284 0.17511249 0.16790171 0.056260467 0.055950586 -0.05697855 -0.12997372 0.205917
-0.14079712 -0.05212801 0.07248759 0.04482385 0.096505776 -0.02952631 -0.017767582 0.07255955
-0.17708108 0.037378784 0.004285694 -0.014577494 -0.04626452 0.0636924 0.1543916 -0.15313143
0.07175531 0.044520088 -0.065263316 0.06337361 -0.12454067 -0.030125668 -0.12047702 -0.079998165
0.1619159 -0.14124128 0.10622698 0.04048577 -0.080147564 0.20348771 -0.0473191 0.0040557487
0.10557405 0.10629932 0.086588904 -0.050520644 0.017881528 -0.09737043 -0.14244454 -0.053732347
-0.0052929074 0.06892469 -0.15439877 -0.080590814 0.080956906 0.29735655 0.03822183 0.09126657
0.12819684 -0.10585939 0.07815966 0.15275775 -0.17403482 -0.08800507 0.012409612 -0.110541835
-0.16133852 -0.007955065 0.0746322 -0.01966257 0.02636444 -0.07534081 0.057743445 0.068769634
0.055801965 -0.17473124 -0.013953924 0.06742495 -0.08885508 0.027550284 0.11812542 -0.05931465
00000000: 08ab 36bd d2f1 09be 1e8b f53d c787 e4bd
00000010: fa9f ca3d 0817 86bc 2845 19be cfc2 bdbd
00000020: c294 c8bd 8095 adbd c8a3 c4bc b05f 00be
00000030: 30a1 23bd b83b e4bc a4e0 253d 2ce9 1ebe
00000040: e436 04bd 6961 06be 383e 3e3d 1d74 143e
00000050: 1962 1abe f8b7 dcbc fc41 2a3d 6ce1 393d
00000060: 8090 0cbe acb6 19bd 8f3a babd b476 303d
00000070: ca80 49bd 009f 69bc 6620 a83d a75e 0d3e
00000080: 0812 42bd 9eb3 0cbe 18d3 f3bc 26bf dc3d
00000090: 403f fcbd 0e92 843d fc35 eebd c89e fd3c
000000a0: 73ad 2bbe ab98 2c3e 75af 0bbe 8c00 e0bc
000000b0: 6465 cdbc 610d 783d ae8f dfbb 1d3a 12be
000000c0: 3792 41bd 564d bc3d fa51 0d3e bcc7 623d
000000d0: 3e1b 843c 9fc6 723c 81f9 1abd e2fe af3d
000000e0: 80eb a1bc 77b3 09bc e404 01be 1ed3 ca3d
000000f0: bd09 6f3d ad74 34bd 32a3 783c 6cf1 dd3d
00000100: 1691 c9bd 8e0c cfbd b040 a9bd 195a 3a3e
00000110: b8fd cb3d a65b 883d 98c6 25bd 33ff c93a
00000120: f62d c83b e064 a7bb ac82 d1bd 2fda 0dbe
00000130: f511 063d 7d6c 9f3d cf89 36bd 54a7 f63c
00000140: 8a38 ec3d 28f3 293e 2890 d8bd 0f5f 20be
00000150: 1fa9 fb3d ed5f 00be 0891 883e 932c 8f3d
00000160: c028 0b3e 6477 d73d bd9c eebd 8a5e 213e
00000170: 3586 5ebc 38ea 5ebd 3ac6 193d cd0a a5bd
00000180: 03e3 ae3d d48b 293e 7c1d 49be 3047 1e3d
00000190: cf14 c3bd 856c 133e 1387 183e 52d3 073e
000001a0: e55a 02be f8e7 223d f16b 66be d6f0 cbbd
000001b0: 6696 333e b08e 463e 788f 163e becd 77be
000001c0: 7a7e 373e e015 d8bd 7692 1dbe 94e7 fc3b
000001d0: 18b9 51bd 41bc 31be 2e3a 4cbe 1c55 ea3d
000001e0: a227 303e f011 c8bc d1d1 263d c5cd f33c
000001f0: 4cc6 183e 0d40 13bd ae98 943e 2bba af3d
00000200: 16a6 d2bc 7600 063e e2fe 19be c4aa 75bb
00000210: 9944 c7bd 4677 15be dbd2 ebbd 50d2 d23d
00000220: cb93 0f3d 47bb 0d3d 2a44 cbbc b89e 273d
00000230: 810d 763e afc0 12be 5a60 d33d c8d5 fb3d
00000240: b0c8 91bc 1879 d2bd cbad c0bd 591a 90bd
00000250: d5c3 c63c 43d3 f63d fe3e 0c3d 5377 203d
00000260: 7fcc 05bd 6da8 d9bd 75a3 243c a644 c83d
00000270: 253c 0d3e 3396 6dbd 93df d8bd 2d21 033e
00000280: ddc6 04be 283a af3c 3519 143e 1bec f03d
00000290: 6cfb 04be 75a1 15be f898 3fbe 370a ec3d
000002a0: f5f6 2d3d b75a 9abd 08aa 833d a089 babb
000002b0: 03ee 403e 7752 e53d 8421 c23d 5288 dabd
000002c0: d8e8 22bd b050 333e 6dee 2b3e 6071 663d
000002d0: 712c 653d 5762 69bd d517 05be e8db 523e
000002e0: 1f2d 10be 2e84 55bd 6074 943d 3799 373d
000002f0: d2a4 c53d 29e1 f1bc 528d 91bc 1a9a 943d
00000300: be54 35be 7f1a 193d 026f 8c3b 71d6 6ebc
00000310: de7f 3dbd 2971 823d d518 1e3e 7cce 1cbe
00000320: 73f4 923d b25a 363d c6a8 85bd 06ca 813d
00000330: 2e0f ffbd 1bca f6bc a8bc f6bd 14d6 a3bd
00000340: 48cd 253e 8ea1 10be 888d d93d 68d4 253d
00000350: 6824 a4bd 155f 503e acd1 41bd 16e6 843b
00000360: 3537 d83d 75b3 d93d 8655 b13d bcee 4ebd
00000370: 487c 923c 266a c7bd fbdc 11be 7316 5cbd
00000380: 2070 adbb 6328 8d3d b61a 1ebe cc0c a5bd
00000390: bccc a53d 1e3f 983e 7e8e 1c3d f8e9 ba3d
000003a0: 0846 033e cfcc d8bd 2c12 a03d 876c 1c3e
000003b0: 2f36 32be 013c b4bd af51 4b3c c263 e2bd
000003c0: ed35 25be f655 02bc c4d8 983d 6613 a1bc
000003d0: 3dfa d73c 484c 9abd 6484 6c3d 18d7 8c3d
000003e0: 9a90 643d bfec 32be 009f 64bc 1816 8a3d
000003f0: a7f9 b5bd 22b1 e13c bdeb f13d ebf3 72bd

linear_relu_stack.4.bias f4 [30]
-0.11138159 -0.07768737 -0.11544421 0.07136121 0.057611547 -0.11423804 0.1759501 0.18499768
0.18172625 0.2723396 -0.04346285 -0.1472951 0.2002619 -0.1423321 0.20137253 -0.082576744
-0.056940727 0.063225165 0.08418937 0.019002946 0.10385354 0.23800997 0.4115748 -0.19856344
0.021524804 -0.097163156 0.13014714 0.20680687 -0.078997985 0.15662232
00000000: 081c e4bd 8e1a 9fbd 046e ecbd d325 923d
00000010: 16fa 6b3d a2f5 e9bd 432c 343e 0870 3d3e
00000020: 7216 3a3e 1970 8b3e 1a06 32bd 87d4 16be
00000030: 7511 4d3e 82bf 11be 9a34 4e3e ff1d a9bd
00000040: ae3a 69bd 327c 813d 7a6b ac3d 11ac 9b3c
00000050: 2ab1 d43d e3b8 733e efb9 d23e 3754 4bbe
00000060: c954 b03c 7afd c6bd 4b45 053e 2ec5 533e
00000070: b2c9 a1bd 9a61 203e

linear_relu_stack.6.weight f4 [40, 30]
-0.17963451 -0.0036138599 -0.06330729 0.043594986 0.1038991 0.16374528 0.008929116 0.111044034
0.086525865 0.063372366 0.0776612 -0.09976695 0.05925646 0.08216682 -0.041166257 -0.09632795
0.12963457 0.0070031662 0.12708206 -0.123748444 -0.05204571 0.0738331 -0.2092637 -0.0805668
-0.075825356 0.10714537 -0.16775173 -0.16018575 -0.062986456 -0.13639767 0.06608996 0.031533822
-0.24702588 0.23879127 0.11060873 -0.0060315854 0.0776452 0.22988522 -0.29428148 -0.08063983
0.09616072 -0.10152564 0.115462236 0.06861738 0.10470949 -0.19634002 0.1977347 0.13704397
-0.113046005 -0.1182051 0.06472249 0.107236184 0.19338371 -0.2621078 -0.11718721 0.07128728
0.04413105 -0.22314581 0.07519415 0.080876164 -0.13474147 0.019826023 -0.2056025 -0.031638857
0.09287858 -0.07009515 0.048885595 -0.025234198 -0.11930316 0.08047758 -0.16011846 0.13612302
0.031586025 -0.08738358 0.15574032 -0.115459956 -0.2054473 -0.01867033 0.17944056 0.0062155565
-0.22247797 -0.014455362 0.015773503 -0.041633148 0.075407125 -0.103920855 -0.107374 -0.0350123
0.1148707 -0.09458044 0.017654866 -0.12029277 -0.1294286 0.068009116 0.03431149 -0.12899749
0.22923468 -0.086679414 -0.079005755 -0.012038907 0.15729263 -0.059604425 -0.020676747 0.08010537
0.07040383 -0.083823204 0.023968237 0.26504475 0.06668881 -0.042598803 -0.11789942 0.086592145
-0.28282893 -0.25545302 0.09195324 0.11125311 0.04382288 -0.3284763 0.114575334 -0.06054831
-0.16411953 0.015943984 -0.016430823 0.172492 0.017481752 -0.17231648 -0.16204104 -0.0006285847
0.14604956 -0.15660249 -0.05429313 -0.1825536 -0.12841684 -0.025847942 0.16078153 -0.18679777
0.1638964 -0.09765322 0.08979838 -0.022482827 -0.14105803 0.035328444 -0.09950721 0.114217594
-0.16113362 -0.008695711 0.09637702 0.15242164 -0.0011500436 -0.16066562 0.18099576 0.1435754
-0.10295292 0.11624351 0.048189137 0.043424755 -0.07984472 0.16278043 0.08616628 -0.06855926
-0.10673076 -0.17352253 0.006686545 -0.053295102 0.05082186 0.052749947 -0.14933506 0.21685018
-0.0024021168 -0.12200711 0.027162494 0.082620285 -0.16751811 -0.024037564 -0.014014626 -0.21163438
0.23123811 -0.088032596 -0.14809534 0.0971757 0.06104189 0.055618826 0.06726291 0.049443234
-0.09815353 0.061601065 -0.14554313 0.20707928 -0.01442767 -0.08913736 -0.014667 -0.05343094
0.11300762 -0.17301218 0.12165606 -0.037171844 -0.080562554 -0.042048354 -0.11704218 -0.09348361
-0.15659143 0.288365 -0.07179434 0.23938502 0.15922567 0.12433708 0.12510984 -0.21101157
0.18886727 -0.24030375 0.009392664 0.015239592 -0.15037166 -0.21049294 0.14169426 -0.0032879866
0.024336012 -0.07091709 0.17296888 0.028529104 0.11382049 -0.079799704 0.0092253275 -0.061201718
-0.16550992 0.1254246 -0.19394198 -0.03912865 0.035829704 -0.14867307 -0.063564084 0.010724073
-0.21031082 0.055696342 0.0040710005 0.020501252 0.06565947 -0.2126876 0.045053598 0.07572128
-0.15629919 -0.061751243 0.043774076 0.09273643 -0.19530712 -0.044485077 0.0615322 0.25179937
0.10391333 -0.31450102 -0.023695355 -0.09160435 0.03395141 0.08307622 -0.28311107 0.090550825
00000000: 1cf2 37be 82d6 6cbb 41a7 81bd a890 323d
00000010: 0dc9 d43d d8ac 273e 6d4b 123c 0e6b e33d
00000020: 7934 b13d 5fc9 813d d60c 9f3d 9d52 ccbd
00000030: e7b6 723d 1447 a83d f39d 28bd 9747 c5bd
00000040: edbe 043e d17a e53b cd21 023e d36f fdbd
00000050: e22d 55bd cf35 973d 3949 56be 3500 a5bd
00000060: 534a 9bbd 086f db3d 1cc7 2bbe bc07 24be
00000070: 0bff 80bd d5ab 0bbe 2c5a 873d 9c29 013d
00000080: 5af4 7cbe b385 743e d486 e23d 9ba4 c5bb
00000090: 7204 9f3d 0867 6b3e 10ac 96be 7f26 a5bd
000000a0: e9ef c43d adec cfbd 7777 ec3d 4587 8c3d
000000b0: ee71 d63d 5c0d 49be f77a 4a3e 4155 0c3e
000000c0: aa84 e7bd 8415 f2bd 3a8d 843d a59e db3d
000000d0: 6106 463e fe32 86be d9ff efbd 11ff 913d
000000e0: c3c2 343d 5680 64be 64ff 993d 67a2 a53d
000000f0: abf9 09be 2f6a a23c 7689 52be bf97 01bd
00000100: 2037 be3d 0c8e 8fbd 433c 483d f3b7 cebc
00000110: 3755 f4bd 6ed1 a43d 18f6 23be d563 0b3e
00000120: 5960 013d 2af6 b2bd 647a 1f3e 4576 ecbd
00000130: c760 52be 85f2 98bc 44bf 373e deab cb3b
00000140: 44d1 63be 2fd6 6cbc 6f37 813c 8587 2abd
00000150: 0d6f 9a3d 75d4 d4bd e6e6 dbbd 0f69 0fbd
00000160: 5441 eb3d 64b3 c1bd f0a0 903c 0e5c f6bd
00000170: ee88 04be 5d48 8b3d 348a 0c3d eb17 04be
00000180: 7fbc 6a3e fa84 b1bd c5cd a1bd d63e 45bc
00000190: 5211 213e c523 74bd 4862 a9bc 490e a43d
000001a0: e22f 903d 80ab abbd 0959 c43c f2b3 873e
000001b0: 2594 883d 157c 2ebd 4075 f1bd 3957 b13d
000001c0: f4ce 90be bdca 82be fb51 bc3d acd8 e33d
000001d0: 9f7f 333d 0c2e a8be 79a6 ea3d 8101 78bd
000001e0: f30e 28be f59c 823c ef99 86bc bea1 303e
000001f0: e435 8f3c bb73 30be 16ee 25be 9bc7 24ba
00000200: 048e 153e 675c 20be 7962 5ebd 55ef 3abe
00000210: b47f 03be 10bf d3bc eaa3 243e ea47 3fbe
00000220: 75d4 273e 69fe c7bd 37e8 b73d e82d b8bc
00000230: 8471 10be 8fb4 103d 70ca cbbd eaea e93d
00000240: 3600 25be 7578 0ebc 5161 c53d 6b14 1c3e
00000250: 0fbd 96ba 8785 24be f456 393e 6e05 133e
00000260: fbd8 d2bd 1411 ee3d f961 453d 28de 313d
00000270: a185 a3bd eaaf 263e f277 b03d cc68 8cbd
00000280: a895 dabd e4af 31be ce1a db3b f74b 5abd
00000290: 952a 503d 5410 583d 4aeb 18be f90d 5e3e
000002a0: d56c 1dbb ddde f9bd e183 de3c d334 a93d
000002b0: de89 2bbe 6dea c4bc 9a9d 65bc afb6 58be
000002c0: afc9 6c3e 6f4a b4bd 4ea6 17be 0e04 c73d
000002d0: 1007 7a3d 91d0 633d 23c1 893d fd84 4a3d
000002e0: b804 c9bd 6651 7c3d 4209 15be 970c 543e
000002f0: 0962 6cbc a68d b6bd db4d 70bc 67da 5abd
00000300: 8a70 e73d 1b2a 31be d026 f93d 8141 18bd
00000310: fbfd a4bd e53a 2cbd cfb3 efbd 5674 bfbd
00000320: 8159 20be 94a4 933e e908 93bd 5921 753e
00000330: 0e0c 233e 70a4 fe3d cb1c 003e 6b13 58be
00000340: 6c66 413e 3012 76be b0e3 193c 7baf 793c
00000350: 07fb 19be 768b 57be 4d18 113e 437b 57bb
00000360: 515c c73c fb3c 91bd c11e 313e deb5 e93c
00000370: b81a e93d 076e a3bd d425 173c a7ae 7abd
00000380: 6f7b 29be 4e6f 003e ba98 46be 5d45 20bd
00000390: 2bc2 123d c13d 18be e32d 82bd 06b4 2f3c
000003a0: b85b 57be d921 643d 0766 853b 3ef2 a73c
000003b0: 7978 863d c7ca 59be 1f8a 383d c213 9b3d
000003c0: e50c 20be dfee 7cbd 724c 333d 99ec bd3d
000003d0: 97fe 47be fc35 36bd 3009 7c3d d9eb 803e
000003e0: 83d0 d43d 4706 a1be c31c c2bc 109b bbbd
000003f0: a210 0b3d dd23 aa3d eff3 90be b672 b93d

linear_relu_stack.6.bias f4 [40]
-0.32942536 0.08670974 0.2630124 0.15416199 -0.16627574 0.13956341 -0.028922493 -0.063392505
0.1635749 0.12982711 -0.021490527 0.1514035 0.23164165 -0.113469824 -0.1702664 -0.21728939
-0.14289536 -0.20600173 0.06414126 0.10590853 -0.20925917 -0.023579545 0.06685038 -0.08773168
0.20791492 -0.19985971 -0.24743801 -0.09060499 -0.14540292 -0.29252514 -0.15475059 -0.21681727
0.16720633 0.06744747 0.009285767 -0.064003184 -0.13072631 0.24266845 -0.03629939 0.4841789
00000000: 71aa a8be e094 b13d 90a9 863e a4dc 1d3e
00000010: 3044 2abe b6e9 0e3e ddee ecbc eed3 81bd
00000020: 2e80 273e 66f1 043e e70c b0bc 8509 1b3e
00000030: 7833 6d3e de62 e8bd 515a 2ebe 1c81 5ebe
00000040: 2953 12be 1ef2 52be 7e5c 833d 92e6 d83d
00000050: 0948 56be e429 c1bc dae8 883d abac b3bd
00000060: a6e7 543e 06a8 4cbe 6460 7dbe 1c8f b9bd
00000070: 81e4 14be dbc5 95be f076 1ebe 5905 5ebe
00000080: 2338 2b3e e621 8a3d 5423 183c 1a14 83bd
00000090: 1edd 05be 147e 783e abae 14bd 4ce6 f73e

linear_relu_stack.8.weight f4 [50, 40]
0.16084984 -0.21195953 -0.279757 0.005884179 -0.13902512 0.4096246 0.102810524 0.12686801
0.3338548 0.19667748 0.083017096 0.10463899 0.17198482 0.09874271 -0.04804285 -0.075855784
-0.06983761 -0.0969503 0.07409855 -0.14978251 -0.024690323 0.093551464 -0.035234004 -0.066244096
0.4658224 -0.034831315 0.20199807 -0.1351449 -0.18699938 0.12534828 -0.16010313 -0.02712042
0.16340134 0.31366673 0.023170667 -0.11786707 -0.1157746 -0.12904266 -0.15199228 -0.3450276
0.11157719 -0.15394615 -0.12333788 -0.059876826 0.1449222 0.101574734 0.04744281 0.12678683
-0.12757628 -0.10646778 0.008308783 0.050311867 -0.079864495 -0.13981643 0.13610187 -0.07401492
-0.030915951 -0.13514042 -0.020257011 -0.05283448 0.056081463 0.011180277 -0.059830397 0.0649126
-0.052287575 0.07963972 -0.056077432 -0.044717334 -0.13428709 -0.1288149 0.011081744 -0.05403527
0.10813836 0.075888075 -0.009273293 0.1616903 0.08103375 -0.063080564 -0.08844637 0.13506995
-0.055376995 -0.003373446 0.12660131 -0.08683148 -0.0020199977 -0.14197741 -0.05648319 -0.027803484
0.015970351 0.06989971 0.09451101 -0.06524822 -0.005393624 -0.007918341 0.1307678 -0.13798754
-0.059926156 0.08021109 0.20866404 0.13415605 0.055138335 -0.07556467 -0.07426559 0.057491172
0.090514086 -0.054087337 -0.1327215 -0.15347883 -0.13242307 0.14956893 0.07389319 -0.14166233
0.011299147 -0.20102254 -0.034878563 -0.0675021 0.09865165 0.06998263 0.10015551 -0.06411557
-0.07270232 0.16362363 0.11662313 0.07532614 -0.050713435 -0.031387758 -0.1243082 0.11744144
0.049567685 -0.07580696 -0.106339596 -0.14557555 -0.1255064 -0.0077397753 0.096594594 -0.017414095
0.02125822 0.02589148 0.09545911 -0.11644681 -0.054939814 0.008223349 -0.07172204 0.09539552
0.03060411 -0.14876798 0.04352738 0.12429138 0.060714003 0.10167619 0.09235358 -0.15073122
-0.13261087 0.11593897 -0.12123488 0.10337719 0.15238155 -0.14980598 0.012919337 -0.08025768
-0.017556261 0.28960958 0.15478778 0.16131885 -0.12055784 0.035175297 0.12833518 -0.22756785
-0.04747949 -0.062723026 0.006946209 -0.12762085 0.04818456 -0.116502054 0.002739062 -0.049596764
-0.0013491332 -0.0002601415 -0.1390791 -0.01720464 -0.20690143 0.115810424 0.066317685 0.13306494
0.09169636 0.08800922 0.10699935 -0.030272475 0.00725229 -0.13279268 0.0990758 -0.2113846
-0.25619388 -0.06146833 -0.07025297 -0.018709436 0.096384756 -0.05664302 0.19068283 0.2059253
0.02088287 -0.15943374 -0.054956816 0.19539027 -0.113229394 -0.04105596 -0.13985446 -0.10779717
-0.114085965 0.06777763 -0.038377594 -0.13470873 -0.010622934 -0.04683461 0.10813204 -0.16255273
-0.07223674 0.041190695 -0.06521501 -0.0646738 -0.055575058 -0.23405276 -0.057147823 0.02618894
-0.03285866 -0.050628282 -0.08932422 0.1358363 -0.026392592 -0.13663992 0.06298848 0.21055134
0.17839 0.052405763 0.10137582 -0.18160318 -0.07348567 0.0866688 0.01060699 -0.17901686
-0.07255275 0.09156565 -0.0025244602 0.1264019 0.127256 0.10045237 0.03523118 -0.06282427
0.0718215 0.281076 0.13997628 0.14452673 -0.026779763 0.0017886858 0.022157677 0.01942926
00000000: d2b5 243e eb0b 59be 4f3c 8fbe 12d0 c03b
00000010: 9a5c 0ebe 51ba d13e 538e d23d b0e9 013e
00000020: 04ef aa3e d265 493e de04 aa3d f74c d63d
00000030: ca1c 303e 9e39 ca3d 94c8 44bd 475a 9bbd
00000040: 0507 8fbd e18d c6bd fbc0 973d 9660 19be
00000050: 5c43 cabc e997 bf3d 8851 10bd fcaa 87bd
00000060: 4680 ee3e 48ab 0ebd 95d8 4e3e 6d63 0abe
00000070: c47c 3fbe 4d5b 003e 13f2 23be a52b debc
00000080: ae52 273e ed98 a03e 69d0 bd3c 4a64 f1bd
00000090: 3c1b edbd c223 04be dda3 1bbe 75a7 b0be
000000a0: 9582 e43d 0fa4 1dbe 9298 fcbd 6741 75bd
000000b0: 7c66 143e 6a06 d03d 6453 423d 68d4 013e
000000c0: 5ba3 02be c80b dabd 9021 083c d113 4e3d
000000d0: ff8f a3bd 0a2c 0fbe 4a5e 0b3e 2295 97bd
000000e0: 7343 fdbc 4062 0abe 08f2 a5bc f868 58bd
000000f0: adb5 653d 7b2d 373c b810 75bd e6f0 843d
00000100: 7f2b 56bd 261a a33d 73b1 65bd 8629 37bd
00000110: 8e82 09be 0ee8 03be 3490 353c 1654 5dbd
00000120: a577 dd3d 356b 9b3d 03ef 17bc 2492 253e
00000130: 06f5 a53d 6230 81bd 5f23 b5bd c74f 0a3e
00000140: fdd2 62bd 0815 5dbb c6a3 013e b4d4 b1bd
00000150: f061 04bb 8762 11be eb5a 67bd 22c4 e3bc
00000160: 41d4 823c 9427 8f3d fd8e c13d dca0 85bd
00000170: ffbc b0bb eebb 01bc ffe7 053e 9b4c 0dbe
00000180: 2175 75bd b645 a43d 07ac 553e 3460 093e
00000190: bcd8 613d a6c1 9abd 8f18 98bd dd7b 6b3d
000001a0: 735f b93d af8a 5dbd 25e8 07be 8e29 1dbe
000001b0: ea99 07be 9928 193e 5055 973d ee0f 11be
000001c0: 0f20 393c dad8 4dbe d3dc 0ebd 8a3e 8abd
000001d0: e009 ca3d 0e53 8f3d 551e cd3d 064f 83bd
000001e0: f4e4 94bd f48c 273e 1cd8 ee3d 9744 9a3d
000001f0: e4b8 4fbd 7390 00bd 4c95 febd 2385 f03d
00000200: 7c07 4b3d ae40 9bbd 93c8 d9bd c211 15be
00000210: c084 00be f19d fdbb 63d3 c53d 01a8 8ebc
00000220: b825 ae3c 5e1a d43c 1180 c33d aa7b eebd
00000230: 9208 61bd 3abb 063c 01e3 92bd ba5e c33d
00000240: 78b5 fa3c a256 18be c449 323d 7b8c fe3d
00000250: 3faf 783d 9b3b d03d e023 bd3d 4959 1abe
00000260: 25cb 07be 6971 ed3d fe49 f8bd 6cb7 d33d
00000270: e909 1c3e bd66 19be a0ab 533c 235e a4bd
00000280: 26d2 8fbc b547 943e b080 1e3e c530 253e
00000290: 07e7 f6bd f913 103d 4c6a 033e 8c07 69be
000002a0: db79 42bd ee74 80bd 069d e33b 0aaf 02be
000002b0: 2c5d 453d a198 eebd d681 333b fa25 4bbd
000002c0: 66d5 b0ba 9a63 88b9 c06a 0ebe bff0 8cbc
000002d0: f8dd 53be 042e ed3d 91d1 873d 2d42 083e
000002e0: 4dcb bb3d 2e3e b43d 7a22 db3d fbfd f7bc
000002f0: 9ea4 ed3b cefa 07be 41e8 ca3d 3475 58be
00000300: d82b 83be 37c6 7bbd cae0 8fbd 8844 99bc
00000310: 5f65 c53d 8302 68bd 5c42 433e 15de 523e
00000320: 8d12 ab3c 9942 23be 661a 61bd 6314 483e
00000330: d0e4 e7bd 4b2a 28bd 0236 0fbe c3c4 dcbd
00000340: e7a5 e9bd 00cf 8a3d d331 1dbd 16f1 09be
00000350: d10b 2ebc a6d5 3fbd 5574 dd3d 3974 26be
00000360: dbf0 93bd 93b7 283d 728f 85bd b273 84bd
00000370: aca2 63bd 87ab 6fbe d613 6abd 308a d63c
00000380: cd96 06bd 9a5f 4fbd 9eef b6bd ac18 0b3e
00000390: 4735 d8bc 56eb 0bbe 1b00 813d c59a 573e
000003a0: deab 363e 6da7 563d 209e cf3d 2ff6 39be
000003b0: a87f 96bd 697f b13d f1c8 2d3c 3250 37be
000003c0: 8996 94bd c686 bb3d 6a71 25bb 806f 013e
000003d0: 664f 023e f9b9 cd3d 924e 103d 03aa 80bd
000003e0: 2717 933d 32e9 8f3e f155 0f3e d1fe 133e
000003f0: 3c61 dbbc 5672 ea3a 0484 b53c 1d2a 9f3c

linear_relu_stack.8.bias f4 [50]
0.451754 -0.17455287 0.1894653 -0.02463431 -0.22112657 0.43995023 0.7953849 0.266302
0.17988862 -0.19011104 0.006596264 0.3034281 0.4065841 0.15543313 0.27351615 -0.07961026
0.12731907 -0.15424761 0.06545636 -0.16489094 0.22702935 -0.10543148 0.17197989 -0.3370859
0.009749199 0.057138067 0.018345105 -0.3533528 -0.103284515 0.9310314 0.44844255 -0.20138499
0.29781756 0.28659067 0.39369237 -0.1742603 0.40255705 -0.15177493 0.03817863 -0.10703697
0.338287 -0.13871808 0.11128815 -0.15826304 0.13680078 0.05598955 0.35096008 0.74541354
0.33257362 0.17980768
00000000: 4d4c e73e fdbd 32be 3103 423e e4cd c9bc
00000010: 016f 62be 2841 e13e 589e 4b3f bc58 883e
00000020: b934 383e 78ac 42be 7925 d83b ee5a 9b3e
00000030: cb2b d03e dd29 1f3e 4f0a 8c3e b40a a3bd
00000040: ee5f 023e 16f3 1dbe fc0d 863d 2cd9 28be
00000050: 627a 683e 76ec d7bd 7f1b 303e 8696 acbe
00000060: 1bbb 1f3c 9b09 6a3d 7948 963c a8ea b4be
00000070: d586 d3bd 1358 6e3f 439a e53e de37 4ebe
00000080: 8b7b 983e 03bc 923e 0c92 c93e 4b71 32be
00000090: f51b ce3e e36a 1bbe 3261 1c3d 3336 dbbd
000000a0: f433 ad3e 1d0c 0ebe 0beb e33d b50f 22be
000000b0: 8115 0c3e 4c55 653d 0ab1 b33e 6cd3 3e3f
000000c0: 1747 aa3e 811f 383e

linear_relu_stack.10.weight f4 [102, 50]
-0.04505113 -0.09875154 -0.033648778 0.025090491 0.154586 0.0815017 0.0013325632 -0.046183966
-0.05385552 -0.11270917 -0.025236567 0.00041255457 -0.0061725774 -0.12456081 -0.0076916227 -0.039120544
0.0134256035 -0.04977984 0.053620785 0.05322259 0.044106413 -0.12579791 0.028216844 -0.03406701
-0.097320884 -0.03356064 -0.086497985 -0.09316531 -0.01168163 0.0825356 0.07059437 -0.01946226
0.0381388 -0.044987854 -0.104064435 0.086849526 -0.11717488 0.028434288 -0.01290015 -0.024092786
0.16391176 -0.09687314 -0.09360938 0.13002764 0.06623051 -0.06607225 0.07389932 0.058462944
0.025077226 -0.19440353 -0.015748192 -0.08876679 -0.022000697 0.115281 -0.05479953 0.07299071
-0.055085495 0.1101783 0.043473694 -0.03968618 0.050630234 -0.0424423 -0.0039218157 0.01408026
-0.021092672 -0.06532992 -0.06490748 -0.043572627 -0.04281919 -0.006373479 0.053774815 -0.027269688
-0.050998166 0.045092862 -0.12551278 0.06660507 0.03063298 0.072429776 -0.039218806 -0.08548847
0.013160801 -0.14069918 -0.08513614 0.05265735 -0.015491746 -0.02783788 0.07352118 0.12946945
-0.00038398977 0.07066503 0.06840885 -0.124678254 -0.10426104 -0.07622933 0.0141604515 -0.07938493
0.022353426 0.010563756 0.042310618 0.01937033 -0.13519041 -0.13318506 0.069641665 -0.13055952
0.06173296 -0.0153414225 -0.1560968 -0.113722615 0.016065307 0.054554094 -0.012496225 -0.07676677
-0.31223848 -0.0327499 -0.12657104 0.040748846 0.08288914 -0.021467244 0.09679735 -0.12809825
-0.1645491 0.025962686 -0.09920563 -0.028588789 -0.098944634 0.061335664 -0.12249426 0.007320315
0.03734324 -0.18515316 -0.09112615 0.101609014 -0.23265281 -0.035863206 -0.08142212 -0.07208221
-0.14989147 0.09834996 0.13075814 -0.08169473 -0.06987042 0.091956414 -0.048439745 0.053227033
-0.1291668 -0.085516326 -0.05093283 -0.24025765 -0.1580097 -0.12163901 0.032651532 0.072170205
0.07975582 0.07912555 0.07412715 0.0461778 -0.045271616 0.08940913 -0.02918298 0.071827166
-0.024769995 0.07087552 -0.059657488 -0.06296852 -0.055058893 -0.01847255 0.06368335 0.05204097
-0.012058883 -0.107075214 0.03875108 0.11164125 0.13755403 -0.017821124 -0.014941642 0.057852495
-0.03983772 -0.024162037 -0.037427343 0.13728318 0.027998881 0.02676426 -0.060053132 -0.060531463
-0.09485758 0.015481315 -0.026959313 -0.13870382 0.040403288 -0.13580838 0.09817162 0.11794526
0.08459217 -0.061167065 0.14560011 0.015877973 -0.0060184244 -0.017805602 0.06443423 -0.091762885
-0.018826103 0.10623596 0.08992615 0.08959782 -0.031890113 -0.00010241594 -0.009522944 0.01593009
-0.013133887 -0.100193776 0.071666695 -0.04547677 0.015753733 -0.018145904 -0.015042342 -0.012131963
-0.016785456 -0.13911387 -0.00037925542 0.002313516 0.090135455 0.11139519 -0.04727063 0.03017013
0.050377384 0.021542575 0.047836985 0.00870215 0.08064464 0.04786056 0.07023921 -0.12509693
-0.1453423 0.07814486 -0.0007836028 -0.014556774 0.04412557 -0.021266513 0.07674263 0.02598928
-0.020946702 0.019994587 0.057657965 0.06599661 -0.030996457 -0.041212365 0.0005033675 -0.15119877
-0.0010496661 0.11252781 -0.07166795 -0.011777232 0.057144277 -0.021124156 0.0055247685 -0.10271589
00000000: 8987 38bd 3f3e cabd 4dd3 09bd 938a cd3c
00000010: cb4b 1e3e 5dea a63d 67a9 ae3a 662b 3dbd
00000020: 9b97 5cbd 11d4 e6bd ebbc cebc 234c d839
00000030: 5543 cabb bd19 ffbd 020a fcbb dd3c 20bd
00000040: 10f7 5b3c f2e5 4bbd 78a1 5b3d eeff 593d
00000050: eda8 343d 2bd1 00be 0327 e73c d989 0bbd
00000060: 2c50 c7bd e276 09bd db25 b1bd 74cd bebd
00000070: 4f64 3fbc 6d08 a93d c893 903d 516f 9fbc
00000080: 6e37 1c3d 2f45 38bd bc1f d5bd 2ade b13d
00000090: 62f9 efbd 06ef e83c 275b 53bc 3c5e c5bc
000000a0: 7cd8 273e 6d65 c6bd 46b6 bfbd f725 053e
000000b0: dda3 873d e350 87bd 8758 973d d776 6f3d
000000c0: c16e cd3c b811 47be 5a02 81bc 5dcb b5bd
000000d0: ce3a b4bc 7218 ec3d 7975 60bd 277c 953d
000000e0: 54a1 61bd 29a5 e13d 7911 323d fa8d 22bd
000000f0: a661 4f3d fad7 2dbd 9382 80bb e4b0 663c
00000100: 8aca acbc b1cb 85bd 36ee 84bd 3679 32bd
00000110: 2d63 2fbd 9ed8 d0bb fb42 5c3d ae64 dfbc
00000120: 74e3 50bd 4bb3 383d 6c86 00be 3d68 883d
00000130: 04f2 fa3c 1056 943d e6a3 20bd 9414 afbd
00000140: 66a0 573c 7213 10be db5b aebd 3caf 573d
00000150: 18d1 7dbc 440c e4bc 4692 963d a493 043e
00000160: 3c52 c9b9 d4b8 903d f019 8c3d 5057 ffbd
00000170: d086 d5bd 1f1e 9cbd 3d01 683c 9194 a2bd
00000180: 881e b73c 9b13 2d3c e64d 2d3d 87ae 9e3c
00000190: 5b6f 0abe aa61 08be 4aa0 8e3d 65b1 05be
000001a0: b3db 7c3d 975a 7bbc d7d7 1fbe 67e7 e8bd
000001b0: 649b 833c 1d74 5f3d f7bc 4cbc e537 9dbd
000001c0: b9dd 9fbe c224 06bd d79b 01be 43e8 263d
000001d0: c8c1 a93d 13dc afbc b03d c63d 302c 03be
000001e0: 8f7f 28be b3af d43c 522c cbbd 0933 eabc
000001f0: 7ca3 cabd 1b3b 7b3d 45de fabd 41df ef3b
00000200: 3af5 183d ca98 3dbe 59a0 babd 6318 d03d
00000210: 8a3c 6ebe 4ce5 12bd a4c0 a6bd d69f 93bd
00000220: 267d 19be b46b c93d 76e5 053e 914f a7bd
00000230: 3918 8fbd a553 bc3d c168 46bd 9704 5a3d
00000240: 4d44 04be 2f23 afbd f19e 50bd 1a06 76be
00000250: 4bcd 21be e01d f9bd 9dbd 053d f9cd 933d
00000260: 0557 a33d 940c a23d facf 973d ef24 3d3d
00000270: bb6e 39bd 221c b73d 2511 efbc 1f1a 933d
00000280: 72ea cabc 2f27 913d 695b 74bd a4f5 80bd
00000290: 6f85 61bd bf53 97bc 6b6c 823d ea28 553d
000002a0: 9f92 45bc 404a dbbd 74b9 1e3d 2ba4 e43d
000002b0: f7da 0c3e 9bfd 91bc cacd 74bc bdf6 6c3d
000002c0: e12c 23bd 77ef c5bc 6a4d 19bd f693 0c3e
000002d0: e95d e53c b940 db3c 46fa 75bd d7ef 77bd
000002e0: b144 c2bd 57a5 7d3c c7d9 dcbc 6008 0ebe
000002f0: eb7d 253d 5a11 0bbe 340e c93d 498d f13d
00000300: a93e ad3d 518a 7abd 3218 153e 8612 823c
00000310: 3436 c5bb 0edd 91bc 18f6 833d 2eee bbbd
00000320: 3339 9abc 3d92 d93d 342b b83d 107f b73d
00000330: 359f 02bd 24c8 d6b8 1f06 1cbc d27f 823c
00000340: 842f 57bc 6532 cdbd fdc5 923d d945 3abd
00000350: f90d 813c b8a6 94bc 2874 76bc 24c5 46bc
00000360: a781 89bc de73 0ebe cdd6 c6b9 5c9e 173b
00000370: f098 b83d 2923 e43d d99e 41bd 5927 f73c
00000380: 8458 4e3d 0e7a b03c b7f0 433d 7693 0e3c
00000390: 0429 a53d 6f09 443d 93d9 8f3d 6919 00be
000003a0: 9dd4 14be 6a0a a03d b26a 4dba 897f 6ebc
000003b0: 04bd 343d 1c37 aebc 3d2b 9d3d 78e7 d43c
000003c0: 6b98 abbc b0cb a33c c22a 6c3d 3b29 873d
000003d0: 48ec fdbc 4cce 28bd 6cf4 033a dad3 1abe
000003e0: f394 89ba fb74 e63d a5c6 92bd 4bf5 40bc
000003f0: 1e10 6a3d 910c adbc 1e09 b53b b55c d2bd

linear_relu_stack.10.bias f4 [102]
-0.025710287 -0.17137083 -0.7376913 -0.077260375 -0.01721732 -0.6214964 -0.06390814 0.07186134
-0.740772 -0.13060853 0.1715744 -0.6207183 -0.06230524 0.21649118 -0.5522106 -0.044223707
0.22889139 -0.5487695 -0.059145864 -0.037513383 -0.74933934 0.08401432 -0.33574316 -0.73119867
0.09779404 -0.36726528 -0.73864233 0.14546323 -0.4464374 -0.7326658 -0.037914447 -0.48291147
-0.71186817 -0.16642974 0.23191309 -0.5364302 -0.25613746 0.17489462 -0.6639555 -0.30209702
0.06618367 -0.6199724 -0.20657113 -0.23112577 -0.54880416 -0.32374755 -0.3255184 -0.574196
-0.2739154 -0.3305556 -0.518618 -0.29958275 -0.266772 -0.51526296 0.013705955 -0.14360055
-0.73445344 -0.009673052 -0.4083407 -0.72592896 -0.074075796 -0.48275384 -0.7875344 -0.033574454
-0.5768564 -0.6552978 -0.13932174 -0.2104145 -0.8427713 -0.028873576 -0.4473963 -0.43963438
0.076669686 -0.49695355 -0.40707436 0.07812893 -0.47447506 -0.4288054 -0.23415759 0.22857654
-0.49879092 -0.18465272 0.29716504 -0.57214844 -0.22589962 0.32436013 -0.41358605 -0.12921369
0.22874033 -0.4896748 -0.25736165 0.28991327 -0.55836815 -0.13938518 0.30307984 -0.52517074
0.047648557 -0.5552004 -0.70018715 0.065722674 -0.51700675 -0.52775073
00000000: 619e d2bc d67b 2fbe 56d9 3cbf b03a 9ebd
00000010: 560b 8dbc 631a 1fbf 45e2 82bd 0a2c 933d
00000020: 3ca3 3dbf 3ebe 05be 33b1 2f3e 65e7 1ebf
00000030: c833 7fbd ddaf 5d3e ad5d 0dbf eb23 35bd
00000040: 8162 6a3e 287c 0cbf ef42 72bd a2a7 19bd
00000050: b4d4 3fbf b30f ac3d 87e6 abbe d62f 3bbf
00000060: 3e48 c83d 320a bcbe aa17 3dbf 50f4 143e
00000070: 7193 e4be fc8f 3bbf 2e4c 1bbd 2c40 f7be
00000080: fe3c 36bf 8f6c 2abe a07a 6d3e 7d53 09bf
00000090: 7324 83be 9317 333e fdf8 29bf 76ac 9abe
000000a0: 4e8b 873d 83b6 1ebf 6287 53be 3cac 6cbe
000000b0: 6e7e 0cbf 3dc2 a5be 59aa a6be 82fe 12bf
000000c0: a43e 8cbe 953e a9be 26c4 04bf e962 99be
000000d0: 5796 88be 46e8 03bf f18e 603c 060c 13be
000000e0: 2405 3cbf b87b 1ebc 0812 d1be 7bd6 39bf
000000f0: 0db5 97bd 832b f7be db9b 49bf 5e85 09bd
00000100: dcac 13bf 99c1 27bf 5caa 0ebe e676 57be
00000110: dcbf 57bf 4788 ecbc 2111 e5be c217 e1be
00000120: ff04 9d3d b270 febe 0d6c d0be 0f02 a03d
00000130: 65ee f2be 628c dbbe 02c7 6fbe f80f 6a3e
00000140: 8661 ffbe 9a15 3dbe 0426 983e 5278 12bf
00000150: 3b52 67be 8812 a63e 8dc1 d3be 9850 04be
00000160: e83a 6a3e a8b6 fabe e8c4 83be 836f 943e
00000170: 37f1 0ebf fdba 0ebe 482d 9b3e 9771 06bf
00000180: 222b 433d 9d21 0ebf 773f 33bf 9c99 863d
00000190: 8e5a 04bf ac1a 07bf
