baselines/P&C_simplified/Weights/new.pth (torch, 71730 bytes, 12 tensors)

linear_relu_stack.0.weight f4 [50, 102]
0	0xbd80f95a	-0.0629756
1	0xbe291e2a	-0.16515413
2	0x3dd9560d	0.10612116
3	0x3c7a13c0	0.015263498
4	0xbaea05f6	-0.001785456
5	0x3dd9bcc2	0.10631706
6	0xbd9f12a8	-0.0776723
7	0xbc8dc50c	-0.017305873
8	0xbcb9a1d4	-0.022660173
9	0x3d2f6170	0.042817533
10	0x3d9b06bc	0.07569644
11	0xbd966395	-0.073432125
12	0x3daebbf8	0.08531946
13	0xbcda887e	-0.026676413
14	0xbd9f9dce	-0.07793771
15	0x3d145648	0.036215097
16	0x3da8abbd	0.082358815
17	0xbdf8d235	-0.12149469
18	0x3df6b2e5	0.1204584
19	0xbd987de5	-0.074458875
20	0x3bed25b3	0.00723716
21	0x3d0f232d	0.034945656
22	0xbd84b56e	-0.064799175
23	0xbe581df9	-0.21105184
24	0x3d3c3d3b	0.04595683
25	0xbdcaa5c6	-0.098949
26	0xbea9fcd2	-0.332007
27	0xbd2d4eed	-0.042311598
28	0xbe119b9e	-0.1421952
29	0xbed42f2f	-0.41442248
30	0xbc24075e	-0.010011522
31	0xbde2b732	-0.11070098
32	0xbea93216	-0.33046025
33	0xbd9544a9	-0.072884865
34	0xbd4f87a5	-0.05066647
35	0xbdb83453	-0.08994355
36	0xbdb6356b	-0.088969074
37	0xbd21b696	-0.03948077
38	0x3c188390	0.009308711
39	0xbe078c3a	-0.13237086
40	0xbceb46ed	-0.028720343
41	0x3c9be5e8	0.019030526
42	0x3da57e1a	0.080806926
43	0x3e2ef798	0.17086637
44	0x3da45ebc	0.08025882
45	0xbd935620	-0.071941614
46	0x3e3b3775	0.18282874
47	0x3ddc1f47	0.10748153
48	0xbd33cc65	-0.043896098
49	0x3e499f49	0.19689669
50	0x3df281e6	0.118411824
51	0x3dc31787	0.09525972
52	0x3dd691d7	0.104770355
53	0x3e4fc1bc	0.20288748
54	0xbd54ef9b	-0.051986318
55	0xbdad327c	-0.08456895
56	0x3daf2884	0.085526496
57	0xbdb942ce	-0.09045945
58	0xbe09480c	-0.1340639
59	0x3e044cb6	0.12919888
60	0xbdb934db	-0.090432845
61	0xbdc9e732	-0.0985855
62	0x3cdfd7ae	0.027324524
63	0x3d81a618	0.06330508
64	0x3b03e15f	0.0020123345
65	0x3d0bfdbb	0.034177523
66	0x3c40415b	0.011734332
67	0xbe10e8c6	-0.14151296
68	0x3e6d5b9a	0.23179474
69	0x3da730de	0.081636176
70	0xbc9ff947	-0.019528044
71	0x3e03eb0c	0.12882632
72	0xbd2646d5	-0.040594894
73	0xbd841d38	-0.064508855
74	0x3c9244ba	0.017855037
75	0x3d5fd1c7	0.05464342
76	0xbe613196	-0.21991572
77	0x3da565ae	0.080760345
78	0xbd8f0496	-0.069832966
79	0x3c4be389	0.012444385
80	0x3d68ceca	0.056837834
81	0xbd514638	-0.051092356
82	0x3c2e1306	0.010624653
83	0xbd80b09c	-0.062836856
84	0xbcb306ad	-0.02185377
85	0x3e15f8fe	0.14645764
86	0xbc53051a	-0.012879634
87	0x3df26b5e	0.11836885
88	0x3dfe4c50	0.12416899
89	0x3d35c0f4	0.044373468
90	0xbe39308d	-0.18084927
91	0x3cface6f	0.030616013
92	0xbe17b336	-0.14814457
93	0xbdfe9a19	-0.124317355
94	0x3ddbbb2b	0.10729059
95	0xbdc6d07a	-0.097077325
96	0xbcf1fbe9	-0.029539065
97	0xbd364aac	-0.044504806
98	0x3d963644	0.07334569
99	0xbddc7fbc	-0.10766551
100	0xbd0a4b80	-0.03376341
101	0x3d561d13	0.05227382
102	0xbd1867bb	-0.0372083
103	0xbce8633a	-0.028367627
104	0x3d79b240	0.060961008
105	0xbd2891e3	-0.041154753
106	0x3d6fb73b	0.05852435
107	0xbd5cc5df	-0.053899642
108	0xbd5f44cf	-0.05450898
109	0xbd3f61c0	-0.04672408
110	0x3da3610d	0.07977495
111	0x3dd6065b	0.10450431
112	0x3d03f548	0.03221634
113	0x3ddcdff7	0.107849054
114	0x3dadbae9	0.08482916
115	0x3d69a69f	0.057043668
116	0xbd716b1e	-0.058940046
117	0xbced4608	-0.028964058
118	0xbdb2fdba	-0.08739801
119	0x3da873f2	0.0822524
120	0x3cd43237	0.02590285
121	0xbd67a570	-0.056554258
122	0xbdcbe040	-0.09954882
123	0x3d0f12a9	0.034929905
124	0x3c344026	0.011001622
125	0xbd142607	-0.03616908
126	0x3dac7fb0	0.08422792
127	0xbe17d039	-0.14825524
128	0xbdd2cd44	-0.102930576
129	0x3da70fd1	0.081573136
130	0xbe0a5c02	-0.1351166
131	0xbcc164e2	-0.023607675
132	0x3dc88e9a	0.09792824
133	0x3c353aa2	0.011061342
134	0xbc8d4fd2	-0.017249975
135	0x3d1da8fb	0.03849123
136	0x3d8e0760	0.069350004
137	0x3d9607e7	0.07325726
138	0x3df15a47	0.11784797
139	0xbc815dff	-0.015791891
140	0xbc728a71	-0.014803515
141	0x3db19191	0.08670343
142	0xbbb4b222	-0.005514399
143	0xbd0836ed	-0.033255506
144	0x3ddda340	0.10822153
145	0xbd7b4ca8	-0.061352402
146	0xbe65d971	-0.22446229
147	0xbd89c7c7	-0.06727558
148	0x3d316d63	0.04331721
149	0xbe468cef	-0.193897
150	0x3d7d6008	0.06185916
151	0x3d07b7c0	0.033134222
152	0xbea682e4	-0.32521737
153	0xbd7ed604	-0.06221582
154	0x3bf2cabb	0.0074094213
155	0xbe767b28	-0.24070418
156	0xbe29d20b	-0.16584031
157	0xbda7bf47	-0.0819078
158	0xbdc346b5	-0.09534971
159	0xbc303575	-0.010754933
160	0xbb9bd099	-0.0047550914
161	0xbd583002	-0.05278016
162	0x3a24e4a8	0.0006290176
163	0x3c52b5ac	0.012860697
164	0xbab9158e	-0.0014120804
165	0xbdb02a2f	-0.08601796
166	0xbd993f7d	-0.074828126
167	0x3d73599d	0.059411634
168	0xbdf29c33	-0.11846199
169	0x3d21c72a	0.03949658
170	0x3c702850	0.014658049
171	0xbdd884c5	-0.10572199
172	0xbd1f23ca	-0.03885249
173	0x3d9d9cd4	0.07695928
174	0xbde8af71	-0.11361588
175	0xbd8acf79	-0.067778535
176	0xbd33750d	-0.0438128
177	0xbe562a8c	-0.20914668
178	0xbc847b63	-0.016172117
179	0xbd86ef59	-0.06588621
180	0xbbf3647e	-0.007427751
181	0x3ac3f58b	0.0014950497
182	0xbd3eee50	-0.04661399
183	0x3d9327c8	0.07185322
184	0xbb61638c	-0.003439161
185	0x3d07f9ff	0.0331974
186	0x3cda2ac1	0.026631715
187	0xbd81b6ae	-0.063336715
188	0xbe0dddbc	-0.13854116
189	0x3d7d2081	0.061798576
190	0xbd7aa9db	-0.061197143
191	0x3dcaf009	0.09909064
192	0x3d3d0dbb	0.046155673
193	0xbaacb43e	-0.0013176275
194	0xbe0cce59	-0.1375059
195	0x3dc38e95	0.0954868
196	0xbdcd06e7	-0.10011082
197	0xbc815af8	-0.015790448
198	0x3ccd2bd0	0.025045305
199	0xbd720fa2	-0.05909694
200	0x3c9c751d	0.019098813
201	0xbdd45410	-0.10367596
202	0x3d9f9979	0.077929445
203	0xbdd2a365	-0.10285071
204	0xbd1e4184	-0.0386367
205	0x3daab66c	0.083355755
206	0x3c808cd9	0.015692161
207	0x3c97fd3c	0.018553369
208	0x3d12b991	0.0358215
209	0xbbf6340f	-0.00751353
210	0x3b8e3d30	0.00434079
211	0x3ba42af0	0.0050100014
212	0x3cdca08c	0.026932023
213	0xbde6adac	-0.11263594
214	0x3cf22e40	0.02956307
215	0xbd3f385e	-0.046684615
216	0xbdccf1ab	-0.10007032
217	0x3dbb3aa5	0.09142045
218	0xbd5dee25	-0.05418219
219	0xbcd5a3c0	-0.026079059
220	0x3cd02863	0.025409883
221	0x3dfd2136	0.1235985
222	0xbe04b2bd	-0.12958808
223	0x3daf7900	0.08568001
224	0x3d59eab1	0.053202335
225	0xbe46cb4b	-0.19413488
226	0xbcae7525	-0.021296093
227	0x3e17b6eb	0.14815871
228	0xbd9b12b1	-0.075719245
229	0xbc83c216	-0.016083758
230	0x3e298501	0.16554643
231	0xbe8dc534	-0.27689517
232	0x3dcb460f	0.09925472
233	0x3df56b34	0.11983338
234	0xbe138930	-0.14407802
235	0x3e184e03	0.14873509
236	0x3dd16656	0.10224597
237	0x3da3c76f	0.07997023
238	0xbbc537d9	-0.0060186205
239	0xbd504991	-0.05085141
240	0x3c3edb24	0.011648927
241	0x3d293953	0.041314434
242	0xbdf169a9	-0.11787731
243	0x3aaf92ce	0.0013395192
244	0x3c6f8aa0	0.014620453
245	0x3c26bdef	0.01017712
246	0xbdbb76d6	-0.091535255
247	0x3d511e26	0.051054142
248	0xbd165681	-0.03670359
249	0xbd31a713	-0.043372225
250	0xbd43814a	-0.04773072
251	0xbd386a50	-0.045023263
252	0x3c594a61	0.013262362
253	0x3e00bf5a	0.12572995
254	0x3de1e054	0.11029115
255	0xbd1beaa5	-0.03806557

linear_relu_stack.0.bias f4 [50]
0	0x3cf46a1a	0.02983575
1	0x3cd0bb41	0.025479915
2	0xba530c27	-0.0008050822
3	0x3d3426e9	0.04398242
4	0x3d1c9e9a	0.03823719
5	0x3d5cfb09	0.053950343
6	0xbd9905a5	-0.0747178
7	0xbdc91c1f	-0.09819817
8	0xbcf7c93e	-0.030247327
9	0xbda02b6a	-0.078207806
10	0xbc879cf4	-0.016554333
11	0xbd9776cf	-0.07395708
12	0x3d9ba4e4	0.0759981
13	0xbad888a2	-0.0016520212
14	0x3bab4202	0.0052263746
15	0xbcccca9c	-0.024998955
16	0xbdcfc139	-0.10144276
17	0x3dabb8b1	0.083848365
18	0x3dec7839	0.11546368
19	0x3d0882b8	0.033327788
20	0x3cd04f66	0.025428485
21	0xbd8b9aee	-0.0681666
22	0x3e08a7b2	0.1334522
23	0x3e70c549	0.23512758
24	0x3d04af1e	0.032393567
25	0xbd73844e	-0.059452347
26	0xbe1d6628	-0.15371001
27	0x3e09eb0c	0.1346857
28	0x3d824560	0.063608885
29	0xbdb86e82	-0.09005453
30	0xbd864d51	-0.06557716
31	0x3d5c35ae	0.05376213
32	0x3e4c15d6	0.19930205
33	0x3dd537b3	0.104110144
34	0x3c44e40b	0.01201726
35	0x3c1cbf40	0.009567082
36	0x3df84000	0.12121582
37	0x3ceddcb6	0.029035907
38	0xbd7d950e	-0.061909728
39	0x3ced19ee	0.028943028
40	0xbdbfa445	-0.09357504
41	0x3d9262a3	0.0714772
42	0x3e3caf67	0.18426286
43	0xbd22ebdd	-0.039775718
44	0xbb63120b	-0.0034648206
45	0xbcbaf8f8	-0.022823796
46	0x3e8bd7ea	0.27313167
47	0x3c8f9a00	0.017529488
48	0xbc263ded	-0.0101466
49	0xbd0054ca	-0.03133086

linear_relu_stack.2.weight f4 [40, 50]
0	0xbe671d05	-0.22569664
1	0xbe1f806a	-0.1557633
2	0x3d826cfb	0.063684426
3	0x3d836cae	0.064172134
4	0x3e2544b9	0.16139497
5	0xbd0d1443	-0.03444315
6	0x3d8ff616	0.07029359
7	0xbdc91d60	-0.09820056
8	0xbd111924	-0.035424367
9	0xbc83bb5c	-0.01608055
10	0xbc5b3250	-0.013378695
11	0xbd896fbe	-0.06710766
12	0xbd5f4aef	-0.05451482
13	0xbc870a18	-0.016484305
14	0xbc9c1182	-0.019051317
15	0x3dde6742	0.108595386
16	0xbd423aa4	-0.047419205
17	0x3d0a19ab	0.033715885
18	0x3d84ef56	0.06490962
19	0x3e76afa5	0.2409044
20	0x3e0839b7	0.13303266
21	0xbe3b9390	-0.1831801
22	0xbd6898f3	-0.05678649
23	0x3d32ad27	0.043622162
24	0x3b04dbc6	0.0020272597
25	0x3c259d20	0.010108262
26	0xbc2ac6c8	-0.01042337
27	0x3b77356f	0.0037721058
28	0xbc8d689c	-0.017261796
29	0xbbeddaa0	-0.007258728
30	0xbe2e4d7f	-0.1702175
31	0x3da9c62a	0.0828975
32	0x3e8311c7	0.255995
33	0x3e3ae235	0.18250354
34	0xbd7ef21c	-0.062242612
35	0x3d096004	0.033538833
36	0x3d9e1efd	0.07720754
37	0xbda87214	-0.08224884
38	0xbdcb891e	-0.099382624
39	0xbdc05a5d	-0.093922354
40	0x3e10feab	0.14159648
41	0xbde869ba	-0.11348291
42	0x3d8579dc	0.065173835
43	0xbd03e05a	-0.03219638
44	0x3d5477f8	0.051872224
45	0x3dd23e5c	0.102658
46	0xbbc4ea10	-0.0060093477
47	0x3db2f8ea	0.08738883
48	0xbd4dfcee	-0.05029004
49	0x3c88d981	0.016705276
50	0xbdf2a342	-0.11847545
51	0x3c76e77a	0.015069837
52	0xbdc80755	-0.097670235
53	0xbc70ba80	-0.014692903
54	0x3e1feecf	0.15618442
55	0x3cb164da	0.021654535
56	0x3dd6ab48	0.10481888
57	0x3d94f742	0.07273723
58	0x3df38876	0.11891262
59	0x3d970520	0.073740244
60	0xbb8abc80	-0.0042338967
61	0x3db35fb6	0.0875849
62	0x3cdd4cca	0.027014155
63	0x3ddadcfa	0.10686679
64	0x3c672355	0.014107545
65	0x3da93a66	0.08263092
66	0x3d63e058	0.055633873
67	0xbddfaee1	-0.109220274
68	0x3da93c1b	0.08263417
69	0x3db7ff50	0.08984244
70	0x3d5a9bff	0.053371426
71	0xbde3ed58	-0.11129254
72	0xbd90cf2d	-0.07070766
73	0xbdb8a426	-0.09015684
74	0x3e0be0d9	0.13659991
75	0x3d8b3540	0.06797266
76	0xbdf54b80	-0.11977291
77	0xbd5c2723	-0.05374826
78	0x3daca316	0.08429544
79	0xbde2dfd2	-0.110778466
80	0xbb071ed4	-0.002061774
81	0xbb895060	-0.0041904896
82	0x3dc3beac	0.09557852
83	0x3baa3c7e	0.0051951995
84	0x3d58ee36	0.05296155
85	0xbd784df4	-0.060621217
86	0xbd33c0a3	-0.043884885
87	0x3d131324	0.035906926
88	0x3e04ff49	0.12988009
89	0xbbec34e2	-0.0072084526
90	0x3e055c68	0.13023531
91	0x3cc05700	0.023478985
92	0xbd8eba12	-0.06969084
93	0x3df903ec	0.12158951
94	0xbd880320	-0.06641221
95	0x3e04b161	0.1295829
96	0xbd73509e	-0.059403054
97	0x3c6cc8f0	0.014452204
98	0x3d279a28	0.0409185
99	0xbdd3d486	-0.1034327
100	0x3e579350	0.21052289
101	0xbda00733	-0.07813873
102	0xbd8b5110	-0.06802571
103	0xbd9d596f	-0.07683074
104	0x3d9baf92	0.07601847
105	0x3e8fcd0a	0.2808612
106	0xbd993bfd	-0.07482145
107	0xbdf3e3fc	-0.11908719
108	0xbdd07bc7	-0.10179859
109	0x3bd69cfa	0.006549475
110	0xbe01409e	-0.12622306
111	0xbd4897a2	-0.048972733
112	0x3bb5e79f	0.005551293
113	0xbd9f91a1	-0.077914484
114	0x3e01015b	0.12598173
115	0xbdf7ae39	-0.12093777
116	0xbc8a6b01	-0.016896727
117	0x3db9c5e2	0.09070946
118	0xbc27f0da	-0.010250295
119	0xbe3d9900	-0.18515396
120	0xbde02f32	-0.10946502
121	0xbda574ae	-0.080788955
122	0x3e3ba5a5	0.18324907
123	0xbe354cc3	-0.17705064
124	0xbb2ede40	-0.0026682764
125	0xbd6a9488	-0.057270557
126	0xbe0969f5	-0.13419326
127	0x3d5c52d8	0.053789943
128	0xbda4cb5e	-0.08046602
129	0xbd300528	-0.042973667
130	0x3e1476d8	0.1449846
131	0x3e0b1379	0.13581647
132	0xbd8449ce	-0.064593896
133	0xbcd910d3	-0.02649728
134	0x3da58df0	0.08083713
135	0x3dbd8e6c	0.092556804
136	0xbcd9674a	-0.02653851
137	0xbd07eab5	-0.03318282
138	0xbe0d5703	-0.13802724
139	0xbe0f87c7	-0.14016639
140	0xbd03181b	-0.03200541
141	0xbd33e2b8	-0.043917388
142	0x3dc431e0	0.095798254
143	0xbd938185	-0.07202438
144	0x3d94894e	0.07252751
145	0x3d1c382c	0.038139507
146	0x3e85658c	0.26054037
147	0xbe0c57b6	-0.13705334
148	0xbc2fba15	-0.010725518
149	0x3de23aba	0.110463575
150	0xbe0395d9	-0.12850131
151	0xbdb6436f	-0.08899581
152	0x3d410b33	0.04712982
153	0xbd8c88a6	-0.06862001
154	0x3e0d30f5	0.13788207
155	0x3c1136e6	0.008863186
156	0xbd238b68	-0.03992787
157	0x3d58187a	0.052757718
158	0xbd3bb0a4	-0.045822755
159	0x3bff6211	0.007793673
160	0xbd18cda4	-0.03730549
161	0x3dfac476	0.12244503
162	0xbd83d5bb	-0.0643725
163	0xbb117ca5	-0.0022199538
164	0xbdb4d2af	-0.08829247
165	0x3e003d17	0.12523304
166	0x3ccc6b1b	0.024953416
167	0x3dcf208c	0.1011363
168	0x3be26890	0.0069094375
169	0x3dd28db2	0.102809325
170	0xbda4bb8a	-0.08043583
171	0xbe17f4e2	-0.14839509
172	0x3d7c925d	0.06166302
173	0xbddf0e2d	-0.10891376
174	0xbdc2860c	-0.09498224
175	0xbdd2638e	-0.10272895
176	0xbde4ac27	-0.11165648
177	0xbd71f791	-0.05907399
178	0xbe0ef70a	-0.13961425
179	0xbc14f8d0	-0.009092525
180	0xbe2c3126	-0.16815624
181	0xbda3a893	-0.07991137
182	0xbd939279	-0.07205672
183	0x3d91f3a7	0.07126551
184	0xbd2598b5	-0.040428836
185	0x3d801990	0.06254876
186	0x3d595aa4	0.053064957
187	0x3e0277b6	0.12740979
188	0xbc9cffd0	-0.01916495
189	0xbd3e1688	-0.046408206
190	0x3dc95377	0.09830373
191	0x3dbe339e	0.09287189
192	0xbdb334fd	-0.08750341
193	0x3e00d660	0.12581778
194	0x3e0b5791	0.13607623
195	0x3dea641a	0.11444874
196	0x3dd57ad4	0.10423818
197	0xbd450a66	-0.04810562
198	0xbd9de0af	-0.077088706
199	0xbd9e02ed	-0.07715402
200	0x3e29f8c3	0.16598801
201	0x3e6451e6	0.22296867
202	0x3de49d64	0.111628324
203	0x3e2c0a61	0.16800834
204	0xbe435560	-0.19075537
205	0xbd5f7e60	-0.05456388
206	0xbdc78724	-0.09742573
207	0x3cc6fcb1	0.024290415
208	0xbe08af37	-0.13348089
209	0x3ce8b56d	0.028406823
210	0x3bb51560	0.0055262297
211	0xbb09fb46	-0.0021054312
212	0x3dae5559	0.085123725
213	0x3da8af45	0.08236555
214	0x3da393ed	0.07987199
215	0xbb78b280	-0.0037948191
216	0x3e0e54ed	0.13899584
217	0xbc936f58	-0.017997429
218	0x3d8807d8	0.06642121
219	0x3a9928c5	0.0011685124
220	0x3dd0447b	0.101693116
221	0x3e24fc24	0.16111809
222	0xbd22a2de	-0.039706104
223	0x3e3cf9ad	0.18454619
224	0xbdeac80a	-0.11463936
225	0x3df4c43e	0.11951493
226	0x3e4914b5	0.19636805
227	0xbe60e1ec	-0.21961182
228	0x3d41ba56	0.047296844
229	0xbe08d2ef	-0.13361715
230	0xbd038c41	-0.03211618
231	0x3d9a5838	0.07536358
232	0xbc990f02	-0.018683914
233	0x3d6ae7b1	0.057349864
234	0xbd49f9b4	-0.0493104
235	0xbd8e04a6	-0.0693448
236	0x3c64325e	0.013928024
237	0xbda759d3	-0.081714295
238	0xbde944da	-0.113900855
239	0x3e352fb4	0.17693979
240	0x3bb1746c	0.00541549
241	0x3d48d91c	0.049035177
242	0xbdeb05d4	-0.11475721
243	0x3d2cf63b	0.04222701
244	0x3e0790fe	0.13238904
245	0xbcfa76b8	-0.030574188
246	0xbe705795	-0.2347091
247	0xbd1f354e	-0.038869195
248	0xbd361851	-0.044456784
249	0x3d89461d	0.06702826
250	0xbdd6a533	-0.10480728
251	0x3dd2cf2d	0.10293422
252	0x3db62991	0.08894647
253	0xbe052eab	-0.13006084
254	0xbd1073db	-0.03526674
255	0xbda8eb48	-0.08248001

linear_relu_stack.2.bias f4 [40]
0	0x3d4fc1e1	0.050722007
1	0xbe225958	-0.15854394
2	0x3e34774d	0.17623635
3	0xbd9e7f09	-0.07739074
4	0x3c574b54	0.013140518
5	0xbddc2a31	-0.10750235
6	0xbcf2543a	-0.029581178
7	0x3e0b8521	0.13625003
8	0x3db32ede	0.087491736
9	0xbd91e179	-0.071230836
10	0x3d1e18bf	0.03859782
11	0xbc8f3261	-0.017480077
12	0xbdf4a954	-0.11946359
13	0x3e083b1f	0.13303803
14	0x3e8016d4	0.25017416
15	0x3d005747	0.031333234
16	0x3ddd7607	0.108135276
17	0x3cf3cd44	0.029760964
18	0x3d909b7e	0.07060908
19	0x3e31a12a	0.17346635
20	0x3e16b90e	0.1471903
21	0xbd83732e	-0.06418453
22	0x3e4e5ce4	0.20152622
23	0x3cd1e510	0.02562192
24	0x3e0aa7af	0.13540529
25	0x3d08756f	0.03331512
26	0xbcde1f0c	-0.027114414
27	0x3e085fd5	0.13317807
28	0x3dc447fe	0.09584044
29	0xbdb4603f	-0.0880742
30	0x3dec313c	0.11532828
31	0xbe29c768	-0.16579974
32	0xbdf003da	-0.117194846
33	0x3e931511	0.2872701
34	0x3eceeeea	0.40416652
35	0x3ded6e0c	0.115932554
36	0xbdce6aea	-0.10078986
37	0x3d105956	0.035241447
38	0x3e56d67f	0.20980261
39	0x3bc34096	0.005958627

linear_relu_stack.4.weight f4 [30, 40]
0	0xbd413444	-0.047168985
1	0xbc9ca5e5	-0.019122073
2	0x3de199aa	0.11015637
3	0x3de6b40e	0.112648115
4	0xbe1adc38	-0.1512307
5	0xbddc2b57	-0.10750454
6	0x3ae18d80	0.0017208308
7	0x3e1240b3	0.14282493
8	0xbe268b4e	-0.16264078
9	0xbd9fa55a	-0.0779521
10	0x3d4264b4	0.04745932
11	0x3c15336b	0.009106497
12	0x3d9448c1	0.07240439
13	0xbc9f7bae	-0.019468155
14	0xbd3e6a2f	-0.046487983
15	0x3bd5defa	0.006526825
16	0x3e194d43	0.1497088
17	0x3db74b2d	0.089498855
18	0xbda461f3	-0.08026495
19	0x3dedc283	0.11609366
20	0x3dc115b7	0.0942797
21	0x3de75f0d	0.112974264
22	0x3cfcae56	0.030844849
23	0xbd89dd84	-0.06731704
24	0xbd5ccbf0	-0.053905427
25	0x3c61ec2a	0.013789216
26	0x3e001cb8	0.12510955
27	0xbda4ff73	-0.080565356
28	0xbc4b75f0	-0.012418255
29	0x3ddac389	0.106818266
30	0x3ddd587c	0.10807893
31	0x3cbb7c38	0.02288638
32	0x3e2125f1	0.1573713
33	0xbde12467	-0.10993271
34	0xbe1d87f3	-0.15383892
35	0xbe0f4993	-0.1399291
36	0x3defdc72	0.117119685
37	0xbd2c113b	-0.04200862
38	0xbd5a0627	-0.053228524
39	0x3d354bff	0.04426193
40	0x3de90e2e	0.11379658
41	0xbc4564e0	-0.012047976
42	0x3d9b9816	0.075973675
43	0xbd6678c4	-0.056267515
44	0xbd065ee8	-0.032805353
45	0x3b110940	0.0022130758
46	0x3cdb9e00	0.026808739
47	0x3d3a27c8	0.045448095
48	0xbd389a90	-0.045069277
49	0xbb6299c0	-0.0034576505
50	0xbdf881f8	-0.121341646
51	0xbd868648	-0.06568581
52	0xbd15c356	-0.03656324
53	0x3ddebd12	0.10875906
54	0xbd863809	-0.065536566
55	0xbdf0c824	-0.11756924
56	0xbd673232	-0.056444354
57	0x3da7dbd6	0.08196227
58	0x3cae03e0	0.021242082
59	0x3cb9ea18	0.022694632
60	0xbe16cd60	-0.14726782
61	0xbc8d9978	-0.017285094
62	0xbd7650f2	-0.06013579
63	0xbd4c5ed6	-0.04989513
64	0xbe0f97bd	-0.14022727
65	0xbcca5f18	-0.024703547
66	0x39587400	0.00020642579
67	0xbcaa9190	-0.020821363
68	0xbda5a66b	-0.08088382
69	0xbdd34438	-0.10315746
70	0x3da0cf24	0.07852009
71	0xbda81320	-0.08206773
72	0xbe0bf296	-0.13666758
73	0xbe12dc9b	-0.14341967
74	0xbda19461	-0.07889629
75	0x3db8ca8c	0.09023008
76	0xbdc81d55	-0.0977122
77	0xbe1a103a	-0.15045252
78	0xbd57454a	-0.052556314
79	0x3dc81f4a	0.09771593
80	0x3c953542	0.018213872
81	0xbe1aca0a	-0.15116134
82	0x3db42fe9	0.08798201
83	0xbdde03c9	-0.10840566
84	0xbe3f5bd5	-0.18687375
85	0x3de480c4	0.111573726
86	0x3dc779e6	0.09740047
87	0x3e77eae9	0.24210705
88	0x3e9093ec	0.28237855
89	0xbd9277b9	-0.071517415
90	0xbe3d28a2	-0.18472531
91	0xbdd75c01	-0.10515595
92	0x3e09d0d0	0.13458562
93	0x3dbd4840	0.09242296
94	0xbe4e3801	-0.20138551
95	0x3cac28de	0.02101558
96	0x3e40e25d	0.1883635
97	0xbdf1c106	-0.118043944
98	0xbdf7b95c	-0.12095901
99	0xbe551f96	-0.2081283
100	0x3e26e960	0.16299963
101	0xbdec699c	-0.11543581
102	0x3ea09aeb	0.31368193
103	0x3e0a91b0	0.13532138
104	0x3c8a564c	0.016886853
105	0xbd927e0e	-0.07152949
106	0xbe8b000b	-0.2714847
107	0x3e3471bd	0.17621513
108	0x3d163381	0.03667021
109	0xbda69244	-0.08133367
110	0xbe0ecf1c	-0.13946193
111	0xbd236182	-0.039887913
112	0x3c9ed763	0.019389814
113	0x3e3af599	0.1825775
114	0x3e51d3f6	0.20491013
115	0x3e610da6	0.21977863
116	0xbdc63d59	-0.0967967
117	0xbe329939	-0.17441262
118	0x3e4159b2	0.18881872
119	0xbe5c68ec	-0.215244
120	0x3db78b34	0.08962098
121	0xbd058394	-0.032596186
122	0xbe2be21d	-0.16785474
123	0x3e069d57	0.13145958
124	0x3d0b8174	0.034059003
125	0x3e07e673	0.13271503
126	0x3d5f1b83	0.054469597
127	0x3e0dd72b	0.13851611
128	0xbdd9a717	-0.10627573
129	0x3da78863	0.081803106
130	0x3cb989b6	0.022648674
131	0x3d9e2f4b	0.07723864
132	0x3e0c14b8	0.13679779
133	0xbc250053	-0.010070878
134	0x3e0d5ae7	0.13804208
135	0xbd2b5eec	-0.04183857
136	0x3d44acec	0.048016474
137	0xbd46589c	-0.04842435
138	0xbc058042	-0.008148255
139	0xbd54c407	-0.05194476
140	0x3c5bac50	0.013407782
141	0xbd749720	-0.059714437
142	0xbbe470b5	-0.0069714435
143	0xbcd1d47d	-0.025614018
144	0xbdabf9dc	-0.08397266
145	0x3d752174	0.059846357
146	0x3c3632c7	0.011120505
147	0x3d562a94	0.0522867
148	0x3de61f6f	0.11236464
149	0xbe0a907b	-0.13531677
150	0xbd863dd4	-0.065547615
151	0x3e0ea0cc	0.13928527
152	0x3e0aaf75	0.13543494
153	0xbdd10987	-0.10206895
154	0xbdffa097	-0.12481802
155	0xbcc630a3	-0.024193114
156	0xbdb62579	-0.08893866
157	0xbe310eee	-0.17290851
158	0xbdb6f86a	-0.089341
159	0xbe23a4a2	-0.15980771
160	0x3e12019a	0.14258423
161	0x3d853f77	0.065062456
162	0x3d683991	0.056695525
163	0xbd858cfd	-0.06521032
164	0x3c446117	0.011986039
165	0xbd049e6b	-0.03237764
166	0x3d1f11fb	0.038835507
167	0x3e93ce24	0.2886821
168	0x3e4224ea	0.18959394
169	0xbe47b139	-0.19501199
170	0x3e089a0a	0.13340011
171	0x3dfc0d0b	0.12307175
172	0xbc4f9a78	-0.012671106
173	0xbcc3d9e2	-0.023907606
174	0xbe563e08	-0.209221
175	0x3eaebbac	0.34127557
176	0x3e316249	0.17322649
177	0xbd713e21	-0.05889714
178	0x3da3d3a5	0.07999352
179	0xbdf1686a	-0.117874935
180	0xbe69f8fa	-0.22848883
181	0x3d3cd19d	0.04609834
182	0xbcdf94dd	-0.027292663
183	0x3e2a47a2	0.16628888
184	0x3e05c35d	0.13062806
185	0x3cf75b9e	0.030195054
186	0x3e82a6cb	0.25517878
187	0x3d061446	0.032734178
188	0xbcccfd23	-0.025023049
189	0xbd288be1	-0.041149024
190	0x3e385532	0.1800125
191	0xbbe36a5d	-0.0069401697
192	0xbc80f3a8	-0.015741184
193	0xbd3cb1e6	-0.046068095
194	0xbd88aa6d	-0.06673131
195	0x3e4ee58f	0.20204757
196	0xbd3110e0	-0.043228984
197	0x3e766f19	0.24065818
198	0xbe6f2f1d	-0.23357816
199	0x3c09de54	0.008414824
200	0x3de335a9	0.11094219
201	0xbde89e73	-0.11358347
202	0x3db8fddd	0.090327956
203	0xbc6b32ac	-0.014355343
204	0xbcf82653	-0.030291712
205	0xbded0bbd	-0.115745045
206	0xbe1c891b	-0.15286677
207	0x3dd59c03	0.104301475
208	0x3d456301	0.04819012
209	0x3e65fa53	0.22458772
210	0xbbba7a0f	-0.00569082
211	0xbdd43195	-0.103610195
212	0xbe318995	-0.1733764
213	0xbdfdbf93	-0.123900555
214	0xbd93e0be	-0.072206005
215	0x3d0ca19d	0.034333814
216	0xbe5c8148	-0.21533692
217	0x3d519d4d	0.051175404
218	0xbe3ee25b	-0.18641035
219	0xbdd9a9f7	-0.10628121
220	0xbda7bdda	-0.08190508
221	0x3cc627c9	0.024188893
222	0x3e02d254	0.12775546
223	0x3d15af28	0.036543995
224	0x3d708be5	0.058727164
225	0x3e29aa5e	0.16568896
226	0x3e1ee855	0.15518315
227	0x3c5cb6eb	0.013471345
228	0x3d20b47e	0.03923463
229	0xbdedcd24	-0.11611393
230	0xbe8d4ffa	-0.2760008
231	0x3e92857c	0.28617465
232	0xbe2118d4	-0.15732127
233	0x3e033bd9	0.12815799
234	0xbe02d489	-0.12776388
235	0x3ea0f24c	0.31434858
236	0xbd01e304	-0.03171064
237	0x3e7d6374	0.2474497
238	0x3ce5ad08	0.02803661
239	0xbe6932f8	-0.2277335
240	0x3e3a1b05	0.1817437
241	0xbde747d2	-0.112929955
242	0xbd0f95c8	-0.035054952
243	0x3e3536ba	0.17696658
244	0x3dc92a4e	0.09822522
245	0x3e052e8a	0.13006034
246	0x3d6be901	0.057595257
247	0xbe342336	-0.17591557
248	0xbea1e17b	-0.3161734
249	0xbd3900d2	-0.045166798
250	0x3e31bb20	0.17356539
251	0x3de5f5f1	0.1122855
252	0x3e7f6209	0.24939741
253	0xbcebc2c5	-0.028779397
254	0x3e9de433	0.30838165
255	0xbdb6d599	-0.08927459

linear_relu_stack.4.bias f4 [30]
0	0xbde67fb6	-0.11254828
1	0xbc4b5630	-0.012410685
2	0x3e4562a5	0.19275911
3	0x3cdeaff5	0.027183512
4	0xbe0a2ec3	-0.134944
5	0x3daaea67	0.0834549
6	0x3ec4fbcb	0.38473353
7	0x3c91c610	0.017794639
8	0xbd872567	-0.06598931
9	0xbc79438c	-0.015213858
10	0x3ea3330e	0.3187489
11	0x3c70fbc0	0.014708459
12	0x3da8d6f9	0.08244128
13	0x3a421457	0.00074035436
14	0x3d12a939	0.035805915
15	0x3da059c7	0.07829624
16	0xbe120690	-0.14260316
17	0xbced532d	-0.028970325
18	0x3e88bf09	0.26708248
19	0x3e80739f	0.25088212
20	0xbdd9b736	-0.10630648
21	0xbdb56ab7	-0.08858245
22	0xbcb87626	-0.022517275
23	0xbc53968a	-0.012914309
24	0x3db3a850	0.087723374
25	0x3e0b61e7	0.13611566
26	0x3e856831	0.26056054
27	0xbe4e2779	-0.20132245
28	0x3c2e523b	0.010639722
29	0x3e2a14f7	0.1660956

linear_relu_stack.6.weight f4 [40, 30]
0	0xbda22635	-0.07917444
1	0x3dfb6ac4	0.12276223
2	0x3e7838c6	0.24240407
3	0x3dbbed52	0.09176125
4	0xbecff4a2	-0.40616328
5	0x3e34712e	0.176213
6	0xbe336a20	-0.17520952
7	0x3dfa37e4	0.122176915
8	0x3d927ba4	0.07152489
9	0x3e983081	0.29724506
10	0xbe41404c	-0.18872184
11	0xbe392e42	-0.18084052
12	0xbd4eeac0	-0.050516844
13	0xbd7d5ef3	-0.06185813
14	0x3c39f62a	0.011350194
15	0xbdfdf6a2	-0.12400557
16	0x3d281929	0.04103962
17	0x3dec4172	0.1153592
18	0x3e889086	0.26672763
19	0x3e596f40	0.21233845
20	0xbe267ef5	-0.16259368
21	0x3e8e01bc	0.27735698
22	0x3c8d7e89	0.01727225
23	0x3d859560	0.06522632
24	0x3d6f2467	0.058384325
25	0xbcfdadc4	-0.030966647
26	0x3c7565de	0.0149779
27	0x3e070b8c	0.13187999
28	0xbeba8ce1	-0.36435607
29	0x3e8f0851	0.27936032
30	0x3e28b597	0.16475521
31	0xbcdf2630	-0.027239889
32	0xbcb98253	-0.022645151
33	0xbd9272e5	-0.07150821
34	0x3e0ab0a5	0.13543947
35	0xbe1f2084	-0.15539747
36	0xbdac82d3	-0.0842339
37	0xbced92fc	-0.029000752
38	0xbe2716f4	-0.1631735
39	0xbc4337f6	-0.011915198
40	0x3d16710d	0.036728907
41	0x3e1049f6	0.14090714
42	0xbd934c50	-0.0719229
43	0xbdb37292	-0.08762087
44	0x3dd8aab7	0.10579436
45	0x3d5e6aee	0.054301195
46	0x3e227dd4	0.15868312
47	0xbe1101e7	-0.14160882
48	0xbd449676	-0.047995053
49	0xbdbd237e	-0.09235285
50	0x3e0d1499	0.13777389
51	0x3e26baba	0.16282168
52	0x3dd66bd8	0.10469788
53	0xbd04a53a	-0.032384135
54	0x3d9f4e0b	0.077785574
55	0x3dafc305	0.08582119
56	0xbcbbb1e0	-0.022911966
57	0xbc6b8273	-0.014374363
58	0xbe43a49d	-0.19105764
59	0x3da17777	0.07884114
60	0x3d2b148d	0.041767646
61	0x3dbd68d0	0.09248507
62	0x3d36918b	0.044572394
63	0x3d91a9bb	0.07112452
64	0xbd87b9a5	-0.06627206
65	0x3e08b78d	0.13351269
66	0xbd5bb2b6	-0.05363723
67	0x3e1e36c9	0.15450586
68	0xbe60ee8e	-0.21966001
69	0x3dd9266b	0.10603031
70	0x3e41e8d2	0.1893647
71	0x3d421954	0.047387436
72	0xbe03d5fc	-0.12874597
73	0xbdc42726	-0.095777795
74	0x3e99ea06	0.30061358
75	0x3e880a9c	0.26570594
76	0x3daf635d	0.08563874
77	0x3e6d15be	0.23152825
78	0xbe34956d	-0.17635126
79	0x3e86f2cb	0.2635711
80	0xbd455b89	-0.048182998
81	0x3e67e03f	0.22644137
82	0xbd234672	-0.039862104
83	0xbe4a5aa8	-0.19761145
84	0xbd323f1c	-0.043517217
85	0xbcaa4c7a	-0.02078842
86	0xbd0a172f	-0.033713516
87	0x3e30d8cd	0.17270203
88	0x3e526b4b	0.20548742
89	0xbdd0bee9	-0.10192663
90	0x3e252fec	0.16131562
91	0x3d7a64c0	0.06113124
92	0x3e35d823	0.17758231
93	0x3d3ab473	0.045582246
94	0xbd8166c8	-0.06318432
95	0xbd62d101	-0.055375103
96	0x3dec9fad	0.11553893
97	0x3d52b09c	0.05143796
98	0xbe310304	-0.17286307
99	0xbe2df984	-0.16989714
100	0x3db163ef	0.08661639
101	0xbdfc5ec0	-0.1232276
102	0xbdfee17d	-0.12445352
103	0x3df028d9	0.11726541
104	0xbda63b29	-0.08116753
105	0x3e8e976c	0.278499
106	0xbcda917a	-0.026680697
107	0x3d872477	0.06598752
108	0x3e98f4dd	0.29874316
109	0x3e189e4e	0.14904138
110	0xbdfc85f2	-0.123302355
111	0xbdbcfc3a	-0.09227796
112	0x3d6f3170	0.058396757
113	0x3e392ab3	0.18082695
114	0x3bd8d421	0.0066170846
115	0x3cbca20d	0.02302649
116	0x3d44832a	0.04797665
117	0xbd9cdf61	-0.07659794
118	0xbe1a9303	-0.15095143
119	0xbdff2590	-0.12458336
120	0xbde42798	-0.111403644
121	0xbc867420	-0.016412795
122	0xbd35416d	-0.044251848
123	0x3dc183de	0.0944898
124	0x3e49be93	0.19701605
125	0xbe8d1aad	-0.27559415
126	0x3eb2d39a	0.34927064
127	0xbe0b1e3a	-0.1358575
128	0x3e37939b	0.17927401
129	0xbe31cda7	-0.17363606
130	0x3e223653	0.15841036
131	0xbbdcfc20	-0.006743923
132	0xbdf50c97	-0.11965292
133	0xbe08bd86	-0.13353547
134	0x3de47c85	0.11156563
135	0x3de2709b	0.11056634
136	0xbe55a19b	-0.20862429
137	0xbdd49c27	-0.10381346
138	0x3e90a528	0.28251004
139	0x3e86b694	0.2631117
140	0xbdcb34ea	-0.09922202
141	0xbbba2425	-0.0056805783
142	0x3e0bc53f	0.13649462
143	0xbe492c84	-0.19645888
144	0xbe49e884	-0.19717604
145	0x3ca136c4	0.019679435
146	0x3e2a90b3	0.16656761
147	0xbe84b6e4	-0.25920784
148	0xbe7e9523	-0.24861579
149	0x3d21a591	0.039464537
150	0xbe16e078	-0.14734066
151	0x3d3e9f24	0.046538487
152	0x3e6e9d6f	0.23302244
153	0xbc5a29d7	-0.013315639
154	0xbd8fcdd8	-0.070216835
155	0xbcddae1b	-0.027060559
156	0x3dc7d534	0.09757462
157	0xbdf52b64	-0.11971167
158	0x3d4c8879	0.049934838
159	0x3dac92fe	0.08426474
160	0x3dcc20b4	0.09967175
161	0xbe216780	-0.15762138
162	0xbeb8c39e	-0.36086744
163	0xbe0ed0df	-0.13946865
164	0x3dfc84e8	0.12330037
165	0x3dfd0fd2	0.12356533
166	0x3dc40a2e	0.09572254
167	0x3e4b5a05	0.19858558
168	0x3e07de0c	0.13268298
169	0x3d9f7141	0.07785273
170	0xbe2f0928	-0.17093337
171	0xbe3d3bed	-0.18479891
172	0x3ceed066	0.029152106
173	0xbe4c64f8	-0.19960392
174	0x3de12f09	0.10995299
175	0xbe112e1e	-0.14177749
176	0x3db96000	0.09051514
177	0xbe73306f	-0.23748945
178	0xbd9f4a9d	-0.07777903
179	0xbd0b1eb7	-0.03396484
180	0xbd5ca793	-0.05387075
181	0x3d3d26c4	0.046179548
182	0x3e3e39aa	0.18576685
183	0xbe039b26	-0.12852153
184	0x3dfaaf43	0.1224046
185	0xbcc9d588	-0.024637952
186	0xbe090ac7	-0.13383017
187	0xbcd6c23c	-0.026215665
188	0xbdd3e790	-0.103469014
189	0x3e8f8950	0.2803445
190	0x3d8daee1	0.06918121
191	0xbe0f0a18	-0.13968694
192	0xbd0f8686	-0.0350404
193	0xbd9786f0	-0.07398784
194	0x3dab4bb6	0.0836405
195	0x3e940a0f	0.28913924
196	0x3e03f9b8	0.12888229
197	0x3d1a08a2	0.03760589
198	0x3e576340	0.21033955
199	0xbddae6b1	-0.10688532
200	0x3d28021c	0.041017637
201	0x3d0db3eb	0.03459541
202	0x3d286e42	0.041120775
203	0x3e939290	0.28822756
204	0x3e017da9	0.12645592
205	0x3e9afab6	0.30269402
206	0x3e9db343	0.30800828
207	0x3d291191	0.04127652
208	0xbde9a25e	-0.11407922
209	0xbda49494	-0.080361515
210	0x3e0d75f2	0.13814524
211	0x3e04fb4a	0.12986484
212	0xbd775d8c	-0.060391948
213	0xbce269ac	-0.027638279
214	0xbe76e435	-0.24110492
215	0xbd91a5f2	-0.0711173
216	0x3e1feffe	0.15618894
217	0x3d820d1d	0.063501574
218	0x3d44c517	0.048039522
219	0xbdcfcf68	-0.101469815
220	0x3e10743f	0.14106844
221	0x3db390c8	0.08767849
222	0x3d97872f	0.07398831
223	0x3e7049d0	0.23465657
224	0x3d624305	0.055239696
225	0xbdff59c7	-0.124682955
226	0xbe528262	-0.2055755
227	0xbe3f04f6	-0.18654236
228	0xbd265768	-0.0406107
229	0x3e3cac16	0.1842502
230	0x3e2b627a	0.16736785
231	0x3c742fd5	0.014903982
232	0xbe251a03	-0.16123204
233	0x3c8f0fbf	0.017463563
234	0xbe435f5e	-0.19079348
235	0xbdb06aca	-0.086141184
236	0xbd28dc90	-0.04122597
237	0xbe011dac	-0.12608975
238	0xbdaf6abc	-0.0856528
239	0x3e271e9f	0.16320275
240	0x3e235bc6	0.15952978
241	0x3dd3e6dc	0.10346767
242	0x3becedb0	0.007230483
243	0xbdf9539a	-0.12174149
244	0xbde79da7	-0.11309367
245	0x3dbe1f12	0.0928327
246	0xbe5147fc	-0.20437616
247	0x3e2b0835	0.1670235
248	0xbdc841e5	-0.097781934
249	0x3e6d54fd	0.23176952
250	0xbdc0db12	-0.09416784
251	0x3e00a8a0	0.12564325
252	0xbe40534a	-0.18781772
253	0x3d3eaf22	0.04655374
254	0xbd303b1b	-0.043025117
255	0x3d3ab11c	0.04557906

linear_relu_stack.6.bias f4 [40]
0	0xbe197db5	-0.1498936
1	0xbd83e35c	-0.0643985
2	0x3dc665d8	0.09687394
3	0xbe5fe38a	-0.21864143
4	0x3e56e5b4	0.20986062
5	0x3d84b27b	0.06479355
6	0xbd8aba73	-0.067738436
7	0x3e7ee5b3	0.24892311
8	0x3c22484c	0.009904932
9	0xbd4b201d	-0.049591172
10	0x3bf5647c	0.0074887853
11	0xbd542fd0	-0.05180341
12	0xbd6b6cb2	-0.057476707
13	0x3d6b752e	0.057484798
14	0xbe3a9e83	-0.1822453
15	0xbdf29547	-0.11844879
16	0xbdb0953e	-0.08622216
17	0xbe1f9b43	-0.15586571
18	0x3e716de5	0.23577078
19	0x3e635fe0	0.22204542
20	0xbdabf849	-0.08396966
21	0x3e2ed31e	0.17072722
22	0xbddea3d8	-0.108710945
23	0x3e27a722	0.1637235
24	0xbcea2f8b	-0.028587123
25	0x3ea73f95	0.32665697
26	0x3e8ceb3a	0.27523214
27	0x3ce53318	0.027978465
28	0xbd8582cd	-0.06519089
29	0x3da54acf	0.08070909
30	0x3e592de1	0.21208908
31	0xbccc6a30	-0.024952978
32	0xbc42c637	-0.011888078
33	0x3eb80204	0.35939038
34	0x3d714a27	0.058908608
35	0x3bba3ff9	0.0056838957
36	0x3e238dbf	0.1597204
37	0x3b10219d	0.0021992691
38	0xbce5f4d9	-0.028070854
39	0xbe141f9a	-0.1446518

linear_relu_stack.8.weight f4 [50, 40]
0	0xbec49a10	-0.3839879
1	0xbdcfb096	-0.10141103
2	0xbd45e7ce	-0.04831677
3	0x3c51a335	0.012795259
4	0x3d2ee4f0	0.0426988
5	0x3db3ed98	0.08785552
6	0x3e15c261	0.14624931
7	0xbd04132f	-0.032244857
8	0x3dd4c713	0.10389533
9	0x3e1cb6b9	0.15304078
10	0xbe14eb17	-0.14542805
11	0x3dd3976e	0.10331617
12	0xbe0246d6	-0.12722334
13	0x3d10c7db	0.035346847
14	0xbdb305d0	-0.08741343
15	0xbe0fa187	-0.14026462
16	0x3cc03617	0.023463292
17	0xbdb4ccfd	-0.08828161
18	0x3e04084f	0.12893794
19	0xbdde1c7b	-0.10845276
20	0x3d6f6a24	0.058450833
21	0xbe935b2a	-0.2878049
22	0xbe34ef65	-0.17669447
23	0xbdda9ee6	-0.10674839
24	0xbc71ad31	-0.014750765
25	0x3e12b324	0.14326149
26	0xbe16513c	-0.14679426
27	0xbe288e04	-0.16460425
28	0x3d939ebe	0.07208012
29	0xbce9f5bb	-0.028559556
30	0x3ea45c6d	0.32101765
31	0xbe4b6e39	-0.19866265
32	0xbe02e727	-0.1278349
33	0xbcd9c14c	-0.026581429
34	0x3e6406f9	0.22268285
35	0x3d1c5005	0.03816225
36	0x3d03b63e	0.03215622
37	0xbe7d1044	-0.24713236
38	0x3ce2d60d	0.027689958
39	0xbd7765e1	-0.060399894
40	0x3d227741	0.03966451
41	0x3dbeae4d	0.09310589
42	0xbe5c5df9	-0.21520223
43	0xbdbb49a5	-0.09144906
44	0xbde55c91	-0.11199296
45	0xbdec7ba8	-0.11547023
46	0x3c3aa85e	0.011392681
47	0xbd3b7af7	-0.045771565
48	0xbe027009	-0.1273805
49	0x3bf5630a	0.007488613
50	0x3c9fe50c	0.019518398
51	0xbd55f320	-0.052233815
52	0xbd86506d	-0.06558309
53	0x3de0a4d6	0.1096894
54	0x3d94746c	0.07248768
55	0x3d75494e	0.059884362
56	0x3de6420f	0.112430684
57	0x3dfb3f07	0.12267881
58	0xbe1410a7	-0.14459477
59	0xbc9c5778	-0.019084677
60	0xbe52345c	-0.20527786
61	0xbd726928	-0.059182316
62	0xbcd992c2	-0.026559237
63	0x3e28a47d	0.16468997
64	0x3d027740	0.031852007
65	0xbd0767ff	-0.033058163
66	0xbe7972a8	-0.24360144
67	0x3e0775a3	0.13228469
68	0xbdf2d0aa	-0.11856206
69	0x3d8e36e3	0.069440626
70	0xbe6af411	-0.22944666
71	0xbe0fcb62	-0.14042428
72	0x3df3ba96	0.11900823
73	0x3ea02aeb	0.31282744
74	0x3d298447	0.041385915
75	0x3eacba82	0.33736044
76	0x3e688d1d	0.2271008
77	0x3e631595	0.22176202
78	0x3d81a563	0.06330373
79	0x3e1b5980	0.1517086
80	0xbe7aabf6	-0.2447966
81	0x3d923865	0.07139663
82	0x3d8f1924	0.06987217
83	0xbc526236	-0.012840798
84	0x3e74ef1f	0.23919342
85	0xbd5be678	-0.05368659
86	0x3e385b1f	0.1800351
87	0xbd8fc2ec	-0.070196
88	0xbe24a1a8	-0.16077292
89	0x3e38be30	0.18041301
90	0x3e680b31	0.22660519
91	0x3de7af6e	0.113127574
92	0xbc7fce4d	-0.015613151
93	0xbdc921b6	-0.09820883
94	0x3e1d52f5	0.15363677
95	0xbe0d34ba	-0.13789645
96	0x3db486ba	0.088147596
97	0x3dd7c3fa	0.105354264
98	0xbcac4fba	-0.02103411
99	0xbdf9f2a5	-0.12204484
100	0x3e3d8b65	0.18510206
101	0xbd8535e1	-0.06504417
102	0x3e9ff31a	0.3124016
103	0x3dcdc908	0.10048109
104	0x3dbddaae	0.092702255
105	0x3d66002d	0.05615251
106	0xbdad44a2	-0.08460356
107	0xbe256c8b	-0.16154687
108	0xbd615094	-0.055008486
109	0xbd4fe5b7	-0.050756183
110	0x3d36c7f6	0.04462429
111	0x3e8665f8	0.2624967
112	0x3d7ea685	0.062170524
113	0xbe99f47c	-0.3006934
114	0x3db19184	0.08670333
115	0x3da70ce5	0.08156756
116	0xbe5d7715	-0.21627457
117	0x3de1caf1	0.11025036
118	0x3e028d6a	0.12749258
119	0xbd763731	-0.06011123
120	0x3dc25f52	0.09490837
121	0x3db00512	0.08594717
122	0x3bdab741	0.0066746776
123	0x3d8bc7e8	0.068252385
124	0x3e20929c	0.15680927
125	0x3dadae3e	0.084805
126	0xbd4982d0	-0.04919702
127	0x3dc4c2bc	0.09607455
128	0x3e29ef84	0.16595274
129	0x3d71e638	0.059057444
130	0xbdde0c2d	-0.10842166
131	0x3d9c7030	0.076385856
132	0x3cfcb2a7	0.030846907
133	0x3e2bfd99	0.16795959
134	0x3cdb46d8	0.02676718
135	0xbe21ee29	-0.15813507
136	0x3c620444	0.013794962
137	0xbdf5e5d6	-0.12006728
138	0x3c12d14c	0.008961033
139	0x3e1be196	0.15222773
140	0x3e02871f	0.12746857
141	0x3d5a95ae	0.053365402
142	0xbdd6deff	-0.10491752
143	0x3bbca14e	0.0057565337
144	0xbcc6e1a6	-0.02427752
145	0xbbd1f878	-0.0064077936
146	0x3e052f92	0.13006428
147	0x3d4a0829	0.04932419
148	0xbc068e30	-0.008212611
149	0x3ceffb4e	0.029294636
150	0xbdfb05bf	-0.12256955
151	0xbddfe6a8	-0.10932666
152	0xbd474a7e	-0.048655026
153	0xbe1a593d	-0.15073104
154	0x3dab6dba	0.08370538
155	0xbe57a52d	-0.21059103
156	0xbe603e23	-0.21898703
157	0x3d9e4ffb	0.07730099
158	0x3c9b42ef	0.018952815
159	0xbd77b12f	-0.06047171
160	0x3cd446d3	0.025912678
161	0x3d39394f	0.04522067
162	0x3d376329	0.0447723
163	0xbea88f1c	-0.32921684
164	0xbdb8b1c3	-0.0901828
165	0x3dddf990	0.10838616
166	0xbe358bdb	-0.17729132
167	0x3e3120ad	0.17297621
168	0x3d23f10a	0.040024795
169	0x3dd630e6	0.104585454
170	0x3e02d8ba	0.12777987
171	0xbd9f1417	-0.07767504
172	0x3de28ae6	0.11061649
173	0xbe15f9e6	-0.1464611
174	0x3cd18378	0.025575384
175	0x3cb22f1e	0.021750983
176	0x3e423b07	0.1896783
177	0xbe24dae2	-0.16099122
178	0x3d28c6f8	0.041205376
179	0xbe0d5a42	-0.13803962
180	0xbe4d0522	-0.2002149
181	0x3dbe0956	0.092791244
182	0x3e630ce5	0.22172888
183	0xbd7ed2e4	-0.06221284
184	0xbca9592d	-0.020672405
185	0xbd7cdd6a	-0.061734594
186	0x3c537e66	0.012908554
187	0xbcc449b3	-0.023960924
188	0x3dd918b6	0.10600416
189	0x3e8a8d23	0.27060804
190	0x3ba98035	0.005172754
191	0x3c97bdf3	0.018523192
192	0xbb95f25f	-0.004576012
193	0xbd0a20c9	-0.033722673
194	0x3d82a1f9	0.0637855
195	0x3d3e39cd	0.046441842
196	0xbc22c886	-0.009935504
197	0x3da9be53	0.082882546
198	0x3d957a93	0.0729877
199	0x3d988321	0.07446886
200	0x3dd6f4cc	0.1049591
201	0xbde22fee	-0.11044298
202	0xbe24c2e9	-0.16089977
203	0xbd69e484	-0.057102695
204	0xbebac073	-0.36474952
205	0x3de9d675	0.114178576
206	0xbe65a39e	-0.22425696
207	0xbe034006	-0.12817392
208	0xbe514601	-0.2043686
209	0xbeb96a08	-0.36213708
210	0xbdae7331	-0.08518065
211	0xbdedff12	-0.116209164
212	0x3d261ce1	0.040554885
213	0xbe6278ff	-0.22116469
214	0x3d1d8828	0.038459927
215	0xbd8119c6	-0.06303744
216	0x3d9f18ec	0.07768425
217	0x3e16ee2e	0.14739296
218	0x3e4c4745	0.19949062
219	0x3da28858	0.07936162
220	0xbd0adee1	-0.03390396
221	0x3e4a2b36	0.19743046
222	0xbe19d01d	-0.15020795
223	0x3d837139	0.0641808
224	0xbdac9247	-0.08426338
225	0x3c57848f	0.013154163
226	0xbe1758f1	-0.14780022
227	0x3dd1ee45	0.102505244
228	0x3c542f60	0.012950748
229	0x3c859bb0	0.01630959
230	0x3dda6a58	0.10664815
231	0xbdc249a8	-0.09486705
232	0x3de960fa	0.1139545
233	0x3d6cec51	0.057842556
234	0x3e57cb7c	0.21073717
235	0x3e32bf8b	0.1745588
236	0xbb9f2576	-0.0048567606
237	0xbea6a2bc	-0.3254603
238	0x3d729c3a	0.05923102
239	0xbe18f5c3	-0.149375
240	0xbd73c69d	-0.059515584
241	0x3d9392a4	0.07205704
242	0xbe09c2d4	-0.13453227
243	0xbdc0397c	-0.09385964
244	0x3e213e5f	0.15746449
245	0xbd592ad9	-0.05301938
246	0x3e82b0e6	0.25525588
247	0xbd58f5fb	-0.05296896
248	0x3d597a6a	0.05309526
249	0xbe490f86	-0.19634828
250	0x3e2ecc4b	0.17070119
251	0xbd7b8e02	-0.061414726
252	0x3d4f634a	0.0506318
253	0xbd9943f7	-0.074836664
254	0x3c2d2970	0.0105689615
255	0xbd87ee5e	-0.06637262

linear_relu_stack.8.bias f4 [50]
0	0x3eb6d447	0.3570883
1	0x3e1473b4	0.14497262
2	0x3c1cb8e1	0.009565563
3	0x3ea71bae	0.32638305
4	0x3e639b8e	0.22227308
5	0x3e24f4e3	0.16109042
6	0x3ee68021	0.4501963
7	0xbd0e01f2	-0.034669824
8	0xbc3169d7	-0.010828457
9	0x3d854839	0.06507916
10	0xbd5423f4	-0.0517921
11	0xbd0f3e26	-0.03497138
12	0x3d5b67d3	0.05356581
13	0x3e7ea32a	0.2486693
14	0xbe0d4c65	-0.13798673
15	0x3bae6e22	0.0053231874
16	0x3ca91573	0.02064011
17	0x3c5d0b58	0.013491474
18	0xbdf46066	-0.11932449
19	0xbc3929de	-0.011301486
20	0xbe11f4d3	-0.1425355
21	0x3e0663d7	0.13124023
22	0xbd82f69a	-0.06394692
23	0x3cb30408	0.021852508
24	0x3e0eea86	0.13956651
25	0x3f10846e	0.5645207
26	0xbdae2219	-0.08502597
27	0x3d01234a	0.031527795
28	0xbdf2b96c	-0.11851773
29	0x3caace76	0.020850401
30	0x3ee4051e	0.44535154
31	0xbe04fd89	-0.12987341
32	0x3c84e1b8	0.016220912
33	0x3de11ae1	0.10991455
34	0x3de6f0ce	0.112763986
35	0x3e2230a9	0.15838875
36	0xbe229c70	-0.15879989
37	0x3ddafe61	0.1069305
38	0x3eb0581d	0.34442225
39	0xbccd18fd	-0.02503633
40	0xbbb9bfa0	-0.0056685954
41	0xbd02a0a4	-0.03189148
42	0xbc66bbb7	-0.014082841
43	0xbdb6aca5	-0.08919648
44	0x3d30be0c	0.043149993
45	0x3e43bb3c	0.19114393
46	0xbd9c03ca	-0.0761791
47	0x3d2d01ec	0.04223816
48	0x3df781f1	0.12085331
49	0x3dfd5e53	0.123715065

linear_relu_stack.10.weight f4 [102, 50]
0	0xbe035dff	-0.12828825
1	0xbaec0912	-0.0018008074
2	0xbd254a81	-0.040354256
3	0xbd9d3dc2	-0.07677795
4	0xbd5f078f	-0.054450568
5	0x3cdc0fbb	0.02686297
6	0xbda1dce3	-0.07903459
7	0x3e064ebe	0.13115975
8	0x3d1792e5	0.037005324
9	0x3defa244	0.117008716
10	0xbdd646ad	-0.10462699
11	0x3d3385e0	0.043828845
12	0xbc06c417	-0.008225462
13	0xbcacc0d3	-0.02108804
14	0xbd640240	-0.05566621
15	0x3afd9076	0.0019345421
16	0x3d7f2d7f	0.062299248
17	0x3d6ed271	0.05830616
18	0x3c7453cb	0.014912556
19	0xb9cf4aaf	-0.0003953776
20	0x3b693de9	0.003558988
21	0x3d7a25d3	0.06107123
22	0x3dd07967	0.10179406
23	0xbd5f5b40	-0.054530382
24	0x3c3cb570	0.011517867
25	0x3d9d317d	0.07675455
26	0xbdc9bb3d	-0.09850166
27	0x3e101747	0.1407138
28	0x3e0fd60a	0.14046493
29	0x3e013e59	0.1262144
30	0x3d9adb91	0.0756141
31	0x3cc59e29	0.024123268
32	0xbceefa32	-0.029172037
33	0xbdf3f284	-0.119114906
34	0x3dbe17ad	0.092818595
35	0x3e09addd	0.1344523
36	0xbc9bb91e	-0.01900917
37	0x3ddbb9e3	0.107288145
38	0xbbd6809b	-0.0065460927
39	0xbd14fe28	-0.036375195
40	0xbde9bf29	-0.11413414
41	0x3e079730	0.13241267
42	0x3ce4c358	0.027925178
43	0x3dc3dd3f	0.09563684
44	0xba300850	-0.0006715106
45	0xbdb47e8e	-0.08813201
46	0x3de49351	0.11160911
47	0xbd0c91ee	-0.034318857
48	0xbc58eeb3	-0.013240504
49	0xbc8a06b5	-0.016848901
50	0xbd4803f8	-0.04883191
51	0xbc9d82e5	-0.019227454
52	0xbd17207b	-0.03689621
53	0x3d976961	0.07393146
54	0xbdd6d128	-0.10489112
55	0x3c5c619c	0.013451006
56	0xbdc80b49	-0.097677775
57	0x3d231a5f	0.03982007
58	0xbda9dd39	-0.08294148
59	0x3dc69aca	0.096974924
60	0x3d355ff4	0.04428096
61	0xba963d00	-0.0011462271
62	0xbd2076d1	-0.039175812
63	0xbc28d9d3	-0.01030584
64	0x3e084c11	0.13310267
65	0x3cd031c8	0.025414363
66	0x3d5cde30	0.053922832
67	0xbd502b5d	-0.050822604
68	0x3d061b36	0.032740794
69	0x3a0cbea3	0.0005368983
70	0x3dcf96c3	0.101361774
71	0xbda90aca	-0.08254011
72	0xbd829f97	-0.063780956
73	0xbd294691	-0.041327063
74	0x3d894169	0.06701929
75	0x3d2465ac	0.040136024
76	0x3d442ac1	0.047892336
77	0x3de4e898	0.11177176
78	0x3e06b8a2	0.1315637
79	0x3cac840b	0.021059057
80	0xbdb18dfe	-0.08669661
81	0x3aa7274c	0.00127528
82	0xbc453e2c	-0.012038749
83	0x3d1eac92	0.038738795
84	0x3d8731ac	0.06601271
85	0x3987f29b	0.00025929962
86	0x3daa6d15	0.08321587
87	0xbd4d8295	-0.05017336
88	0xbdcc28bb	-0.09968706
89	0xbc05e9dd	-0.008173433
90	0xbde88dac	-0.11355147
91	0x3d5154f3	0.051106405
92	0xbd3b7d29	-0.04577366
93	0x3e0f49ce	0.13992998
94	0x3d0b12a2	0.033953317
95	0xbdc75928	-0.09733802
96	0x3dca2551	0.09870399
97	0xbbefe23f	-0.007320672
98	0xbc84fba0	-0.016233265
99	0x3c5eb3cf	0.013592674
100	0x3db06580	0.086131096
101	0x3d2b1ec9	0.041777406
102	0xbd853488	-0.0650416
103	0x3d8459b7	0.06462424
104	0xbd93ad39	-0.07210774
105	0xbca8d49c	-0.020609193
106	0x3cb06790	0.021533757
107	0x3d660ab5	0.056162555
108	0x3c0b90d8	0.00851842
109	0x3cff11b7	0.031136377
110	0x3dec9105	0.11551098
111	0xbd9e7876	-0.0773782
112	0x3e252d0e	0.16130468
113	0x3c87dcec	0.016584836
114	0x3de31ac2	0.11089088
115	0xbd0324f4	-0.032017663
116	0xbe0357de	-0.12826487
117	0xbd9e0939	-0.07716603
118	0x3dd3f106	0.10348706
119	0xbd894c00	-0.06703949
120	0x3ce722fa	0.02821492
121	0xbc88811c	-0.016663127
122	0x3d40fdba	0.047116973
123	0x3e673e9c	0.22582477
124	0x3d4bba71	0.04973835
125	0xbb1a2175	-0.0023518477
126	0x3e08e51e	0.13368651
127	0xbd988f4a	-0.07449205
128	0x3d624951	0.0552457
129	0xbd92ea5e	-0.07173608
130	0x3d44042a	0.047855534
131	0x3d325f4a	0.043547906
132	0xbcf9aa0b	-0.03047659
133	0xbd929380	-0.0715704
134	0xbd1e1256	-0.038591705
135	0xbd618af7	-0.055064168
136	0xbdd04edd	-0.10171292
137	0x3b8fd233	0.0043890714
138	0x3cb78e67	0.02240677
139	0x3dc397e2	0.09550454
140	0xbd4c3034	-0.049850658
141	0x3dd691dd	0.1047704
142	0x3da4d64f	0.080486886
143	0xbcb81611	-0.02247146
144	0xbd9806cb	-0.07423171
145	0xbcdd7d65	-0.027037332
146	0x3e0dcb49	0.13847078
147	0x3da0ac96	0.07845418
148	0x3df41a6f	0.11919104
149	0xbe0af3e3	-0.13569598
150	0xbd5b1830	-0.053489864
151	0xbbdb5434	-0.0066933874
152	0x3b0b4b35	0.0021254544
153	0xbd64eec4	-0.055891767
154	0xbce9bb6d	-0.028531754
155	0x3c3b8e29	0.011447468
156	0xbd2573e5	-0.04039373
157	0xbd9eee1c	-0.077602595
158	0x3c96daac	0.018414818
159	0x3d217687	0.039419677
160	0x3ce51467	0.02796383
161	0xbbae24a0	-0.0053144246
162	0xbbbae588	-0.005703632
163	0x3b886f0a	0.0041636275
164	0x3cd59058	0.026069805
165	0x3ca5109f	0.020149527
166	0xbd118f89	-0.035537276
167	0x3d281cbf	0.04104304
168	0xbc8380e4	-0.01605267
169	0xbb3f4213	-0.002918367
170	0xbd26c55f	-0.04071557
171	0xbc51f653	-0.012815076
172	0x3d5b3754	0.053519562
173	0xbc81d0b2	-0.015846584
174	0x3c0a9522	0.008458408
175	0x3d15f6a3	0.036612164
176	0xbd83d128	-0.06436378
177	0x3c9c5264	0.019082256
178	0x3df7bc7d	0.12096498
179	0xbd28df9a	-0.041228868
180	0x3cfba4ad	0.030718172
181	0x3cc17834	0.023616888
182	0xb888b7d8	-6.519229e-05
183	0xbd2ece79	-0.042677376
184	0x3d821a6c	0.06352696
185	0x3d99e7ad	0.07514892
186	0xbe0d567d	-0.13802524
187	0x3d41885f	0.047249194
188	0xbbf0ea08	-0.0073521174
189	0xbc2e6367	-0.010643817
190	0x3db5f268	0.08884126
191	0x3cfc290e	0.030781295
192	0x3d99ef4d	0.07516346
193	0x3b4ab2d7	0.003092935
194	0x3d222dbb	0.039594393
195	0xbd6e3154	-0.05815251
196	0xbcb99cc7	-0.022657765
197	0xbd4e4995	-0.050363142
198	0xbce97163	-0.02849645
199	0xbce59d5e	-0.02802914
200	0xbcac9b93	-0.021070277
201	0xbd3142d2	-0.043276615
202	0xbcae7fc2	-0.021301154
203	0xbcf531c4	-0.029930957
204	0xbc6c7b7a	-0.014433736
205	0x3c31a51e	0.01084259
206	0xbd3124f0	-0.043248117
207	0x3d9df87c	0.0771341
208	0xbd5af4d5	-0.053456146
209	0x3d7fd048	0.06245449
210	0x3cd8c7d7	0.026462479
211	0xbe037fae	-0.12841675
212	0xbca6cb1d	-0.020360524
213	0xbce2ee8a	-0.027701635
214	0xbccf3e0c	-0.025298141
215	0x3ca02c7d	0.019552464
216	0x3c4b33a4	0.012402449
217	0x3bb35dcc	0.005473828
218	0xbb8c7517	-0.004286419
219	0xbaffd9f0	-0.0019519906
220	0x3d0ee92f	0.03489035
221	0xbc8daf52	-0.017295513
222	0xbd8db151	-0.06918586
223	0x3bdbe205	0.0067102932
224	0x3d971b0b	0.07378205
225	0x3d4d3a6f	0.050104555
226	0x3de3e70d	0.11128054
227	0xbcf00908	-0.029301181
228	0x3d74cabd	0.05976366
229	0xbcfdfa75	-0.031003216
230	0xbd8bdb05	-0.06828884
231	0x3b7f7a1a	0.003898269
232	0x3b0c3bcd	0.0021397949
233	0x3d4e7455	0.05040391
234	0x3d1a2527	0.037633087
235	0x3a89c49f	0.0010510868
236	0xbe0add8d	-0.13561077
237	0xbccd4d94	-0.025061406
238	0xbd82ef29	-0.063932724
239	0xba225377	-0.0006192247
240	0xbdad81e8	-0.08472043
241	0xbcafe836	-0.021473031
242	0xbc5c7338	-0.013455205
243	0xbd80b7b3	-0.06285038
244	0x3ce2ae27	0.027670933
245	0xbd313d55	-0.04327138
246	0xbd0a11ca	-0.03370837
247	0xbd18ff66	-0.037352942
248	0xbc82b65e	-0.0159561
249	0xbd5c27e4	-0.05374898
250	0x3cde921f	0.027169285
251	0xbcc691d6	-0.024239462
252	0xbd46a75c	-0.04849945
253	0xbce363fd	-0.027757639
254	0xbd59b903	-0.053154957
255	0x3bd6d9d9	0.006556731

linear_relu_stack.10.bias f4 [102]
0	0xbd33eb9b	-0.043925863
1	0xbe4251e6	-0.18976554
2	0xbd85e152	-0.06537117
3	0xbc3e34e8	-0.0116092935
4	0xbdb43a07	-0.0880013
5	0xbcaae772	-0.020862315
6	0xbc449e04	-0.0120005645
7	0xbbbc2fac	-0.0057429876
8	0x3c0504dc	0.008118834
9	0x3c6e1297	0.014530799
10	0x3dcaf77f	0.099104874
11	0x3bf54e80	0.0074861646
12	0x3d5c7990	0.05382687
13	0x3db9a1a0	0.09064031
14	0xbabad658	-0.0014254553
15	0x3e6638fb	0.22482674
16	0x3d55234d	0.05203562
17	0xbc82539d	-0.01590901
18	0x3ec238ff	0.3793411
19	0xbdc5fd5f	-0.09667467
20	0xbe3e3b13	-0.18577223
21	0x3ecc8ad1	0.3994966
22	0xbdd790e7	-0.10525685
23	0xbdd3be39	-0.103390165
24	0x3ebe1f98	0.3713348
25	0xbe1036be	-0.14083382
26	0xbdcdfea6	-0.10058336
27	0x3eb94b8f	0.3619046
28	0xbde7db91	-0.11321176
29	0xbc6a178f	-0.014287843
30	0x3e903352	0.28164154
31	0xbe5e2773	-0.21694736
32	0xbcbac567	-0.022799207
33	0x3c00e2ba	0.007866556
34	0x3dac0085	0.083985366
35	0x3d023d52	0.03179676
36	0xbe5cfcb9	-0.21580781
37	0x3dc8f555	0.09812418
38	0x3e22288d	0.15835781
39	0xbe8957a7	-0.26824686
40	0xbe13d01b	-0.14434855
41	0x3e2684d0	0.16261601
42	0xbd1bce8a	-0.038038768
43	0xbe40d55e	-0.18831393
44	0x3e68ead1	0.22745825
45	0xbc9bd4eb	-0.019022426
46	0xbe3cb1a4	-0.1842714
47	0x3e941d90	0.28928804
48	0x3d865125	0.06558446
49	0xbe5c5505	-0.21516807
50	0x3eaebae6	0.34126967
51	0x3dc2952a	0.09501107
52	0xbe81bf68	-0.25341344
53	0x3e8ef41c	0.27920616
54	0x3da28c6b	0.07936939
55	0xbe4fb1a5	-0.2028261
56	0xbe05849c	-0.13038868
57	0x3caab2c3	0.020837193
58	0xbec6dfa5	-0.38842502
59	0xbebcc1dd	-0.36866656
60	0xbc4c2ae2	-0.012461396
61	0xbeee0c08	-0.46493554
62	0xbef49fb6	-0.477781
63	0xbc28f168	-0.010311462
64	0xbf0c5e2d	-0.548312
65	0xbed409da	-0.41413766
66	0xbdde1bc1	-0.108451374
67	0xbe073df0	-0.13207221
68	0xbb9f2f58	-0.0048579387
69	0xbe1ffd62	-0.15624002
70	0xbe8f229d	-0.27956095
71	0xbe0c19e2	-0.13681749
72	0xbe204157	-0.15649925
73	0xbed657bd	-0.41863814
74	0xbe88ee65	-0.2674438
75	0xbe38af38	-0.1803559
76	0xbf08ab41	-0.5338631
77	0xbe6db9a0	-0.23215342
78	0x3da1fb3e	0.07909249
79	0x3d656eda	0.05601392
80	0x3e6530b8	0.22381866
81	0x3d915119	0.07095546
82	0x3d8ef2ea	0.06979926
83	0x3e655e25	0.22399195
84	0x3e2813fd	0.16413875
85	0x3df983b3	0.12183323
86	0x3e47bc42	0.19505408
87	0x3e372554	0.17885333
88	0x3e2893b5	0.16462596
89	0x3e004288	0.1252538
90	0x3dc6b828	0.09703094
91	0x3dbf9b0a	0.09355743
92	0x3e91425a	0.28370935
93	0xbc98ac25	-0.018636772
94	0x3e5628c8	0.20913994
95	0x3e426ce5	0.18986852
96	0xbc9a38ca	-0.018825907
97	0xbed79406	-0.4210512
98	0xbf0dd578	-0.5540385
99	0xbe501f7d	-0.20324512
100	0xbee3e64b	-0.44511637
101	0xbeb0c564	-0.34525597
