baselines/P&C_simplified/Weights/p3.pth (torch, 171286 bytes, 16 tensors)

linear_relu_stack.0.weight f4 [90, 102]
0	0xbe12ecb2	-0.14348105
1	0x3d91e307	0.0712338
2	0x3d5ea936	0.05436059
3	0xbcc5e005	-0.024154672
4	0x3ddf11dd	0.10892079
5	0xbd9e4803	-0.07728579
6	0xbdd12735	-0.10212556
7	0xbbc28420	-0.0059361607
8	0x3d216761	0.03940523
9	0xbe2f686e	-0.1712968
10	0xbba90b3f	-0.0051588113
11	0xbdd44ffe	-0.1036682
12	0x3c81a5a6	0.015826058
13	0xbc925482	-0.017862562
14	0x3d81831d	0.06323836
15	0xbe16e01c	-0.14733928
16	0xbc838023	-0.016052311
17	0x3cf359a6	0.029705834
18	0xbe4e4f40	-0.20147419
19	0xbcd7b2b6	-0.026330333
20	0x3ddf0b69	0.10890848
21	0xbe06510c	-0.13116854
22	0x3d5a8f50	0.05335933
23	0xbd19c3be	-0.03754019
24	0xbe4d590c	-0.200535
25	0xbd569df1	-0.05239672
26	0x3d26979f	0.04067194
27	0xbe4b7287	-0.19867907
28	0x3dadd135	0.08487169
29	0x3d0c6889	0.03427938
30	0xbe0681c2	-0.13135436
31	0x3c5ed2ed	0.013600093
32	0x3d7abef2	0.061217256
33	0xbe0e4401	-0.13893129
34	0xbd737602	-0.059438713
35	0xbd32db61	-0.043666247
36	0xbe184676	-0.14870629
37	0xbda5eb4a	-0.081015185
38	0x3d2c8c85	0.042126197
39	0xbcaf8d82	-0.02142978
40	0xbcf4c73d	-0.02988016
41	0x3d9ee68d	0.07758818
42	0xbc409c74	-0.011756051
43	0x3d82daaf	0.06389367
44	0xbd832307	-0.06403165
45	0x3c92e2c4	0.017930396
46	0x3cf2b693	0.029628074
47	0x3dc0a4bb	0.0940642
48	0xbe09161c	-0.1338734
49	0x3d2a220e	0.041536383
50	0x3d019409	0.031635318
51	0xbdcc56e3	-0.0997751
52	0x3cda9e2f	0.026686756
53	0x3d028f87	0.03187516
54	0x3c164248	0.009171076
55	0xbd9b6487	-0.075875334
56	0x3d956b0f	0.072958104
57	0xbe24b323	-0.1608396
58	0xbd916ce5	-0.07100848
59	0xbd1f47cb	-0.038886826
60	0x3cff7d43	0.03118766
61	0xbd763fb1	-0.060119335
62	0x3bf4c120	0.0074693114
63	0xbdfcc11d	-0.12341521
64	0x3d3e6e8d	0.04649215
65	0xbd975956	-0.07390086
66	0x3c3a4a18	0.011370204
67	0x3dc43f67	0.095824055
68	0x3d788434	0.060672954
69	0xbd2f52e8	-0.042803675
70	0xbcd4c525	-0.025972912
71	0xbd591630	-0.052999675
72	0xbcb3f928	-0.021969393
73	0x3d795178	0.06086871
74	0xbd9b47f3	-0.075820826
75	0xbe0c4c41	-0.13700964
76	0xbd0b9fbf	-0.034087893
77	0xbdacc3e4	-0.08435801
78	0xbe2750d0	-0.16339421
79	0xbca0abf1	-0.019613238
80	0xbd85c28a	-0.06531246
81	0xbd07d071	-0.03315777
82	0x3c8d7365	0.017266938
83	0x3d28aabc	0.04117845
84	0xbdeacd65	-0.11464957
85	0x3cef1199	0.029183196
86	0xbde09a41	-0.109669216
87	0xbd178ecc	-0.037001416
88	0x3d908e2d	0.07058368
89	0xbd693442	-0.056934603
90	0xbd9ac158	-0.07556409
91	0xbc44b4e9	-0.012006023
92	0xbd40265a	-0.046911575
93	0xbdbbedb2	-0.09176196
94	0xbd001554	-0.03127034
95	0x3cd51c5c	0.0260145
96	0xbe19b064	-0.15008694
97	0xb8ece42f	-0.000112958594
98	0xbda71d0f	-0.08159839
99	0xbdeb1686	-0.114789054
100	0x3d318b81	0.043345932
101	0x3d27d285	0.04097225
102	0xbd8f8eb1	-0.07009638
103	0xbcffa1c4	-0.031205066
104	0x3cfa89bc	0.030583255
105	0xbdc728e3	-0.097245954
106	0xbb605660	-0.003423117
107	0x3cccfa7c	0.025021784
108	0x3d9bb0ef	0.07602107
109	0xbd50c58d	-0.05096965
110	0xbd83cacd	-0.064351656
111	0x3c76c260	0.015060991
112	0xbc49dc00	-0.0123205185
113	0xbdb33585	-0.087504424
114	0x3afb5f40	0.0019178167
115	0x3d811b55	0.06304041
116	0x3cfc7ab4	0.030820228
117	0x3dc279c1	0.09495879
118	0xbda540f6	-0.08069031
119	0x3d7df78e	0.062003665
120	0x3ce60554	0.028078713
121	0x3c239f40	0.009986699
122	0xbd07cb5c	-0.033152923
123	0xbdbb2cf8	-0.091394365
124	0x3d32788e	0.043572
125	0x3db4e295	0.088322796
126	0xbbc04850	-0.0058679953
127	0xbc37d5f8	-0.011220448
128	0xbdc3d69f	-0.0956242
129	0xbdb89881	-0.09013463
130	0xbd9f4344	-0.07776502
131	0x3d5a2486	0.053257488
132	0x3c50faa8	0.012755074
133	0x3dc87147	0.09787231
134	0x3d494af2	0.04914374
135	0x3d06dfaa	0.032928146
136	0xbd363e57	-0.044493046
137	0x3dbfdce1	0.09368301
138	0x3d9d347b	0.076760255
139	0xbcaec6e8	-0.02133508
140	0x3dc61d99	0.09673614
141	0xbdc5d4c1	-0.0965972
142	0x3d84fb17	0.06493204
143	0xbcbe1f98	-0.023208424
144	0x3d981ec5	0.07427744
145	0xbb1a2380	-0.0023519695
146	0x3d316e62	0.04331816
147	0xbdbdc350	-0.092657685
148	0x3c07f870	0.008298978
149	0xbd5bcd51	-0.0536626
150	0xbd263f01	-0.04058743
151	0x3c72d988	0.014822371
152	0x3ca72a2c	0.020405851
153	0xbdb10d18	-0.086450756
154	0xbcee345c	-0.029077701
155	0xbd5d275c	-0.053992614
156	0xbdc801cc	-0.09765968
157	0x390c6000	0.00013387203
158	0xbda2187a	-0.07914825
159	0x3bc52f30	0.006017588
160	0x3d99abd7	0.07503479
161	0xbcf62afc	-0.030049793
162	0x3d362066	0.04446449
163	0xbdabf62b	-0.08396562
164	0x3d35eabe	0.04441332
165	0x3d2cd68a	0.042196788
166	0x3d891e37	0.06695216
167	0x3d7bb33e	0.061450236
168	0xbc905158	-0.017616913
169	0x3dab4b23	0.083639406
170	0xbc8823d4	-0.016618647
171	0x3d8aa8af	0.06770455
172	0x3bf9a400	0.0076184273
173	0xbca833d4	-0.020532526
174	0x3d9354f3	0.07193937
175	0xbd962cc6	-0.073327586
176	0xbda5af3e	-0.080900654
177	0xbbac3080	-0.005254805
178	0x3c9b9730	0.01899299
179	0xbcc897b8	-0.024486408
180	0xbd964c03	-0.07338717
181	0xbd9492c4	-0.07254556
182	0x3d789a76	0.06069418
183	0xbd889c9c	-0.06670496
184	0x3d8e9709	0.069624014
185	0x3b943760	0.004523203
186	0xbdaa82fe	-0.08325766
187	0xbc1e2108	-0.00965143
188	0x3cc6f33c	0.024285905
189	0xbdac773e	-0.08421181
190	0x3d99e241	0.07513858
191	0xbc0b3c08	-0.008498199
192	0x3cd23860	0.025661647
193	0x3dc200cf	0.094728105
194	0x3daa22f7	0.0830745
195	0x3d1b93e6	0.037982844
196	0x3cd4af2c	0.025962435
197	0xbd886d5e	-0.06661485
198	0x3d60251a	0.054722883
199	0x3cea1e0c	0.02857878
200	0x3d08f096	0.033432566
201	0xbc0256b8	-0.007955246
202	0x3cd56754	0.026050247
203	0x3d3b0fc2	0.045669325
204	0x3d673ece	0.05645638
205	0xbd9fff65	-0.078123845
206	0x3dbc9d0b	0.09209641
207	0xbd8255d4	-0.06364027
208	0x3c744130	0.01490812
209	0x3cb63e7c	0.022246592
210	0xbcb18128	-0.021668032
211	0xbc9d3744	-0.019191392
212	0x3d3956e6	0.04524889
213	0xbd868f84	-0.06570342
214	0xbd97fb04	-0.07420924
215	0x3cb11ae8	0.021619275
216	0x3b257c80	0.002525121
217	0xbd877710	-0.06614506
218	0x3dab3b6b	0.083609425
219	0xbc0fde20	-0.008780986
220	0xbd2e69dc	-0.042581424
221	0x3da692d1	0.08133472
222	0xbd3c245d	-0.045933116
223	0x3a707600	0.0009172857
224	0xbd94c4a2	-0.07264067
225	0xbd25d512	-0.040486403
226	0xbc487830	-0.012235686
227	0x3ce5f6ec	0.028071843
228	0xbce59fac	-0.028030239
229	0xbda51924	-0.08061436
230	0x3d226cf6	0.039654694
231	0xbdc4ebdf	-0.09615301
232	0x3d28d6b6	0.04122039
233	0x3dbfe4e5	0.0936983
234	0x3dc4e599	0.09614105
235	0xbd399b7f	-0.04531431
236	0xbcb4bf3c	-0.022063844
237	0xbd3fe5a6	-0.04684987
238	0x3be2d0d0	0.006921865
239	0xbd6eac3f	-0.058269735
240	0x3d834667	0.064099126
241	0x3d6023f2	0.05472178
242	0x3b28a0a0	0.0025730506
243	0x3d621dba	0.05520413
244	0x3c1db8a0	0.009626538
245	0xbd89fc20	-0.06737542
246	0x3c11c7f0	0.0088977665
247	0x3d897b3b	0.067129575
248	0xbd10181e	-0.03517925
249	0x3dc1f7e5	0.0947111
250	0xbd3ff665	-0.04686584
251	0xbda33793	-0.07969584
252	0x3b2eeb00	0.0026690364
253	0xbccd1a94	-0.025037088
254	0x3da22aef	0.07918345
255	0xbd9ba05c	-0.075989455

linear_relu_stack.0.bias f4 [90]
0	0x3cd20b80	0.02564025
1	0xbd48eedb	-0.049055915
2	0x3d656fce	0.05601483
3	0xbd95710c	-0.072969526
4	0x3cae7e30	0.021300405
5	0xbce0164d	-0.027354384
6	0xbdb78005	-0.08959965
7	0x3d73c63a	0.059515215
8	0xbd520ff5	-0.05128475
9	0xbd212dcf	-0.039350327
10	0xbd36937e	-0.044574253
11	0x3d9fcbc1	0.07802535
12	0x3d8187bb	0.06324717
13	0x3d7879f9	0.060663197
14	0xbce7db71	-0.02830288
15	0x3d4b8347	0.049685743
16	0x3d0654ff	0.032795902
17	0x3d89c721	0.06727434
18	0xbd8f1ef5	-0.069883265
19	0xbdbf7e97	-0.09350317
20	0x3d917667	0.071026616
21	0x3d181cea	0.03713695
22	0x3dd61868	0.10453874
23	0x3de0db7d	0.10979364
24	0xbd1f07b2	-0.0388257
25	0x3cdaf8ac	0.026729904
26	0x3dac3f33	0.08410492
27	0xbd57fe84	-0.05273296
28	0xbda280d5	-0.07934729
29	0xbd952b6b	-0.07283672
30	0xbd408d5a	-0.047009803
31	0xbd0edda8	-0.034879357
32	0xbd93e2d8	-0.072210014
33	0x3da6df97	0.08148115
34	0x3d1ff526	0.03905215
35	0x3b0135e9	0.001971597
36	0xbd235a30	-0.03988093
37	0x3b151697	0.002274906
38	0xbda81525	-0.08207158
39	0xbc959590	-0.018259794
40	0x3d26621d	0.040620912
41	0x3d7f7d1d	0.062375177
42	0x3cc1f69d	0.023677165
43	0xbd250371	-0.040286485
44	0x3dc38941	0.095476635
45	0x3d34e145	0.044160146
46	0xbd36c828	-0.044624478
47	0xbc6bf4b0	-0.0144016
48	0x3d00875a	0.03137908
49	0x3d7a1a1a	0.06106005
50	0xbd0ea244	-0.034822717
51	0x3d39f552	0.04539997
52	0xbdbc5ecc	-0.091977686
53	0xbccc233d	-0.024919147
54	0xbda38bf1	-0.07985676
55	0x3dd673b5	0.10471288
56	0xbc19e9d8	-0.009394132
57	0x3db551ff	0.0885353
58	0xbd74bdbe	-0.059751265
59	0xbc69fbc4	-0.014281217
60	0xbca143ca	-0.019685645
61	0xbd24f2da	-0.040270664
62	0xbd482a3d	-0.048868407
63	0x3d6372c9	0.05552939
64	0x3da27f62	0.079344526
65	0x3ca35547	0.019938124
66	0x3dcf5384	0.10123351
67	0x3dc07cb3	0.093987845
68	0x3b435acb	0.0029808755
69	0x3d56c162	0.052430518
70	0x3d33c7b8	0.04389164
71	0xbd23326c	-0.039843008
72	0x3dc1d767	0.09464913
73	0xbcaa1d7e	-0.020766016
74	0x3daf0b39	0.085470624
75	0xbda86656	-0.08222644
76	0xbd781406	-0.06056597
77	0xbd8c0e06	-0.06838612
78	0x3c6e4ea8	0.01454512
79	0x3ca33380	0.019922018
80	0x3c815bbc	0.015790813
81	0x3b2641e0	0.0025368854
82	0xbc8b5c46	-0.017011773
83	0x3d276efc	0.040877327
84	0x3ca5bcdc	0.020231657
85	0xbdc2f480	-0.09519291
86	0xbd49c0e4	-0.04925622
87	0x3c57e875	0.013177981
88	0x3cb48e4a	0.022040505
89	0xbd8adaa9	-0.06779987

linear_relu_stack.2.weight f4 [70, 90]
0	0xbbcd5ea5	-0.006267386
1	0x3dc36475	0.09540645
2	0xbc580c70	-0.013186559
3	0xbdc0764a	-0.09397562
4	0x3d993918	0.07481593
5	0xbd4cda81	-0.05001307
6	0xbdd385fd	-0.103282906
7	0xbd447b66	-0.047969244
8	0xbba77248	-0.005110059
9	0x3de8498e	0.113421544
10	0x3cf26454	0.029588856
11	0x3c122d70	0.008921966
12	0xbbf2b580	-0.0074068904
13	0x3cfaf289	0.030633228
14	0xbc5b24f0	-0.013375506
15	0x3c9ddc6a	0.01927014
16	0xbd82299d	-0.06355593
17	0xbd9f9b1a	-0.07793255
18	0xbd4ee68b	-0.05051283
19	0xbd4faaa0	-0.05069983
20	0x3ab62fc0	0.0013899729
21	0x3bc10190	0.005890079
22	0x3e2bf1c9	0.16791452
23	0x3e0d8e27	0.13823758
24	0xbcb21d85	-0.021742592
25	0xbd82adce	-0.06380807
26	0x3d8bd215	0.06827179
27	0x3d842f91	0.06454385
28	0xbd5c7f58	-0.053832382
29	0x3d9dea95	0.077107586
30	0xbc57fff8	-0.013183586
31	0xbd4ae6ac	-0.049536392
32	0x3d5207df	0.051277038
33	0x3dbb475a	0.091444686
34	0x3d2e78d2	0.042595692
35	0x3d5f526b	0.05452196
36	0xbcda17f6	-0.026622754
37	0x3d292096	0.041290842
38	0xbd5252ab	-0.05134837
39	0xbd909150	-0.07058966
40	0x3dffccb4	0.12490216
41	0x3db6974b	0.089155756
42	0x3de63bfb	0.11241909
43	0xbcd06e84	-0.025443323
44	0x3e10b841	0.14132787
45	0x3d849992	0.06474604
46	0x3d8e7561	0.06955982
47	0x3cfbce5c	0.030738048
48	0xbc4c1350	-0.012455776
49	0xbd0ce179	-0.034394715
50	0xbda265ef	-0.079295985
51	0xbcddf445	-0.027094016
52	0x3d3f40da	0.046692707
53	0x3d23072e	0.03980177
54	0xbda593e0	-0.080848455
55	0xbdd1d618	-0.10245913
56	0x3dd1cb15	0.10243813
57	0x3d001ffe	0.03128051
58	0x3da34e63	0.079739355
59	0x3e1525cb	0.14565198
60	0x3dc99594	0.09842983
61	0xbddfc684	-0.10926536
62	0xbbd88830	-0.0066080317
63	0xbd3b582e	-0.04573839
64	0x3e18a644	0.14907175
65	0xbcf9c226	-0.030488085
66	0x3cc92d56	0.02455775
67	0x3db9ade0	0.09066367
68	0x3b20da77	0.0024544278
69	0xbdc6136f	-0.096716754
70	0x3de42120	0.111391306
71	0x3d664598	0.056218714
72	0x3c780bf8	0.015139572
73	0x3bf6c7b9	0.007531133
74	0xbd789463	-0.060688388
75	0x3ae0cd7d	0.0017151084
76	0x3b39eb89	0.002836915
77	0x3c0b6a3a	0.008509213
78	0x3d67698c	0.05649714
79	0xbd0d92a4	-0.034563676
80	0x3d4a028a	0.049318828
81	0x3d6b6932	0.05747337
82	0x3d9c0e2b	0.0761989
83	0x3c154e7b	0.0091129495
84	0xbd751d46	-0.05984237
85	0x3e0484f3	0.12941341
86	0xbcd1f800	-0.02563095
87	0xbcbd2ea0	-0.023093522
88	0xbd64c440	-0.05585122
89	0xbdb2d88b	-0.087327085
90	0x3da6e779	0.08149619
91	0x3c9c0aa8	0.01904805
92	0xbcffea4c	-0.031239651
93	0xbd5aa604	-0.05338098
94	0xbd99593d	-0.07487724
95	0xbd2db7b5	-0.042411525
96	0xbdac0a9c	-0.08400461
97	0x3d7f3992	0.062310763
98	0x3d833f5c	0.06408569
99	0x3d28429f	0.04107916
100	0xbc344520	-0.011002809
101	0xbd5e0bf0	-0.054210603
102	0x3d8eb3e1	0.06967903
103	0xbd241387	-0.040057685
104	0xbd1f5762	-0.038901694
105	0xbdbbc95e	-0.09169267
106	0x3c0a2ea0	0.008433968
107	0x3cb2bef1	0.021819564
108	0x3dc38637	0.09547084
109	0x3dac50de	0.08413862
110	0x3d54917a	0.05189655
111	0x3c9689bc	0.018376224
112	0xbb0232bb	-0.0019866663
113	0x3db5b39e	0.0887215
114	0x3d70dad4	0.05880244
115	0xbdb1b808	-0.08677679
116	0xbd7b097d	-0.061288346
117	0x3d595a7e	0.053064816
118	0x3db410fb	0.08792301
119	0x3d64f63a	0.055898882
120	0xbc9020f5	-0.01759384
121	0xbac32e47	-0.0014891111
122	0xbd6a7233	-0.057237815
123	0xbd9ec289	-0.077519484
124	0x3d8bfecf	0.0683571
125	0x3cabeaac	0.020985924
126	0x3d826196	0.06366269
127	0xbd9060eb	-0.07049736
128	0xbdb50d81	-0.08840466
129	0xbd5fbb9c	-0.054622278
130	0xbd28ac5c	-0.04118
131	0xbdd945ca	-0.10609014
132	0x3cc56076	0.024093848
133	0x3b772dc0	0.0037716478
134	0x3d102157	0.035188045
135	0x3da27cd4	0.07933965
136	0xbd1b6c70	-0.03794521
137	0xbd8fc35c	-0.07019684
138	0x3d0cb6ce	0.034354024
139	0xbcbf7e8c	-0.023375772
140	0x3dae2997	0.085040264
141	0x3d8a02d3	0.0673882
142	0xbd8fb916	-0.07017724
143	0xbc32aeb4	-0.01090591
144	0xbd719664	-0.058981314
145	0xbc115977	-0.008871428
146	0x3aa01a00	0.001221478
147	0x3d2fc4ce	0.042912297
148	0xbd49cbab	-0.0492665
149	0xbd9b1750	-0.07572806
150	0x3dc20068	0.09472734
151	0xbbcca94a	-0.0062457668
152	0xbdb9caa6	-0.09071855
153	0xbbeced64	-0.0072304476
154	0xbda2df8f	-0.07952797
155	0xbdd318d6	-0.103074715
156	0x3dc7636f	0.09735762
157	0xbcf612b2	-0.030038211
158	0xbd629529	-0.05531803
159	0xbcb9f344	-0.022699006
160	0xbdbe7d61	-0.09301258
161	0xbc66f57c	-0.014096614
162	0x3dd1b58d	0.10239706
163	0xbdb336fc	-0.08750722
164	0xbdbd97c0	-0.0925746
165	0x3d3d20e8	0.04617396
166	0x3d166f58	0.03672728
167	0xbdaeaceb	-0.08529075
168	0xbda6e1f7	-0.08148568
169	0x3d92f38f	0.07175361
170	0xbc984e52	-0.018592034
171	0x3d977033	0.07394447
172	0x3d2d134a	0.042254724
173	0xbb9ef21e	-0.00485064
174	0xbcfa0dfc	-0.030524246
175	0xbd35884a	-0.04431943
176	0x3d677c56	0.05651506
177	0xbdb3d20e	-0.08780299
178	0x3d8b0528	0.06788093
179	0xbd2cf36e	-0.04222434
180	0xbd8205a8	-0.06348735
181	0xbdbdbe36	-0.092647955
182	0x3dad2913	0.084551
183	0x3c9ad53c	0.018900506
184	0x3d804cbe	0.062646374
185	0xbd57098d	-0.052499343
186	0x3d397bea	0.04528419
187	0x3dccccbd	0.09999988
188	0xbd0a5061	-0.03376806
189	0xbb864586	-0.0040976433
190	0x3da9512b	0.08267435
191	0x3d699d40	0.05703473
192	0x3d454cae	0.04816883
193	0xbd01f2c3	-0.031725656
194	0xbd50f343	-0.051013242
195	0x3ce7df00	0.028304577
196	0xbdd6c3c3	-0.10486557
197	0x3d65335e	0.05595719
198	0xbb83f8ea	-0.0040274756
199	0xbdd9803d	-0.10620163
200	0xbd5368d4	-0.051613644
201	0x3b0653e0	0.002049677
202	0x3d040478	0.032230824
203	0x3d00ae5b	0.03141628
204	0x3daf9e0f	0.08575069
205	0xbd90b230	-0.070652366
206	0xbd068124	-0.032838
207	0xbd9686b4	-0.07349911
208	0x3dc3a919	0.09553737
209	0x3b07b0a9	0.0020704663
210	0xbd62a769	-0.055335436
211	0xbd4f4e8f	-0.05061203
212	0xbdda94da	-0.106729224
213	0x3dd0577b	0.101729356
214	0xbc1c94f8	-0.009557001
215	0xb937cc00	-0.00017528236
216	0x3d9aedc2	0.0756488
217	0xbd64c460	-0.05585134
218	0xbd996b66	-0.07491188
219	0xbd7f1308	-0.06227401
220	0x3c082bd6	0.008311233
221	0x3d774cfa	0.060376145
222	0x3cf73b25	0.03017957
223	0xbdbd4322	-0.0924132
224	0xbd54af7f	-0.05192518
225	0xbd1c654a	-0.038182534
226	0x3d367422	0.044544347
227	0xbdb0bc37	-0.08629649
228	0x3dbe6263	0.092961095
229	0x3cc4cad6	0.024022501
230	0x3d97bdfe	0.07409285
231	0x3dd0cd99	0.10195465
232	0xbda47cd0	-0.080316186
233	0x3b03347e	0.0020020301
234	0xbc2cda20	-0.010550052
235	0x3d183608	0.037160903
236	0x3ca9dbdc	0.02073472
237	0x3dacee45	0.08443884
238	0xbd5d4048	-0.05401638
239	0xbc31dabc	-0.010855373
240	0x3c2caca7	0.01053921
241	0xbd9b641e	-0.07587455
242	0xbc92d33c	-0.01792299
243	0xbda0e81e	-0.07856773
244	0x3d7a823b	0.061159354
245	0xbbaf2b30	-0.0053457245
246	0xbd35054d	-0.04419451
247	0x3d64ef0d	0.05589204
248	0x3d9395e5	0.072063245
249	0xbdabd0f4	-0.08389464
250	0x3dcc1fab	0.09966978
251	0x38948d39	7.083495e-05
252	0xbd792ccb	-0.060833734
253	0xbd25957c	-0.040425763
254	0x3d5a424e	0.05328589
255	0xbdce80e6	-0.10083179

linear_relu_stack.2.bias f4 [70]
0	0xbb1ea9d7	-0.002421012
1	0xbcad4478	-0.021150813
2	0xbcde52f5	-0.027139166
3	0xbdad7b30	-0.08470762
4	0xbd9fa360	-0.07794833
5	0xbcfb5b67	-0.030683232
6	0xbd9795bc	-0.074016064
7	0xbcac07fc	-0.020999901
8	0x3d602fc6	0.05473306
9	0xbcd0fd84	-0.02551151
10	0x3cb6b114	0.022301234
11	0xbcdf6255	-0.027268568
12	0xbd63c3b1	-0.055606548
13	0xbdc55882	-0.09636022
14	0x3c97a898	0.018513009
15	0x3d565590	0.052327693
16	0xbd595f50	-0.053069413
17	0x3ce766e2	0.0282473
18	0x3dc7f9d3	0.09764447
19	0x3dbe74ed	0.092996456
20	0x3d354ca9	0.044262562
21	0x3de8d428	0.113685906
22	0xbdabc7bc	-0.08387706
23	0x3b893c64	0.0041881073
24	0x3dd19f18	0.10235423
25	0x3c1e46bb	0.009660418
26	0xbd5d626f	-0.05404895
27	0xbd6f82b3	-0.058474254
28	0x3bb0bd70	0.0053936765
29	0xbdcdbc06	-0.10045628
30	0xbb7cf5b7	-0.0038598606
31	0x3d50fb51	0.051020924
32	0x3d0dd6a9	0.034628544
33	0xbd396b29	-0.04526821
34	0xbd63b85e	-0.055595748
35	0x3db026ab	0.08601125
36	0x3c08f220	0.008358508
37	0x3d0a907e	0.033829205
38	0xbb1b743d	-0.0023720406
39	0xbd87485c	-0.06605598
40	0x3d6d6e69	0.057966623
41	0xbd91c52d	-0.071176864
42	0x3ce39683	0.02778173
43	0x3de2df3e	0.11077736
44	0xbc82ab8c	-0.01595094
45	0xbd8ab2c2	-0.067723766
46	0x3dacdea0	0.084409
47	0x3d81290a	0.06306656
48	0xbd4ae350	-0.04953319
49	0x3c24f0d9	0.010067188
50	0x3ddbc211	0.107303746
51	0xbd0572c8	-0.032580167
52	0x3e145a8d	0.14487667
53	0x3dc236d8	0.09483117
54	0x3d4c2445	0.049839277
55	0xbcb80ca7	-0.02246697
56	0x3da6bc5d	0.08141396
57	0xbd42caa1	-0.047556523
58	0x3d8bee77	0.06832593
59	0x3d87c6c8	0.066297114
60	0xbc9331ef	-0.017968146
61	0x3b188e07	0.0023278014
62	0x3cdd9d8d	0.027052665
63	0x3dccce4c	0.100002855
64	0x3bb610d0	0.0055562034
65	0x3daed7de	0.08537267
66	0x3d63698c	0.05552058
67	0x3da79fc2	0.08184768
68	0xbdb1fabb	-0.08690401
69	0x3dd0c959	0.10194654

linear_relu_stack.4.weight f4 [50, 70]
0	0xbdbe9487	-0.09305673
1	0x3d04222a	0.032259144
2	0xbc94bbc4	-0.01815594
3	0x3df4c727	0.11952048
4	0x3d917d70	0.071040034
5	0xbcd55428	-0.026041105
6	0xbd443218	-0.047899336
7	0x3d9b1dea	0.07574065
8	0x3d882f24	0.06649616
9	0x3daa709f	0.08322262
10	0xbcc5daba	-0.024152149
11	0x3d4f531d	0.050616372
12	0xbcabfc20	-0.020994246
13	0xbd8d6296	-0.069035694
14	0xbd803f16	-0.06262033
15	0xbddefa42	-0.10887577
16	0xbc80dba0	-0.015729725
17	0x3db73ca5	0.08947114
18	0xbd8c3395	-0.06845776
19	0xbc9667f0	-0.018360108
20	0xbdbd4723	-0.09242084
21	0xbdcc02ab	-0.099614464
22	0xb9483b25	-0.0001909552
23	0x3cb0cff9	0.021583544
24	0x3da32f29	0.079679795
25	0xbd87c22f	-0.066288345
26	0xbd87ec9d	-0.06636927
27	0x3b481346	0.0030529066
28	0xbb7c9ec0	-0.003854677
29	0xbcf561b8	-0.029953822
30	0xbd2038b1	-0.039116565
31	0x3c897a80	0.016782045
32	0x3d7293ff	0.05922317
33	0x3d609186	0.054826282
34	0xbc0f6f03	-0.008754495
35	0x3dea203c	0.114319295
36	0xbd22485a	-0.03961978
37	0xbc2f24e8	-0.0106899515
38	0xbd70ae5d	-0.058760036
39	0xbdcc3b2f	-0.09972226
40	0x3d137d5a	0.036008216
41	0xbde7c0e1	-0.113160856
42	0xbcaefc68	-0.021360591
43	0x3b0171fd	0.001975178
44	0xbccf5a6d	-0.025311673
45	0x3d165ed9	0.036711548
46	0xbddff4ea	-0.109353855
47	0x3d8805b5	0.066417135
48	0xbd175aab	-0.036951702
49	0xbdc78cb8	-0.09743637
50	0xbde3ba17	-0.11119478
51	0xbda4ea46	-0.080524966
52	0xbcc6cd12	-0.024267707
53	0x3da680d1	0.081300385
54	0xbc1dbcac	-0.009627502
55	0xbd67f026	-0.056625508
56	0xbdecca71	-0.1156205
57	0x3d478a91	0.04871613
58	0xbdf05804	-0.11735538
59	0x3db7eebb	0.08981081
60	0x3b6f4a25	0.00365127
61	0x3dbb3390	0.09140694
62	0xbce1c103	-0.027557855
63	0x3debdc8b	0.115166746
64	0x3d012e5e	0.03153836
65	0x3d43a664	0.047766104
66	0x3d9a46cb	0.07533034
67	0x3cffe126	0.031235289
68	0x3b8e98d6	0.0043517156
69	0x3d06ed15	0.032940943
70	0xbd0344c4	-0.032048002
71	0x3da483d1	0.080329545
72	0xbdb23529	-0.08701546
73	0xbde5d052	-0.112213746
74	0xbdd9f143	-0.1064172
75	0xbd9b988f	-0.075974576
76	0x3dc55f21	0.09637285
77	0xbb93c549	-0.004509602
78	0xbdefa124	-0.11700657
79	0xbd30d07c	-0.043167576
80	0xbc380db6	-0.011233738
81	0xbd621dd3	-0.055204224
82	0xbdb5f47b	-0.088845216
83	0x3c28b138	0.0102961585
84	0x3d41804a	0.047241487
85	0x3d47762d	0.048696686
86	0xbb6b6460	-0.0035917982
87	0xbdab11e6	-0.08353023
88	0x3d968878	0.07350248
89	0x3d05b5aa	0.03264395
90	0xbd585797	-0.052817907
91	0xbddd1fe0	-0.10797095
92	0xbdc7a22e	-0.0974773
93	0xbd3c37ae	-0.045951538
94	0x3d98a958	0.07454175
95	0xbd992e9f	-0.074795954
96	0x3b8b50f5	0.004251594
97	0xbd376a23	-0.044778954
98	0x3d89cddb	0.06728717
99	0xbd327386	-0.043567203
100	0x3de1f94b	0.11033877
101	0x3cec3b55	0.028836885
102	0x3d6af1d0	0.057359517
103	0xbd94d8c0	-0.07267904
104	0x3ccc1b33	0.024915313
105	0x3d5a51fe	0.05330085
106	0x3bab8590	0.0052344278
107	0x3d285eda	0.041106082
108	0xbcd47b30	-0.025937647
109	0xbcf4a5f0	-0.029864281
110	0x3deeb3b1	0.11655367
111	0x3dd87db9	0.10570855
112	0x3dcc97d5	0.09989897
113	0x3c225e33	0.009910154
114	0x3bc67b9c	0.006057216
115	0xbdeff61c	-0.117168635
116	0x3d471488	0.048603565
117	0xbcee569c	-0.029094033
118	0xbde991f1	-0.11404789
119	0x3dc03d49	0.09386689
120	0x3d8c5d63	0.068537496
121	0x3d6199ed	0.055078436
122	0x3d2893d6	0.041156612
123	0xbde3f578	-0.11130804
124	0xbdb9812e	-0.09057842
125	0xbd17a8a8	-0.037026078
126	0x3c82a4dc	0.015947752
127	0xbdd793ba	-0.105262235
128	0x3d8133d1	0.06308711
129	0x3d17c17b	0.03704975
130	0x3cbfbae9	0.023404555
131	0xbd89ec0f	-0.06734478
132	0xbd21c753	-0.03949673
133	0xbbd897c0	-0.006609887
134	0x3d256eae	0.040388756
135	0xbd705054	-0.058670357
136	0xbd808607	-0.06275564
137	0x3c4b4cdb	0.0124084605
138	0x3c421ff4	0.0118484385
139	0x3d779fc2	0.06045509
140	0xbd384a0f	-0.044992503
141	0xbcd2c983	-0.025730854
142	0xbd0a037b	-0.033694725
143	0xbd47f9da	-0.04882226
144	0xbd1431e3	-0.03618039
145	0x3bdfb746	0.006827268
146	0x3d85f2b5	0.06540433
147	0xbc4a2a54	-0.012339193
148	0x3e2da023	0.16955619
149	0xbcd3bec0	-0.025847793
150	0x3e0a3f91	0.13500811
151	0x3d72b87c	0.05925797
152	0xbd9a16e9	-0.07523901
153	0x3dccb3b7	0.099952154
154	0xbd828b3c	-0.06374213
155	0x3d0d0790	0.03443104
156	0x3da4f1d3	0.08053937
157	0xbdaca4ba	-0.084298566
158	0xbd2b7a46	-0.041864656
159	0x3ce123a8	0.027482823
160	0xbde04979	-0.10951514
161	0xbd50a921	-0.050942544
162	0xbd69ebee	-0.057109766
163	0x3c8ddcbb	0.017317167
164	0x3e127d9f	0.14305733
165	0x3e13798d	0.14401837
166	0xbd299261	-0.041399363
167	0xbda44380	-0.08020687
168	0x3dd48c3d	0.10378311
169	0xbbc050e0	-0.005869016
170	0xbd913896	-0.07090871
171	0xbdf6bb9e	-0.12047504
172	0xbcb28891	-0.021793636
173	0xbb9b8010	-0.004745491
174	0xbdcb34e0	-0.099221945
175	0xbcf9f3e1	-0.030511798
176	0xbdbe7588	-0.09299761
177	0x3d04b8ba	0.03240273
178	0xbd925b1c	-0.07146284
179	0x3d011856	0.03151735
180	0x3d5c79b3	0.053827
181	0x3d524d1e	0.051343076
182	0x3dc1cd19	0.094629474
183	0xbcb33618	-0.02187638
184	0x3da9df40	0.08294535
185	0xbd774412	-0.06036765
186	0xbe1d69c0	-0.15372372
187	0xbd758015	-0.0599366
188	0x3e06ef94	0.1317733
189	0x3dc49c96	0.09600179
190	0x3da425cb	0.08015021
191	0xbd337058	-0.04380831
192	0x3e207472	0.1566942
193	0xbdcc6911	-0.09980977
194	0x3dbfe594	0.093699604
195	0xbd1b8af2	-0.037974305
196	0x3d91bf57	0.07116573
197	0x3c9a94ce	0.018869784
198	0xbce4b561	-0.02791852
199	0xbd5f207d	-0.054474343
200	0x3dd4b633	0.10386314
201	0x3dce50c6	0.10074
202	0x3e072fa6	0.1320177
203	0xbde3a077	-0.111145906
204	0x3d96f3a3	0.07370689
205	0x3c9f35e2	0.019434873
206	0xbe00dc07	-0.12583934
207	0x3dcbcadc	0.09950802
208	0x3c55d51a	0.013051296
209	0x3d4cc5c3	0.049993288
210	0x3da4e271	0.08051003
211	0x3d99a868	0.07502824
212	0x3b872281	0.0041239862
213	0xbdb2c06d	-0.087281086
214	0x3dba7ade	0.09105466
215	0x3bfd68db	0.007733447
216	0x3dc005b4	0.09376088
217	0x3dba2967	0.09089928
218	0xbddfb265	-0.10922698
219	0x3d9177fb	0.071029626
220	0x3d5b61f7	0.053560223
221	0xbc3af9fa	-0.011412138
222	0xbd88a424	-0.06671932
223	0x3d94f51d	0.07273314
224	0x3cd8b944	0.026455529
225	0xbd12f3ee	-0.03587716
226	0x3d96337f	0.07334041
227	0xbc1efa39	-0.009703212
228	0xbd9bec8b	-0.07613476
229	0x3c9f43c5	0.019441495
230	0xbd9c34ff	-0.07627296
231	0x3d4df6fc	0.05028437
232	0xbd0523ce	-0.03250485
233	0xbd39f909	-0.045403514
234	0xbdd90b54	-0.10597864
235	0xbd269195	-0.04066618
236	0x3dd470ed	0.103731014
237	0xbdc6deff	-0.09710502
238	0x3daa19e9	0.08305723
239	0xbd259020	-0.04042065
240	0x3d66b218	0.056322187
241	0xbd388507	-0.04504874
242	0xbc997060	-0.018730342
243	0x3db5be43	0.0887418
244	0x3db67e74	0.08910838
245	0xbd9837b1	-0.07432497
246	0x3da1157d	0.07865427
247	0x3d2ddc56	0.042446457
248	0x3cbb3f65	0.022857377
249	0x3dabaa3f	0.08382081
250	0x3cccff47	0.02502407
251	0x3d029736	0.031882487
252	0x3c08b0e0	0.008342952
253	0xbd83f991	-0.064440854
254	0x3db84d9e	0.08999179
255	0x3da0a80f	0.07844555

linear_relu_stack.4.bias f4 [50]
0	0x3cadde18	0.021224067
1	0x3d87a733	0.066236876
2	0x3c3fcb78	0.011706226
3	0xbc37e663	-0.011224362
4	0xbd62b6f8	-0.055350274
5	0xbd4862f8	-0.04892251
6	0xbbcb5a2c	-0.0062058177
7	0xbd52acfa	-0.051434495
8	0xbd80335c	-0.06259796
9	0xbb08ae7e	-0.0020855959
10	0x3df1bfe9	0.11804182
11	0x3d97b13d	0.074068524
12	0x3df9943c	0.121864766
13	0xbdd7e1a7	-0.10541087
14	0xbe152dd9	-0.1456827
15	0x3cedc999	0.029026793
16	0x3dde1e0b	0.10845574
17	0x3bc0350c	0.0058656987
18	0xbd8ef5f8	-0.069805086
19	0xbbfd6460	-0.007732913
20	0xbe050850	-0.12991452
21	0xbdbbc69b	-0.0916874
22	0x3c9a95f4	0.018870331
23	0xbdef2c24	-0.11678341
24	0xbceeaf93	-0.029136455
25	0x3d920845	0.071304835
26	0x3c2d8f43	0.010593238
27	0x3ca8033e	0.020509358
28	0xbde237f1	-0.11045826
29	0xbca6fd1a	-0.02038436
30	0xbdb2fd25	-0.0873969
31	0x3e1c8f21	0.15288974
32	0xbc1bd019	-0.009510064
33	0x3d4b9ddf	0.049711104
34	0x3da92dbd	0.08260677
35	0xbda53910	-0.080675244
36	0x3db4061e	0.08790229
37	0xbdf612ad	-0.12015281
38	0xbd9f09ca	-0.07765539
39	0xbd8a902d	-0.067657806
40	0xbb8c2fab	-0.0042781434
41	0xbe02332c	-0.12714833
42	0x3d84ce46	0.06484656
43	0x3dd16417	0.10224169
44	0xbc9a2b19	-0.018819379
45	0x3d2387b1	0.039924327
46	0x3dab56ae	0.08366142
47	0x3e1209f2	0.14261606
48	0xbce611a4	-0.028084584
49	0xbda52b35	-0.08064882

linear_relu_stack.6.weight f4 [30, 50]
0	0x3d70d620	0.058797956
1	0xbe02e4fd	-0.12782665
2	0x3d3362f6	0.04379555
3	0x3de6cfe3	0.1127012
4	0x3d5bae4c	0.05363302
5	0x3c70880e	0.014680875
6	0xbc8fd70d	-0.017558599
7	0x3aec6ff1	0.0018038732
8	0x3dafe18e	0.08587943
9	0x3d2671de	0.040635936
10	0x3d61178f	0.054954108
11	0x3e078738	0.13235176
12	0x3bcd1d05	0.006259563
13	0x3d4cadac	0.049970314
14	0xbbaa12db	-0.005190236
15	0xbd08ef04	-0.033431068
16	0x3e366490	0.17811799
17	0xbe20df02	-0.1571007
18	0x3d938cb0	0.072045684
19	0xbd6a4672	-0.057196088
20	0x3e0c863d	0.13723083
21	0x3e126cbe	0.14299294
22	0x3d50b3bc	0.050952658
23	0x3c95f008	0.018302932
24	0x3ddbbd8c	0.107295126
25	0x3d851d8a	0.06499775
26	0x3c61d675	0.013784041
27	0x3de128ba	0.10994096
28	0xbdd5d7ec	-0.104415745
29	0x3dba7d71	0.09105957
30	0xbe142635	-0.144677
31	0x3ca577e1	0.020198764
32	0x3d8d0b36	0.06886904
33	0x3de391f4	0.11111823
34	0x3c06b22c	0.00822119
35	0xbe24ca50	-0.16092801
36	0xbe2fe577	-0.17177378
37	0x3bcd0a00	0.0062572956
38	0x3e3305d4	0.17482692
39	0x3d6aaf00	0.0572958
40	0xbd25786e	-0.040398054
41	0x3cc413a1	0.023935141
42	0xbe113776	-0.14181313
43	0xbe6a0eaf	-0.22857164
44	0x3c7c07f4	0.015382756
45	0xbe48bd26	-0.19603404
46	0x3de32838	0.110916555
47	0xbde82eb8	-0.11337036
48	0xbd047894	-0.032341555
49	0x3d494f04	0.04914762
50	0xbe0b6f10	-0.13616586
51	0x3c06aec0	0.008220375
52	0xbd713a18	-0.058893293
53	0xbd55c9e8	-0.052194506
54	0xbd62c83e	-0.055366747
55	0x3dbb54a8	0.09147006
56	0x3e05254f	0.13002513
57	0x3e08e7d3	0.13369684
58	0xbdd4045c	-0.10352394
59	0xbdb0aa82	-0.08626272
60	0xbd712374	-0.0588717
61	0xbccec28c	-0.025239252
62	0x3ce6ceb8	0.028174743
63	0x3d3ee4dc	0.046604976
64	0xbe0caf2c	-0.13738698
65	0x3c1b1d30	0.009467408
66	0xbd4bdb9c	-0.049769983
67	0xbd7b0b02	-0.061289795
68	0x3d999f90	0.07501137
69	0x3d70ee08	0.058820754
70	0x3d812e08	0.06307608
71	0x3dbaf676	0.0912904
72	0xbd884036	-0.06652872
73	0x3dcc32f8	0.09970659
74	0xbd6889ae	-0.056771927
75	0x3dd38702	0.10328485
76	0x3d796cd4	0.060894802
77	0xbbe2c940	-0.0069209635
78	0x3d714674	0.05890508
79	0xbb98a5e0	-0.0046584457
80	0xbe086638	-0.13320243
81	0x3d772f64	0.06034793
82	0xbbf96560	-0.007610962
83	0xbc9f2150	-0.019425064
84	0xbd8872c2	-0.06662513
85	0x3ab6b900	0.0013940632
86	0xbc88aed4	-0.016684927
87	0xbd69a55e	-0.057042472
88	0x3d637af8	0.055537194
89	0xbdc1cd64	-0.09463003
90	0x3ceb57e8	0.02872844
91	0x3cdbf358	0.026849434
92	0x3d51c82c	0.05121629
93	0xbbf22f80	-0.0073909163
94	0xbdcf1c78	-0.10112852
95	0x3c1db740	0.00962621
96	0xbc095e10	-0.008384243
97	0x3ce45a28	0.027875021
98	0x3b2afc40	0.0026090294
99	0xbd0984a4	-0.03357376
100	0xbd1bac66	-0.03800621
101	0x3d243398	0.040088266
102	0x3ce1512e	0.02750453
103	0x3d4279de	0.047479503
104	0xbd915454	-0.070961624
105	0x3e4cfb66	0.20017776
106	0x3e19cf28	0.1502043
107	0x3d3d1cd8	0.046170086
108	0x3cdede3b	0.027205577
109	0xbda13dbe	-0.078731045
110	0x3d863a11	0.06554044
111	0x3dcdd8e1	0.10051132
112	0xbd757b49	-0.059932027
113	0xbda048b4	-0.07826367
114	0x3dfe3a5b	0.12413474
115	0x3d3a10db	0.04542623
116	0xbe29cefe	-0.16582868
117	0x3e13b900	0.1442604
118	0xbcc14f23	-0.023597306
119	0x3dcf934c	0.101355165
120	0x3dd19c60	0.10234904
121	0x3df98136	0.12182848
122	0x3e1054bd	0.14094825
123	0xbc918b28	-0.01776655
124	0x3ddde298	0.10834235
125	0xbdd1849b	-0.102303706
126	0xbd8b97ec	-0.06816086
127	0x3d71a8ed	0.05899899
128	0x3dc9e867	0.0985878
129	0xbc0caf26	-0.0085866805
130	0xbd0c05d7	-0.034185257
131	0xbd4db8ce	-0.05022507
132	0xbd8871a7	-0.066623025
133	0x3c20f504	0.009824041
134	0xbd9236dd	-0.071393706
135	0xbdd82ea1	-0.10555769
136	0x3e8578c2	0.26068693
137	0x3de79990	0.113085866
138	0xbde236c6	-0.110456035
139	0x3e020caf	0.12700151
140	0x3daa9bab	0.083304726
141	0xbdab3c45	-0.08361105
142	0x3ded9fe6	0.11602764
143	0x3d246448	0.0401347
144	0xbdee3ff8	-0.11633295
145	0xbdf5b312	-0.119970456
146	0xbc38cde8	-0.011279561
147	0xbd170cf5	-0.03687759
148	0xbdcc26eb	-0.099683605
149	0xbdf801d0	-0.12109721
150	0xbc679bc8	-0.014136262
151	0x3de457c9	0.11149556
152	0x3d1d2271	0.038362924
153	0xbe29d8e7	-0.16586648
154	0x3e0f614d	0.14001961
155	0x3bc85d4c	0.0061146375
156	0x3dc788f5	0.09742919
157	0xbdc40561	-0.095713384
158	0xbc85779d	-0.016292388
159	0xbddbd79b	-0.10734483
160	0xbd96643f	-0.07343339
161	0x3c436cee	0.011927826
162	0x3cf7e6b8	0.030261382
163	0x3d699d4c	0.057034776
164	0xbdbd03d4	-0.09229246
165	0xbdb22f20	-0.08700395
166	0xbe2c1c9b	-0.16807787
167	0x3e1b18d0	0.15146184
168	0x3da86c77	0.08223813
169	0xbdf0ec74	-0.1176385
170	0xbe0b407c	-0.13598818
171	0x3b23ed7f	0.0025013385
172	0xbbe51a00	-0.006991625
173	0x3e0bcc3d	0.1365213
174	0x3db38bae	0.08766876
175	0x3d94c550	0.07264197
176	0xbdc7afe2	-0.09750344
177	0xbda26d62	-0.07931019
178	0xbd2835ba	-0.041066863
179	0x3cf11b5a	0.029431988
180	0x3d3fa10e	0.046784453
181	0x3dd96988	0.106158316
182	0xbdb8a6f2	-0.09016217
183	0xbc88f234	-0.016717054
184	0x3c37fa08	0.011229046
185	0xbd4d7ad2	-0.05016596
186	0x3e90c37d	0.28274146
187	0xbdb53668	-0.08848268
188	0x3d150ea4	0.036390916
189	0xbd492e05	-0.049116153
190	0x3df35a13	0.11882415
191	0x3cb7754c	0.022394799
192	0x3e18c959	0.14920558
193	0x3d2e4df7	0.04255482
194	0xbd160f1d	-0.036635507
195	0x3e2b44ec	0.1672551
196	0xbdbe8f7f	-0.093047135
197	0xbda7af6b	-0.08187755
198	0x3d419f07	0.0472708
199	0xbcedde98	-0.029036805
200	0x3e040470	0.12892318
201	0xbdef160d	-0.11674128
202	0xbdef185d	-0.11674569
203	0xbca3f314	-0.02001337
204	0xbdaef02e	-0.085419044
205	0x3d4acd68	0.049512297
206	0xbda7b020	-0.0818789
207	0xbd993b65	-0.07482032
208	0xbd52f8e8	-0.051506907
209	0xbcfa27d3	-0.030536568
210	0x3c156f7d	0.009120819
211	0x3c9282ab	0.017884573
212	0xbdacd15b	-0.08438369
213	0x3dc08e9e	0.09402202
214	0xbdceddd9	-0.10100908
215	0xbdd2b840	-0.10289049
216	0x3d2f9f9b	0.04287682
217	0x3db29577	0.087199144
218	0x3e2b67d5	0.16738828
219	0x3c0c3830	0.008558318
220	0xbdc8cbec	-0.0980452
221	0x3e2f55bc	0.17122549
222	0x3ddf2b96	0.10896985
223	0x3dfc9c66	0.12334518
224	0xbdac81b0	-0.084231734
225	0xbd874d24	-0.0660651
226	0x3dd19a8e	0.10234557
227	0xbdf85e07	-0.12127309
228	0x3d33a39a	0.043857194
229	0x3dc9f01e	0.09860252
230	0xbd84405a	-0.064575866
231	0x3d52b10f	0.051438387
232	0x3d9ba8e0	0.0760057
233	0xbdbb462a	-0.09144242
234	0xbd82ad6c	-0.06380734
235	0x3d006c10	0.031353056
236	0xbdc12f14	-0.094328076
237	0xbd4493df	-0.047992583
238	0x3dc0e242	0.09418155
239	0xbdde6e18	-0.108608425
240	0xbe15e7dd	-0.1463923
241	0xbdaaebdc	-0.08345768
242	0x3dc5a581	0.09650708
243	0xbd950ae1	-0.072774656
244	0x3df50576	0.11963932
245	0xbd6306a2	-0.055426247
246	0x3e5ced3b	0.21574871
247	0x3e088a27	0.13333951
248	0x3e3a1bea	0.18174711
249	0x3d49e0fc	0.049286827
250	0x3de4ef6e	0.1117848
251	0x3c6bfcb0	0.014403507
252	0xbdd120e5	-0.10211352
253	0xbdea6705	-0.11445431
254	0xbda5c67a	-0.08094497
255	0xbaaae600	-0.0013038516

linear_relu_stack.6.bias f4 [30]
0	0xbc948ed2	-0.018134508
1	0xbd66b078	-0.056320637
2	0xbe38a65d	-0.18032213
3	0x3d26b6d5	0.040701706
4	0x3df8363f	0.121197216
5	0xbde17313	-0.11008277
6	0x3d802eab	0.06258901
7	0x3e460509	0.19337858
8	0xbe635e9e	-0.22204062
9	0xbdb094d8	-0.0862214
10	0x3d860b82	0.06545164
11	0xbe2b3eeb	-0.1672322
12	0xbe03c130	-0.12866664
13	0x3d988c5b	0.07448646
14	0xb9358beb	-0.00017313629
15	0xbde44578	-0.111460626
16	0x3e172db7	0.14763533
17	0x3e0d4614	0.13796264
18	0x3dbea2ba	0.093083814
19	0x3e17cbda	0.14823857
20	0xbd955efc	-0.072935075
21	0xbdf55c2a	-0.119804695
22	0xbd6379a0	-0.055535913
23	0x3d89b8d1	0.06724704
24	0xbd8b1a20	-0.06792092
25	0xbdd76098	-0.10516471
26	0x3e24d27f	0.16095923
27	0x3e07854c	0.13234442
28	0x3e22dca9	0.15904488
29	0xbca2aa81	-0.019856693

linear_relu_stack.8.weight f4 [50, 30]
0	0x3d597a05	0.053094883
1	0xbcca2e68	-0.024680331
2	0x3e689246	0.22712049
3	0x3d90b5bb	0.07065912
4	0x3d00d711	0.031455103
5	0xbd5ee558	-0.054417938
6	0xbd00bbc7	-0.03142908
7	0x3e3019db	0.17197363
8	0x3d3f5865	0.04671516
9	0xbdff4601	-0.12464524
10	0xbe35573b	-0.17709057
11	0xbd5e2f09	-0.054244075
12	0x3dace9a9	0.08443005
13	0xbd8a32f6	-0.06748001
14	0xbe61b786	-0.22042665
15	0xbdbba9f4	-0.09163275
16	0xbe142203	-0.144661
17	0x3dc4fb41	0.096182354
18	0x3e2171b2	0.15766028
19	0xbd984d07	-0.07436567
20	0xbde56d37	-0.11202472
21	0x3d9ba8df	0.07600569
22	0xbda9acb9	-0.08284897
23	0x3d379a00	0.0448246
24	0x3ce2d6f8	0.027690396
25	0xbd6e4274	-0.058168843
26	0x3e16bb04	0.14719778
27	0x3d97e657	0.07416981
28	0xbda532d8	-0.08066338
29	0xbde323b2	-0.11090793
30	0xbd21df5d	-0.039519656
31	0xbcfcf230	-0.030877203
32	0xbe1c67c9	-0.15273966
33	0xbe0dc660	-0.13845205
34	0xbe3c2db3	-0.18376808
35	0xbe11ae5e	-0.14226672
36	0xbce8212f	-0.028336136
37	0xbc6fca4a	-0.014635632
38	0xbe200504	-0.15626913
39	0x3de4cee0	0.11172271
40	0xbe1d1a3b	-0.15342037
41	0xbdecbeda	-0.115598395
42	0x3e00cbbc	0.12577718
43	0x3e213a5a	0.15744916
44	0xbe3a3668	-0.18184817
45	0xbca3c5da	-0.019991804
46	0x3dd65034	0.10464516
47	0xbd62d461	-0.05537832
48	0xbe33bd42	-0.17552665
49	0xbe4f9408	-0.20271313
50	0xbe146847	-0.14492904
51	0x3d59458e	0.05304485
52	0xbdd7742f	-0.10520207
53	0xbdb89b67	-0.09014016
54	0x3e88cc1e	0.2671823
55	0x3d9a44d8	0.07532662
56	0x3e6cefe0	0.2313838
57	0xbd642a07	-0.055704143
58	0x3e32cced	0.17460985
59	0x3d686531	0.05673713
60	0xbe19b0a6	-0.15008792
61	0x3deba31c	0.1150572
62	0xbdb4d8a9	-0.08830387
63	0x3d181dcc	0.03713779
64	0xbbffb142	-0.007803113
65	0xbd35abf8	-0.044353455
66	0x3dc42f77	0.09579366
67	0xbe246544	-0.16054255
68	0xbdf470c0	-0.11935568
69	0x3e08dc59	0.13365306
70	0xbe055119	-0.13019218
71	0x3e1bc314	0.15211135
72	0x3bf5b840	0.007498771
73	0x3e1d6832	0.15371779
74	0x3d8cb05a	0.06869574
75	0xbcd968b0	-0.026539177
76	0xbd97c3a8	-0.07410365
77	0x3db18096	0.08667104
78	0x3d20ce43	0.039259207
79	0xbd1597a3	-0.036521565
80	0xbdabc091	-0.083863385
81	0xbc763a70	-0.015028581
82	0x3e07bbeb	0.13255279
83	0xbe0ac1c9	-0.13550486
84	0xbdd5b63a	-0.104351476
85	0x3e225478	0.15852535
86	0x3d8bdedc	0.068296164
87	0x3d70a398	0.058749765
88	0x3d4d73a2	0.050159104
89	0x3e027c5d	0.12742753
90	0xbdf8b5f4	-0.1214408
91	0x3e136ad4	0.1439622
92	0xbdda2977	-0.1065244
93	0x3d37315e	0.044724815
94	0x3defd5e5	0.11710719
95	0xbe05dc01	-0.13072206
96	0xbd666ab6	-0.05625411
97	0x3cae2140	0.02125609
98	0x3ddeb5d6	0.10874526
99	0x3d914afe	0.07094382
100	0xbdcb4180	-0.099246025
101	0x3dd8be2a	0.10583146
102	0x3d4f8e74	0.050672963
103	0xbe366088	-0.17810261
104	0xbe1af715	-0.15133317
105	0xbded6898	-0.11592215
106	0x3bb7a1be	0.005603998
107	0xbd443997	-0.047906484
108	0xbe23f6c8	-0.16012108
109	0xbde689c3	-0.11256745
110	0x3e0820e8	0.13293803
111	0xbd23f6b7	-0.040030207
112	0x3e1f0650	0.15529752
113	0xbd0f494e	-0.03498202
114	0xbe168103	-0.14697652
115	0xbe160cb9	-0.14653291
116	0xbb3dd040	-0.0028963238
117	0xbe452664	-0.19252926
118	0x3d426243	0.04745699
119	0x3e1d991a	0.15390435
120	0x3e233536	0.15938267
121	0xbdfd195d	-0.12358353
122	0x3daa52d3	0.08316579
123	0xbde29b0b	-0.11064728
124	0x3dd2d610	0.102947354
125	0xbe18f0c1	-0.1493559
126	0x3d8b335d	0.06796906
127	0x3dd895e4	0.10575464
128	0xbe5b6318	-0.2142452
129	0x3e196419	0.1497959
130	0xbe1d8741	-0.15383627
131	0xbe343051	-0.17596556
132	0x3dda92fc	0.10672566
133	0x3d61eb2a	0.05515591
134	0x3dda45a2	0.10657813
135	0xbb90b1cb	-0.004415726
136	0x3ddc0d8a	0.1074477
137	0x3d36576f	0.044516977
138	0x3d0ed298	0.034868807
139	0x3e2e65b6	0.17030987
140	0x3c946ea8	0.018119171
141	0x3e43ac9f	0.19108818
142	0x3dccd285	0.10001091
143	0xbc6e7856	-0.0145550575
144	0xbe3f886e	-0.18704388
145	0xbe0bee26	-0.13665065
146	0xbe7a3d64	-0.24437481
147	0x3d616ba5	0.0550343
148	0x3b98c4a6	0.004662114
149	0x3e10edcd	0.14153214
150	0xbd0567fb	-0.032569867
151	0xbe03fb20	-0.12888765
152	0x3e5131a3	0.20429091
153	0x3deb4fdc	0.11489841
154	0xbe160b28	-0.14652693
155	0x3e30d114	0.17267257
156	0x3de0da9d	0.10979197
157	0x3d137eaf	0.036009487
158	0xbd903a15	-0.07042328
159	0xbde0ac44	-0.10970357
160	0xbde96e6b	-0.11398014
161	0xbe3ef1c8	-0.1864692
162	0x3dbd7664	0.09251097
163	0xbe4852bc	-0.1956281
164	0xbda4ea96	-0.08052556
165	0x3e0f8de5	0.14018972
166	0xbe05e502	-0.13075641
167	0xbd1d797f	-0.038445946
168	0x3c487594	0.012235064
169	0x3e279704	0.16366202
170	0x3e000288	0.12500966
171	0x3e360bd9	0.17777957
172	0x3d479b04	0.04873182
173	0x3e0e92c5	0.13923176
174	0xbd97bf11	-0.0740949
175	0xbe20f7f8	-0.15719593
176	0xbe01e074	-0.12683278
177	0x3e206497	0.15663372
178	0xbdd2c9bb	-0.10292383
179	0xbcfb3652	-0.03066555
180	0x3e653d2d	0.22386618
181	0x3d64f76c	0.055900022
182	0xbdbe9a0b	-0.09306725
183	0x3d320f2d	0.043471504
184	0x3e4ae09a	0.19812241
185	0x3e2ed6a0	0.1707406
186	0x3e2a5cf6	0.16637024
187	0x3d72808b	0.05920462
188	0x3d9623b4	0.073310286
189	0xbbb82999	-0.005620193
190	0xbdc64240	-0.09680605
191	0x3e48b8bb	0.19601719
192	0xbd88dfe2	-0.06683327
193	0xbdac5851	-0.084152825
194	0x3db974f0	0.09055507
195	0xbcb84f47	-0.02249874
196	0x3e3d3b07	0.18479548
197	0x3e2767da	0.1634821
198	0x3cfb3584	0.030665167
199	0x3e02556d	0.127279
200	0x3e377160	0.17914343
201	0x3cdaa8f7	0.026691897
202	0x3d27758f	0.040883597
203	0xbda889da	-0.08229418
204	0xbd249f9c	-0.040191278
205	0xbe0b6537	-0.13612829
206	0xbbee3937	-0.007270004
207	0xbdd7c166	-0.10534935
208	0x3d825573	0.063639544
209	0x3e5c385e	0.21505877
210	0xbce39450	-0.027780682
211	0x3d51fdac	0.05126731
212	0xbe197da9	-0.14989342
213	0x3e39a7bd	0.18130393
214	0x3da34056	0.079712555
215	0xbe2d8525	-0.16945322
216	0x3d81a9bc	0.063312024
217	0xbe49981d	-0.19686933
218	0x3e00bc54	0.12571841
219	0x3d4c2ae5	0.049845595
220	0xbd5281ea	-0.051393427
221	0x3d9c839a	0.076422885
222	0xbe1b11fc	-0.15143579
223	0x3e6120ec	0.21985215
224	0x3df3cf63	0.1190479
225	0xbd539d81	-0.05166388
226	0x3e16f958	0.14743555
227	0xbd19d75b	-0.037558895
228	0x3c64ddaf	0.013968869
229	0x3b01f3a4	0.001982906
230	0xbdbecef2	-0.093168154
231	0xbd18502e	-0.03718584
232	0xbd5a4639	-0.053289626
233	0x3e243b7e	0.1603832
234	0x3dddc042	0.10827686
235	0xbd8e02bb	-0.069341145
236	0x3e0433c2	0.12910369
237	0x3e3cde6f	0.18444227
238	0xbdbcfcb6	-0.09227888
239	0xbcb32cee	-0.02187201
240	0x3e127d8c	0.14305705
241	0xbc28dcc0	-0.010306537
242	0xbd24da88	-0.04024747
243	0xbe2c81e8	-0.1684643
244	0xbd8bbbc4	-0.06822923
245	0x3e16bf12	0.14721325
246	0x3e181ccc	0.14854735
247	0x3bcb0738	0.006195929
248	0x3d26a44e	0.040684037
249	0x3d2976d5	0.041373093
250	0x3db93980	0.090441704
251	0x3ddf7b3f	0.10912179
252	0x3dfe33ec	0.12412247
253	0x3d5145d8	0.051092
254	0xbc3ebc25	-0.011641537
255	0x3d389fa0	0.045074105

linear_relu_stack.8.bias f4 [50]
0	0x3e51e30a	0.20496765
1	0x3d5f064d	0.05444937
2	0xbe29a4db	-0.16566794
3	0x3ced6826	0.028980326
4	0x3dc5f9f7	0.09666818
5	0xbdaf42a8	-0.085576355
6	0x3dd38e74	0.10329905
7	0xbe4822a2	-0.19544461
8	0xbe28b6bd	-0.16475959
9	0xbd1b3b77	-0.037898507
10	0xbe1aca10	-0.15116143
11	0xbd25edbc	-0.040509924
12	0xbe1ae584	-0.15126616
13	0xbe82eff5	-0.25573698
14	0x3e2e853f	0.17043017
15	0xbdb372e4	-0.08762148
16	0xbcfd73a5	-0.030938933
17	0x3dd919a6	0.10600595
18	0xbd6f659c	-0.05844651
19	0xbe47027a	-0.19434538
20	0xbe09a8a2	-0.13443235
21	0xbc34877d	-0.011018631
22	0xbe06a236	-0.13147816
23	0x3eb4b642	0.35295302
24	0xbe36b54c	-0.17842597
25	0xbda5126a	-0.08060153
26	0xbd9b07b1	-0.075698264
27	0x3e833aa3	0.25630674
28	0x3e057516	0.13032946
29	0xbe47713b	-0.19476788
30	0xbdcc5a05	-0.09978107
31	0xbde85f47	-0.11346298
32	0xbe50b7e8	-0.20382655
33	0xbd6e34f0	-0.058155954
34	0x3e176adb	0.14786856
35	0x3e1d602f	0.15368722
36	0x3e9067d0	0.28204203
37	0x3dc9450b	0.09827622
38	0x3e88b1a9	0.26698044
39	0x3d40ad2e	0.047040157
40	0x3cdc89c5	0.026921162
41	0xbdc8f314	-0.098119885
42	0x3c91d13e	0.01779997
43	0xbe2a58c2	-0.16635421
44	0x3a981072	0.0011601581
45	0x3eaf0f21	0.3419123
46	0xbdab13bf	-0.08353376
47	0xbe08cac6	-0.13358602
48	0xbde0af91	-0.10970987
49	0x3ce42eeb	0.027854403

linear_relu_stack.10.weight f4 [70, 50]
0	0xbcdc3e26	-0.026885103
1	0x3dfc52c9	0.123204775
2	0xbd17f740	-0.03710103
3	0xbdc754bc	-0.09732959
4	0x3cc0a67e	0.02351689
5	0x3e0ca15f	0.13733433
6	0x3d3fbda9	0.046811733
7	0xbd5a8449	-0.053348813
8	0xbd8d12af	-0.06888329
9	0xbdbb8eaf	-0.09158074
10	0xbdc3bb1b	-0.09557172
11	0xbe112d6b	-0.14177482
12	0xbcbfa594	-0.023394383
13	0x3cc5f267	0.024163438
14	0x3ce7e9d9	0.02830975
15	0x3dea59ea	0.11442931
16	0x3d8e6878	0.069535196
17	0x3bcba946	0.0062152473
18	0x3e0bfa33	0.13669662
19	0xbd9ae503	-0.07563212
20	0xbc98cff0	-0.01865384
21	0x3db0482f	0.08607518
22	0xbde58800	-0.112075806
23	0xbd115899	-0.035484884
24	0xbdf9f864	-0.1220558
25	0xbcc2fec4	-0.023803122
26	0x3d0b0f8d	0.033950377
27	0xbe7c50cd	-0.24640198
28	0x3c574dc6	0.013141101
29	0xbd8d2962	-0.06892659
30	0xbd77ac60	-0.060467124
31	0x3cd9ab90	0.026571065
32	0x3d72032d	0.05908506
33	0xbe0a3db9	-0.13500108
34	0x3d33a3df	0.04385745
35	0x3d843002	0.06454469
36	0xbce1a128	-0.027542666
37	0xbea1ced5	-0.31603113
38	0x3e1fba0e	0.15598318
39	0x3cc6166f	0.024180619
40	0x3e02a9d1	0.12760092
41	0xbd8e195d	-0.069384314
42	0x3dae36a3	0.08506515
43	0x3a1fde6e	0.0006098513
44	0xbe09c118	-0.13452566
45	0x3e1fc452	0.15602234
46	0x3cef3808	0.029201522
47	0x3d77abf8	0.060466737
48	0x3d2d18d7	0.042260017
49	0x3d1e8154	0.038697556
50	0xbddf2acd	-0.108968355
51	0xbd054f35	-0.03254624
52	0xbdf09785	-0.1174765
53	0xbc5b14ad	-0.013371629
54	0x3e0b5dc5	0.13609989
55	0xbdb18a3c	-0.08668944
56	0x3dc7f9b9	0.09764428
57	0x3d979871	0.07402123
58	0xbcaf28c7	-0.021381749
59	0xbc6113ce	-0.013737632
60	0x3d21a333	0.03946228
61	0xbddb92f5	-0.10721389
62	0xbd977908	-0.07396132
63	0x3da39340	0.0798707
64	0xbdb090ce	-0.08621369
65	0xbdc3a5d6	-0.09553115
66	0xbc0d250e	-0.008614792
67	0x3d845e7d	0.06463335
68	0x3e0e0854	0.13870364
69	0x3dc0de12	0.094173566
70	0x3bc706ae	0.0060737943
71	0x3d8076eb	0.06272682
72	0x3d21c824	0.03949751
73	0xbd1330de	-0.035935275
74	0xbdc5ee10	-0.096645474
75	0x3d6d49fb	0.05793188
76	0xbc8baaff	-0.01704931
77	0x3d2eeedf	0.042708274
78	0xbdc74ff5	-0.097320475
79	0xbd059397	-0.032611456
80	0x3d800ac2	0.06252052
81	0xbddf9c91	-0.109185345
82	0x3cd8e8fc	0.026478283
83	0x3da1360a	0.07871635
84	0x3c5a8666	0.013337707
85	0xba37ab5e	-0.00070064317
86	0xbe27ef0b	-0.16399781
87	0x3cea8e69	0.02863236
88	0x3bdb1f08	0.006687049
89	0x3d4bfe5b	0.04980312
90	0xbdcd37c6	-0.100204036
91	0xbb67c0ec	-0.0035362793
92	0xba4b82d5	-0.0007763331
93	0x3d641b3a	0.055690028
94	0x3ca7adc2	0.020468596
95	0x3d9ce142	0.07660152
96	0x3d031ffc	0.032012925
97	0xbd4a0e14	-0.049329832
98	0x3de6cb95	0.11269299
99	0xbe156730	-0.14590144
100	0xbd31ec73	-0.043438386
101	0xbdb8422e	-0.08996998
102	0xbd820d6d	-0.06350217
103	0x3ddceb3e	0.107870564
104	0xbe06361d	-0.1310658
105	0xbdb1a648	-0.08674294
106	0xba46ce68	-0.00075838575
107	0x3dc27f5d	0.09496949
108	0xbd3c9eae	-0.046049766
109	0xbc348df0	-0.011020169
110	0x3bc1f2e7	0.005918849
111	0x3e0c6bb2	0.13712958
112	0x3dd57018	0.10421771
113	0x3e043001	0.12908937
114	0x3c9e25d8	0.019305155
115	0x3e110f8b	0.14166085
116	0xbdda4eb3	-0.10659542
117	0x3d8d6bc8	0.06905323
118	0xbd87e1c9	-0.06634862
119	0x3de2ad6d	0.110682346
120	0xbd6df4e8	-0.05809489
121	0x3dcac529	0.099008866
122	0x3b9947a0	0.004677728
123	0xbe03ee73	-0.1288393
124	0x3dd1252b	0.10212167
125	0x3de2b66e	0.11069952
126	0x3a603ecc	0.00085542793
127	0xbd2f22e1	-0.042757872
128	0xbe29acc6	-0.16569814
129	0xbdfdaa79	-0.12386031
130	0xbd656db4	-0.056012824
131	0x3d8096fa	0.062787965
132	0x3de3aef8	0.11117357
133	0xbd510864	-0.051033393
134	0xbdf16cca	-0.11788328
135	0xbd311a93	-0.043238234
136	0xbcdc6a33	-0.026906108
137	0x3ca6c7c7	0.020358933
138	0xbd9a9c23	-0.07549312
139	0x3dac9ea0	0.08428693
140	0x3d81dc49	0.06340844
141	0x3e25d7f4	0.16195661
142	0x3e18eaf6	0.1493338
143	0xbdca967c	-0.09891984
144	0xbdfe07ff	-0.12403869
145	0x3ddd6e7d	0.108120896
146	0xbdf9d2dc	-0.12198421
147	0xbdc98b3b	-0.09841009
148	0xbd6210a4	-0.05519165
149	0xbe0ec87b	-0.13943665
150	0xbdd1918c	-0.10232839
151	0xbd944516	-0.072397396
152	0xbb400140	-0.002929762
153	0xbd88167b	-0.06644913
154	0xbd3a6bca	-0.045512952
155	0x3e09b451	0.13447692
156	0xbc041d50	-0.008063629
157	0x3dec40b6	0.1153578
158	0xbd5901be	-0.052980177
159	0x3d2f8030	0.04284686
160	0x3de0c9da	0.10976
161	0xbdfc7244	-0.12326482
162	0xbd8d03d1	-0.068854935
163	0xbe0adb0f	-0.13560127
164	0x3d985556	0.074381515
165	0x3d1e1798	0.03859672
166	0xbe03b635	-0.12862475
167	0xbde5500d	-0.11196909
168	0x3d912336	0.07086794
169	0xbca5c954	-0.020237602
170	0xbdbc8678	-0.092053354
171	0xbcce1fa4	-0.025161572
172	0xbd900f4c	-0.07034168
173	0x3e0e9169	0.13922657
174	0x3dfd1c66	0.12358932
175	0xbddf15cd	-0.1089283
176	0x3dad3368	0.084570706
177	0x3d913eb8	0.07092041
178	0xbcfe0914	-0.031010188
179	0x3d95c4b0	0.07312906
180	0x3d33e5ac	0.043920204
181	0xbdb7fe1c	-0.089840144
182	0x3d53ba04	0.05169107
183	0x3d6d2b84	0.057902828
184	0x3d04dfbc	0.032439932
185	0xbe0fe8c7	-0.14053641
186	0xbd2e48ac	-0.042549774
187	0x3d63bc3c	0.055599436
188	0xbd86b5b2	-0.065776244
189	0x3db454c6	0.08805232
190	0xbd85bb56	-0.06529872
191	0xbdca9179	-0.09891028
192	0xbe0a6180	-0.13513756
193	0xbce21530	-0.027597994
194	0x3deef60e	0.11668025
195	0xbddb82aa	-0.107182816
196	0x3c1000b0	0.008789226
197	0xbdf78fc6	-0.120879695
198	0xbcf90b30	-0.030400842
199	0xbd83e747	-0.06440597
200	0xbe16cf1b	-0.14727442
201	0x3db4c07e	0.088257775
202	0xbc8e9187	-0.017403377
203	0x3df82cfe	0.121179566
204	0xbdef1d5d	-0.116755225
205	0x3d8d5106	0.069002196
206	0xbde2e603	-0.110790275
207	0xbd8697aa	-0.065718964
208	0x3da016ec	0.07816872
209	0xbde9e5a1	-0.11420751
210	0xbd937f4d	-0.07202015
211	0xbd401181	-0.046891693
212	0xbb38eac0	-0.0028216094
213	0xbdee35dd	-0.11631367
214	0xbc75ae99	-0.014995241
215	0xbcfbab54	-0.030721344
216	0xbd813cdb	-0.063104354
217	0x3d0f9c73	0.03506131
218	0xbe07cf6d	-0.1326272
219	0x3dc12700	0.09431267
220	0xbe06acc3	-0.13151841
221	0xbe0f7ed1	-0.1401322
222	0xbe0b0457	-0.13575874
223	0x3c95ca40	0.018284917
224	0xbd7b8c6c	-0.061413214
225	0xbd5fe782	-0.054664142
226	0x3cf7f7de	0.03026956
227	0x3d893fc2	0.06701614
228	0x3da19c54	0.07891145
229	0xbcc1cdaf	-0.023657648
230	0xbda039dc	-0.07823536
231	0x3e103d27	0.14085828
232	0x3d3690c4	0.044571653
233	0x3e040f33	0.12896423
234	0x3d37d410	0.044879973
235	0xbaa2478e	-0.0012380944
236	0x3c9f72ec	0.019463979
237	0xbdf2ad67	-0.1184948
238	0xbe0db155	-0.13837178
239	0x3db3417f	0.08752727
240	0xbd50df6b	-0.050994318
241	0xbd8819a0	-0.066455126
242	0xbdcc32a6	-0.09970598
243	0x3dea076e	0.11427198
244	0xbe0063ce	-0.12538072
245	0xbde418cc	-0.11137542
246	0xbcc15f7c	-0.0236051
247	0x3d268da3	0.04066242
248	0x3e011808	0.12606823
249	0xbd1d7214	-0.03843887
250	0x3e1958fb	0.1497535
251	0x3e05f261	0.13080741
252	0xbd752739	-0.05985186
253	0xbc27b576	-0.010236135
254	0xbe15f5ee	-0.14644596
255	0x3e10d941	0.14145376

linear_relu_stack.10.bias f4 [70]
0	0x3c037b2d	0.008024973
1	0xbd9693ef	-0.07352435
2	0xbd9ffc52	-0.07811798
3	0x3ae66900	0.00175789
4	0xbd4ba6c7	-0.0497196
5	0x3e6618c7	0.2247039
6	0xbe7370bd	-0.23773475
7	0xbdac2733	-0.08405914
8	0x3d30bc20	0.04314816
9	0x3d616ad9	0.05503354
10	0xbd8f2d3c	-0.0699105
11	0xbe0ff08a	-0.14056602
12	0xbda3f7d0	-0.08006251
13	0xbdb56d6d	-0.08858762
14	0x3cf8bff9	0.030364977
15	0x3e6432b0	0.22284961
16	0xbd3f8236	-0.04675504
17	0xbbb6b936	-0.005576278
18	0xbe2d1dfd	-0.16905971
19	0x3d231b90	0.039821208
20	0x3d6e69a2	0.058206208
21	0xbe0ccf66	-0.13750991
22	0xbd4cbf75	-0.049987275
23	0x3d7abf71	0.06121773
24	0xbd3fc03e	-0.046814196
25	0xbd3e82ab	-0.046511333
26	0x3eba88fa	0.3643263
27	0xbdb232ed	-0.087011196
28	0x3e0723b3	0.13197212
29	0xbe925478	-0.2858007
30	0x3c08a13d	0.008339223
31	0x3e56614e	0.20935556
32	0x3cac1af0	0.021008939
33	0xbda16617	-0.078808
34	0xbd77c371	-0.06048912
35	0x3eaef363	0.34170064
36	0x3e9f0c4b	0.31064066
37	0x3e14f5b7	0.14546858
38	0xbe049893	-0.12948827
39	0x3d4f11fa	0.050554253
40	0x3da90937	0.08253711
41	0xbdea3feb	-0.11437973
42	0xbdcc98ca	-0.0999008
43	0xbda5c2cc	-0.08093795
44	0x3de01c4b	0.109428965
45	0x3e80ac2e	0.25131363
46	0x3dd005ac	0.10157332
47	0xbdc7c122	-0.09753634
48	0xbdeb9567	-0.115031056
49	0xbd64ae54	-0.055830315
50	0xbda9c4af	-0.082894675
51	0x3c023327	0.007946766
52	0xbdf275f5	-0.11838905
53	0x3c3d7b4e	0.011565043
54	0xbd1388ce	-0.03601914
55	0xbe48c7a3	-0.19607405
56	0x3e9acda9	0.3023503
57	0x3b988351	0.004654326
58	0x3d1f14b2	0.038838096
59	0x3d6f26a1	0.05838645
60	0xbc7d889c	-0.015474465
61	0x3e8fc4fa	0.2807997
62	0x3e4d33d6	0.20039305
63	0x3ccb0083	0.024780517
64	0xbda395b7	-0.0798754
65	0xbd0a0360	-0.033694625
66	0x3e572efa	0.21014014
67	0xbe0af249	-0.13568987
68	0xbe4861e8	-0.19568598
69	0xbc6b56b6	-0.014363935
