BaselineModel/SGD_model_weights.npy (npy, 24128 bytes, 1 tensors)

array f8 [3000, 1]
00000000: 5efb b7ab 80ab 02c0 0a3d 6a58 0352 e9bf
00000010: d009 6c35 e4ae d23f ca58 9976 8998 f1bf
00000020: 4921 dbeb 049d c3bf c09e 5360 b1bc e63f
00000030: ca25 1870 b049 dbbf 0b7f 0d7d ebdb fcbf
00000040: 63d9 560b 1e8e f3bf 000f 7547 3c23 f2bf
00000050: bc5c 4956 1212 0340 ad6e d2d5 e8a2 0cc0
00000060: 9c4f 492b e46e 12c0 5735 bda4 6d06 fd3f
00000070: 5e3e 8901 9f73 e4bf 0805 8be0 dead 573f
00000080: 0dc7 daf1 be94 bfbf 1549 e7b2 76c6 0740
00000090: a3cf 5487 1971 0840 7725 1165 09b9 f5bf
000000a0: babe bfdb e8f2 f9bf 21aa 3a67 3b4e fc3f
000000b0: d622 e3ef d16a 0640 f63b 4dd4 4cc4 e23f
000000c0: 7e99 3c5c 227f bfbf 8016 7f53 a25b ec3f
000000d0: 6149 e0c3 5575 0b40 00a1 8e64 f1e0 f4bf
000000e0: 16b6 f1d9 8f76 0140 7c10 e486 75d4 f0bf
000000f0: 63f8 5dc0 30f9 fe3f 500c bd55 5a54 00c0
00000100: 8b40 b518 23a4 ffbf 9aa8 a920 e9c7 e4bf
00000110: 548b 878b 7b74 16c0 4598 cc43 cd34 fabf
00000120: f061 9dc5 65ca c23f da3f cb16 919b d3bf
00000130: 277e 3722 ef65 f13f 4606 493c 5c64 0b40
00000140: d0b0 c784 406a ebbf 34bd a6ce 8d55 0b40
00000150: 0bad d9ea 2d2f febf 6e3b 4aa2 71ed e1bf
00000160: 3ed7 58a8 c8a6 d13f f48f e1d6 2ab4 f13f
00000170: 6cc4 0962 43cd db3f 8477 acde b9d2 eb3f
00000180: c794 0588 c4e2 e5bf 55d0 89f0 18d1 ecbf
00000190: a1ec edfe 634c 02c0 5dac e4c2 a08e 00c0
000001a0: 6326 1159 2681 f0bf cb5a 1aee 0e79 11c0
000001b0: 9b9f 981b ee26 e83f 339b 19b3 a58b f03f
000001c0: 437f f046 5225 e83f a11e df15 4ee6 f63f
000001d0: fdb5 ecc9 8360 e93f 49a5 c0f3 14d1 0340
000001e0: 0a8a e9ff a106 f6bf 6da1 1507 aca8 e7bf
000001f0: 7f1e 0656 dd61 b93f 3189 9576 becb f1bf
00000200: 40af 7409 ccd2 cdbf 9f91 c8ce c751 c2bf
00000210: c7d4 6835 4794 0a40 d7a1 bc6f a834 02c0
00000220: 7657 b147 66d9 fa3f 5432 50e7 c04c 0040
00000230: 9013 17db b6f1 0d40 c5cc 5dd1 f612 c43f
00000240: 8742 3197 8605 fbbf e1f4 ebe4 f7eb 0ac0
00000250: d10a 59a3 866d f3bf 9b38 d941 2ad7 f1bf
00000260: 3301 d701 eb6f f2bf 8b23 0c44 6a32 d3bf
00000270: c7a8 70b8 72f5 e13f 731f 927a 6c95 04c0
00000280: 57c1 dba3 b35b c73f 08f3 5bcf 08ed ff3f
00000290: ae18 26b6 6658 f63f bfc0 9193 0224 f3bf
000002a0: 3db6 949e 70a2 f33f 0ee1 8fbf c799 f53f
000002b0: b1c1 eca0 0cc4 e7bf 7657 7cea 7792 a1bf
000002c0: 9d15 7fad 1cb2 0a40 e612 43f3 d328 e73f
000002d0: 0c43 4468 318e fcbf 9dfc d4dd 22b9 f13f
000002e0: 3c03 5e14 63f2 f8bf c952 d0a4 e43c 08c0
000002f0: a5f9 1dc2 92a4 b43f 6f68 b0a3 fe33 f13f
00000300: 3225 87ea 7d30 f7bf fea3 d6ee 594e 0240
00000310: 5fd6 6dde 3b1e 0c40 38f5 2bc2 5ecf 0f40
00000320: 958d 6759 3880 ff3f ca1b 59de 1b64 d53f
00000330: aa85 3faa c1c1 d23f 8e31 e0e1 628f 0540
00000340: 9461 e0b7 b428 f7bf 0cca ed4e 279b ec3f
00000350: aee7 69e3 e440 0440 d542 e692 18a8 d8bf
00000360: 26b8 3f97 5028 d03f bbac 1cb5 6372 dabf
00000370: a7d9 b65f 18e2 eebf b664 6860 74f2 09c0
00000380: ddd6 b454 ed68 c0bf 88a7 e947 5f59 fdbf
00000390: b7bb dc9c cf2c e93f f615 a34f 76fc 0c40
000003a0: 1573 0e68 b46e 0240 a576 78e6 31fc 1340
000003b0: 2de6 b6b6 2bce d8bf 74bf 509c 9d0d bc3f
000003c0: 030f 34c2 d462 dfbf d21f a4c0 185d f33f
000003d0: 806b cfbb 7212 c0bf 93dc 1bbf d785 f83f
000003e0: 38e1 94af b9b1 04c0 bc70 49b7 b514 c5bf
000003f0: ff7e dfad 6874 0140 44c8 fbc1 c116 15c0
00000400: 9234 9dc4 b494 d6bf 6701 54b9 3f01 e43f
00000410: f5cf 07ad 60d1 00c0 320d 42e0 e14d fcbf
00000420: 2e03 0113 5d06 0bc0 b4eb e914 1f97 f2bf
00000430: 2fd5 7c36 adcb aebf 56ed 79cc aaac f6bf
00000440: 9b7e 43f6 7b3c fd3f a430 88b2 1cfe d73f
00000450: 92ce 6b34 1490 ffbf f845 c179 04e7 f2bf
00000460: 408f 0105 93bc 0840 f0ce 071f d004 11c0
00000470: c698 f316 d18c 0940 6d2b f1a1 fcad 0a40
00000480: 1e3f 16df 4ded e63f 8c61 4eb3 2c48 0140
00000490: fa20 8f45 aa27 f1bf 7975 0431 99a7 f5bf
000004a0: 94ba 0e48 19a6 03c0 254e ade9 ef2f dfbf
000004b0: 5872 e2de 7383 b03f c9e5 c410 89f4 ed3f
000004c0: 770d f03d 1100 e13f 01b0 6f46 4ba9 9dbf
000004d0: b202 af85 122f ef3f 3bd5 93c4 4b7a 0340
000004e0: 7a06 f520 2116 f43f a132 e4b1 3430 0240
000004f0: 2d7b 83c1 3a93 ff3f 3dc9 bf20 dffe 09c0
00000500: fc19 1ba2 43e0 8dbf c6fd 3df2 31a0 f5bf
00000510: b16d be2d e322 0740 ef29 1299 9e68 d3bf
00000520: c7b6 3742 cd47 eebf 8d60 c411 6df0 eebf
00000530: 5015 ece5 fcd8 ee3f 4dcf 4f53 9460 e7bf
00000540: 6c94 c6d3 493d e9bf 5598 a771 bc15 f2bf
00000550: b35e 476d e79e df3f d11b 19a4 40e3 00c0
00000560: d8c8 6f03 bceb cfbf 9a6f 8762 7327 fabf
00000570: dd17 0e75 30c4 f5bf 2bd0 b60e 0adf f63f
00000580: 6fb6 cb82 4f5a e13f 5cbb 8b94 d39b fabf
00000590: 46d0 ca9c 0636 e2bf cd89 4450 02f8 0640
000005a0: 7be9 d18f c7a9 0b40 0fd5 c49c 708e f53f
000005b0: c6e9 9735 1e25 f7bf 202c a40a 67a2 fe3f
000005c0: f462 7161 27da bcbf 2d53 3755 01e3 d2bf
000005d0: 7887 499f f57c 0840 b74a 2977 9633 11c0
000005e0: 5028 2982 4560 0440 529b 83ea a271 efbf
000005f0: d08d 2047 fae3 fcbf a0fb 85da 3d91 0040
00000600: 39d8 2fc7 2617 db3f 9ffe d556 ce05 0740
00000610: 0111 03f5 3113 f1bf 7e97 96c7 55b3 0740
00000620: 5932 1032 000a 05c0 9062 e96e cd16 f63f
00000630: b149 96ec d7ad f6bf 2001 2787 de2f f5bf
00000640: 5d14 0afd 72de f43f 926c 6372 d044 dcbf
00000650: fe06 3e43 c5f7 f43f 93be bbd2 c592 d8bf
00000660: c01e 4807 c90f 0440 db71 5a8f 37c6 fe3f
00000670: f35f 6b02 a7e3 0140 0d18 abfa 32b5 0740
00000680: 5f4e b17e 9554 f0bf 5c4d 9895 c626 b03f
00000690: 3ae9 83ee 8312 ee3f b356 f4a9 18d3 0240
000006a0: 1e17 c59e ca03 febf 5702 5f74 6441 0c40
000006b0: 51b5 1fb3 9139 f83f 013e 98b3 7b93 fcbf
000006c0: c851 43d3 8878 0440 2e7a 4f0c ac53 0240
000006d0: c2bf 2d7c c216 ed3f ee5d 3c82 d34f 10c0
000006e0: ae8d a9c4 f760 fe3f f6ea 1f24 e850 05c0
000006f0: 7319 1d7c 64b3 e93f 9894 3947 c652 16c0
00000700: b5ae ee12 5a85 e13f 8fcd 656e e921 ecbf
00000710: 60e5 66cb d137 08c0 cccf 793c 90f5 febf
00000720: 44c3 f87a b4b2 fe3f c9a1 f8f2 c53a db3f
00000730: d406 2ba8 0db5 eebf 043b 70f3 67bd ff3f
00000740: 6829 9f4e d915 e7bf eb52 f219 7249 febf
00000750: 7b9b b66f 0428 08c0 f04b cd5c 5cff df3f
00000760: c537 c39e 26e3 d0bf 95fc 1fe9 638b fcbf
00000770: ccd0 8359 7f12 01c0 8c4b b563 4468 0a40
00000780: fa63 fbdb 05be f2bf 2431 baae 1d84 91bf
00000790: a720 abba 5be3 fcbf cfc7 cd90 600a f0bf
000007a0: c4e8 a191 7741 01c0 6a91 5bf0 72ba 0ac0
000007b0: bb64 fd6e e6e5 e33f a4b6 ffb8 e5f8 02c0
000007c0: 4fdd ff0e ade0 e93f ffcc faea 305c f1bf
000007d0: 5ab3 0576 5add 00c0 4e32 3d56 c97c e7bf
000007e0: 5f23 d2ac a935 0840 e0d7 069c 13c8 f93f
000007f0: 176b 7274 4d09 f0bf 1b0e f31b 4f0b fe3f
-2.33374151377886 -0.7912613608222341 0.29192452637667277 -1.099740470197093 -0.1532293464317809 0.7105337983493527 -0.42637263247214874 -1.8036913761970392
-1.2221966212215072 -1.1336024085330223 2.3838240376604443 -3.5795456604808664 -4.608292270993754 1.8140694079514412 -0.6391139059068782 0.0014452625784289758
-0.12336343197491946 2.9719060875733114 3.055224473262528 -1.35767497519768 -1.621804102320239 1.7690996200932505 2.8021582356635504 0.586462416316748
-0.12303366424439408 0.8861858015813624 3.4322924902746057 -1.3049177101148075 2.1828915621652056 -1.0518698949026932 1.935837508615372 -2.0411879251783276
-1.9775725331456069 -0.6494031560844349 -5.613752536914792 -1.6378910683065595 0.14680168294104545 -0.30637004114123345 1.0873862587540175 3.4240040502343474
-0.8567202180252256 3.4167743820795753 -1.88651839960477 -0.5602348489500011 0.27580467643871376 1.1064861673157766 0.43440327238119525 0.8694733952613523
-0.6839316040683564 -0.90052458744186 -2.2873001018866295 -2.0696425653491546 -1.0315307120494246 -4.368221016272126 0.7547522105205532 1.0340935703367904
0.7545558343444799 1.431226811824594 0.793031591781698 2.4770907443204675 -1.3766193386624104 -0.7393398416871101 0.09914954519455853 -1.1122421867554062
-0.23299551450451794 -0.14312074276780337 3.3224014446846897 -2.275711892074678 1.6780760574815452 2.037477309355646 3.7430245510499347 0.15682873938530953
-1.688849058719059 -3.3652189144619205 -1.2142397290014524 -1.1150305340011417 -1.1523237296933757 -0.2999520935559807 0.5612119295449468 -2.572960813125911
0.18248601437472686 1.995369729992662 1.3965823283374834 -1.1962915195872907 1.2271581835333472 1.3500440104381286 -0.7426818030417534 -0.03432059037565598
3.3369687609108056 0.7237338782511784 -1.7847150872150364 1.1076992669402792 -1.559176520881194 -3.0297329784465075 0.08063618888079434 1.0751940149407593
-1.4493388329741035 2.288257471013366 3.514762628294917 3.976254956213463 1.9688037388194506 0.3342351600044223 0.29307595849794643 2.6950128218215417
-1.4474379713702534 0.893939642103136 2.531686569852318 -0.3852597651066792 0.25246062059784646 -0.4132317799255351 -0.9650995129984964 -3.2433860332353914
-0.12820212017111646 -1.834319382580789 0.7867200912204372 3.62327253548096 2.3040550355348253 4.996284104444986 -0.3875836643524931 0.1095827585820624
-0.49040717091723723 1.210228683952654 -0.12556299372121416 1.5326764550389143 -2.586779948931646 -0.16469451379351152 2.1818402847128477 -5.272223502152034
-0.35282630158037265 0.6251524562540397 -2.102235175896562 -1.7690142402723947 -3.3781072125133482 -1.161894876188609 -0.06014767923481156 -1.4171550738672827
1.8272666568445064 0.37488477167858947 -1.9726755187702207 -1.1814007526448886 3.092077292547316 -4.254700169421753 3.19375818186663 3.334954514667905
0.7164677960554149 2.160241509274959 -1.072183868136618 -1.35341757914952 -2.4561029080862884 -0.487300852012796 0.0645058077956916 0.9361005141756148
0.5312582215996561 -0.02896611802491123 0.9744961367615217 2.4347148282637625 1.2554026877773183 2.273538007523101 1.9734447058796818 -3.249449020245406
-0.014587906250551612 -1.3516101324638483 2.8920348714579736 -0.3032604689439315 -0.946264867144884 -0.9668488833440435 0.9639877787273381 -0.7305394770796539
-0.7887314926380333 -1.130306667293117 0.49407373115307535 -2.110963136688476 -0.2493815438061293 -1.6346315239706883 -1.3603977749312357 1.4294529509325098
0.5422742418865719 -1.6630435755320923 -0.5690949499462554 2.87109816273844 3.4579001651701993 1.3472753642830104 -1.4465620130055057 1.9146490493465151
-0.11270376328446813 -0.2951052982510188 3.0610153621973346 -4.300378667731528 2.5470075768289817 -0.9826216297486587 -1.8056586054234351 2.0709187576425876
0.4232880540070059 2.8778349670463537 -1.0671863146572493 2.962565955432125 -2.629883185500415 1.380567010162995 -1.417442249458514 -1.3241868285550211
1.3043088802671925 -0.4417000882219294 1.3104908587123982 -0.38395829753333394 2.507707650078231 1.9233928298700593 2.236158388997859 2.963476141306279
-1.020650381939866 0.06309167053432446 0.9397601755620493 2.3530743863764996 -1.8759256555508226 3.5319298831457604 1.5140549656892583 -1.786006642858297
2.5588547234458225 2.2908554994349037 0.9090282845845581 -4.077955279287819 1.898673790180378 -2.6645052740326447 0.8031485008330449 -5.5808344963926615
0.5475283021709944 -0.8791396290020418 -3.0272556200767866 -1.934952007516574 1.918629150732344 0.4254622338071639 -0.959601238683002 1.9837417134583015
-0.7214170966702058 -1.8929310811556046 -3.0195397117235507 0.499960985781569 -0.26386418823392105 -1.7840308290904308 -2.1340319627143796 3.3009116925908923
-1.1713923066183711 -0.01710554484320527 -1.805507401632022 -1.0025334984206784 -2.1569663407836703 -3.341039541048464 0.6218139808435333 -2.3715319111859845
0.8086762707670604 -1.0850075892347488 -2.1080826969613726 -0.7339827236515448 3.0262025357846336 1.6113468260568808 -1.0022711323460436 1.8777609912657514
