BaselineModel/SGD_model_weights.npy (npy, 944 bytes, 1 tensors)

array f8 [34, 3]
-0.1586439408084775 -0.14100687560326153 -1.9693004352604715 1.3194732033848868 -0.04122411034287035 -1.934188807319822 -1.0504264686839098 -0.6465057956488902
-1.882064676832372 -0.3406395042099633 -0.08150680088096253 -1.848038570686999 -0.9287942025886097 0.4001720882888934 -1.8609579514160326 -0.7960482503634972
-0.21826496681382887 -1.905896051735843 -0.5813463971647436 0.027522936369366837 -2.0544081019409277 0.1825397232615802 0.323082656924755 -2.0183500440237094
0.24743108992173687 1.0215312192754247 -2.0167999115896835 0.2664853169014294 -0.1537246916351941 -2.0081535159528454 0.06881793372632611 -0.8913373505754003
-2.014756764770357 -0.5654478550229479 0.7847282705938882 -1.8272953304366397 0.1923952273025457 -0.024268815593373273 -1.7808582479458286 -1.1400203823810569
0.2866869803405381 -1.8961292517890247 -0.02657055436282839 -1.5493325182933324 -1.860158883598932 -0.03713250998575888 0.1128142149326275 -1.8459386978970038
0.3566262373517642 -0.45360265492203594 -1.8253675090113746 0.3399227330596318 -0.19109131673114202 -1.8699086149453623 0.13101674981516812 -0.5423888656682317
-1.9935396187568004 0.987691882468979 -0.5576448836405907 -1.9702704152219348 0.6003377241818847 -0.7832899390923872 -2.059940558805114 -1.8383932362437605
-0.8672213512047773 -2.0136830857373647 -0.37466605971654604 0.027695077433950607 -1.9486425360074047 -0.3761680769813349 -0.48630474111634425 -1.9668560762418434
0.22710175940433872 -0.7466776524466273 -2.038059077846955 -0.391418378048331 -0.8475607925845562 -1.9828793329122876 -0.07971772055261134 -0.21696567290493615
-1.7410362434462783 1.3815241050424545 0.7361254695724805 -1.7240120090842161 -0.3657705356860582 0.3497312803033111 -1.730540913179932 0.2428961128234875
0.4679312994944224 -1.8058934426340651 -0.3418461022374209 -0.08716986355506258 -1.7078384925674714 1.0935106350292096 0.23191397029644317 -1.7506950654604536
-0.8353031948778827 -0.8385499445788643 -2.115041308995653 -0.04472176127955028 -0.811096977996531 -2.090177720439525
00000000: 7290 bdd4 714e c4bf 3413 9d67 830c c2bf
00000010: 9f13 572c 4182 ffbf 7bc8 07ef 8f1c f53f
00000020: e469 759b 531b a5bf 66a5 7bf6 6ff2 febf
00000030: 429a 1dfc 8bce f0bf f090 1fec 2cb0 e4bf
00000040: c43a bfd9 ef1c febf 35ad 93a2 09cd d5bf
00000050: 0171 2f34 a1dd b4bf 518e 6de4 9091 fdbf
00000060: a7a3 9a9e aeb8 edbf b642 fe63 6b9c d93f
00000070: 1e02 49d8 7bc6 fdbf fb2c 2b2e 3a79 e9bf
00000080: 4bf9 293f 1bf0 cbbf da7e bcdb 8c7e febf
00000090: 3f0a 6fc2 639a e2bf 97a1 62fe f82e 9c3f
000000a0: 2dca d383 6d6f 00c0 708f d02e 765d c73f
000000b0: 1262 59e1 62ad d43f 29b2 37b5 9425 00c0
000000c0: 8f1e 9d6b d2ab cf3f 6318 aa1e 3158 f03f
000000d0: bad3 f6fd 6722 00c0 682c 3d6e 180e d13f
000000e0: 8496 942d 40ad c3bf 49eb 62ca b210 00c0
000000f0: 1c9d bb56 0d9e b13f 9496 4de8 d585 ecbf
00000100: e7aa 70cb 381e 00c0 5557 9d19 2618 e2bf
00000110: 0151 4e76 7e1c e93f fabd 4507 9a3c fdbf
00000120: b6e0 9524 68a0 c83f ca0f 25a5 ecd9 98bf
00000130: bcd3 db37 657e fcbf d299 3103 863d f2bf
00000140: 501a 3059 1459 d23f d5c3 56a0 8b56 febf
00000150: 5c89 19b8 4f35 9bbf dc2f 0be5 10ca f8bf
00000160: 94bd 26f6 35c3 fdbf 5db3 0348 0803 a3bf
00000170: 44d8 a873 64e1 bc3f 1d37 1e04 f788 fdbf
00000180: 2d91 94da f6d2 d63f f335 116e d307 ddbf
00000190: 4d28 a68f b434 fdbf 991d 6a47 4bc1 d53f
000001a0: 6575 f425 ae75 c8bf 0e2f bb4b 25eb fdbf
000001b0: 2599 d727 28c5 c03f 954e f8e4 3f5b e1bf
000001c0: c773 9dcc 89e5 ffbf 7b53 b701 2c9b ef3f
000001d0: f893 4015 3ad8 e1bf 0a79 5a45 3a86 ffbf
000001e0: 0752 7d75 f735 e33f 1b01 f60f b610 e9bf
000001f0: e92c 9e1d c27a 00c0 40ac ad06 0f6a fdbf
00000200: 8a28 bafd 46c0 ebbf b500 aee0 051c 00c0
00000210: 03d7 595a 87fa d7bf 3f24 5b2f 195c 9c3f
00000220: def0 bbcb a32d ffbf 60c7 1b45 2313 d8bf
00000230: 2601 bfeb 9d1f dfbf 925c b613 3e78 ffbf
00000240: 9fba c0a2 ab11 cd3f b731 3d88 c8e4 e7bf
00000250: 4659 f5ea f14d 00c0 2e57 31ab ff0c d9bf
00000260: 63b8 b0cf 371f ebbf 745c ecad dfb9 ffbf
00000270: dc64 af6a 6168 b4bf 5b9c bdfa 87c5 cbbf
00000280: 130a ecd1 48db fbbf 2cb0 1c05 b91a f63f
00000290: 5520 3200 578e e73f f0d8 ce9d 8d95 fbbf
000002a0: 5a2b 27d2 c868 d7bf 999e d24e ff61 d63f
000002b0: ecf6 27ab 4bb0 fbbf 0282 7346 3817 cf3f
000002c0: e39c 061f 96f2 dd3f 5ec9 c285 f0e4 fcbf
000002d0: a5fc 5779 cee0 d5bf 4d70 2aa1 c350 b6bf
000002e0: eed5 8674 4e53 fbbf 5775 f401 057f f13f
000002f0: 8e51 f462 5baf cd3f 59bd 36d4 d802 fcbf
00000300: 93d5 07c4 cdba eabf 37ec 80b1 66d5 eabf
00000310: 569a 1ec7 9aeb 00c0 ddf9 3a4c c5e5 a6bf
00000320: 2125 4ca6 81f4 e9bf bbec c018 afb8 00c0
